2019_test_data/dual_assembly/Average_TD3_Peg-in-hole-dual_assembly_seed_3/_actor.pth (torch_old, 510312 bytes, 6 tensors)

l1.weight f4 [400, 12]
000000 9d be 9d be 46 e6 08 bf 07 7c 46 bd 7e d7 ea 3e
       -0.3080949 -0.5347637 -0.048458125 0.45867532
000010 d5 46 be be e2 60 bd be 3a 93 b3 bd 47 24 2f 3e
       -0.37163416 -0.36987978 -0.087683156 0.17103682
000020 1a ce 06 bd 51 b7 22 3f d2 d3 29 bd 40 4b b8 3e
       -0.032911398 0.6356097 -0.041461773 0.3599491
000030 d5 c0 51 bf 3c 32 01 bd 7e 16 1e 3d cf 6c 79 bc
       -0.81934863 -0.031542048 0.03859567 -0.015223696
000040 fc 82 72 be f6 38 95 3e ca 88 77 3e 9e 66 87 3e
       -0.23682779 0.2914502 0.24173275 0.26445478
000050 a0 06 58 bc 43 46 a7 be 04 15 8d 3e 4c 77 eb 3d
       -0.013185173 -0.32670793 0.27555096 0.114973634
000060 56 8a 05 bf 11 6c e2 be 33 6d f2 bc bb 43 16 3f
       -0.5216421 -0.44223073 -0.029593086 0.586971
000070 59 d5 98 be 8e fc 3d bc a5 ed ae be 6a b7 ea 3e
       -0.2985027 -0.011595858 -0.34165683 0.4584306
000080 43 9e 08 bd 7f bb 97 be e2 18 82 bd 6c b6 fc 3d
       -0.033354055 -0.29635236 -0.06352402 0.12339482
000090 71 ad 4c bf 61 e9 38 bf 11 be 56 3d b1 cf 5e 3e
       -0.7995215 -0.7223111 0.052427355 0.21758915
0000a0 0a d2 bf 3e 5b 9d 29 be 3a d9 ce be d2 78 a9 be
       0.37464935 -0.16563933 -0.40400106 -0.3309999
0000b0 59 21 07 3d b4 92 f2 3b 2d 4b cd 3d 39 d1 05 be
       0.032990787 0.0074027423 0.10024104 -0.13068093
0000c0 90 30 25 bd 84 a8 88 3e 5a 0e 1a 3e d0 b8 ee bd
       -0.040329516 0.26691067 0.15044537 -0.11656344
0000d0 48 c0 27 bd 9a 9b 82 3e 0c e8 3d 3e 80 68 93 3d
       -0.040954858 0.2550934 0.1854555 0.07197666
0000e0 54 13 d4 bd f8 f6 75 3e 74 4a fd 3d 82 a7 03 be
       -0.10355249 0.24019992 0.123677164 -0.12856868
0000f0 a4 b4 33 3d 96 79 39 3f 22 54 8c 3d b2 40 e1 be
       0.043873444 0.7245115 0.068519846 -0.4399467
000100 67 fa a6 bd 36 d7 dc be b6 36 a6 bb 52 48 05 bf
       -0.08153229 -0.43132943 -0.00507244 -0.5206348
000110 e4 94 cb 3d ed 44 94 3e 5c 2c f3 bc 40 37 b8 3e
       0.09940508 0.28958836 -0.029684238 0.35979652
000120 74 17 06 be 40 0f 8d 3b c4 a3 35 3e b0 5b cc 3d
       -0.13094884 0.0043047965 0.17738253 0.099784255
000130 78 42 0f 3d 9c 2e 77 3e 3c bd 86 3d 22 e4 46 3e
       0.0349755 0.24138874 0.06579062 0.19422963
000140 6e c0 7e be 7c b9 7e be aa 67 85 be 00 de 85 3c
       -0.24878094 -0.24875444 -0.26055652 0.01634121
000150 d6 f8 e2 3e 2e 48 ed be 43 83 f3 3d aa 1f 40 be
       0.44330472 -0.4634413 0.118902706 -0.18762079
000160 a5 8d 1a be cf b0 a9 be 4b 64 8d bd 02 1e bb 3e
       -0.15093096 -0.33142707 -0.06903895 0.36546332
000170 4f 64 3e 3b 37 49 29 3f d7 b9 41 be 46 27 8b 3e
       0.0029051488 0.6612734 -0.18918549 0.271784
000180 61 4b ae be c3 60 da 3d 75 83 18 bd e8 67 6e 3c
       -0.34041885 0.10662987 -0.037234742 0.01455114
000190 ca 10 b4 be 60 5f 5d 3e 52 d9 27 3f ab 1f dc be
       -0.3516906 0.21618414 0.6556598 -0.4299291
0001a0 cb d2 69 3d 82 3a 3a bb 17 36 3a bf 76 1f 23 3c
       0.057085793 -0.002841622 -0.72738785 0.009956231
0001b0 10 4b 17 3f 28 ac 8f 3e cc 0c 5c 3d ff f8 6e be
       0.5909891 0.28061032 0.05372314 -0.23337172
0001c0 67 ce 38 bd a4 3f 7f be 17 a7 0d bf 70 d7 e9 be
       -0.045118716 -0.2492662 -0.55333084 -0.45672178
0001d0 32 8d 21 3e 46 3a 47 3f 09 9c 89 3d c0 46 12 bd
       0.15776518 0.77823293 0.067192145 -0.035712004
0001e0 a4 e8 01 3f bc 8c 61 be f8 25 15 bd fb 92 59 3e
       0.50745606 -0.22026342 -0.036413163 0.21247475
0001f0 d7 f7 c5 be 9a 18 33 be 58 7b 63 be c4 2c 4c be
       -0.3866565 -0.17489854 -0.2221502 -0.19938952
000200 a3 ec 08 bd d9 fe 95 bd 5d 9b 94 3e 9e 89 57 3e
       -0.0334288 -0.07323999 0.29024783 0.2104859
000210 d6 67 b4 3c 46 23 dc 3e 9a 78 b2 3c ef 73 b3 be
       0.02202217 0.42995661 0.021786023 -0.35049388
000220 ea 13 bb 3e 74 12 16 3f 41 4f 34 bf 8a 0b ac 3e
       0.3653863 0.5862191 -0.7043343 0.33602554
000230 40 c3 d3 be 4d fa fa 3e c6 9f a4 3e 57 d3 f6 be
       -0.413599 0.4901909 0.32153147 -0.48208115
000240 df ff f5 3d c9 1f b4 3e da db cd 3d 52 81 e9 bd
       0.12011694 0.351805 0.10051699 -0.11401619
000250 62 fb d2 3d 90 39 73 3e 3e 6e 20 be 2f f4 ab 3e
       0.10301854 0.23752427 -0.15667054 0.33584735
000260 42 f1 4b 3e 32 23 35 3e cb 8a 3b 3e f5 38 bd be
       0.19916251 0.17689207 0.18314664 -0.36957517
000270 dc 89 5e 3e 60 cb 21 3c 78 d3 95 3d 28 8a d6 bd
       0.21732277 0.009875149 0.07315725 -0.1047557
000280 42 f0 6c be 90 4d e2 3c 08 79 a4 3d 40 a8 14 3e
       -0.23138526 0.027624875 0.080308974 0.14517307
000290 75 f4 77 be 94 04 8f be be a8 0c 3e 60 b8 6c bd
       -0.24214347 -0.2793318 0.13736245 -0.05779302
0002a0 2c 4d 29 3e 33 11 1a 3d a6 3a 0f 3d 69 b1 62 be
       0.16533345 0.03761406 0.03496804 -0.22137989
0002b0 d1 57 43 bf 83 31 db 3e 8a cb 13 3f 40 b3 7a 3e
       -0.7630587 0.42811212 0.5773245 0.24482441
0002c0 eb c7 31 3d b2 7f b5 bd 83 b6 39 bd 77 97 a8 bd
       0.043403547 -0.088622466 -0.045340072 -0.082320146
0002d0 a2 69 81 3e e0 2c 18 3d d0 7c 82 3e f2 59 86 3e
       0.25275904 0.03715217 0.2548585 0.26240498
0002e0 c8 70 39 3d 58 36 3f 3d e4 28 b9 3d 96 d6 3d 3e
       0.045273572 0.046682686 0.090410024 0.1853889
0002f0 9b f6 86 be 00 f4 ed 3a 32 33 8d 3e 60 b7 50 be
       -0.2636002 0.0018154383 0.2757812 -0.20382452
000300 58 81 26 be 49 ec f6 3c fa 3f d5 3d a8 c6 1e 3e
       -0.16260278 0.030141966 0.10412593 0.15505469
000310 e3 6d 85 3c 29 77 8b 3d 89 16 06 be fe 10 8c 3e
       0.01628775 0.06809837 -0.13094534 0.27356714
000320 37 ad 42 be c0 3d 40 3e ae 79 20 3e 3d 15 81 3e
       -0.19011389 0.18773556 0.15671417 0.25211516
000330 6e a5 6f be 6b a9 87 3d 9c 87 d4 3e c8 58 c4 be
       -0.2340295 0.06624111 0.41509712 -0.38348985
000340 4a 2e a4 3e 67 12 04 3e d5 96 b9 be 4e 87 bb be
       0.32066566 0.12897645 -0.36247888 -0.36626667
000350 62 72 8e 3e 49 82 d3 bd 54 85 07 be db 1b d0 be
       0.27821642 -0.10327584 -0.13234454 -0.40646252
000360 ea f0 50 3e 4f 74 b9 bd c8 ba 50 3e a5 9b ac 3e
       0.20404401 -0.09055387 0.20383751 0.33712497
000370 fc 70 e7 be cd 9f b3 be 3a 3f 55 3e af 0d 15 3e
       -0.45203388 -0.35082856 0.208249 0.14556001
000380 2d e1 d4 3d 74 d0 97 bd 4f be 96 be 5e 66 39 be
       0.10394511 -0.07412806 -0.2944207 -0.18105456
000390 f7 a7 c6 3d aa 5f a5 bd 0f 77 f8 3c fb c3 c1 3d
       0.097000055 -0.08074887 0.030330209 0.094612084
0003a0 93 67 96 bd 87 6d f7 3e aa b2 31 3f da 45 93 3e
       -0.07343974 0.4832575 0.69413245 0.2876423
0003b0 a2 a2 98 bd ed 1d a6 be 8d dc d5 be 9f cf 18 3f
       -0.07452895 -0.32444707 -0.4176983 0.59691805
0003c0 5e 55 93 3e b8 a9 03 3f 96 da e9 bc 5f a3 43 bd
       0.28776067 0.51430845 -0.028546613 -0.047763225
0003d0 fc 54 6d 3d 18 57 f3 3d ec 4b 85 be fb 07 c3 3e
       0.057942376 0.11881846 -0.26034486 0.38092026
0003e0 92 9c 68 bc d9 86 26 3d f1 93 d6 3e 16 aa 95 3e
       -0.0141974855 0.040655944 0.41909745 0.29231328
0003f0 1c 28 fe 3e a4 d2 00 bf b2 10 b3 3c 96 d0 11 bf
       0.49639976 -0.5032141 0.021858547 -0.569589

l1.bias f4 [400]
000000 42 b7 37 bf ca 58 2d be 3d 9c 27 bf 78 a4 6f 3d
       -0.71764004 -0.16928402 -0.65472776 0.05850646
000010 10 55 eb bc 8c f9 85 be 90 58 ca bc ba ee 9e 3d
       -0.028727084 -0.26166952 -0.024700433 0.07760377
000020 60 16 01 be 07 72 bd 3e 59 31 67 bf f3 44 33 3d
       -0.12606192 0.37001058 -0.90309674 0.043766927
000030 a4 3b 5b be 10 7a b8 bd ea ca 1b 3f 4e 59 1d 3e
       -0.2140947 -0.090076566 0.608565 0.15366098
000040 44 7b 1a 3e 91 c5 bd be 34 50 2e be fb 12 01 3e
       0.15086085 -0.37064794 -0.17022783 0.12604897
000050 96 39 41 bf aa ee 20 3f 94 ee 5b 3e 61 f3 3f 3f
       -0.75478494 0.6286417 0.21477729 0.7498074
000060 97 4e 76 3f 1e 7d d2 3d c8 e1 82 bf 22 bf 25 3f
       0.9621367 0.102777705 -1.0225153 0.6474477
000070 5e 07 60 bd 2d f0 01 bf ef be 0e 3d 8f 86 c1 3e
       -0.054694526 -0.50757104 0.034850057 0.37797973
000080 ff 10 9d 3c 83 92 90 be d4 e1 71 3d 3e b3 0d 3f
       0.019173143 -0.2823678 0.059053257 0.55351627
000090 66 1d d8 bd e7 65 ea bd c3 03 d4 bd 41 90 d4 3e
       -0.10552482 -0.114452176 -0.1035228 0.41516307
0000a0 a7 87 6a 3e ac 4d 47 3e b4 b3 60 3e cd e4 cc be
       0.2290331 0.19463223 0.21943551 -0.4001831
0000b0 32 6d 12 bf d6 9c 53 bf 2c 13 b0 3e 89 8e ed bd
       -0.5719787 -0.8266119 0.34389627 -0.11599452
0000c0 02 cd 04 bf 78 1e 8c bb b7 26 f6 ba 94 ff e6 3c
       -0.5187532 -0.004276093 -0.0018779848 0.028198041
0000d0 a3 7c 7c bf d8 88 41 3d ff 5d 85 be 47 de 06 3f
       -0.9862768 0.047249645 -0.26048276 0.5268292
0000e0 7d d8 3d bf b3 31 17 bf 2d da 90 bd cc 29 6b 3e
       -0.7415846 -0.5906021 -0.07072864 0.22965163
0000f0 f4 e8 26 be 43 b0 82 3d e2 26 13 3f 8c a3 da be
       -0.16299802 0.063812755 0.57481205 -0.427029
000100 23 8b b1 3d e9 df e1 bd 74 28 87 3e fd 86 fa bd
       0.08669116 -0.110290356 0.2639805 -0.12232778
000110 8a 02 dc 3e 33 52 62 3e bc 9d b9 3e 4d 9b a5 be
       0.42970687 0.22101669 0.36253154 -0.32345048
000120 22 7c 19 3e 31 51 51 bf a5 c3 4b 3e a2 a3 b8 bd
       0.14988759 -0.81764513 0.19898851 -0.090155855
000130 e4 6a bd 3e 55 69 9f 3e 5f b8 03 bf f4 89 a2 3d
       0.36995614 0.3113505 -0.514532 0.07936469
000140 c0 18 00 3f 58 92 27 be 97 0a 4a be 80 51 cd bb
       0.50037766 -0.1636442 -0.19730602 -0.006265819
000150 e8 f2 a2 be b4 9c e6 3d 1a ff 12 be c2 77 de 3c
       -0.31825948 0.112603575 -0.14355126 0.027156714
000160 0e 98 b6 be 6b a1 74 be 15 18 8a bd d4 bb 27 3e
       -0.35662884 -0.23889701 -0.067428745 0.16380244
000170 3e df 15 bf ba 23 12 be 7f 8c 2b bf c8 c8 3d 3f
       -0.58543766 -0.14271441 -0.67011255 0.7413449
000180 a3 b4 aa be 65 5e ad bd 9a ad 92 3e 56 c1 0c be
       -0.3334094 -0.0846527 0.28648072 -0.13745627
000190 80 bd ad 3d c0 96 e3 3e ce 64 23 bf bf a6 33 be
       0.0848341 0.4445095 -0.6382569 -0.17544077
0001a0 ae 90 40 bd c6 13 56 3f 56 1b 77 bf 14 2c 14 3e
       -0.047012977 0.8362392 -0.96526086 0.1446994
0001b0 b0 07 0f bd f3 f7 b5 bc 35 c8 d9 be 41 c4 0d bf
       -0.03491944 -0.022212958 -0.42535558 -0.55377585
0001c0 c4 05 ad bd 19 53 3c be dc 93 44 3f d4 4b a6 be
       -0.08448365 -0.18391074 0.76788116 -0.32479727
0001d0 72 5d 13 be 2e ba 1f 3e 69 33 49 be dd 89 69 3e
       -0.14391115 0.15598366 -0.19648518 0.22806497
0001e0 8e a9 14 3f cc bb 43 bf 23 6e 2d 3d ad 88 31 ba
       0.5807122 -0.7645843 0.042341363 -0.00067723804
0001f0 8e 08 fc bd 5e 98 68 bf 96 b8 3a 3c 4c 4a 23 bf
       -0.12306319 -0.90857494 0.011396548 -0.63785243
000200 6d c6 89 bd 3f 7c 2d 3e bb 01 1c 3f 56 e1 03 3e
       -0.067273 0.16941927 0.6094014 0.12878928
000210 a4 7d f5 bd e9 9e 6b be 44 33 0e 3e 98 93 aa 3d
       -0.11986855 -0.23009838 0.13886744 0.083289325
000220 71 75 16 3e cc 82 86 3e c9 68 00 3c 13 1c a1 3e
       0.14693238 0.26271665 0.007837483 0.3146673
000230 30 0d 16 3e e9 21 eb 3d 03 4b 34 3f 92 0d e9 3d
       0.14653468 0.11481077 0.7042696 0.113795415
000240 a6 09 92 bd a8 d4 b5 be a6 f9 85 be 02 de 4e 3e
       -0.071307465 -0.35513806 -0.2616703 0.20201877
000250 bf 4a e7 3e 9b f7 e1 be 6b 8e 6a be f7 fa be 3e
       0.45174214 -0.4413422 -0.2290589 0.37300846
000260 2e 71 86 be 42 13 ec be 1a d2 0d 3e 1a 01 8d be
       -0.26258224 -0.46108443 0.13849679 -0.27539903
000270 04 ef 85 3e e9 19 3c 3e c9 ed 97 be 46 5a 7f be
       0.26158917 0.18369259 -0.29673603 -0.2493678
000280 2d 0a 1d 3f 93 bb 9c be 12 f5 1a 3f fe d7 67 bf
       0.6134365 -0.30611858 0.605302 -0.9056395
000290 ea 2c 56 be ff a0 16 3f fc 3c 0b be 10 ba 42 be
       -0.20915571 0.5883941 -0.13597482 -0.1901629
0002a0 cb 8c 45 be 7d b8 eb 3e f5 f2 3b bf 7f 52 22 be
       -0.1929199 0.4603919 -0.734176 -0.15851782
0002b0 13 df 90 3e 6d df 08 bf fd a7 91 be 02 aa 7c bf
       0.28295192 -0.5346592 -0.28448477 -0.9869691
0002c0 6f 56 37 bf 0b 7d 30 bf 8d 5c 46 bd 94 f0 7e be
       -0.7161626 -0.689408 -0.048428107 -0.24896461
0002d0 7e 98 7e 3d 24 f6 e4 be ec d1 ca 3e 10 8c 93 3e
       0.062157147 -0.4471904 0.39613283 0.28817797
0002e0 81 55 79 bd b6 d0 ee be 5c 53 36 3e 38 88 a9 3e
       -0.06087256 -0.4664361 0.17805237 0.3311174
0002f0 05 b2 ce 3e 75 ff 8c be 61 45 d9 3d 45 50 04 bc
       0.40370193 -0.27538648 0.10608936 -0.008075778
000300 38 a9 8a 3d 00 98 0d 3b 1e 1a 02 3e eb 3e d7 3e
       0.06770557 0.0021605492 0.12705275 0.4204019
000310 1c 83 5e bd ce f2 8e 3d 04 96 d0 3d 9c 17 ce bc
       -0.054324254 0.06979905 0.10184863 -0.025157742
000320 a0 9f b5 bc 68 5b 18 bf b2 1d b8 bd 2e 23 30 3f
       -0.022170842 -0.59514475 -0.08990039 0.6880368
000330 d0 27 0c be ca 29 ec be a1 33 ec be f5 b5 10 be
       -0.13687062 -0.46125633 -0.4613314 -0.14131911
000340 10 46 da 3e ce 38 a1 3d f0 22 ab 3d 35 86 12 3f
       0.42631578 0.07872163 0.08356273 0.57236034
000350 21 af 11 3f 44 fd b7 bd 1c 9f 9b be f6 94 28 bf
       0.5690785 -0.089838535 -0.30394828 -0.65852296
000360 d6 33 89 3d e9 28 c3 3d 48 8f 08 be a4 0d e5 bd
       0.0669934 0.09529287 -0.13335907 -0.11184242
000370 e8 b6 b8 bd e0 c8 1e 3f 29 8f 73 be cd d9 d7 be
       -0.090192616 0.6202526 -0.2378508 -0.42158356
000380 8f c1 92 be f9 ff 4a 3e 98 ed 79 3e 3d c0 30 3e
       -0.28663298 0.19824208 0.24407041 0.17260833
000390 c4 d3 12 bf e6 f6 46 be b4 75 4e 3f 31 f3 56 be
       -0.5735438 -0.19430122 0.8064835 -0.20991208
0003a0 61 5f 77 be 6a 88 57 bf 58 29 72 bf 46 89 a5 bd
       -0.24157478 -0.84192526 -0.94594336 -0.080828235
0003b0 46 5b 6c be b5 56 0a 3f ad 0e 28 3e 17 e9 88 be
       -0.23081693 0.54038554 0.16411848 -0.26740333
0003c0 a5 7c 2b 3d 33 c7 64 be e8 c6 43 3e 76 26 8d bd
       0.041866917 -0.22341613 0.19118845 -0.068921015
0003d0 48 81 55 3e 00 4c 78 be 74 5d 90 3c 90 e2 1c bf
       0.20850098 -0.24247742 0.017622687 -0.61283207
0003e0 b8 f6 1a bf da ab 63 bf e9 49 0d 3f 64 c2 3a 3e
       -0.6053271 -0.889341 0.551909 0.18238217
0003f0 20 4d d9 bd 16 c9 21 be 41 6f 92 be 9b 98 c3 be
       -0.106104136 -0.15799364 -0.28600505 -0.38202366

l2.weight f4 [300, 400]
000000 df ac 35 bd 59 31 ab b8 8a 65 32 bc ed 08 3e bd
       -0.044354316 -8.163107e-05 -0.010888467 -0.04639523
000010 c6 93 8a 3c d7 7a 14 bd 33 f1 49 bd 60 ad 08 be
       0.016916167 -0.03624996 -0.04930229 -0.13347387
000020 f5 6b 2c be 3a 9e 8a bd ad 20 59 3d 17 35 20 bc
       -0.16838057 -0.067684606 0.053009678 -0.009778283
000030 a4 c2 5c bc c7 45 ec bc 86 67 31 3d b3 b9 d6 bc
       -0.01347414 -0.028841866 0.04331162 -0.026211595
000040 b0 0b a1 bc ac 5c 71 3e 3a 8d 1c 3d a8 86 69 3d
       -0.019658893 0.23570508 0.03822062 0.057013184
000050 41 8e 17 3d e1 07 4b be d4 40 bf bd f7 ed 43 be
       0.0370009 -0.19827224 -0.09338537 -0.19133745
000060 79 aa 1d be 69 44 af bc b6 2b 49 3d 0c 3a 36 be
       -0.15397061 -0.021394925 0.04911395 -0.1779558
000070 9b d9 c6 3c 7f 10 82 3d 53 65 81 bc 90 3a d0 3d
       0.024273684 0.06350803 -0.015795385 0.1016742
000080 5f 31 a8 3d 0b 5b d6 bc ab 3f 23 3e 9e c6 f0 bc
       0.08212542 -0.02616646 0.15942256 -0.029391583
000090 6c 13 42 bc fa 83 2a be 8c 08 01 3d bb 17 c5 3d
       -0.011845451 -0.16651908 0.03150229 0.09623667
0000a0 9a 98 92 3c b1 42 06 3e c9 ca 14 3d ef 62 94 3e
       0.017895032 0.13111378 0.036326203 0.2898173
0000b0 df dd 41 3d 0a 69 44 3e 02 65 d6 bb 40 d7 e7 bb
       0.047330733 0.19180694 -0.006542803 -0.0070752203
0000c0 2a 89 d9 bd dd 5f 3c 3d 6a e2 a8 3d 27 e3 c2 bd
       -0.10621865 0.04598986 0.0824631 -0.09515982
0000d0 e9 55 1b 3c 65 1f 1b 3d 3d 05 90 3d f6 99 ba bd
       0.009480932 0.037871737 0.07032249 -0.09111397
0000e0 fe 4c 57 3d 3a 8f 03 bd 42 c2 f7 bd f0 9d d4 bb
       0.05256366 -0.032119013 -0.120975986 -0.006488554
0000f0 75 09 78 3d 2b 45 9d 3e b9 0d ba be 36 87 84 3c
       0.060555894 0.30716833 -0.36338595 0.016177755
000100 ec a9 29 bc 99 d0 43 3d be 43 95 3c a1 7a 2f bd
       -0.010355454 0.047806356 0.018220779 -0.042841557
000110 ee 0f a8 bd 40 52 34 3e 54 75 0e 3e 5f 9a a7 3d
       -0.08206163 0.17609501 0.13911945 0.08183741
000120 55 b8 f9 3d 44 78 4e bd 53 54 e3 3c 27 2c 3d bd
       0.12193362 -0.050407663 0.02775017 -0.046184685
000130 e3 9c a2 bc 44 1d 8a 3e d1 75 b2 3d 50 30 46 bd
       -0.0198502 0.26975453 0.08713878 -0.04838592
000140 7a ae 9a be 62 47 8b 3d d0 9b bb bb 06 a6 22 bd
       -0.3021124 0.068007246 -0.0057253614 -0.039709114
000150 41 98 28 bd 50 2f 87 bc 9b 26 2f bd 2c 36 15 3c
       -0.041160826 -0.016502053 -0.042761426 0.009107154
000160 bc 53 99 3c 55 ea f5 3c c6 0e d5 3d 82 ec 89 be
       0.018716685 0.030018965 0.104032084 -0.26938254
000170 25 40 77 bd 18 f4 51 bd 4f 86 97 3d 21 88 78 be
       -0.060363907 -0.051258177 0.07398664 -0.24270679
000180 ec 60 7d bd c5 2e 2f 3d b8 c9 92 bd 27 63 5b bc
       -0.06186001 0.042769212 -0.07167381 -0.013390339
000190 b8 b0 14 3c 54 dd e6 bd 1a d2 52 3e e3 be c7 3d
       0.009075336 -0.11272684 0.2058796 0.097532056
0001a0 7b 6a 00 3d e3 0d bc be f5 57 ce 3c 73 4a c6 bd
       0.031351548 -0.36729345 0.025188426 -0.09682169
0001b0 a1 28 3b 3d 0d 74 4e 3e 1b 70 05 bd 71 c9 da 3b
       0.045693044 0.20161457 -0.032577615 0.0066768457
0001c0 f6 4e 23 3d 50 d7 c8 bd 8f d8 97 3d 20 20 67 3c
       0.039870225 -0.098066926 0.07414352 0.01410678
0001d0 85 c0 22 3d 81 d5 e9 3c 69 c4 d8 3c 6d 59 0f 3e
       0.039734382 0.02854419 0.026460843 0.13998957
0001e0 d0 72 8d bd 75 58 30 bd 44 07 cb 3b 22 97 a8 3d
       -0.06906664 -0.04305311 0.0061959345 0.08231951
0001f0 f0 f9 43 bd d5 ad fd 3c 36 ec 35 bd fd 70 7b bc
       -0.04784578 0.030966679 -0.04441472 -0.015346763
000200 35 33 28 bd 96 27 6e 3c a3 99 e1 bd 29 88 43 be
       -0.04106446 0.014535805 -0.11015632 -0.1909491
000210 d0 38 f5 bb bd cf 24 bc 63 72 50 bd f2 eb d1 3c
       -0.007483579 -0.010059294 -0.050890338 0.025625203
000220 d1 e4 46 3d af 7f 76 3c 27 75 93 3c 7d cb 63 bd
       0.04855806 0.015045091 0.018000199 -0.055613983
000230 fe d9 96 3d f6 b5 c0 3d c3 a8 f2 3c f4 8f 09 3e
       0.073657975 0.09409706 0.029621487 0.1343382
000240 76 70 67 3d 31 ec b3 3e 72 e5 c0 38 7b 4b 69 3e
       0.056503735 0.35141137 9.198011e-05 0.227827
000250 a8 49 13 be 59 1d e1 3d c9 1a e3 bb 01 60 7e bd
       -0.14383566 0.10991926 -0.0069306833 -0.062103275
000260 15 27 20 bd a6 61 99 bd 88 d9 af 3e 75 c8 23 3d
       -0.03909977 -0.07489328 0.3434565 0.039986093
000270 35 10 17 be a8 77 f8 3b ff 10 7a be be ac c8 3c
       -0.14752276 0.0075826235 -0.24420546 0.024496432
000280 b3 33 48 be 4d 69 e2 bd c4 2b 7c be 55 29 ed bc
       -0.19550972 -0.11055241 -0.2462607 -0.028950373
000290 ba 26 9d 3d 92 70 56 3d 27 ab 10 3e 80 7e 83 bc
       0.07673402 0.05235345 0.1412779 -0.01605153
0002a0 1d ff da bd 05 ac 50 bb 4f 53 fb 3c 08 7a 82 bd
       -0.1069319 -0.0031840813 0.030679373 -0.06370932
0002b0 ff 01 2e be 41 3d 8a 3d 5d ef 2b 3e 7d f3 16 3c
       -0.16992949 0.067499645 0.16790529 0.009213326
0002c0 bb 53 27 bd 87 cf c2 bc 74 97 ba 3e 75 0b 10 bd
       -0.040851336 -0.023780597 0.36443675 -0.035167176
0002d0 d8 19 08 bf 09 5b 8f 3d 53 8a 19 bc 05 c2 42 bd
       -0.53164434 0.069997855 -0.009371358 -0.047548313
0002e0 94 86 b6 3e eb 8b 1d 3e 68 2c b8 3b 91 22 97 3d
       0.3564955 0.15385406 0.005620528 0.0737964
0002f0 b3 95 68 be a5 40 35 bd 4c 99 fe 3d cd 19 c1 bd
       -0.22713356 -0.044251103 0.12431583 -0.09428749
000300 98 83 50 bc 60 5b 2b 3b 6b a0 aa bd 1b 07 27 3b
       -0.012726687 0.0026146993 -0.083313785 0.0025486413
000310 a0 de 12 bb f9 63 87 3e 2a 14 ad 3d ac c0 be 3e
       -0.0022410527 0.2644346 0.084511116 0.37256372
000320 f2 c5 9a 3c c4 f6 97 bd 96 7a c1 3d cc ff bf bd
       0.018893216 -0.07420114 0.094472095 -0.09374961
000330 4d e9 b6 3e df ec 80 3d be 83 ab 3d 65 27 cb bc
       0.3572487 0.062951796 0.08374737 -0.024799058
000340 7c 83 16 bb 68 20 1c 3d 70 f6 80 bc e8 ca 64 bd
       -0.0022966554 0.038116843 -0.01574251 -0.05585757
000350 35 6c 2e bd c1 ed 0b 3d 80 41 77 3e 70 58 0f bd
       -0.042583663 0.034162287 0.2414608 -0.03499645
000360 e5 0f 79 be 9a af ac 3e 69 ba 37 3d 4a 6e 9c 3c
       -0.2432247 0.33727723 0.04485551 0.019095559
000370 d8 3c 91 3d bb 18 37 be c3 8e 59 bd 60 ac 59 3b
       0.07091683 -0.17880528 -0.053114664 0.0033214316
000380 03 4a 10 bd f9 2d a4 bc 34 33 5a 3c 03 72 1a bd
       -0.035226833 -0.020041453 0.013317872 -0.037706386
000390 22 1c a0 bd 62 c0 d0 bd 91 f5 80 be a9 8e c1 bd
       -0.07817866 -0.10192944 -0.25187352 -0.094510384
0003a0 42 17 62 3b 64 81 28 bd 9e 30 00 3d d9 6d 2f 3d
       0.0034498726 -0.04113902 0.031296365 0.04282937
0003b0 e0 73 7b bd 0f 1c c9 be d8 92 e6 bb 24 db 8e bc
       -0.061389804 -0.3927922 -0.007036548 -0.017438479
0003c0 bc 13 c3 bd 5e fd a3 3e be a2 6b 3d 7a f0 cb 39
       -0.095252484 0.3202924 0.05752825 0.00038898346
0003d0 ad c9 ca bd 66 ce 3f 3e 78 3a 0a 3d 6f a8 c9 bc
       -0.09901748 0.18731079 0.033747166 -0.024616448
0003e0 b1 29 a1 3c 2b db ef 3c b7 cb 1b be 55 9d 37 3d
       0.0196732 0.029279312 -0.1521443 0.044827778
0003f0 2a 02 00 3e dc 28 59 3d 00 bd 02 bc 04 b1 e0 3c
       0.12500826 0.053017482 -0.007979631 0.027428158

l2.bias f4 [300]
000000 ac f3 41 be b3 0a e6 3e 30 54 a8 bd d0 e2 28 bd
       -0.1894061 0.44930038 -0.082191825 -0.04123193
000010 6c 7b ea be b5 94 dc 3e aa 5f b7 be f9 f5 bd b9
       -0.45797288 0.43082204 -0.35815173 -0.00036232153
000020 8a f6 4e bc 2d b0 93 bc 97 a9 88 be 63 fc fd bc
       -0.012632022 -0.018028343 -0.26691887 -0.031004136
000030 26 64 67 be a1 db 0a bd 26 19 66 be 33 7d 94 3d
       -0.22596797 -0.03390086 -0.22470531 0.07250442
000040 03 74 e5 bd 83 9c bf bd 6d 5d 9c 3e 8b ad 97 3c
       -0.11203768 -0.09356024 0.30540028 0.018515369
000050 9d f4 19 3d 3f de 8f 3e 8e 94 98 3b fb 3a 21 bd
       0.037586797 0.28099248 0.004656381 -0.03936289
000060 ac db ef bd 27 11 5e be 8e bd 07 be f4 45 cf bd
       -0.11711821 -0.2168623 -0.13255903 -0.101207644
000070 53 8d 1a bd d6 36 58 bd 8c 65 9e bd 0e 5f bf 3e
       -0.037732434 -0.05278667 -0.07734212 0.37377208
000080 23 21 85 bd af c4 a6 bb be 45 80 3c 29 e5 91 3d
       -0.06500461 -0.0050893645 0.015658256 0.07123787
000090 e2 48 b7 bc 72 db 8b 3c 5d 61 09 3d 1e 9c 9f bc
       -0.02237362 0.017072413 0.03354012 -0.019483622
0000a0 4b a2 9a 3e 30 b7 83 3e fc 3f ea 3b cc 4d f9 bc
       0.30201945 0.25725698 0.007148741 -0.030432604
0000b0 0c b2 e8 3c c1 0b b2 be a0 1c 40 bd 81 a7 4d 3d
       0.028405212 -0.34774593 -0.0469023 0.050208572
0000c0 2b 28 93 3c 07 c0 08 bd 2c 68 cd bd e7 c1 1b 3d
       0.01796349 -0.033386257 -0.10029635 0.038026717
0000d0 34 52 aa 3d 67 37 12 bd 7f 02 9a bc 00 71 ef bd
       0.0831646 -0.035697367 -0.018800018 -0.11691475
0000e0 17 b6 b4 bc c2 99 98 3c 27 a9 17 3e 5b 77 87 bd
       -0.022059483 0.018628005 0.1481062 -0.06614562
0000f0 de fe 8f bc d8 34 af 3d cd f2 72 bd 0b 67 e9 be
       -0.017577585 0.08555001 -0.059313584 -0.45586428
000100 59 00 ab 3e 36 08 67 3c d2 b2 95 3c 74 8e 4b bd
       0.33398703 0.014101079 0.018273745 -0.0496964
000110 8d ff 40 bc 98 c8 42 bd 5e e8 38 bc bb 90 86 be
       -0.011779678 -0.047554582 -0.011285869 -0.26282296
000120 a3 4f 24 3c b4 ea f8 bd 35 1c 08 bd 63 f4 b8 bd
       0.0100287525 -0.12154141 -0.033230025 -0.09030988
000130 0e f2 85 be 68 8e 31 bc ec 2d b7 bd d9 94 26 bd
       -0.26161236 -0.010837175 -0.08944306 -0.040669296
000140 ec 36 71 bd 0b 52 83 bd d6 55 1d bd 30 f7 26 bd
       -0.05889027 -0.06412133 -0.038411938 -0.04076308
000150 0e 3a 35 3e bc 46 94 be ba 66 2b bd 5a 85 89 bd
       0.17697927 -0.28960216 -0.041846015 -0.06714888
000160 dc df 4c bc 7c df ff 3b 17 a6 8d bd 26 9d 7d 3c
       -0.012504544 0.007808624 -0.06916445 0.015479362
000170 77 63 b1 bc d1 63 eb bd c7 31 1f 3d 1b 32 4d bd
       -0.021653874 -0.11493648 0.03886583 -0.050096612
000180 c1 48 43 bd f7 65 65 3e 9f 07 e4 bc 51 07 2b bd
       -0.047676805 0.22402178 -0.027835665 -0.041755024
000190 e0 c6 68 bd 9b e8 86 be a1 f9 0c bd 04 47 94 be
       -0.056830287 -0.2634934 -0.034417752 -0.2896043
0001a0 35 9c dd 3e 5b a8 d2 bc 5f 3a a2 3b aa 3d 54 3d
       0.4328324 -0.025715044 0.004950806 0.05181662
0001b0 9f da 05 bc 85 b9 1b bd 72 86 d5 3e 4b 22 f3 bc
       -0.008169799 -0.038018722 0.41704136 -0.029679438
0001c0 6e 13 f0 3d 86 ae 39 bd a8 be 0d bd 2d 29 32 bc
       0.11722456 -0.045332454 -0.034605652 -0.010874075
0001d0 28 ed 43 3e e6 53 76 bc c2 b1 5b bd 7f 4b 1e bd
       0.19133437 -0.015034651 -0.05363632 -0.038646217
0001e0 8e 7f 79 be f3 f0 0f bc 3b fb f5 bc 41 70 c7 bb
       -0.24365065 -0.008785474 -0.030027023 -0.0060863798
0001f0 f5 f1 89 bd d1 7f 86 bd 7f 3f f0 bd 89 a8 9e bd
       -0.06735603 -0.06567348 -0.11730861 -0.07746989
000200 aa 96 6d bd 49 0e 2b bd d9 66 68 bd 3c 58 5a bd
       -0.058005013 -0.04176167 -0.05673871 -0.053306803
000210 d5 1b 65 be a1 89 1d 3b 1a 3a be 3c ce 23 05 3e
       -0.22373898 0.0024038332 0.023221064 0.1300194
000220 b7 7b 4b bd 15 3a fe bc 6c 5d 8f be 49 42 1d 3e
       -0.04967853 -0.031033555 -0.28000963 0.15357317
000230 35 1e 0c bf 91 10 7c bc 04 03 88 bd f9 c6 e2 3c
       -0.5473359 -0.015384809 -0.066412 0.027682768
000240 35 1f 05 bd 49 05 1d 3d 49 dd 6e bc 2e ac 63 3e
       -0.032500464 0.03833512 -0.014579126 0.2223365
000250 15 3a 21 bb 6c e8 1e be b8 97 94 3b 12 d6 5b 3d
       -0.002460127 -0.1551835 0.004534688 0.05367095
000260 ab 08 d5 bc 41 b4 7e 3b c6 ab 3a bd 4a 98 24 3c
       -0.02600511 0.0038864764 -0.045573972 0.010046074
000270 53 f3 ac bd c7 05 c9 3b 7c 15 7a 3d a7 ec 2f bc
       -0.08444848 0.006134722 0.061055645 -0.010737575
000280 e2 eb 27 bb 88 6c 7e 3d 61 19 d3 be 30 83 d2 bc
       -0.0025622775 0.062115222 -0.412303 -0.02569732
000290 4c a5 49 bd ce 5c 43 3e 06 27 22 bc 84 99 27 bd
       -0.049229905 0.19078371 -0.009896999 -0.04091789
0002a0 70 f0 83 bd a4 2b ab bc 48 00 f9 bb a6 57 22 bd
       -0.06442344 -0.020894833 -0.0075989105 -0.03963437
0002b0 f2 9a 5d be f6 24 a2 3a 4c e3 f9 bc 18 23 4a be
       -0.21641138 0.0012370634 -0.030503891 -0.1973995
0002c0 c0 7e 80 bd 18 82 9a bd e1 ed b8 3d ec 02 65 bd
       -0.06274176 -0.07544345 0.09029747 -0.05591099
0002d0 79 ac 98 3e 29 c5 2e bd 4f e5 50 3d 3b d7 82 be
       0.29819086 -0.042668495 0.050999936 -0.25554833
0002e0 a5 d7 b6 3d 4e af 6b bd c9 fa a5 3e cc c3 8c 3c
       0.0892785 -0.05754023 0.32417896 0.017183207
0002f0 8c b3 2c 3c 9e 34 2a bd b8 31 9e bc 9d 88 40 bd
       0.010540854 -0.041554086 -0.019310817 -0.047005285
000300 73 38 4c 3d 59 b3 18 bd 76 8a 27 be 67 a5 0d 3d
       0.04985852 -0.037280414 -0.16361412 0.034581568
000310 1c 78 45 bd a5 ad 0c 3c a6 60 dd 3b 2d 35 00 3f
       -0.04821025 0.008586322 0.006755906 0.5008114
000320 aa c4 a9 bc 4c b7 13 3e 5b 1d 9b bc 5c 87 99 bc
       -0.02072366 0.14425391 -0.018934896 -0.018741302
000330 73 8e 9f bc 83 10 48 bd 17 34 67 bc 55 a4 66 bc
       -0.019477105 -0.04884387 -0.01411154 -0.014077266
000340 74 5e 33 3e e2 52 54 bd 8b 50 83 bd 10 4e 1b 3b
       0.175165 -0.051836856 -0.06411847 0.0023697652
000350 f1 55 c9 bd 9b 2f cc bd 88 06 2a bc 72 16 34 be
       -0.09830845 -0.099700175 -0.010377534 -0.17586687
000360 95 c8 b1 3e 1f 5a 56 3c 31 dc aa 3c e7 2e ed bc
       0.34723344 0.01308301 0.020856949 -0.028953029
000370 8d f4 2b bd 73 c4 a3 3c 07 b1 56 bd 28 13 83 be
       -0.04198127 0.019991135 -0.05241492 -0.25600553
000380 9e a5 6d bd 24 e2 c7 be d2 09 d3 3e 96 fc 34 be
       -0.058019273 -0.3903972 0.4121843 -0.17674479
000390 d7 84 56 bd 07 40 99 be f3 81 a8 bc 49 13 3b bb
       -0.05237278 -0.2993166 -0.020569777 -0.002854543
0003a0 2c 5d 36 bc 59 cb bb bc 0b aa 24 bd 23 b6 a8 bc
       -0.011130612 -0.022924112 -0.040201228 -0.020594662
0003b0 2b aa 51 be e4 b0 0b bd 47 6f 3b bd f5 83 b6 3e
       -0.2047507 -0.034104243 -0.04576042 0.3564755
0003c0 0b 59 d7 3e cb 94 07 3c 77 07 d9 bd 43 4a b5 bd
       0.42060122 0.008275221 -0.10597127 -0.08852055
0003d0 83 b8 d0 3b ba 70 9a bd cb 06 5e 3c 8b 1c 3e bd
       0.0063696518 -0.07541032 0.013551424 -0.04641394
0003e0 62 0c 18 3c 43 a4 4c bc 94 3f 97 be ea b3 e8 bd
       0.009280296 -0.012490335 -0.29540694 -0.11362441
0003f0 f8 42 0a bd 0b de 6b 3d 7b f0 5f bc ed 54 76 3c
       -0.033755273 0.057584804 -0.013668175 0.015034896

l3.weight f4 [6, 300]
000000 78 f5 31 3d 35 16 62 bc 17 0e 41 bd 2d 5e 1f 3d
       0.043446988 -0.01379924 -0.047132578 0.038908172
000010 0e 27 4c bc bc ba 28 3d 13 69 40 3e c0 45 8b 3c
       -0.012460483 0.04119371 0.18790083 0.017001033
000020 c7 25 7d bc c1 b2 3d 3d 03 aa 94 3e 4c 4f 50 bd
       -0.015450901 0.04631305 0.2903596 -0.050856873
000030 64 06 6d bc 8e 9b 59 3d b1 08 53 3e 67 36 39 be
       -0.014466856 0.053126864 0.20608784 -0.18087159
000040 a4 c6 f7 3d 96 7d 01 bc 73 c6 29 bd f9 33 44 3c
       0.120984346 -0.007903477 -0.04144902 0.011975282
000050 af b9 02 3e d1 c0 4c 3d 0a b5 fb bc a3 83 03 3d
       0.12766145 0.04998857 -0.030725975 0.03210796
000060 49 b2 b4 3d 2b 46 41 bd 1f b0 8b bb 34 d1 52 3d
       0.08823068 -0.047186058 -0.0042629386 0.051469043
000070 c8 61 22 3d 65 58 d9 bd 05 d8 23 bd 61 b2 49 bd
       0.039644033 -0.10612563 -0.040000934 -0.04924238
000080 b4 0c 97 bc c3 3c 08 3c 93 ad 15 bd 24 fa 1d 3e
       -0.018438675 0.008315268 -0.036542486 0.15427452
000090 47 56 02 bd 3b ce 8f bc 33 d0 f6 bc 85 9b 57 bd
       -0.03182056 -0.017554393 -0.030128574 -0.05263855
0000a0 f4 7f e0 3d 15 87 13 3e d0 c8 0d 3e 51 a6 9f bb
       0.10961905 0.14406998 0.13846135 -0.0048721214
0000b0 a4 23 3a 3d 7a 5f 15 3e 58 0d 27 bc b8 e4 3a be
       0.045444146 0.14587203 -0.0101960525 -0.18251312
0000c0 d2 f3 b4 bc e6 4a 2d 3d 6c dd 1d be ad df f6 3a
       -0.022088919 0.042307757 -0.15416497 0.0018834971
0000d0 13 a2 f1 3d 15 81 6d bc 1f 32 f3 b8 56 3e 82 bd
       0.11798491 -0.014496108 -0.00011596479 -0.06359546
0000e0 f1 f6 33 3d dd ab 44 be ce f6 43 3d c0 b4 b8 3c
       0.043936674 -0.19206186 0.047842793 0.022547126
0000f0 e5 74 a4 bc 73 1c ad bd c5 82 43 3d ff 88 71 3d
       -0.02007527 -0.08452692 0.047732133 0.05896854
000100 51 32 61 3d b9 51 32 3d cd 26 b9 bc 96 c4 1e bc
       0.054979626 0.043534968 -0.02260151 -0.009690424
000110 ef b0 5f bd 47 a0 8c 3c 96 b0 d4 bc 32 fb 82 3e
       -0.054612096 0.01716627 -0.025963109 0.25582272
000120 39 9b eb 3c 35 c2 4c bd 18 47 04 3c 4c 38 53 bd
       0.02876054 -0.049989898 0.008073591 -0.05156736
000130 f0 db d9 3e c6 50 55 3d 9e f9 06 bc dc 86 1e bd
       0.42550611 0.052078985 -0.008238224 -0.03870283
000140 1f 8a 5e 3d 7c ec ea 3c 90 d7 4a 3d d3 c4 12 3d
       0.05433094 0.028677218 0.049521983 0.035832237
000150 7d 07 98 3c 51 e9 9e bd 04 56 2b bd fa 2c 24 bc
       0.018558258 -0.07759345 -0.041830078 -0.010020489
000160 1b ab 19 3e ed 45 1a 3d 90 aa 9b 3b 2d 2f 62 bd
       0.15006678 0.037664343 0.0047505572 -0.05522077
000170 7c 4d 2f bc 4a 0e d9 3c ff e2 93 bc d0 44 0e bc
       -0.010699626 0.026496071 -0.018052576 -0.008683398
000180 9f ba 0c bd 88 84 55 bd 60 a6 0a be 81 36 e6 bc
       -0.034357663 -0.052128345 -0.1354003 -0.028102161
000190 b9 83 c6 bc 74 de 04 3e 38 56 a0 3c ae 5c d4 b8
       -0.024232732 0.12975484 0.019572362 -0.00010126211
0001a0 ad 63 ba bb 59 9e 4e 3d 0a 7d 23 bc b4 85 0d 3c
       -0.005688152 0.05044398 -0.009978542 0.008637834
0001b0 3f 94 50 bd dc 25 50 3c 63 5b 92 bd aa 5f 0e 3e
       -0.05092263 0.012704339 -0.07146337 0.1390368
0001c0 b7 f4 08 be 53 be 06 3d 08 e5 31 3d 82 3e 0d bc
       -0.13374601 0.03289635 0.04343131 -0.00862086
0001d0 a5 c6 96 bd ca a2 f3 bd f1 6a f4 bc c6 76 d8 bc
       -0.07362107 -0.11896284 -0.02983615 -0.026423823
0001e0 09 1a 82 bd 68 43 82 3b 36 8b 5b 3d ce b2 8e 3c
       -0.06352622 0.0039753206 0.05359956 0.017419245
0001f0 11 54 f2 bc e7 26 91 bd ff 63 04 3e 75 36 6a bc
       -0.029581102 -0.07087498 0.1292877 -0.01429521
000200 eb 24 20 bd 20 55 15 3e d1 66 44 bd 66 03 81 bd
       -0.039097708 0.14583254 -0.047949616 -0.06299476
000210 1a a4 c7 3d e1 e9 35 bd 40 d0 f1 bc 70 8c a6 3c
       0.09748097 -0.044412497 -0.029518247 0.020330638
000220 b6 08 f0 bc 18 f2 b1 3b 78 58 3e 3c bc 77 22 be
       -0.029301029 0.005430471 0.011617772 -0.15865988
000230 dc 75 01 3e 42 f0 62 3e 2e fb e4 ba 43 d3 1a be
       0.12642616 0.22161964 -0.0017469877 -0.15119652
000240 f7 62 5f 3d bc 1d 25 3c 83 eb 08 3c f8 d4 b7 3d
       0.05453774 0.01007789 0.008356932 0.089761674
000250 7f da 2a 3d 08 e1 0e 3c bc d9 03 3d ed 01 5b 3e
       0.04171228 0.008720644 0.03219007 0.21387453
000260 6a 6a 0f 3d ec f9 a5 3c 0f 7e 9b bc 0c 9b 36 bb
       0.035013594 0.020260774 -0.018981008 -0.0027863411
000270 e6 cf 1c bc 8b 5e 92 3d 89 98 f5 3c 5f bb 28 3d
       -0.009571051 0.07146939 0.029979961 0.041194316
000280 a8 85 26 3d 68 84 df 3e 65 f9 d7 3d 66 96 4c 3d
       0.04065481 0.43655705 0.10545615 0.04994812
000290 98 ae a1 bb 3b 05 93 be da 77 02 3d 68 01 4b 3d
       -0.0049341433 -0.28714928 0.03185258 0.049561888
0002a0 77 40 9c bc 4e c3 24 3d 50 f5 48 bd 32 8c cd bc
       -0.019073708 0.04022532 -0.049062073 -0.025091264
0002b0 bb d4 b4 bc 99 46 62 3d 0d fd 3e bd 4b 39 c7 3d
       -0.022074094 0.05524311 -0.046628047 0.09727725
0002c0 39 fb 27 3d 12 cb 41 3c fa f2 d6 3d 3f 6b a9 3d
       0.04101107 0.011828201 0.10495563 0.08272409
0002d0 e9 82 d0 3e 88 af a4 bc bc 94 7d bd 96 15 04 3e
       0.40724877 -0.020103231 -0.061909422 0.1289886
0002e0 e3 eb 26 3d 9b 6d c2 bc ae a3 86 3e 5b fb 55 bc
       0.040752303 -0.023733905 0.26296753 -0.013060416
0002f0 32 df ea bc 61 84 75 bd 15 c3 c0 3d 48 2f aa 3c
       -0.028670881 -0.0599407 0.09412209 0.020774499
000300 1e b0 3a be 84 0b c9 3b d4 7c a3 bd b5 4a 47 3d
       -0.18231246 0.006135406 -0.079827935 0.04865523
000310 b4 7c c3 bc 3a 74 83 3d b1 cb a0 bc 8a da e0 3c
       -0.023863174 0.06418653 -0.019628378 0.027447958
000320 16 a6 ac 3a a5 8f 1e 3d f4 29 45 bd bc dc 8f 3c
       0.0013172056 0.03871121 -0.048135713 0.017561309
000330 9c ad 1b bd 40 8e 24 3e d0 c0 2c bb 85 c8 aa bb
       -0.038007364 0.16069889 -0.0026360042 -0.005211892
000340 fb 1f a1 3d 98 13 31 bd f4 7f 21 bd b4 18 ae 3c
       0.07867428 -0.043231577 -0.039428666 0.021252014
000350 ad 50 8b bd 21 fb 83 be ec 24 64 bc e7 31 24 3d
       -0.06802497 -0.25777534 -0.0139248185 0.040086653
000360 2e 9f 46 3c 00 5a 56 3c 04 ec 53 3d 0a ca 4b bc
       0.012122912 0.013082981 0.051738754 -0.012438307
000370 05 74 0b 3d b1 86 31 bc db 7c 26 3c 4c 4c 78 3e
       0.03404619 -0.010835336 0.010161604 0.24247855
000380 45 6c 75 bc c3 30 0c 3e 11 82 99 3e ab df d7 3d
       -0.014979427 0.13690476 0.29982045 0.10540708
000390 19 ef 2a bd 23 a8 1f 3d 14 68 81 bc 4f 65 68 bb
       -0.041731928 0.038978707 -0.015796699 -0.0035460775
0003a0 85 af aa 3c 00 4d 24 bb 90 35 07 3d da 8a 81 bc
       0.020835647 -0.002507031 0.033010066 -0.01581328
0003b0 8f 62 99 3e 40 d1 2d 3d a4 f5 16 bc ff cb 3e 3e
       0.29958007 0.042435884 -0.009213839 0.18632506
0003c0 6c 37 39 3e ee 88 19 3d cc 44 fc bb 81 35 42 3d
       0.18087548 0.037484102 -0.007698631 0.047414307
0003d0 e6 d3 e0 bd b4 5c b8 3c 10 9b c4 bb 48 ef ed 3c
       -0.109779164 0.022505142 -0.00599993 0.029044762
0003e0 9c ef 83 3c 75 19 a9 ba d7 66 42 3d e9 ff a3 3e
       0.016105466 -0.0012901264 0.047461357 0.3203118
0003f0 c8 79 3e bd c4 64 f0 bd 62 74 84 3d a5 6d 6b 3e
       -0.04650286 -0.117379695 0.06467511 0.22991045

l3.bias f4 [6]
000000 01 93 20 be 05 6b 86 3e 85 e2 9e bd 60 26 25 be
       -0.15681078 0.26253524 -0.07758049 -0.1612792
000010 a2 db bc 3c 48 bc 7a 3d
       0.023053948 0.061214715
