2019_test_data/dual_assembly/Average_TD3_Peg-in-hole-dual_assembly_seed_4/_actor.pth (torch_old, 510312 bytes, 6 tensors)

l1.weight f4 [400, 12]
-0.10448059 0.016868848 -0.2940097 -0.20322762 0.06344101 -0.4307895 0.30718207 0.26252708
-0.070983864 0.7121193 -0.17548327 -0.1438852 0.46507406 -0.13529316 0.03710739 0.1969368
-0.027835185 -0.101313986 -0.24221724 -0.54576457 -0.07813512 -0.4591379 0.07908128 0.47949025
0.22982559 0.041253023 0.172577 0.09087916 0.2561499 -0.11959444 0.21360277 0.18068372
-0.14378864 0.18893707 0.2819918 -0.14941886 -0.11259848 0.19748345 0.23276418 0.07615179
0.088647544 0.21381229 0.25298947 -0.18257391 -0.118742496 0.2430554 0.15591925 -0.13544905
-0.44656298 0.37146756 -0.17223142 0.25932792 0.15456374 -0.27236706 -0.51011574 0.1747344
0.06621565 0.3970549 0.18570983 0.26409188 -0.41700482 0.14052573 -0.28044555 0.26660824
0.19029224 0.00014955991 -0.007930924 -0.1794005 -0.07356836 0.30979508 0.09258155 -0.3983802
-0.31698415 -0.11702343 -0.17141059 0.3454172 0.2965796 -0.064021006 -0.1526718 -0.16491306
-0.018685726 0.5174474 0.1668237 -0.6175652 0.011322104 0.032394927 0.28271 0.124588646
-0.12374243 -0.019664107 0.20776506 0.28538454 0.14375493 0.057881657 0.11728848 -0.26274237
-0.28078777 0.14136994 0.27845466 -0.21026707 -0.14532056 0.24716574 0.22546607 -0.027609736
-0.1647703 0.05292213 -0.2827398 -0.114023715 0.027323682 0.06606095 0.095614776 -0.14093678
-0.16971488 -0.20086353 0.311285 0.27750823 -0.0018851946 0.119345844 -0.34979984 0.01497689
-0.038269438 -0.4038771 0.005376955 0.24679069 0.32843545 -0.13472837 -0.14224473 0.29895258
0.04195759 0.6377596 0.049214266 0.09635481 -0.040672105 0.15167743 0.103649035 -0.10549476
0.26650423 0.17154697 0.36335394 -0.23973352 0.020581836 0.007252564 -0.51537687 0.35448176
0.20054762 0.058767993 -0.030211153 -0.23903772 0.0062320633 0.13179712 -0.058910407 -0.011778272
-0.548527 -0.027879843 -0.19144763 -0.14804234 -0.15935118 0.071947806 -0.015498398 0.13979423
-0.008323557 -0.13753398 -0.4704016 0.27946314 -0.17499873 -0.15267259 0.3254478 0.23124936
-0.08161516 -0.27332422 0.30726182 0.15605715 0.20838314 -0.052924868 -0.051077966 0.00420125
0.04511033 0.02676731 -0.16738415 0.24555211 0.06753062 -0.06354583 -0.24117485 -0.07563186
0.053979337 -0.2661667 0.14253202 -0.05041113 -0.010104709 0.114222065 -0.24154839 0.027603632
0.45409384 -0.2380463 0.042577107 0.17638607 -0.052117154 0.048301052 0.5108423 -0.27900496
0.13781588 -0.39962602 -0.3004276 0.08685335 -0.2237786 -0.16626729 -0.34664026 0.07431909
0.41140494 -0.098596014 0.10588814 0.07793769 -0.0916626 0.7425319 0.063227944 -0.08687428
-0.02339675 0.018497083 0.028003935 0.3816803 0.09805951 -0.11529145 -0.5621048 -0.028892849
0.075418785 -0.5150968 0.42294356 0.15620251 0.2661552 0.16414249 -0.10943639 -0.16592728
0.14038981 -0.051874086 0.2780241 0.034652185 -0.035196543 0.10765923 -0.32627 0.017658109
-0.18846394 0.22780222 -0.15356879 -0.11238803 0.23811609 0.29058713 -0.28891492 -0.07464061
-0.2935441 0.12523483 -0.044812772 -0.15519379 -0.31531748 -0.004448272 -0.21426994 -0.22721115
00000000: ebf9 d5bd 8a30 8a3c 7088 96be e71a 50be
00000010: 5ced 813d 7190 dcbe f846 9d3e f369 863e
00000020: fd5f 91bd 734d 363f e3b1 33be a456 13be
00000030: 301e ee3e 4a8a 0abe ebfd 173d cda9 493e
00000040: 9d06 e4bc b57d cfbd cc07 78be 3ab7 0bbf
00000050: 4e05 a0bd 1f14 ebbe 5ef5 a13d bf7f f53e
00000060: 6657 6b3e eef8 283d 06b8 303e da1e ba3d
00000070: 1426 833e eeed f4bd afba 5a3e 2705 393e
00000080: 543d 13be b878 413e 3b61 903e 4201 19be
00000090: 089a e6bd 1a39 4a3e bc59 6e3e 78f5 9b3d
000000a0: d88c b53d 9cf1 5a3e d687 813e a8f4 3abe
000000b0: 442f f3bd 84e3 783e 4ca9 1f3e 28b3 0abe
000000c0: e7a3 e4be ff30 be3e 6f5d 30be a1c6 843e
000000d0: f545 1e3e b273 8bbe f296 02bf 93ed 323e
000000e0: 129c 873d c84a cb3e b82a 3e3e 0d37 873e
000000f0: a881 d5be fae5 0f3e 8f96 8fbe e080 883e
00000100: f8db 423e 2fd3 1c39 b5f0 01bc c4b4 37be
00000110: 02ab 96bd 769d 9e3e 659b bd3d 7df8 cbbe
00000120: bf4b a2be fba9 efbd 4286 2fbe 86da b03e
00000130: 48d9 973e 721d 83bd ff55 1cbe f8de 28be
00000140: cf12 99bc 6f77 043f d5d3 2a3e c118 1ebf
00000150: 5980 393c 8bb0 043d 5dbf 903e 5528 ff3d
00000160: ac6c fdbd 9f16 a1bc 5dc0 543e ec1d 923e
00000170: 7e34 133e 5115 6d3d f134 f03d 2b86 86be
00000180: 6ac3 8fbe 48c3 103e 9c91 8e3e 4050 57be
00000190: eace 14be 0419 7d3e 94e0 663e d02d e2bc
000001a0: 8cb9 28be e0c4 583d 45c3 90be 4485 e9bd
000001b0: ead5 df3c f74a 873d aed1 c33d bb51 10be
000001c0: bdc9 2dbe 2baf 4dbe bf60 9f3e 8f15 8e3e
000001d0: a218 f7ba 986b f43d f718 b3be a161 753c
000001e0: 6ac0 1cbd fbc8 cebe 2b31 b03b b3b6 7c3e
000001f0: b128 a83e 3cf6 09be 9aa8 11be 5010 993e
00000200: b9db 2b3d 3744 233f e694 493d ac55 c53d
00000210: cb97 26bd 5451 1b3e f245 d43d a30d d8bd
00000220: 3e73 883e 02aa 2f3e 8709 ba3e b47c 75be
00000230: 3d9b a83c eba6 ed3b bdef 03bf a27e b53e
00000240: 5b5c 4d3e b5b6 703d 617d f7bc 4ec6 74be
00000250: 5636 cc3b d3f5 063e 0a4c 71bd a7f9 40bc
00000260: 446c 0cbf 4564 e4bc d90a 44be 6998 17be
00000270: f52c 23be 5f59 933d feec 7dbc 3826 0f3e
00000280: 875f 08bc b5d5 0cbe 7ad8 f0be cb15 8f3e
00000290: de32 33be 3456 1cbe 18a1 a63e a2cc 6c3e
000002a0: d925 a7bd 27f1 8bbe 6c51 9d3e 72cd 1f3e
000002b0: 6462 553e bfc7 58bd 2137 51bd a4aa 893b
000002c0: 9cc5 383d 1e47 db3c c066 2bbe 0372 7b3e
000002d0: 7e4d 8a3d 5124 82bd 8af6 76be e0e4 9abd
000002e0: 7019 5d3d 0047 88be eaf3 113e e77b 4ebd
000002f0: 398e 25bc 42ed e93d 7658 77be 0321 e23c
00000300: fd7e e83e 69c2 73be 5565 2e3d 8d9e 343e
00000310: cc78 55bd 53d7 453d 90c6 023f bdd9 8ebe
00000320: 9b1f 0d3e c89b ccbe a5d1 99be 2be0 b13d
00000330: 3826 65be f941 2abe d57a b1be 9b34 983d
00000340: aba3 d23e b5ec c9bd e2db d83d cc9d 9f3d
00000350: 9ab9 bbbd 9216 3e3f a77d 813d 24eb b1bd
00000360: 8baa bfbc 3287 973c 8268 e53c 9a6b c33e
00000370: 6dd3 c83d ec1d ecbd 1ae6 0fbf b2b0 ecbc
00000380: 2a75 9a3d 62dd 03bf 0f8c d83e 8df3 1f3e
00000390: 7f45 883e f814 283e 3020 e0bd d7e8 29be
000003a0: 59c2 0f3e ec79 54bd 2d59 8e3e 73ef 0d3d
000003b0: 402a 10bd 717c dc3d dd0c a7be bda7 903c
000003c0: b1fc 40be fc44 693e 2341 1dbe b22b e6bd
000003d0: b4d4 733e d6c7 943e a8ec 93be 2ddd 98bd
000003e0: 6a4b 96be 8f3d 003e 998d 37bd 1feb 1ebe
000003f0: 4b71 a1be cfc2 91bb 9469 5bbe 0aaa 68be

l1.bias f4 [400]
0.2612109 0.13279599 0.1222257 -0.23449183 0.13353352 -0.2934295 0.15557534 0.08643747
0.04255593 0.10898583 -0.21859436 0.32206586 0.30094337 0.06310592 0.24658774 -0.15566431
-0.13827777 0.09753519 -0.0155561175 -0.22294049 0.063524134 -0.1648841 -0.10035213 -0.20362183
0.06967556 -0.02757144 0.027290791 -0.14948021 -0.19053751 0.15774912 -0.18514045 0.19463156
0.29978338 -0.06425925 -0.15584661 -0.016257256 0.13416286 0.23072506 -0.057849407 -0.35085136
0.28825366 -0.26337612 -0.24501161 -0.39157572 0.096327886 -0.12535435 0.1956808 -0.073203824
0.022833213 -0.20392157 -0.2873107 0.054609127 0.15340586 -0.12396043 -0.27871802 -0.055546768
-0.07991659 -0.26913086 0.17682241 0.19210042 -0.22903478 0.22354642 0.1177037 0.0037685474
-0.06001876 0.26638463 0.12185868 0.033997502 -0.030257924 0.24622151 0.35720983 -0.061367135
0.2937061 0.1249227 -0.16947332 0.12601568 0.17241594 -0.3901985 -0.17832853 -0.10965127
0.13441366 0.17499405 -0.20785847 0.073280856 0.043194026 -0.043092925 0.23756495 -0.41240734
0.10652537 0.16423108 0.040278666 0.03959841 -0.2020163 0.014412756 -0.081065424 -0.0065975785
-0.21612935 0.00018104173 0.036064804 -0.18210526 0.18468955 0.39264956 -0.0074322047 0.08069652
-0.43527287 -0.21304072 0.09154888 -0.23490898 0.11465652 -0.19731201 -0.015630009 0.20150352
0.25032353 0.3792335 -0.27458563 -0.08494634 0.14796975 0.13354377 0.3237409 0.05358112
-0.12910368 0.0003897114 -0.26247302 -0.14791523 0.08439986 -0.20598766 -0.13128017 -0.18848933
-0.12391513 0.01449704 -0.2607863 0.2324211 -0.40402424 -0.047634244 0.19440033 0.148838
0.3012742 -0.1773715 0.13726078 -0.34079525 -0.15923823 0.1596941 -0.223071 0.26257607
-0.06568645 -0.35795304 0.040047616 -0.2430261 0.26603296 -0.094944805 -0.24790207 -0.075110324
0.09073784 -0.27308983 -0.037607387 -0.24677922 -0.1790763 -0.20961662 -0.114774935 0.09338592
0.26716298 -0.37872186 0.076087244 0.03472715 -0.24965163 -0.32889763 0.069120266 -0.09809828
0.3809551 -0.015882334 -0.18386795 0.08543191 0.11941478 0.13541858 -0.19089001 -0.15978664
0.40647593 -0.08081063 -0.21125731 0.1387854 -0.010339247 0.08889497 -0.30687177 -0.28056568
-0.38563117 -0.3582205 0.25733733 0.20583764 -0.2862222 -0.21824731 -0.24313635 0.2706971
-0.27488884 0.16101526 -0.21665424 0.17786592 -0.12620938 -0.36055169 -0.16390978 -0.260508
0.11552021 -0.07492227 0.15713754 -0.21938598 0.062817484 -0.26832116 -0.05252186 -0.020353578
0.17925008 -0.21720232 -0.2539361 0.020452414 -0.075285725 0.20593446 -0.13224885 -0.10931809
0.024903351 -0.16746165 -0.26812333 -0.08005085 -0.031658623 -0.36051577 -0.19427963 0.17765923
0.037052087 -0.15444261 0.015012629 -0.27900398 -0.4185912 0.2857563 -0.27260333 0.04664117
-0.049304917 0.028292507 -0.15167859 0.19984256 0.29731914 0.37197676 0.3086721 -0.08991499
0.010590478 0.3331155 0.079419546 -0.018712562 -0.01801894 -0.26131 -0.3894381 -0.24496847
0.04706183 0.2814471 -0.45798492 0.13921809 -0.2476543 0.21221305 -0.15537858 0.14405552
00000000: 6fbd 853e acfb 073e 7851 fa3d a01e 70be
00000010: 03bd 083e 643c 96be 244f 1f3e 2106 b13d
00000020: 204f 2e3d f633 df3d 33d7 5fbe d1e5 a43e
00000030: 4015 9a3e ad3d 813d 7f81 7c3e 7766 1fbe
00000040: b098 0dbe 88c0 c73d 16df 7ebc 834a 64be
00000050: f118 823d 61d7 28be 6b85 cdbd 3e82 50be
00000060: 0fb2 8e3d 80dd e1bc f090 df3c 5711 19be
00000070: 441c 43be fc88 213e 7595 3dbe 7f4d 473e
00000080: 357d 993e 5b9a 83bd 4196 1fbe f02d 85bc
00000090: fd61 093e 3143 6c3e 80f3 6cbd caa2 b3be
000000a0: fc95 933e 3cd9 86be 53e4 7abe 9d7c c8be
000000b0: 8e47 c53d e45c 00be 8c60 483e e3eb 95bd
000000c0: b80c bb3c d1d0 50be 631a 93be d2ad 5f3d
000000d0: 6d16 1d3e f7de fdbd 21b4 8ebe 0285 63bd
000000e0: 4fab a3bd 85cb 89be ef10 353e f9b5 443e
000000f0: 1888 6abe 5ae9 643e a30e f13d bcf9 763b
00000100: 3bd6 75bd 9163 883e 0b91 f93d f740 0b3d
00000110: 77df f7bc 7e21 7c3e 35e4 b63e 1b5c 7bbd
00000120: a560 963e 79d7 ff3d 6a8a 2dbe 410a 013e
00000130: ce8d 303e 19c8 c7be c19b 36be d890 e0bd
00000140: bca3 093e a431 333e dad8 54be 4614 963d
00000150: 38ec 303d 3582 30bd 3a44 733e 0e27 d3be
00000160: f929 da3d 312c 283e 3efb 243d f131 223d
00000170: 5cdd 4ebe 7b23 6c3c a105 a6bd 8030 d8bb
00000180: 0351 5dbe 05d6 3d39 b0b8 133d cd79 3abe
00000190: 421f 3d3e 5d09 c93e da89 f3bb 3844 a53d
000001a0: 16dc debe 5927 5abe fb7d bb3d fb8b 70be
000001b0: 0ad1 ea3d 290c 4abe 810a 80bc f056 4e3e
000001c0: 682a 803e e52a c23e 7d96 8cbe 59f8 adbd
000001d0: 6285 173e b3bf 083e 5ec1 a53e e077 5b3d
000001e0: c133 04be 2e52 cc39 dd62 86be 1777 17be
000001f0: d5d9 ac3d 6eee 52be 4f6e 06be 5903 41be
00000200: 37c7 fdbd fe84 6d3c c885 85be ccff 6d3e
00000210: 44dc cebe 201c 43bd e110 473e fd68 183e
00000220: 9d40 9a3e e0a0 35be 178e 0c3e b77c aebe
00000230: 590f 23be da86 233e b96c 64be 5f70 863e
00000240: 9e86 86bd 9f45 b7be f808 243d d5db 78be
00000250: 7935 883e 6c72 c2bd 0ada 7dbe 71d3 99bd
00000260: c3d4 b93d 6ed2 8bbe 340a 1abd b1b3 7cbe
00000270: c75f 37be bda5 56be 1f0f ebbd 1e41 bf3d
00000280: 96c9 883e d5e7 c1be a1d3 9b3d 0e3e 0e3d
00000290: ada4 7fbe 4565 a8be ed8e 8d3d c0e7 c8bd
000002a0: 8c0c c33e ab1b 82bc e147 3cbe edf6 ae3d
000002b0: bc8f f43d 2bab 0a3e ac78 43be 1c9f 23be
000002c0: 9d1d d03e 0b80 a5bd d653 58be c31d 0e3e
000002d0: f265 29bc 910e b63d 4c1e 9dbe 4ea6 8fbe
000002e0: 7371 c5be ad68 b7be b8c1 833e 1ac7 523e
000002f0: b78b 92be 397c 5fbe bcf8 78be cf98 8a3e
00000300: 3bbe 8cbe 2fe1 243e 9cda 5dbe 7c22 363e
00000310: 083d 01be 3b9a b8be f7d7 27be 4e61 85be
00000320: dc95 ec3d d970 99bd aae8 203e b8a6 60be
00000330: 74a6 803d 6461 89be 2921 57bd 8cbc a6bc
00000340: 558d 373e 496a 5ebe ea03 82be d28b a73c
00000350: 672f 9abd 7ce0 523e 3e6c 07be 2ae2 dfbd
00000360: 1d02 cc3c 117b 2bbe 7647 89be b3f1 a3bd
00000370: 79ac 01bd 8695 b8be 3df1 46be 4dec 353e
00000380: eec3 173d 3426 1ebe 88f7 753c 9cd9 8ebe
00000390: 9651 d6be a64e 923e aa92 8bbe d00a 3f3d
000003a0: f4f3 49bd b0c5 e73c a251 1bbe 87a3 4c3e
000003b0: 373a 983e bd73 be3e 450a 9e3e 5a25 b8bd
000003c0: af83 2d3c 1d8e aa3e b7a6 a23d 164b 99bc
000003d0: 759c 93bc 6dca 85be 6e64 c7be 04d9 7abe
000003e0: e8c3 403d d619 903e 007d eabe 308f 0e3e
000003f0: 1799 7dbe 614e 593e 901b 1fbe 4a83 133e

l2.weight f4 [300, 400]
-0.0049631963 0.024880143 0.01979037 -0.013615448 0.018596208 0.041211247 -0.0339365 -0.018475693
0.047142837 0.04801621 -0.0054140682 0.004707776 -0.012022696 0.016069384 0.03521842 -0.047262724
-0.022603 -0.004092301 0.0022885925 0.010048829 -0.04601655 -0.0507846 0.0074419267 0.046665683
0.0091961995 -0.019031053 -0.039883804 -0.044922005 -0.03899156 -0.026753634 -0.03185675 0.025825461
0.029914927 -0.000960169 -0.012438647 -0.030778218 0.029389525 0.011705348 0.020444874 -0.007838417
-0.040024403 -0.017556824 0.013840456 0.032259725 -0.030418886 -0.021555424 -0.046539884 0.0424552
0.04268026 -0.036310993 0.014898393 -0.006321256 -0.016924124 -0.037617914 0.023686979 0.023488967
0.025283296 -0.03397855 -0.016659029 -0.023701636 0.023336878 0.02075715 0.007873904 -0.004892556
0.031128649 -0.028872002 -0.027270097 -0.050621644 0.01606484 -0.048273113 0.040534947 0.0069748834
-0.030036831 0.022087928 -0.03322302 0.008572839 -0.049817074 -0.020648856 -0.017956974 0.009332515
0.029468568 0.045507472 0.0057634413 -0.03858633 -0.016986916 0.049725328 0.002538523 0.010295533
-0.019775989 0.019994814 0.03538787 0.034220073 0.042061504 -0.021694291 0.0021920614 -0.011332594
0.004956782 -0.024384141 0.027322028 0.0013428524 -0.03888779 -0.010199182 0.042140532 -0.01895759
0.0053693973 -0.031172091 -0.025973786 -0.040068433 -0.022444278 0.0005853772 0.04034255 0.011349879
-0.03012287 -0.030595208 -0.036465753 0.0092705 0.04167958 -0.03209955 -0.001012899 0.024241839
0.028534237 0.010536807 0.005168479 -0.038317703 0.011671346 -0.005657155 -0.030915974 0.038957026
-0.016305987 -0.037221484 0.043075923 -0.037728067 0.00574468 0.041420247 0.0067001395 -0.030121893
-0.0066355877 0.016629498 0.017118216 -0.01564985 -0.017493535 0.035937328 -0.020579841 0.010959715
0.018783879 0.01985002 0.03976759 0.020055998 0.011179108 -0.003008305 -0.0073237745 0.021775289
-0.016922478 -0.028548127 -0.012507122 0.043171514 -0.022729779 0.02379223 -0.016114544 0.013159676
-0.03970351 -0.027103284 -0.039372776 0.012295169 0.008108652 0.028116923 0.02356719 0.03560308
-0.04087931 -0.036549956 -0.003629677 0.008398473 0.007285051 -0.034240827 0.0023596175 -0.04748869
0.020583276 0.010091763 -0.033365387 0.008984275 -0.030035382 -0.039117083 0.009714709 0.004061603
-0.027341086 -0.0344655 0.0065766387 0.03232747 -0.036672674 0.021082494 -0.0071470924 -0.021494333
-0.012395493 0.047913294 0.02336657 -0.020898877 -0.0030557923 0.020698342 -0.024920834 -0.04943285
-0.04484278 -0.021083528 0.047902096 0.020093616 0.02055148 0.002509974 0.031136725 -0.0068875626
-0.02300946 -0.025845384 -0.04369247 0.03801514 -0.00011742115 -0.04578019 -0.032770984 0.02279881
0.017551769 -0.016750116 -0.018241417 -0.040721375 0.008586932 0.0026082068 -0.027837057 -0.023670929
0.027502578 0.03924999 0.0022453645 0.043451328 -0.038396142 -0.016113173 0.04685313 -0.0055445954
0.0020086654 -0.03310736 -0.041106723 -0.018318512 -0.049172677 -0.03762544 0.046914198 -0.0058317073
-0.01902746 0.0148561485 -0.014243953 -0.025841916 -0.048602562 -0.010332738 0.02142595 -0.008158367
-0.048779007 0.002800215 0.0013703033 -0.023774792 -0.036547445 0.021402586 -0.04248286 -0.048194975
00000000: 4fa2 a2bb 71d1 cb3c 6a1f a23c 5413 5fbc
00000010: 1357 983c 20cd 283d 0001 0bbd 565a 97bc
00000020: d918 413d a5ac 443d 7f68 b1bb b043 9a3b
00000030: d8fa 44bc f1a3 833c 3141 103d 8f96 41bd
00000040: ed29 b9bc b518 86bb 36fc 153b d8a3 243c
00000050: da7b 3cbd 8303 50bd 68db f33b 8424 3f3d
00000060: a8ab 163c 03e7 9bbc 335d 23bd 2300 38bd
00000070: 9db5 1fbd 702a dbbc 397c 02bd eb8f d33c
00000080: 2610 f53c dab3 7bba 78cb 4bbc 9a22 fcbc
00000090: 4dc2 f03c cac7 3f3c 027c a73c b46c 00bc
000000a0: a1f0 23bd 54d3 8fbc 14c3 623c c622 043d
000000b0: 0731 f9bc 0095 b0bc 9ba0 3ebd 81e5 2d3d
000000c0: 7fd1 2e3d d6ba 14bd 6418 743c 8a22 cfbb
000000d0: 76a4 8abc 3e15 1abd 320b c23c ef6b c03c
000000e0: ea1e cf3c 182d 0bbd 8478 88bc ef29 c2bc
000000f0: fb2c bf3c e60a aa3c 8c01 013c bc51 a0bb
00000100: 8201 ff3c fa84 ecbc 8a65 dfbc a458 4fbd
00000110: 699a 833c 07ba 45bd f907 263d 908d e43b
00000120: cd0f f6bc bef1 b43c dd14 08bd 1875 0c3c
00000130: fd0c 4cbd ca27 a9bc 811a 93bc 68e7 183c
00000140: 1168 f13c 0b66 3a3d 40db bc3b b30c 1ebd
00000150: 2528 8bbc c9ac 4b3d 595d 263b 98ae 283c
00000160: 4101 a2bc 2acc a33c dff2 103d 592a 0c3d
00000170: af48 2c3d 3ab8 b1bc b0a8 0f3b 58ac 39bc
00000180: 806c a23b 40c1 c7bc 72d2 df3c a602 b03a
00000190: ce48 1fbd 781a 27bc 8d9b 2c3d f34c 9bbc
000001a0: c5f1 af3b 9d5c ffbc fac6 d4bc cc1e 24bd
000001b0: 10dd b7bc 0074 193a 3b3e 253d d8f4 393c
000001c0: 3dc4 f6bc cda2 fabc 1d5d 15bd 4ce3 173c
000001d0: 35b8 2a3d d17a 03bd 40c3 84ba d296 c63c
000001e0: a2c0 e93c 92a2 2c3c 585c a93b 06f3 1cbd
000001f0: 2c39 3f3c a85f b9bb 7f43 fdbc 6791 1f3d
00000200: 2294 85bc 8e75 18bd 6170 303d bf88 1abd
00000210: de3d bc3b 47a8 293d d88c db3b 30c2 f6bc
00000220: 586f d9bb 963a 883c 803b 8c3c 1d34 80bc
00000230: 9a4e 8fbc 0533 133d 0e97 a8bc 6090 333c
00000240: a6e0 993c 829c a23c 57e3 223d 7a4c a43c
00000250: 9428 373c fc26 45bb 46fc efbb 1762 b23c
00000260: 02a1 8abc c3dd e9bc acea 4cbc 9dd4 303d
00000270: cd33 babc ece7 c23c a602 84bc af9b 573c
00000280: 26a0 22bd b507 debc 5945 21bd ad71 493c
00000290: 27da 043c 7655 e63c fb0f c13c 89d4 113d
000002a0: 1071 27bd 68b5 15bd e0df 6dbb c099 093c
000002b0: 70b7 ee3b 1c40 0cbd d0a3 1a3b 8083 42bd
000002c0: 429e a83c ec57 253c 25aa 08bd c832 133c
000002d0: c30c f6bc 3c39 20bd 712a 1f3c 3217 853b
000002e0: 6afa dfbc b22b 0dbd d880 d73b cf69 043d
000002f0: 1636 16bd 32b5 ac3c 2832 eabb e214 b0bc
00000300: 7716 4bbc bb40 443d 406b bf3c 1f34 abbc
00000310: b043 48bb 928f a93c c726 ccbc 1a7a 4abd
00000320: 10ad 37bd 5db7 acbc fd34 443d 5e9b a43c
00000330: 945b a83c 607e 243b 7212 ff3c 10b1 e1bb
00000340: 567e bcbc b3b9 d3bc e0f6 32bd c3b5 1b3d
00000350: 0040 f6b8 0284 3bbd de3a 06bd 92c4 ba3c
00000360: bac8 8f3c 8a37 89bc 066f 95bc 75cb 26bd
00000370: 34b0 0c3c 73ee 2a3b 8a0a e4bc 89e9 c1bc
00000380: 164d e13c 99c4 203d f726 133b 05fa 313d
00000390: 4645 1dbd c6ff 83bc 11e9 3f3d 70af b5bb
000003a0: d0a3 033b 959b 07bd 865f 28bd b410 96bc
000003b0: 4a69 49bd 221d 1abd 1a29 403d e817 bfbb
000003c0: 7adf 9bbc 3467 733c 785f 69bc 6db2 d3bc
000003d0: 7b13 47bd a54a 29bc 7985 af3c acaa 05bc
000003e0: 7fcc 47bd d083 373b c09b b33a 5ac3 c2bc
000003f0: c6b2 15bd 7a54 af3c 8202 2ebd 1868 45bd

l2.bias f4 [300]
0.034234565 0.16794159 -0.11864872 0.046867017 -0.022800673 -0.013536151 0.028309638 -0.03471889
-0.06232878 -0.040553868 0.033799924 -0.13036965 -0.04955745 -0.046295322 -0.011817556 0.025955731
0.011679739 -0.026286984 0.050832517 -0.044187073 -0.028728636 -0.017193539 -0.049900737 0.12994711
-0.04451434 0.038646862 -0.04299978 0.02252942 0.0241488 0.043226764 0.008710261 -0.008677731
-0.028853511 -0.033368625 -0.025167113 0.009677712 -0.037099157 -0.14670716 0.045270875 -0.041462906
0.0029688536 -0.016756566 0.042583235 0.023631006 0.03597844 -0.0028328712 0.0317804 0.028705375
0.048284348 0.030652914 0.042918745 0.010625502 -0.048565943 -0.041632537 -0.08596818 -0.15043908
-0.02986882 0.03551282 -0.016644714 -0.02708432 0.025797963 0.0007245572 -0.019484604 0.10926418
-0.027609644 -0.04916669 0.014508928 0.02028153 0.011309296 -0.060833514 -0.034737963 -0.019252138
0.025078759 -0.019594107 0.018193796 -0.028691588 -0.043687638 -0.0034590284 -0.041962482 0.0028431034
-0.015535365 -0.038227253 0.037644133 -0.064616084 0.09707642 -0.028332438 0.03268865 0.034946077
0.068081655 -0.035292592 0.012507495 0.021593425 -0.022201797 -0.050961882 -0.032679822 -0.036383383
0.12707356 -0.039908838 0.008490928 0.018970126 -0.0426833 -0.04410896 0.025462039 -0.036656585
-0.065548554 0.031267174 -0.053870067 0.070433795 -0.024906453 0.015822764 -0.023101926 -0.04248617
-0.031052612 -0.053725794 0.027573744 -0.1315209 -0.03452964 -0.033903543 -0.061190438 -0.09098091
0.055464 -0.058597215 -0.03464887 -0.0063011567 -0.025041264 -0.017182056 -0.0025391078 -0.18572415
-0.030517325 0.029085735 -0.011238842 -0.01867137 -0.013890697 0.029505875 -0.01946817 0.010782461
0.026370648 0.044350512 0.017491583 -0.1833836 0.031903066 0.021641929 -0.02742886 0.07359605
-0.045107026 -0.019483738 0.015837105 0.030065699 -0.016818875 -0.020735601 0.025303937 0.023102388
0.035249963 0.042740986 -0.04610364 0.0031982318 0.027667904 -0.06000611 -0.027577797 0.03645171
0.003785468 0.06663247 0.04713571 -0.058206543 -0.051428203 -0.16768095 -0.007676891 -0.032000855
-0.047509864 0.032214392 0.032181635 0.026711335 0.0463284 -0.06672086 0.0010461605 0.046327237
0.03758264 0.037377402 0.030356498 0.009463551 -0.00882913 0.018389693 0.027531512 -0.046855018
-0.05793385 -0.04457176 0.03245887 -0.01018911 -0.025731344 -0.051701076 -0.025937194 0.020219123
0.02798477 0.025503743 0.021526497 0.038904607 0.02726577 0.0078366585 0.01515072 0.031435825
-0.053910557 -0.014117042 -0.06996582 -0.028871516 -0.041680805 -0.013858713 0.058033302 -0.002557086
-0.02583894 -0.028902441 -0.055558126 0.04895557 -0.020137291 -0.028580822 -0.019010678 0.027438944
-0.042963676 0.07083296 -0.06403923 -0.0016321295 -0.03354 -0.10482083 0.020311436 -0.053353317
-0.0052832207 0.03651936 0.018656187 0.024747359 -0.03065706 0.04756286 0.011127488 -0.0073713525
-0.037948225 -0.04820776 -0.047645986 -0.05851286 -0.07433215 0.008999004 0.11627269 0.044846926
0.02596351 -0.017671252 -0.02509918 0.015746953 -0.0026553487 0.04542332 0.027308902 -0.022237455
-0.013623849 -0.024731183 -0.07895664 -0.044500973 -0.17366162 0.030274078 -0.006704169 -0.032661535
00000000: 8b39 0c3d e1f8 2b3e 1afe f2bd a1f7 3f3d
00000010: 7ac8 babc bbc6 5dbc 9de9 e73c 6535 0ebd
00000020: 764c 7fbd d01b 26bd ca71 0a3d 9f7f 05be
00000030: c1fc 4abd 2aa0 3dbd 6c9e 41bc 1da1 d43c
00000040: 605c 3f3c cd57 d7bc c235 503d 81fd 34bd
00000050: 5158 ebbc 77d9 8cbc b764 4cbd db10 053e
00000060: ab54 36bd 2c4c 1e3d 8a20 30bd 9e8f b83c
00000070: b4d3 c53c 8c0e 313d 7cb5 0e3c 0b2d 0ebc
00000080: 335e ecbc 8aad 08bd 432b cebc 448f 1e3c
00000090: 49f5 17bd 673a 16be f46d 393d 02d5 29bd
000000a0: 1991 423b 1145 89bc c26b 2e3d d095 c13c
000000b0: 215e 133d b1a7 39bb 2a2c 023d 8927 eb3c
000000c0: cfc5 453d d21b fb3c 91cb 2f3d 9616 2e3c
000000d0: 15ed 46bd e186 2abd 1610 b0bd b40c 1abe
000000e0: 75af f4bc e475 113d 7f5a 88bc f0df ddbc
000000f0: 4056 d33c 36f0 3d3a 2d9e 9fbc e6c5 df3d
00000100: 9f2d e2bc 0363 49bd dbb6 6d3c 7425 a63c
00000110: a04a 393c 902c 79bd 6549 0ebd a9b6 9dbc
00000120: f871 cd3c d283 a0bc 280b 953c 9f0a ebbc
00000130: cff1 32bd deb0 62bb dae0 2bbd 5c53 3a3b
00000140: 0b88 7ebc 2e94 1cbd bc30 1a3d 7055 84bd
00000150: 01d0 c63d 6e19 e8bc 89e4 053d 9e23 0f3d
00000160: 656e 8b3d f78e 10bd 3cec 4c3c b2e4 b03c
00000170: 8be0 b5bc 68bd 50bd 47db 05bd be06 15bd
00000180: 921f 023e 7377 23bd 891d 0b3c 3d67 9b3c
00000190: afd4 2ebd 99ab 34bd c495 d03c 3725 16bd
000001a0: 523e 86bd 0212 003d dca6 5cbd 983f 903d
000001b0: 9e08 ccbc be9e 813c 4040 bdbc fa05 2ebd
000001c0: 0c62 febc 940f 5cbd 55e2 e13c 6aad 06be
000001d0: f46e 0dbd 71de 0abd d3a2 7abd 3354 babd
000001e0: 382e 633d a203 70bd f9eb 0dbd ef79 cebb
000001f0: 5623 cdbc 62c1 8cbc 2967 26bb 792e 3ebe
00000200: 78ff f9bc 3545 ee3c 1f23 38bc b3f4 98bc
00000210: ce95 63bc 4eb6 f13c b67b 9fbc eba8 303c
00000220: 4207 d83c e2a8 353d 824a 8f3c e9c8 3bbe
00000230: caac 023d 6a4a b13c 7db2 e0bc 87b9 963d
00000240: 25c2 38bd 5c9c 9fbc d1bc 813c 574c f63c
00000250: bdc7 89bc b5dd a9bc 344a cf3c 3841 bd3c
00000260: 4462 103d 2c11 2f3d 2cd7 3cbd 6d99 513b
00000270: cda7 e23c f8c8 75bd d5ea e1bc 634e 153d
00000280: 9d15 783b 9b76 883d 6011 413d fc69 6ebd
00000290: 61a6 52bd 8eb4 2bbe 6e8e fbbb 5413 03bd
000002a0: b499 42bd 3df3 033d e4d0 033d bbd1 da3c
000002b0: d9c2 3d3d f2a4 88bd 521f 893a a1c1 3d3d
000002c0: 41f0 193d 0c19 193d 31ae f83c 030d 1b3c
000002d0: 0ea8 10bc fba5 963c c489 e13c 0ceb 3fbd
000002e0: 0b4c 6dbd e190 36bd 98f3 043d 3af0 26bc
000002f0: 8aca d2bc 82c4 53bd 3d7a d4bc 93a2 a53c
00000300: 5140 e53c 3aed d03c 5658 b03c 705a 1f3d
00000310: 775c df3c 5465 003c ba3a 783c dac2 003d
00000320: 51d1 5cbd 2a4b 67bc 3d4a 8fbd f583 ecbc
00000330: 7eb9 2abd a80f 63bc 54b4 6d3d c994 27bb
00000340: 2fac d3bc d0c4 ecbc eb90 63bd a385 483d
00000350: f6f6 a4bc 5422 eabc 48bc 9bbc a3c7 e03c
00000360: aefa 2fbd df10 913d 0027 83bd 2eed d5ba
00000370: 3d61 09bd 4eac d6bd 2b64 a63c 0289 5abd
00000380: de1e adbb 5395 153d dcd4 983c f9ba ca3c
00000390: 8424 fbbc 46d1 423d 1150 363c 638b f1bb
000003a0: 996f 1bbd 8075 45bd 7028 43bd 2eab 6fbd
000003b0: 743b 98bd 8f70 133c 6020 ee3d 69b1 373d
000003c0: 6db1 d43c 4dc3 90bc cc9c cdbc c1ff 803c
000003d0: 5c05 2ebb ce0d 3a3d ebb6 df3c 532b b6bc
000003e0: 9036 5fbc 0d99 cabc 05b4 a1bd a746 36bd
000003f0: 5ad4 31be 5801 f83c a5ae dbbb 1ac8 05bd

l3.weight f4 [6, 300]
-0.0069246516 0.012749362 -0.032357827 -0.021122476 -0.0516692 -0.057598684 -0.008029628 0.029638316
-0.037887275 0.049286757 0.030476328 -0.10533324 -0.019234486 0.009564616 -0.044290304 -0.015784208
-0.019636326 0.003244317 0.17581825 -0.051757384 -0.030831834 -0.04024996 -0.017239057 0.026506769
-0.010700241 -0.008911777 -0.06024603 0.011851724 -0.120925866 -0.114919245 0.005081287 0.04543108
-0.01712128 0.0044499226 -0.00716454 0.042620454 -0.05427976 -0.11804356 -0.009655474 0.051193163
0.047775038 0.024395116 -0.011003594 0.023104547 0.0149313 0.002757505 -0.053338088 -0.03775101
0.116299875 0.008512914 0.023569332 -0.053406492 0.035804752 -0.021280287 -0.011118888 -0.070610836
-0.020736467 -0.11930194 0.006778799 0.048661724 0.051508904 -0.045631 -0.01772324 0.19009024
0.0871448 -0.028797 0.04797052 0.049528316 -0.034097448 -0.017663954 -0.026530929 0.021272007
-0.058990072 0.23222983 -0.055672295 -0.025962904 -0.04315265 -0.03940635 -0.028980348 -0.038598888
-0.10643198 0.02892963 0.044859346 -0.066265285 0.18833177 0.047624208 -0.010586513 -0.10460379
0.014292082 0.05110297 -0.044946585 0.027092086 0.026998812 -0.014077602 0.04372472 0.0032244478
0.13660084 0.029904159 0.024935111 0.01713462 0.0370939 -0.02352651 0.026561998 -0.08856496
0.057365224 -0.0065206327 -0.03519655 -0.015827846 -0.01859167 -0.03801194 0.015420452 0.02120389
0.025203189 -0.008004189 -0.18534897 0.018772127 0.06948807 0.0373339 -0.008373068 -0.043410726
0.018024802 -0.045946687 0.033277683 -0.0065916553 -0.0025102925 -0.040202282 0.04044716 -0.06833531
-0.018622063 -0.037309542 0.03143553 0.024294049 -0.031213107 -0.0063379887 0.0023489876 -0.05684561
-0.0038408488 0.025787905 -0.024362393 -0.17843464 -0.13548678 -0.029733207 0.22696108 0.07603238
0.017038636 0.01835156 -0.09609762 0.014654353 -0.012070174 0.05040001 0.04518137 -0.027404241
0.06691143 0.07047683 0.041813865 -0.022297287 -0.016626325 -0.020249443 0.003406182 0.026274834
-0.053854045 0.15230566 -0.14920413 0.07980798 -0.01499408 -0.09364608 -0.05267573 -0.016958578
0.008904804 0.033292655 0.020494716 -0.00857668 -0.04258269 -0.09074935 -0.0050008763 -0.020564571
-0.0038446337 -0.0717817 0.034491412 0.04634981 -0.080437705 -0.034008574 -0.024779223 -0.006250728
-0.077870585 0.039183035 0.024146127 -0.02478449 0.002893094 -0.018899124 0.04763233 0.054481372
0.002290441 -0.028639851 0.0540279 0.0005903467 -0.02720155 0.020865753 0.044380303 -0.06809647
-0.032530442 0.0635843 -0.0006814265 0.023915146 0.030854702 -0.0049146526 -0.09490115 -0.016466053
-0.010474328 0.005410659 0.008487146 -0.037537843 0.034566388 0.010313451 0.0261225 0.01768893
-0.051597282 0.08193534 -0.0032754317 0.03474665 0.031308196 -0.05804204 -0.024757762 0.04526096
0.028063519 -0.052891217 0.031145956 -0.054671753 -0.03194331 0.19143254 0.022186372 -0.028452463
-0.05581943 -0.0662877 -0.025165627 -0.046712022 -0.19118172 0.039433178 0.007523819 -0.090833016
0.0036958556 -0.019126056 -0.043568134 0.00082781847 0.0010477976 0.0291905 0.029757578 -0.017321013
-0.051334843 0.020781405 0.0071457988 -0.03621815 -0.22810736 -0.020350613 0.0581636 0.017166436
00000000: 30e8 e2bb b3e2 503c a489 04bd 0b09 adbc
00000010: 15a3 53bd 99ec 6bbd b38e 03bc 0ecc f23c
00000020: b02f 1bbd e9e0 493d 7ea9 f93c f4b8 d7bd
00000030: a491 9dbc e8b4 1c3c c069 35bd e24d 81bc
00000040: 5cdc a0bc 9b9e 543b b309 343e 8dff 53bd
00000050: 0b93 fcbc 24dd 24bd ec38 8dbc b924 d93c
00000060: 1050 2fbc b402 12bc 8bc4 76bd bc2d 423c
00000070: fba7 f7bd c85a ebbd ed80 a63b f115 3a3d
00000080: ed41 8cbc a8d0 913b 84c4 eabb c992 2e3d
00000090: 7454 5ebd d2c0 f1bd fe31 1ebc ecaf 513d
000000a0: c2af 433d 44d8 c73c 6b48 34bc bf45 bd3c
000000b0: 69a2 743c 42b7 343b 0a79 5abd cea0 1abd
000000c0: a12e ee3d c079 0b3c 7914 c13c c4c0 5abd
000000d0: 01a8 123d ff53 aebc ff2b 36bc 6a9c 90bd
000000e0: 86df a9bc 9354 f4bd b020 de3b 8451 473d
000000f0: 00fb 523d 92e7 3abd 5430 91bc 04a7 423e
00000100: f978 b23d b0e7 ebbc bc7c 443d 34de 4a3d
00000110: c4a9 0bbd ffb3 90bc 6457 d9bc a242 ae3c
00000120: 939f 71bd a8cd 6d3e a208 64bd 28b0 d4bc
00000130: d5c0 30bd 8e68 21bd 3268 edbc de19 1ebd
00000140: 03f9 d9bd d5fd ec3c 6fbe 373d 18b6 87bd
00000150: 0bda 403e 9a11 433d 0e73 2dbc 833a d6bd
00000160: 5629 6a3c 5951 513d e919 38bd 39f0 dd3c
00000170: 9d2c dd3c bea5 66bc b118 333d 4251 533b
00000180: 17e1 0b3e 91f9 f43c b844 cc3c e75d 8c3c
00000190: c6ef 173d abba c0bc 8c98 d93c 8c61 b5bd
000001a0: ccf7 6a3d 08ab d5bb 422a 10bd 66a9 81bc
000001b0: 8f4d 98bc 68b2 1bbd 10a6 7c3c c8b3 ad3c
000001c0: eb76 ce3c 0024 03bc 1fcc 3dbe 01c8 993c
000001d0: c34f 8e3d 6eeb 183d 312f 09bc 72cf 31bd
000001e0: c0a8 933c 9832 3cbd 2e4e 083d d0fe d7bb
000001f0: b883 24bb 26ab 24bd ecab 253d 62f3 8bbd
00000200: 4c8d 98bc e4d1 18bd 8bc2 003d 5004 c73c
00000210: a1b2 ffbc e7ae cfbb 79f1 193b f1d6 68bd
00000220: c0b6 7bbb 2841 d33c a493 c7bc 92b7 36be
00000230: 0cbd 0abe 0e93 f3bc 7c68 683e ddb6 9b3d
00000240: 9c94 8b3c 0356 963c d4ce c4bd d018 703c
00000250: fbc1 45bc 3e70 4e3d 1a10 393d dc7e e0bc
00000260: dc08 893d 2856 903d 0445 2b3d cda8 b6bc
00000270: ee33 88bc 29e2 a5bc 403a 5f3b 523e d73c
00000280: 0f96 5cbd 04f6 1b3e f8c8 18be 5e72 a33d
00000290: bba9 75bc 84c9 bfbd 82c2 57bd b7ec 8abc
000002a0: 74e5 113c e15d 083d 89e4 a73c 3485 0cbc
000002b0: 306b 2ebd ccda b9bd 64de a3bb 0877 a8bc
000002c0: 40f6 7bbb 4902 93bd de46 0d3d 4cd9 3d3d
000002d0: 86bc a4bd 934c 0bbd ccfd cabc e8d2 ccbb
000002e0: 9d7a 9fbd 647e 203d 19ce c53c d808 cbbc
000002f0: 109a 3d3b 56d2 9abc 1e1a 433d dc27 5f3d
00000300: 391b 163b 1f9e eabc 5c4c 5d3d 7fc1 1a3a
00000310: c9d5 debc a8ee aa3c 1fc8 353d 2976 8bbd
00000320: a43e 05bd 7c38 823d c2a1 32ba b2e9 c33c
00000330: 00c3 fc3c 180b a1bb 895b c2bd d1e3 86bc
00000340: 849c 2bbc e64b b13b ac0d 0b3c 48c1 19bd
00000350: 7c95 0d3d c0f9 283c dafe d53c 60e8 903c
00000360: ac57 53bd b7cd a73d a0a8 56bb 8152 0e3d
00000370: 063d 003d 7dbd 6dbd cad0 cabc 8e63 393d
00000380: 77e5 e53c 76a4 58bd ce25 ff3c 7def 5fbd
00000390: fdd6 02bd e406 443e 32c0 b53c 2415 e9bc
000003a0: eaa2 64bd d8c1 87bd 2528 cebc 1b55 3fbd
000003b0: 24c5 43be af84 213d 5e8a f63b a906 babd
000003c0: 2b36 723b 3fae 9cbc 8074 32bd f501 593a
000003d0: 4156 893a ea20 ef3c 2ac6 f33c cce4 8dbc
000003e0: 7c44 52bd c43d aa3c 4e27 ea3b 7c59 14bd
000003f0: fa94 69be 54b6 a6bc f43c 6e3d a0a0 8c3c

l3.bias f4 [6]
0.08881627 -0.016538395 0.04246268 0.03033343 0.022357143 -0.052167624
00000000: 4ee5 b53d 877b 87bc 59ed 2d3d d07d f83c
00000010: 5426 b73c b8ad 55bd
