2019_test_data/triple_assembly/Average_TD3_Peg-in-hole-single_assembly_seed_5/_actor.pth (torch_old, 510312 bytes, 6 tensors)

l1.weight f4 [400, 12]
0.190671 -0.21586496 0.23525274 0.18470997 0.2425468 -0.22132999 -0.19376364 0.13736281
-0.2694698 0.28531766 0.061446548 0.03728023 -0.22623365 0.1514158 0.10930922 0.024711262
0.2523173 0.094387546 -0.23045115 0.14719832 0.12215144 -0.13470367 -0.20746976 0.18743832
-0.009341647 -0.031568784 -0.025379704 0.07579524 0.007084933 -0.20773569 -0.5250108 0.04065413
-0.21132445 0.2242276 0.3584176 0.2905313 0.30571228 -0.41909495 -0.0513598 0.2962758
0.091961004 -0.010355924 -0.25291854 0.030999392 0.23043679 0.14425182 0.2574755 -0.041558594
0.058433767 -0.025723176 0.23351735 -0.0131834615 -0.008711822 -0.12918216 0.23838226 0.112140976
0.1864172 -0.15158725 -0.18521108 0.4393373 -0.16801785 -0.4300236 -0.09819717 -0.06921113
-0.14880615 0.34169057 0.042965434 0.1201682 0.21442315 -0.3351461 0.26807046 -0.24870688
-0.04595965 0.2184614 0.26615113 0.25341433 0.1660248 0.26831347 -0.10401122 -0.018373817
-0.09873605 -0.021217138 -0.035101116 0.15423197 0.14870094 0.033130098 -0.10770571 -0.15917456
-0.0026455806 -0.23162495 -0.1913273 -0.15167543 -0.20242941 0.12369034 -0.21593751 -0.031251255
-0.13399415 -0.06477661 0.18614393 0.18888833 -0.08982739 -0.26714647 -0.245978 -0.2548261
0.010087913 -0.12393602 -0.17944798 0.052691586 0.03041624 -0.12246133 -0.046612326 0.19150795
-0.26933002 -0.0071981964 0.06742753 0.13932449 -0.5818774 -0.14216615 0.22151813 -0.06635603
0.08728838 -0.12755488 0.20034811 -0.10825166 -0.15545103 0.26184654 0.07647112 -0.0019928217
-0.20118177 -0.0638973 -0.22176056 -0.19422932 -0.12836398 0.15876457 -0.17473207 0.31175855
0.21205452 -0.31649756 0.11966317 0.063238665 -0.24839649 0.5832452 -0.092846416 -0.053904995
-0.035874456 0.26878035 -0.03203654 -0.1278937 0.045231823 -0.17701264 -0.25951764 -0.19898054
0.0044577913 0.07794968 0.011995824 -0.33565062 -0.06640304 -0.48426238 -0.017833585 0.1540825
0.08849988 0.28549317 0.07245142 0.06993551 0.22004311 -0.117068864 0.03966643 -0.24034362
0.2104632 0.48658273 -0.20631684 0.25962076 -0.0025003476 -0.19639628 -0.2095514 -0.20937209
-0.10519399 0.15597573 -0.25515747 0.17013356 -0.43126002 -0.37167692 -0.008656954 -0.25969735
0.054957923 0.20362268 0.107384525 0.18012093 0.18507801 -0.4364068 -0.10838155 -0.06633766
0.21853885 0.45795968 -0.10681654 -0.11348433 -0.01721799 -0.04970019 -0.10139809 -0.3336281
-0.30197504 0.2530522 -0.31125322 0.17098676 0.18145946 -0.0031526685 0.1514447 0.20221636
0.18430409 -0.2749286 0.26163828 0.07633141 -0.28617752 0.07183349 -0.19878256 0.2672038
0.1675582 -0.32554394 -0.20962913 0.045083676 -0.0031491194 0.18461837 -0.37335336 0.26939404
0.0075739487 -0.16445187 -0.106549576 -0.051775012 0.19733855 0.556736 -0.13851587 -0.12563162
0.034111824 0.013068109 -0.27692738 -0.014256867 -0.07026005 0.66290075 -0.042150106 0.41088653
0.083997674 0.23155075 0.00013560396 0.08077576 -0.00324085 0.1184096 -0.01869379 -0.2677764
0.15181418 -0.5158201 -0.07307936 -0.3074985 -0.087784395 -0.018155515 0.115231425 -0.23103344
00000000: 423f 433e b40b 5dbe 18e6 703e 9c24 3d3e
00000010: 305e 783e 54a4 62be fa69 46be d6a8 0c3e
00000020: f2f7 89be 2815 923e 60af 7b3d 28b3 183d
00000030: cba9 67be be0c 1b3e 83dd df3d 466f ca3c
00000040: bc2f 813e 424e c13d 63fb 6bbe 28bb 163e
00000050: 892a fa3d c2ef 09be f472 54be d5ef 3f3e
00000060: b50d 19bc 454e 01bd 19e9 cfbc 893a 9b3d
00000070: ba28 e83b aab8 54be 1c67 06bf f284 263d
00000080: 7065 58be ec9b 653e 8382 b73e 85c0 943e
00000090: 5286 9c3e 9d93 d6be a75e 52bd 76b1 973e
000000a0: 0d56 bc3d e5ab 29bc 8a7e 81be 70f2 fd3c
000000b0: 9ff7 6b3e c0b6 133e d4d3 833e 5839 2abd
000000c0: 3f58 6f3d 69b9 d2bc 2c1f 6f3e 72ff 57bc
000000d0: 08bc 0ebc 5448 04be 7b1a 743e 2baa e53d
000000e0: 27e4 3e3e b039 1bbe f9a7 3dbe d2f0 e03e
000000f0: df0c 2cbe 0e2c dcbe 991b c9bd 91be 8dbd
00000100: a460 18be 11f2 ae3e 86fc 2f3d bf1a f63d
00000110: be91 5b3e 4598 abbe 8840 893e 04ad 7ebe
00000120: 3040 3cbd 58b4 5f3e f644 883e 86bf 813e
00000130: 6802 2a3e 6260 893e d603 d5bd b084 96bc
00000140: 2036 cabd 90cf adbc 30c6 0fbd fcee 1d3e
00000150: 0f45 183e 6db3 073d d094 dcbd a8fe 22be
00000160: 7a61 2dbb 172f 6dbe 4eeb 43be ce50 1bbe
00000170: a849 4fbe 5c51 fd3d b91e 5dbe 5101 00bd
00000180: c335 09be 99a9 84bd 849c 3e3e f16b 413e
00000190: 6cf7 b7bd 6cc7 88be a8e1 7bbe 9178 82be
000001a0: c647 253c 2bd2 fdbd 36c1 37be 22d3 573d
000001b0: 7b2b f93c 01cd fabd 91ec 3ebd a91a 443e
000001c0: a0e5 89be d9de ebbb 7217 8a3d 14ab 0e3e
000001d0: ebf5 14bf 0194 11be a6d5 623e ace5 87bd
000001e0: 40c4 b23d bf9d 02be 0e28 4d3e 0cb3 ddbd
000001f0: 8e2e 1fbe c010 863e e49c 9c3d 009a 02bb
00000200: 9802 4ebe 96dc 82bd 3315 63be 0de4 46be
00000210: d971 03be 2e93 223e f7ec 32be d19e 9f3e
00000220: d224 593e f80b a2be f711 f53d 4683 813d
00000230: a65b 7ebe 8f4f 153f 4326 bebd 7ccb 5cbd
00000240: 18f1 12bd 949d 893e bf38 03bd 91f6 02be
00000250: 0145 393d cd42 35be 7fdf 84be 8ec1 4bbe
00000260: aa12 923b 15a4 9f3d 228a 443c 66da abbe
00000270: 51fe 87bd 3df1 f7be bd17 92bc cec7 1d3e
00000280: 6d3f b53d 292c 923e 6961 943d 593a 8f3d
00000290: fb52 613e cdc1 efbd 4479 223d a31c 76be
000002a0: aa83 573e 5f21 f93e b944 53be 03ed 843e
000002b0: dfdc 23bb 1b1c 49be a494 56be a365 56be
000002c0: f26f d7bd 1ab8 1f3e 00a4 82be 7e37 2e3e
000002d0: 1dce dcbe 704c bebe e6d5 0dbc 0df7 84be
000002e0: 8f1b 613d 7782 503e 6bec db3d 9f71 383e
000002f0: 1785 3d3e b670 dfbe 25f7 ddbd 0adc 87bd
00000300: a6c8 5f3e b179 ea3e a1c2 dabd 796a e8bd
00000310: be0c 8dbc 6d92 4bbd cda9 cfbd 4dd1 aabe
00000320: 799c 9abe 0f90 813e 955c 9fbe 2717 2f3e
00000330: 82d0 393e 009d 4ebb 5214 1b3e ce11 4f3e
00000340: 36ba 3c3e 71c3 8cbe 74f5 853e a453 9c3d
00000350: dc85 92be 701d 933d a88d 4bbe f0ce 883e
00000360: 6094 2b3e b2ad a6be 05a9 56be a9a9 383d
00000370: 7561 4ebb 990c 3d3e 2c28 bfbe 04ee 893e
00000380: e32e f83b 1266 28be aa36 dabd 0912 54bd
00000390: 1e13 4a3e 4086 0e3f 1bd7 0dbe 93a5 00be
000003a0: d7b8 0b3d 9f1b 563c 6dc9 8dbe a295 69bc
000003b0: 80e4 8fbd ddb3 293f 97a5 2cbd b85f d23e
000003c0: f906 ac3d a41b 6d3e e930 0e39 c36d a53d
000003d0: 7164 54bb bb80 f23d b823 99bc fd19 89be
000003e0: 2d75 1b3e c90c 04bf a2aa 95bd 7270 9dbe
000003f0: 4ec8 b3bd e0ba 94bc 74fe eb3d 0894 6cbe

l1.bias f4 [400]
0.023947 0.13471778 0.16878645 0.31756622 -0.04745199 0.21206789 0.105590016 0.13521434
-0.13640177 0.14482914 -0.16277187 -0.089545555 -0.15700434 0.22121412 -0.22998984 -0.18685547
0.073986225 -0.26838145 -0.07520252 0.13281696 0.24347895 -0.1153539 0.06197725 -0.10000248
-0.11567373 -0.18382001 0.20551 0.03524041 -0.22028615 0.0137920035 0.2270593 -0.058585323
-0.19014941 -0.13717188 -0.050125636 -0.3960862 0.17110692 -0.27317658 0.13909999 -0.17057322
0.1026715 -0.2143287 0.17665091 0.083042525 -0.033615533 -0.33579332 0.31215593 0.13303734
-0.03475419 0.3713476 -0.05724204 -0.36713162 0.37118268 0.12453253 -0.017016225 -0.31159744
-0.04963073 0.027629877 -0.05393123 -0.109475 -0.027971106 0.27469748 -0.34520495 -0.1577132
0.01851947 0.13290799 -0.16271436 0.18524103 0.40377614 -0.24668221 -0.07682197 0.594578
-0.0014458073 0.05514899 -0.10785701 0.056569196 -0.1693925 -0.027494272 -0.07000878 -0.23763826
0.09549995 0.022250867 -0.17288752 0.0803009 0.04012221 -0.2550551 0.092923835 -0.42928475
-0.033486307 -0.3215969 0.20480151 0.18354283 -0.3120444 -0.11548462 -0.03577307 -0.07420111
-0.11838455 0.20057383 -0.17344886 -0.22219631 -0.116968654 0.30321184 0.22303283 -0.14600512
0.13244495 0.100162454 0.24637996 -0.11623336 0.13477007 -0.28351438 -0.16456053 -0.124850154
-0.025602065 0.18297361 0.16084602 0.04226001 -0.04912702 0.049618457 -0.014144537 0.07890178
-0.13794617 0.20238629 0.07301965 0.2202096 -0.022839386 0.14780572 0.15207204 0.06506916
0.27728295 -0.18081574 -0.28557056 -0.3121852 0.21928433 0.05368032 0.05435376 0.038535137
-0.18459228 -0.22223364 -0.060912058 0.14052442 0.103065565 -0.020167965 -0.15351304 -0.012054682
-0.13864642 0.21237408 -0.15017001 -0.38677403 0.23108773 0.09795648 0.43937516 0.24130508
-0.14961189 0.07262638 -0.10893702 -0.16245691 -0.18936238 -0.09430249 -0.024069408 -0.2304414
0.013038069 0.10499637 -0.48402047 -0.094194114 -0.071803585 -0.2755048 0.11478639 -0.14796275
0.2905678 0.30279225 0.13360229 -0.23574723 -0.15203291 -0.046714865 0.050010514 -0.07195127
0.15148653 -0.13160348 -0.034249924 0.2833811 0.16589682 0.24289846 -0.1994025 0.101093784
0.053894203 0.39811182 0.06670344 0.23781073 -0.011446487 0.11859386 -0.33587518 -0.14926948
0.15175194 0.19030961 0.20201178 -0.5299742 0.25241852 -0.10788217 -0.11089971 0.07157947
0.013721113 0.17381567 0.046022426 -0.06513673 -0.1287891 -0.22493814 -0.24595079 0.19155973
0.114162475 -0.072128326 0.07758875 0.2291963 -0.062890805 0.40048632 0.15325812 -0.44937742
0.14250384 -0.019646183 -0.26373962 0.21714818 0.030887872 0.11299982 0.13126956 -0.016475398
0.1534487 -0.2773384 -0.18694325 -0.19400287 -0.27814496 0.04561906 -0.16118929 -0.4207783
-0.15889522 0.17626908 0.34413925 0.19716679 0.167077 -0.17990549 0.4298306 -0.3096284
-0.120286815 0.23215276 0.22936815 0.13619356 -0.2532556 -0.058545932 0.12377731 0.26344913
-0.01432015 0.014824301 -0.2446455 0.05025431 -0.26048034 0.19301175 -0.21347706 -0.111965254
00000000: 802c c43c 75f3 093e 5bd6 2c3e 0a98 a23e
00000010: 055d 42bd 5328 593e 943f d83d a175 0a3e
00000020: e8ac 0bbe 174e 143e abad 26be a963 b7bd
00000030: bfc5 20be f485 623e 7582 6bbe 0a57 3fbe
00000040: 1786 973d 4b69 89be c703 9abd 2b01 083e
00000050: 8c52 793e aa3e ecbd dbdb 7d3d 1ace ccbd
00000060: 59e6 ecbd 503b 3cbe 3771 523e 4058 103d
00000070: b192 61be dbf7 613c 3c82 683e 2af7 6fbd
00000080: 87b6 42be c976 0cbe 8a50 4dbd cfcb cabe
00000090: a736 2f3e cddd 8bbe 3a70 0e3e bfaa 2ebe
000000a0: 6f45 d23d fc78 5bbe fae3 343e 3312 aa3d
000000b0: 71b0 09bd 1aed abbe e7d2 9f3e f13a 083e
000000c0: 695a 0ebd 4621 be3e a176 6abd adf8 bbbe
000000d0: a80b be3e e90a ff3d 9c65 8bbc b389 9fbe
000000e0: 9849 4bbd 0d58 e23c fee6 5cbd 6e34 e0bd
000000f0: a923 e5bc 26a5 8c3e b4be b0be 927f 21be
00000100: 25b6 973c 0819 083e 989e 26be d3af 3d3e
00000110: bfbb ce3e 439a 7cbe d654 9dbd 4436 183f
00000120: 3e81 bdba e8e3 613d 23e4 dcbd 1ab5 673d
00000130: 3a75 2dbe ab3b e1bc c360 8fbd 7257 73be
00000140: 7a95 c33d 7347 b63c 6d09 31be cc74 a43d
00000150: 3057 243d 9596 82be da4e be3d 36cb dbbe
00000160: f028 09bd 59a8 a4be 7db7 513e a7f2 3b3e
00000170: 49c4 9fbe 3383 ecbd c886 12bd c0f6 97bd
00000180: 9973 f2bd 3a63 4d3e 949c 31be 6e87 63be
00000190: 438d efbd 953e 9b3e b862 643e 5e82 15be
000001a0: a69f 073e f921 cd3d 074b 7c3e c10b eebd
000001b0: 2a01 0a3e cc28 91be 8e82 28be 70b1 ffbd
000001c0: 6cbb d1bc 6f5d 3b3e d2b4 243e d518 2d3d
000001d0: 6a39 49bd b93c 4b3d 7dbe 67bc 4297 a13d
000001e0: c341 0dbe 5a3e 4f3e 548b 953d a07e 613e
000001f0: aa19 bbbc 625a 173e c6b8 1b3e fb42 853d
00000200: 08f8 8d3e c327 39be 4e36 92be bdd6 9fbe
00000210: 128c 603e e5df 5b3d 0ca2 5e3d 05d7 1d3d
00000220: c205 3dbe 3791 63be ec7e 79bd a2e5 0f3e
00000230: 0a14 d33d 4a37 a5bc 8632 1dbe 0081 45bc
00000240: 54f9 0dbe 9778 593e 2bc6 19be 3f07 c6be
00000250: 43a2 6c3e 689d c83d c8f5 e03e ae18 773e
00000260: dc33 19be 24bd 943d 5f1a dfbd 1b5b 26be
00000270: 36e8 41be aa21 c1bd 352d c5bc d5f8 6bbe
00000280: a09d 553c 5608 d73d 88d1 f7be d8e8 c0bd
00000290: c20d 93bd f70e 8dbe 2015 eb3d 8c83 17be
000002a0: 4dc5 943e 9607 9b3e 0acf 083e b967 71be
000002b0: 84ae 1bbe 1658 3fbd d3d7 4c3d 305b 93bd
000002c0: 491f 1b3e 10c3 06be a649 0cbd 5417 913e
000002d0: dbe0 293e 60ba 783e 2b30 4cbe 420a cf3d
000002e0: 2bc0 5c3d 50d5 cb3e d09b 883d a884 733e
000002f0: 0c8a 3bbc 56e1 f23d d5f7 abbe 19da 18be
00000300: dc64 1b3e 86e0 423e 2ddc 4e3e 64ac 07bf
00000310: 003d 813e 54f1 dcbd 631f e3bd 4298 923d
00000320: 85ce 603c bcfc 313e 0382 3c3d 6866 85bd
00000330: 4ae1 03be 2f56 66be 86da 7bbe 3c28 443e
00000340: 04ce e93d 04b8 93bd dae6 9e3d 6fb2 6a3e
00000350: e5cc 80bd 8b0c cd3e b2ef 1c3e cc14 e6be
00000360: 87ec 113e 08f1 a0bc e108 87be 185c 5e3e
00000370: 9008 fd3c 736c e73d 876b 063e 6af7 86bc
00000380: a821 1d3e 4cff 8dbe 0d6e 3fbe b0a8 46be
00000390: 0469 8ebe 0ddb 3a3d ce0e 25be 4170 d7be
000003a0: 6eb5 22be e27f 343e 0533 b03e 17e6 493e
000003b0: 3c16 2b3e 2539 38be c212 dc3e 9d87 9ebe
000003c0: ef58 f6bd 74b9 6d3e 7cdf 6a3e 5376 0b3e
000003d0: b8aa 81be dccd 6fbd f57e fd3d cee2 863e
000003e0: 109f 6abc a0e1 723c 5a84 7abe 77d7 4d3d
000003f0: ae5d 85be dfa4 453e bb99 5abe 0a4e e5bd

l2.weight f4 [300, 400]
-0.03021655 0.00804329 0.013812105 -0.04729313 0.019747762 0.023703214 -0.0123791285 0.0030661335
0.013359902 -0.0114747975 -0.0050981715 0.056117304 -0.028714122 -0.043394953 0.04673288 0.037308425
0.053649016 -0.041460715 -0.015975723 0.06105715 -0.0319958 0.047513936 0.007931199 0.051399987
0.045546222 -0.032329734 0.043393962 -0.013387948 0.015978867 -0.03345559 -0.023391606 0.069455385
0.0027015158 -0.008403153 -0.010397971 0.03696898 -0.018726114 -0.0035681133 0.022545649 0.00243257
0.045707475 0.055508316 0.00086577307 -0.004862073 0.065029286 -0.0076827058 -0.018130047 0.025123538
0.056928314 -0.028001077 -0.0325423 -0.00051307544 0.09692746 0.006200582 -0.006036508 0.036310572
-0.003439445 -0.021095874 0.034514725 -0.00723527 0.046143882 0.028197285 0.047764994 -0.03639704
0.039203517 -0.03211012 0.03266469 0.00095071836 -0.034826346 -0.009256858 0.025421027 -0.24922518
0.015485064 -0.026497906 -0.010276176 -0.0021186832 0.040349815 -0.01771562 0.041132748 -0.014151483
0.059855584 0.06509082 0.06665902 0.041252974 0.035586864 0.026008718 -0.020245003 -0.00994445
-0.01593893 0.052265126 -0.012117376 -0.0034772153 0.032315977 -0.017713454 0.05715166 0.0057557556
0.04835039 -0.018548168 0.04761987 -0.024183985 0.067572154 0.008879441 0.007718645 -0.02158506
0.039496213 0.058988724 0.050254263 -0.008822589 0.035087038 0.0148696415 0.00028469265 0.057287917
0.011634367 0.0327946 0.052044317 0.054161202 -0.011855155 -0.056395564 0.033992004 0.053045176
0.00044146465 -0.046965983 -0.023815373 -0.044981997 -0.14529549 0.03645939 -0.04258148 0.08369233
0.008093048 -0.032626413 0.04376573 -0.025923729 -0.021778714 0.0005302445 -0.056662556 -0.034083847
0.030445062 -2.8386747e-05 0.0851082 -0.033254065 0.014980074 0.076693594 0.0125204325 0.059176
-0.025221448 -0.020518731 -0.02900362 0.05550183 -0.011400914 0.014180174 -0.00942611 -0.06851792
-0.03357417 0.05899706 -0.0011316831 0.029457096 -0.013351056 0.056119785 0.03981096 -0.030121017
-0.026185364 -0.012055379 0.045329705 0.049811278 -0.00429717 0.01820628 -0.03246633 0.022253845
-0.026177987 0.02452029 -0.03779909 0.020668028 0.03619167 -0.05837115 -0.032138098 0.08020652
0.056535594 0.13073653 0.039618958 -0.021233827 -0.0046941712 0.03059442 0.04128541 -0.033907812
-0.017543582 -0.06883796 0.039385054 0.06511314 -0.029740779 -0.014060999 0.025110172 -0.0045663035
0.0003953514 -0.0058827386 -0.03830017 0.05165769 -0.013703776 0.039826673 0.04125336 -0.010824769
-0.053749915 -0.04992313 0.025848454 9.703336e-05 0.0484987 0.0144045185 0.006974236 -0.012747164
0.030462246 -0.029767262 0.09809299 0.0376457 0.06388951 -0.00070434995 -0.025097454 0.0022232626
-0.033344496 0.0009319309 0.18622369 6.455611e-05 -0.014788348 0.0063997465 0.040303055 0.010921899
-0.043914776 0.04614256 0.051825345 -0.0013534817 -0.017178556 -0.0019536337 -0.036591716 -0.00548831
-0.023332154 0.011617951 -0.056622855 0.044304274 0.035926115 0.02030893 -0.03661346 -0.007848946
-0.04708543 0.10883897 -0.039814215 0.060111795 -0.009082567 0.017167632 -0.016917396 -0.06985524
-0.0056522735 0.048097912 0.009990932 -0.0005444765 0.0394711 -0.011980679 0.021658968 -0.02859897
00000000: b388 f7bc 01c8 033c 2b4c 623c 71b6 41bd
00000010: 0fc6 a13c 3e2d c23c d4d1 4abc 2ff1 483b
00000020: 7ee3 5a3c ca00 3cbc 900e a7bb 42db 653d
00000030: e139 ebbc e8be 31bd fa6a 3f3d b8d0 183d
00000040: 12bf 5b3d b6d2 29bd 85df 82bc 1017 7a3d
00000050: 070e 03bd f99d 423d dcf1 013c cb88 523d
00000060: ad8e 3a3d 2f6c 04bd debd 313d 2059 5bbc
00000070: 1de6 823c bb08 09bd c19f bfbc a03e 8e3d
00000080: ea0b 313b 61ad 09bc 405c 2abc c96c 173d
00000090: 8267 99bc 02d7 69bb a7b1 b83c c16b 1f3b
000000a0: c337 3b3d b05c 633d 0cf5 623a 0652 9fbb
000000b0: 132e 853d 35bf fbbb 7785 94bc e1cf cd3c
000000c0: aa2d 693d 8462 e5bc 134b 05bd e97f 06ba
000000d0: e781 c63d 402e cb3b e6cd c5bb 65ba 143d
000000e0: 5068 61bb 41d1 acbc 505f 0d3d d815 edbb
000000f0: 5e01 3d3d fefd e63c 3aa5 433d 1015 15bd
00000100: de93 203d e785 03bd 69cb 053d a139 793a
00000110: 12a6 0ebd 14aa 17bc c23f d03c e334 7fbe
00000120: 11b5 7d3c 2312 d9bc 685d 28bc 9bd9 0abb
00000130: d945 253d 5920 91bc d07a 283d 9fdb 67bc
00000140: 212b 753d 564e 853d 8684 883d e1f8 283d
00000150: 88c3 113d 3c10 d53c d9d8 a5bc 0cee 22bc
00000160: 5c92 82bc f513 563d f587 46bc fee1 63bb
00000170: c25d 043d ce1b 91bc dc17 6a3d c79a bc3b
00000180: 0f0b 463d 54f2 97bc 0e0d 433d 7e1d c6bc
00000190: 4563 8a3d 137b 113c b0ec fc3b 27d3 b0bc
000001a0: c8c6 213d 299e 713d 6ad7 4d3d 9f8c 10bc
000001b0: 6db7 0f3d cc9f 733c cd42 9539 bca6 6a3d
000001c0: 129e 3e3c a153 063d 6c2c 553d 23d8 5d3d
000001d0: 203c 42bc 09ff 66bd 333b 0b3d e645 593d
000001e0: 6274 e739 675f 40bd 7518 c3bc 0b3f 38bd
000001f0: 57c8 14be 7156 153d eb69 2ebd e266 ab3d
00000200: b498 043c 46a3 05bd b243 333d 005e d4bc
00000210: 4669 b2bc 1b00 0b3a ff16 68bd 819b 0bbd
00000220: ec67 f93c 1320 eeb7 354d ae3d 6a35 08bd
00000230: fc6e 753c 8811 9d3d 8022 4d3c 8962 723d
00000240: 369d cebc e616 a8bc 0099 edbc e355 633d
00000250: e6ca 3abc f653 683c f96f 1abc 2053 8cbd
00000260: 1285 09bd e7a6 713d fc54 94ba 0250 f13c
00000270: 63be 5abc dcdd 653d d110 233d 5ac0 f6bc
00000280: b082 d6bc ed83 45bc a4ab 393d e906 4c3d
00000290: 46cf 8cbb 5625 953c 6afb 04bd b24d b63c
000002a0: 3873 d6bc c6de c83c 38d3 1abd ff4f a93c
000002b0: b73d 143d 9616 6fbd 3da3 03bd 5143 a43d
000002c0: de91 673d ccdf 053e 7d47 223d 90f2 adbc
000002d0: 90d1 99bb 26a1 fa3c e41a 293d ebe2 0abd
000002e0: 8fb7 8fbc ebfa 8cbd 3952 213d 0a5a 853d
000002f0: efa2 f3bc 1b60 66bc d9b3 cd3c eea0 95bb
00000300: 2b47 cf39 fdc3 c0bb a4e0 1cbd 0497 533d
00000310: cd85 60bc 4b21 233d 49f9 283d 5f5a 31bc
00000320: df28 5cbd 327c 4cbd 23c0 d33c 637e cb38
00000330: 93a6 463d ee00 6c3c 2288 e43b 7bd9 50bc
00000340: f68b f93c 79da f3bc fae4 c83d 6132 1a3d
00000350: 81d8 823d 20a4 38ba 2d99 cdbc 28b4 113b
00000360: 3d94 08bd d34c 743a 6cb1 3e3e 4c62 8738
00000370: d44a 72bc f7b4 d13b d114 253d c4f1 323c
00000380: fbdf 33bd fbff 3c3d d046 543d 4f67 b1ba
00000390: 0bba 8cbc 8908 00bb 32e1 15bd 48d7 b3bb
000003a0: 1323 bfbc 3859 3e3c 5eed 67bd 6678 353d
000003b0: 4327 133d ea5e a63c fff7 15bd de98 00bc
000003c0: a7dc 40bd f7e6 de3d 3b14 23bd c937 763d
000003d0: 0ccf 14bc 22a3 8c3c 5a96 8abc 4410 8fbd
000003e0: b536 b9bb 5102 453d 02b1 233c 33bb 0eba
000003f0: 73ac 213d 9c4a 44bc 266e b13c 6348 eabc

l2.bias f4 [300]
0.0022299127 0.03859774 0.13600984 -0.025316112 0.035847187 -0.04417297 -0.055524923 -0.010919238
0.094574474 0.026400097 0.023318492 0.04326449 0.03334446 0.018552408 0.02823462 -0.0927295
0.003787387 0.023241911 0.01100008 -0.049064714 -0.04695266 -0.020807082 0.024882536 0.04495012
0.09881552 -0.022385903 0.0729625 0.04316178 0.035408136 -0.12007424 -0.030711172 0.07253659
0.1353149 0.038240917 0.033625677 0.03998404 0.00595892 -0.031618584 0.048965868 0.031335853
0.0068743275 -0.045673773 0.063911 0.011530407 -0.017094936 0.01967169 0.042813603 -0.04930095
-0.031077879 0.03028669 0.083962746 -0.025070064 -0.053037778 -0.015466687 -0.026708828 -0.016063426
-0.074596725 -0.028376402 0.0376777 0.014752933 -0.042164043 0.03091609 0.043777026 -0.09118005
0.035446767 0.056177747 0.0018085912 -0.073875435 0.026453031 -0.048136137 -0.04311139 -0.009272327
-0.034757502 -0.047351953 0.14024755 0.013065229 0.02482621 0.033915848 -0.0339733 0.0076760165
0.006776752 -0.017819844 0.0038906666 -0.011492275 -0.09570514 -0.035512414 0.027648948 0.040664952
-0.041477665 -0.09946887 0.06171779 -0.0011203308 0.009737837 0.040858872 0.028255675 -0.01629376
0.022595443 0.027984563 0.15013827 -0.04246642 0.044899814 -0.08913395 -0.04054319 -0.10341203
0.13167566 -0.010084851 0.019708281 0.2211947 -0.041730136 0.039314784 0.121526934 -0.003213774
-0.018371204 0.025675574 0.090253726 -0.015207029 -0.041738294 -0.06542308 0.14612983 0.02094632
-0.03914142 0.13387409 -0.0324644 -0.039665557 -0.0002178069 -0.03050765 -0.09432037 0.045892224
0.022955243 -0.02204523 0.12892117 -0.045516245 0.031024028 0.023017501 0.031976 0.009418162
0.029682294 -0.011021936 0.032475933 -0.0955791 0.03757433 -0.028689561 0.0046877926 -0.016838932
-0.02957294 0.037290007 0.077896535 0.012087612 -0.007206334 -0.029295549 -0.043669134 0.014784954
-0.018020049 0.009005977 -0.014768287 0.022804987 0.01355769 -0.008834075 -0.03319818 0.071823746
0.026080836 7.645193e-05 0.03670117 0.09912431 0.023036495 -0.0067607737 0.11147645 0.054568157
0.049068093 0.04312168 -0.08023714 0.00068147696 -0.007261705 0.014012492 -0.00094732986 -0.006059979
-0.07457817 0.035674214 0.0043012314 0.10803567 -0.07592828 0.036058404 0.08706985 -0.02438682
-0.060209036 0.00137021 0.027780237 -0.062462695 0.0038052723 0.031948376 0.037082303 0.008698612
-0.012829918 -0.00078575895 0.007594107 -0.031908195 0.036921967 0.039447766 0.052231804 0.03176283
-0.03346022 -0.03189837 -0.015189434 -0.08487925 0.036023717 -0.018557105 0.010613949 0.045123864
0.026335277 -0.017039003 -0.09666844 -0.05505204 0.110264525 0.042254176 0.018908892 -0.016932411
-0.028073711 -0.027559455 0.018171607 0.0073486352 0.020692263 -0.089130424 0.011767876 0.004371941
-0.030838715 0.015510966 -0.012085664 -0.062288202 0.095531106 -0.053123 0.10579258 -0.025385182
0.021418978 0.08313694 0.016272979 -0.04208191 0.039112598 0.031301975 0.0059705246 0.04165585
0.0124430675 -0.04773784 -0.0344014 -0.013233176 -0.044400226 -0.024544265 -0.012840869 0.07856841
0.039838996 -0.010533521 0.062485013 -0.05219908 -0.029983958 -0.035859585 -0.01881557 -0.005171269
00000000: ba23 123b aa18 1e3d 2a46 0b3e bc63 cfbc
00000010: 80d4 123d b7ee 34bd 1a6e 63bd 9be6 32bc
00000020: 43b0 c13d 0445 d83c 6c06 bf3c 1b36 313d
00000030: 3394 083d 38fb 973c 4a4c e73c f7e8 bdbd
00000040: cf35 783b d265 be3c ae39 343c 15f8 48bd
00000050: 6f51 40bd 9d73 aabc 76d6 cb3c 9e1d 383d
00000060: cb5f ca3d a462 b7bc 5d6d 953d 68ca 303d
00000070: 1f08 113d 7ce9 f5bd ff95 fbbc 108e 943d
00000080: fd8f 0a3e 82a2 1c3d 14bb 093d 4ec6 233d
00000090: 0b43 c33b 7d82 01bd 6f90 483d 065a 003d
000000a0: 0a42 e13b 6c14 3bbd c5e3 823d 08ea 3c3c
000000b0: ae0a 8cbc 8626 a13c 515d 2f3d cbef 49bd
000000c0: 0997 febc cb1b f83c a9f4 ab3d bc5f cdbc
000000d0: 243e 59bd fd67 7dbc 79cc dabc 7297 83bc
000000e0: 2bc6 98bd a175 e8bc ef53 1a3d 49b6 713c
000000f0: 34b4 2cbd bd43 fd3c 8a4f 333d 9bbc babd
00000100: a130 113d a31a 663d 400e ed3a 014c 97bd
00000110: 07b4 d83c 662a 45bd 9295 30bd f5ea 17bc
00000120: e25d 0ebd 1ff4 41bd 0e9d 0f3e 8b0f 563c
00000130: 5660 cb3c 58eb 0a3d 9627 0bbd 1887 fb3b
00000140: 840f de3b ecfa 91bc 8efa 7e3b 184a 3cbc
00000150: 0e01 c4bd 7775 11bd 0c80 e23c 4b90 263d
00000160: 7ce4 29bd 56b6 cbbd cbcb 7c3d 10d8 92ba
00000170: 738b 1f3c a25b 273d 7278 e73c 7e7a 85bc
00000180: 141a b93c e23f e53c d9bd 193e 45f1 2dbd
00000190: dee8 373d dc8b b6bd 9e10 26bd b0c9 d3bd
000001a0: fcd5 063e ee3a 25bc 4373 a13c dd80 623e
000001b0: 38ed 2abd 8a08 213d 1de3 f83d 2e9e 52bb
000001c0: 357f 96bc 9555 d23c f2d6 b83d e726 79bc
000001d0: c6f5 2abd 89fc 85bd 0fa3 153e 9e97 ab3c
000001e0: c152 20bd 4a16 093e 64f9 04bd 5a78 22bd
000001f0: 1863 64b9 2eeb f9bc 0a2b c1bd 7cf9 3b3d
00000200: a20c bc3c 3398 b4bc e903 043e 3e6f 3abd
00000210: 1a26 fe3c 338f bc3c 44f9 023d a24e 1a3c
00000220: 4828 f33c 5a95 34bc 7c05 053d fabe c3bd
00000230: 8ae7 193d 5f06 ebbc 0e9c 993b cdf1 89bc
00000240: f342 f2bc 68bd 183d 3888 9f3d 1f0b 463c
00000250: 1c23 ecbb 38fd efbc 68de 32bd 973c 723c
00000260: c89e 93bc ce8d 133c aff6 71bc 86d1 ba3c
00000270: 1321 5e3c ccbc 10bc d1fa 07bd 5418 933d
00000280: 7aa7 d53c d154 a038 f753 163d b001 cb3d
00000290: 08b7 bc3c 7b89 ddbb c44d e43d dc82 5f3d
000002a0: a0fb 483d 5ca0 303d 5f53 a4bd 25a5 323a
000002b0: 99f3 edbb a794 653c 3b56 78ba ca92 c6bb
000002c0: 71bc 98bd 201f 123d 58f1 8c3b ce41 dd3d
000002d0: 4980 9bbd fab1 133d ad51 b23d dec6 c7bc
000002e0: c09d 76bd 9e98 b33a 6193 e33c e2d8 7fbd
000002f0: e061 793b 4ddc 023d 9de3 173d a084 0e3c
00000300: 9434 52bc 64fb 4dba fdd7 f83b 2bb2 02bd
00000310: 7d3b 173d fb93 213d 04f1 553d be19 023d
00000320: 950d 09bd dda7 02bd 1bdd 78bc 2cd5 adbd
00000330: 9b8d 133d 1205 98bc 21e6 2d3c cdd3 383d
00000340: 14bd d73c 6195 8bbc 1afa c5bd 3f7e 61bd
00000350: 5ed2 e13d b712 2d3d d2e6 9a3c d7b5 8abc
00000360: d7fa e5bc 5ec4 e1bc 9fdc 943c d2cc f03b
00000370: d282 a93c 038a b6bd 0dce 403c 8042 8f3b
00000380: 79a1 fcbc b521 7e3c f302 46bc ea21 7fbd
00000390: d0a5 c33d 8197 59bd c8a9 d83d 96f4 cfbc
000003a0: da76 af3c b343 aa3d e94e 853c 155e 2cbd
000003b0: 8834 203d 8036 003d 64a4 c33b 539f 2a3d
000003c0: 02de 4b3c c188 43bd 7be8 0cbd f7cf 58bc
000003d0: 03dd 35bd 0e11 c9bc 8262 52bc 79e8 a03d
000003e0: 372e 233d ca94 2cbc 49f0 7f3d b4ce 55bd
000003f0: eba0 f5bc 80e1 12bd 1c23 9abc c073 a9bb

l3.weight f4 [6, 300]
0.06229318 0.046495844 -0.11326933 -0.023685569 0.0155800795 -0.014911657 0.067179725 0.0002758634
0.002202247 -0.02550068 0.057785932 -0.03712732 0.015440392 -0.0035004679 -0.0544188 0.03413783
0.00946334 -0.0036624428 0.024692517 0.0894531 0.016029857 0.030688332 -0.053386465 -0.09683143
-0.07192384 -0.04793534 -0.051621415 -0.048502296 -0.029958088 0.07037971 -0.04357555 -0.04368765
-0.02312596 0.13227871 -0.014241445 -0.022508454 0.043384638 0.0014709124 -0.08648047 0.01153367
0.009939367 -0.034315415 0.10242165 -0.01750667 0.005670409 -0.0077865124 -0.055745278 -0.043899313
0.078053564 -0.031072676 -0.051487207 -0.055257242 -0.0091984095 0.033887964 0.024070352 0.0046019307
0.04629622 0.05569781 -0.0023228754 -0.009659964 -0.026150439 -0.045412768 -0.057609458 0.09462121
-0.030100694 -0.06900636 0.051698312 0.102249704 0.04013201 -0.030630156 -0.06182663 0.0027092802
0.06551879 -0.024700493 -0.08634302 -0.06485903 -0.008458329 -0.04245271 0.0153586725 0.031230226
0.036905307 -0.048672754 -0.025087398 -0.0033194534 0.157097 -0.031296864 0.0029737826 0.003989637
0.027038846 0.048356205 -0.01828551 -0.072814874 0.018039078 -0.031021556 -0.038112298 0.04673104
-0.050035615 -0.045285627 -0.10582681 -0.01847955 0.010401224 0.108004496 0.002682029 0.123454496
-0.019508822 -0.035679113 -0.042325027 0.024318267 -0.0017676571 -0.05939328 -0.07300099 -0.0051831086
0.019993978 -0.0133992005 -0.08324705 0.0016169212 0.034606826 -0.014443311 -0.083443075 0.0067899153
-0.059074994 -0.040740587 0.08298574 0.056354765 0.03603517 -0.064904965 0.12505963 0.08596492
0.00073331594 0.010957077 -0.023205683 -0.021845924 -0.042231347 0.14919616 -0.009926279 0.04895732
0.092629954 -0.01794507 -0.0051959236 0.05699638 0.03348168 -0.013152016 0.055786315 0.021294106
0.036725935 -0.054597512 -0.09238092 0.06043832 0.04525486 -0.028353155 0.015515884 0.05641627
-0.02377063 -0.03990336 0.06721893 0.008100092 -0.00097138656 -0.01266381 -0.011335984 -0.08224866
0.037663758 0.13377799 0.0019488782 -0.04103353 0.04768922 -0.048763357 -0.031857334 -0.095582604
-0.031534255 -0.0051167556 -0.021771144 -0.04357375 0.022179166 0.039634652 0.020150678 0.043327276
0.04725781 -0.027239308 -0.044390157 -0.06553817 0.016505277 0.03170471 -0.018235182 -0.02867992
0.08183646 -0.017826082 0.0056763454 -0.04270283 -0.026152633 -0.04481883 -0.015371001 -0.0397183
-0.0108676925 -0.031096678 -0.00104976 0.05415776 0.05153472 -0.0176327 -0.07615968 -0.05323236
-0.014447156 0.03572307 0.008657035 0.075719886 -0.062038336 0.029828252 -0.028166752 -0.04120104
0.052499913 -0.038689073 0.12278748 0.027745022 0.025919085 -0.026338005 -0.043080676 0.02715164
-0.019215614 0.0331569 -0.022550056 -0.054994725 -0.0045925598 0.029071111 0.016279211 0.038683254
-0.08564265 -0.025776265 -0.046500772 0.003918903 -0.042605866 0.031635664 -0.104346275 0.029036764
-0.045297835 -0.01872475 -8.985864e-05 -0.09200945 -0.047722097 -0.02046525 -0.0030260787 -0.008352824
0.05146582 0.04253079 0.01723338 0.0043891883 -0.019377721 -0.0087811835 0.038637403 -0.054501582
-0.014613996 -0.039314926 0.17152555 0.027650982 -0.05312087 -0.0023569427 0.022051523 0.04715518
00000000: 2227 7f3d 6d72 3e3d c0f9 e7bd 3d08 c2bc
00000010: 9743 7f3c 0650 74bc 8695 893d c2a1 9039
00000020: 9353 103b cde6 d0bc f1b0 6c3d d112 18bd
00000030: b3f9 7c3c 1b68 65bb 3fe6 5ebd 1cd4 0b3d
00000040: 200c 1b3c 9805 70bb f647 ca3c 3033 b73d
00000050: 0c51 833c 1966 fb3c c4ab 5abd 8f4f c6bd
00000060: ce4c 93bd d957 44bd fa70 53bd 58aa 46bd
00000070: aa6a f5bc 3d23 903d 477c 32bd d2f1 32bd
00000080: a772 bdbc 1274 073e f354 69bc a663 b8bc
00000090: 17b4 313d a1cb c03a ac1c b1bd b8f7 3c3c
000000a0: bad8 223c 528e 0cbd 71c2 d13d 266a 8fbc
000000b0: d7ce b93b 0026 ffbb 2955 64bd c4cf 33bd
000000c0: 8cda 9f3d 208c febc 40e4 52bd 6b55 62bd
000000d0: edb4 16bc 1bce 0a3d 302f c53c cbcb 963b
000000e0: 1ba1 3d3d 6323 643d 623b 18bb d344 1ebc
000000f0: 7239 d6bc bd02 3abd e5f7 6bbd c4c8 c13d
00000100: bb95 f6bc 3553 8dbd 9cc1 533d 4b68 d13d
00000110: 7661 243d 18ec fabc ec3d 7dbd 2e8e 313b
00000120: b72e 863d b058 cabc 9cd4 b0bd d0d4 84bd
00000130: ce94 0abc e5e2 2dbd f1a2 7b3c 88d6 ff3c
00000140: 052a 173d 155d 47bd 1684 cdbc 308b 59bb
00000150: 09de 203e 2431 00bd cbe3 423b 80bb 823b
00000160: 9280 dd3c 2811 463d 7ecb 95bc f71f 95bd
00000170: b0c6 933c eb20 febc a41b 1cbd 0c69 3f3d
00000180: 25f2 4cbd 6c7d 39bd babb d8bd 6d62 97bc
00000190: e569 2a3c 7631 dd3d fbc4 2f3b b6d5 fc3d
000001a0: f7d0 9fbc 4324 12bd 025d 2dbd 1a37 c73c
000001b0: bbb0 e7ba 5e46 73bd 8b81 95bd 11d7 a9bb
000001c0: 69ca a33c 5288 5bbc 6e7d aabd dfee d33a
000001d0: e3bf 0d3d a3a3 6cbc 34e4 aabd f07d de3b
000001e0: 9ff8 71bd 9adf 26bd 6df4 a93d 41d4 663d
000001f0: 9d99 133d e5ec 84bd a20f 003e 600e b03d
00000200: 003c 403a 5085 333c d819 bebc 39f6 b2bc
00000210: c7fa 2cbd e1c6 183e d5a1 22bc 7987 483d
00000220: c6b4 bd3d 8a01 93bc 9142 aabb 0975 693d
00000230: 1624 093d 8e7b 57bc 3180 643d fa70 ae3c
00000240: ef6d 163d a4a1 5fbd 3532 bdbd 2c8e 773d
00000250: 295d 393d e044 e8bc 5636 7e3c bf14 673d
00000260: a0ba c2bc b571 23bd 14aa 893d 40b6 043c
00000270: a6a4 7eba de7b 4fbc 90ba 39bc fc71 a8bd
00000280: 5045 1a3d 19fd 083e 8071 ff3a c612 28bd
00000290: c655 433d 16bc 47bd d67c 02bd d0c0 c3bd
000002a0: 102a 01bd 75aa a7bb 6659 b2bc 637a 32bd
000002b0: 15b1 b53c f257 223d 0913 a53c f177 313d
000002c0: 6891 413d f824 dfbc 74d2 35bd e038 86bd
000002d0: 1336 873c ccdc 013d f361 95bc 27f2 eabc
000002e0: e099 a73d 0108 92bc a300 ba3b 2ae9 2ebd
000002f0: 0c3e d6bc f393 37bd a7d6 7bbc a8af 22bd
00000300: 680e 32bc 76be febc 1a98 89ba 87d4 5d3d
00000310: 1216 533d 7472 90bc 9bf9 9bbd 2d0a 5abd
00000320: c4b3 6cbc 5b52 123d 3dd6 0d3c 0713 9b3d
00000330: e91b 7ebd 615a f43c f6bd e6bc 6cc2 28bd
00000340: 260a 573d 6f78 1ebd 0178 fb3d 8749 e33c
00000350: 4354 d43c cdc2 d7bc 5d75 30bd 1e6d de3c
00000360: 106a 9dbc 88cf 073d e5ba b8bc 2642 61bd
00000370: 2f7d 96bb 8a26 ee3c fb5b 853c 5572 1e3d
00000380: 6a65 afbd bf28 d3bc 9877 3ebd 246a 803b
00000390: 7d83 2ebd 6694 013d 80b3 d5bd 82de ed3c
000003a0: 398a 39bd a664 99bc 7d72 bcb8 736f bcbd
000003b0: 3f78 43bd bda6 a7bc 2d51 46bb 48da 08bc
000003c0: d3cd 523d c434 2e3d 042d 8d3c 2ed3 8f3b
000003d0: 07be 9ebc f4de 0fbc 4142 1e3d 0d3d 5fbd
000003e0: 8b6f 6fbc b008 21bd 65a4 2f3e 5084 e23c
000003f0: 4595 59bd f076 1abb 65a5 b43c ca25 413d

l3.bias f4 [6]
-0.1384105 0.016745478 -0.005677273 -0.024562914 0.08440603 0.016450124
00000000: 7bbb 0dbe d02d 893c 6b08 babb 2a38 c9bc
00000010: 12dd ac3d 69c2 863c
