2019_test_data/dual_assembly/TD3_Peg-in-hole-dual_assembly_seed_1/_actor.pth (torch_old, 510312 bytes, 6 tensors)

l1.weight f4 [400, 12]
0	0x3dea8052	0.114502564
1	0x3caf7c54	0.021421589
2	0x3d784db9	0.060620997
3	0xbe48ac10	-0.19596887
4	0xbe0b1ac7	-0.13584433
5	0x3b9847b8	0.0046472214
6	0xbe6110d2	-0.21979073
7	0x3e9feec0	0.3123684
8	0xbea1d252	-0.31605774
9	0xbdd6b0bf	-0.104829304
10	0x3e12c5be	0.14333245
11	0x3f084920	0.5323658
12	0xbe332d82	-0.17497829
13	0xbdd068b1	-0.10176218
14	0x3cc89287	0.024483932
15	0xbd450096	-0.048096262
16	0x3eb66025	0.35620227
17	0xbc8b0a29	-0.016972618
18	0x3ee4194b	0.44550547
19	0xbde85740	-0.113447666
20	0xbdf2f07c	-0.11862275
21	0xbe713d16	-0.23558459
22	0xbe8f09dc	-0.2793721
23	0x3cfd077b	0.030887356
24	0xbdb1e506	-0.08686261
25	0x3cc7f9da	0.02441113
26	0x3e999540	0.2999668
27	0x3dd60ebf	0.10452031
28	0xbe4993b5	-0.19685252
29	0x3e9a558e	0.30143398
30	0x3e0860db	0.13318197
31	0x3ea7949b	0.32730564
32	0x3e2e02f6	0.16993317
33	0xbe6eae7a	-0.23308745
34	0xbea38536	-0.3193757
35	0xbe9b0534	-0.30277407
36	0x3e81c950	0.25348902
37	0xbd44f410	-0.04808432
38	0x3dfd0330	0.123541236
39	0xbe095ec8	-0.13415062
40	0x3e910692	0.28325325
41	0xbdfa237c	-0.12213799
42	0x3e5dae24	0.2164846
43	0x3b600700	0.003418386
44	0xbe1bba9f	-0.15207909
45	0x3e17f1ca	0.14838329
46	0xbe1ce986	-0.15323457
47	0x3dade06c	0.08490071
48	0xbe9bb45a	-0.30411035
49	0x3d0ea322	0.034823544
50	0xbc63281f	-0.013864546
51	0xbe3cd3b9	-0.18440141
52	0x3e5058ed	0.20346422
53	0xbe590f86	-0.21197328
54	0x3d1f7eb4	0.038939193
55	0x3ecf665f	0.4050779
56	0xbe21ff05	-0.15819938
57	0x3daa2107	0.08307081
58	0x3e85826b	0.26076064
59	0x3f133a86	0.57511175
60	0xbe3f1576	-0.1866053
61	0x3e4001ee	0.18750736
62	0x3e337618	0.17525518
63	0x3e8315a6	0.25602454
64	0xbe25b40b	-0.16181962
65	0xbd42a1e0	-0.047517657
66	0xbbb73e80	-0.0055921674
67	0x3d2cb348	0.042163163
68	0xbe6056ba	-0.21908084
69	0xbe51c449	-0.20485033
70	0x3e20cf40	0.1570406
71	0xbd8aa21a	-0.067692
72	0x3e0ddb15	0.13853104
73	0x3cdf007d	0.027221913
74	0x3df772fd	0.12082479
75	0x3d81f3ef	0.06345355
76	0x3dd69f36	0.10479586
77	0x3e1276ab	0.1430308
78	0xbe7ad7cf	-0.24496387
79	0x3dfb3f0d	0.12267885
80	0xbe66526c	-0.22492379
81	0xbe61e476	-0.22059807
82	0x3c6a6e0e	0.014308466
83	0xbd470112	-0.048585005
84	0xbe8f7ab9	-0.28023317
85	0xbd929ce6	-0.07158832
86	0xbd3c6e89	-0.046003852
87	0x3ecbd957	0.39814255
88	0xbdf71ded	-0.12066255
89	0x3dcba146	0.0994287
90	0xbd95fcf2	-0.07323636
91	0xbea31103	-0.31848916
92	0xbe2c8c44	-0.16850382
93	0x3e60d982	0.21957973
94	0xbe60ebb8	-0.2196492
95	0x3e20c68d	0.15700741
96	0xbe0974ee	-0.13423511
97	0x3ea9e9f2	0.331863
98	0x3cd8de2a	0.026473124
99	0xbed3802b	-0.41308722
100	0x3ed54bc9	0.41659382
101	0xbdcd4cb9	-0.10024399
102	0xbd2c9ce5	-0.042141814
103	0x3d121c4e	0.035671525
104	0xbf1c9074	-0.6115792
105	0x3d07a9cb	0.03312091
106	0x3efd314b	0.4945167
107	0x3e798082	0.24365428
108	0x3deac6ad	0.11463676
109	0x3e2b3ce1	0.16722442
110	0xbd1b4e34	-0.037916377
111	0x3d11d50d	0.03560357
112	0x3ec07518	0.37589335
113	0xbeca35af	-0.39494082
114	0x3d3ba5bd	0.045812357
115	0x3e4b9daa	0.19884363
116	0x3e90bb07	0.2826769
117	0x3db0cfab	0.086333595
118	0xbe4b3b4d	-0.1984684
119	0xbbe1f943	-0.0068961694
120	0xbf3306ea	-0.69932425
121	0xbe0719fa	-0.13193503
122	0x3e9590ca	0.29212028
123	0xbd3cf97b	-0.04613636
124	0x3eff1363	0.49819478
125	0x3de89195	0.113558926
126	0xbf2e0f0e	-0.6799172
127	0xbc826394	-0.015916623
128	0x3e7bf318	0.24604452
129	0x3e8dc906	0.2769243
130	0x3d7085fa	0.05872152
131	0x3dfa719b	0.122287
132	0x3eb8e289	0.36110333
133	0x3eac0b9e	0.33602613
134	0x3e090ad7	0.13383041
135	0x3db2e71d	0.087354876
136	0x3d73fe87	0.059568908
137	0xbe0693b2	-0.13142279
138	0xbeb3360a	-0.35002166
139	0xbee91ca0	-0.45529652
140	0x3c8d0554	0.017214455
141	0xbea23443	-0.31680498
142	0xbd874d93	-0.06606593
143	0x3eef98d3	0.46796283
144	0x3ec2c72e	0.38042587
145	0xbed9e51c	-0.4255761
146	0x3d30d2e8	0.043169886
147	0x3e3986a6	0.1811777
148	0x3e730ee2	0.23736146
149	0xbe4ebc2f	-0.20188974
150	0xbe17a358	-0.14808404
151	0x3f29ec89	0.6637655
152	0x3c013f6d	0.007888657
153	0xbd4cbf86	-0.04998734
154	0xbe8318f0	-0.25604963
155	0x3e8c32dc	0.27382553
156	0xbe2cb148	-0.16864502
157	0xbdfcdf66	-0.12347297
158	0x3e522a3c	0.20523924
159	0xbdc131f4	-0.09433356
160	0xbe5ce618	-0.21572149
161	0x3de37778	0.11106771
162	0x3dbd4950	0.09242499
163	0x3e3f75a2	0.18697217
164	0xbe18f76c	-0.14938134
165	0x3d802eb8	0.06258911
166	0xbdd73aaa	-0.10509236
167	0xbd84d446	-0.064858004
168	0xbf18d94e	-0.5970658
169	0x3e80d131	0.251596
170	0x3c6857af	0.014181062
171	0xbe9afbe3	-0.302703
172	0x3dee3c40	0.116325855
173	0x3e097eb0	0.13427234
174	0x3ef7e598	0.48417354
175	0xbe244e50	-0.16045499
176	0xbd181a9b	-0.037134748
177	0x3e9bc8b1	0.30426553
178	0xbef6895c	-0.48151672
179	0x3eab18ae	0.33417267
180	0xbed87268	-0.42274785
181	0x3e85af1c	0.2611016
182	0xbd914ccf	-0.07094728
183	0xbdf1b1ba	-0.11801477
184	0xbf174d87	-0.5910267
185	0x39013773	0.00012323055
186	0xbeba1985	-0.36347595
187	0xbe935b6f	-0.28780696
188	0xbd82ab9a	-0.06380387
189	0xbe89f437	-0.26944134
190	0x3e57d436	0.21077046
191	0xbbd33b97	-0.0064463126
192	0xbeb5c44e	-0.3550133
193	0x3cb477e9	0.022029834
194	0x3e777b1b	0.24168055
195	0xbe36f92b	-0.17868488
196	0x3e4ca884	0.19986159
197	0xbbe54af4	-0.0069974605
198	0x3ef8105a	0.48449975
199	0xbef03fd8	-0.4692371
200	0x3dae9b44	0.08525708
201	0xbe1f98da	-0.15585652
202	0x3d95125f	0.07278895
203	0xbe8a7590	-0.27042818
204	0x3da25e38	0.07928127
205	0x3e722c03	0.23649602
206	0x3d3363e6	0.043796442
207	0xbed5779e	-0.41692823
208	0xbd09d035	-0.033645827
209	0x3dff9ecd	0.12481461
210	0x3d060c13	0.03272636
211	0x3b9de225	0.0048182183
212	0xbf2e022d	-0.6797207
213	0x3bb3c4d6	0.005486111
214	0x3edae83f	0.42755315
215	0xbd887424	-0.06662777
216	0x3e78642b	0.24256961
217	0x3d815522	0.06315066
218	0xbcb7e64c	-0.022448681
219	0x3e143e91	0.14476992
220	0xbf19ab73	-0.60027236
221	0x3eb19efb	0.34691605
222	0xbdbdd1d3	-0.092685364
223	0xbf19994c	-0.5999954
224	0xbca5ed49	-0.020254748
225	0xbeccc82a	-0.39996463
226	0xbe71a89a	-0.23599473
227	0x3dcecc00	0.10097504
228	0x3e960c01	0.29306033
229	0x3e4bafb8	0.1989125
230	0x3cc7cefb	0.024390688
231	0xbebec80d	-0.37262002
232	0x3ec4601b	0.38354573
233	0xbea52057	-0.32251236
234	0xbede4dc2	-0.434187
235	0x3e8f2c9d	0.27963725
236	0xbe61a26a	-0.22034612
237	0xbdb93e5b	-0.090450965
238	0x3edc1aa2	0.4298907
239	0x3e9d9db4	0.3078438
240	0xbe7c30eb	-0.24628036
241	0xbb47eb57	-0.0030505264
242	0x3da9b97e	0.08287333
243	0xbca74110	-0.020416766
244	0xbdca2810	-0.098709226
245	0x3e8b7e04	0.2724458
246	0xbe93d5f4	-0.2887417
247	0xbebe4b52	-0.3716684
248	0xbe23c0e5	-0.15991552
249	0x3ed5a8fb	0.41730484
250	0x3e807ffc	0.25097644
251	0xbec18e53	-0.37803897
252	0x3e69e7f8	0.22842395
253	0x3e5d7afa	0.21628943
254	0xbced3554	-0.028956093
255	0xbea77b41	-0.32711223

l1.bias f4 [400]
0	0x3f189e35	0.59616405
1	0x3dbf6a0d	0.093463995
2	0xbb93af68	-0.004506994
3	0xbe213205	-0.15741737
4	0xbeca9bd8	-0.39572024
5	0x3dc1f900	0.09471321
6	0xbbbd61d6	-0.005779485
7	0xbea5937f	-0.32339093
8	0x3ee51c23	0.4474803
9	0x3e9e8ab2	0.3096519
10	0x3dedb9f7	0.116077356
11	0xbe1aa92a	-0.15103593
12	0x3f073ee3	0.5283033
13	0x3d18c1c8	0.03729418
14	0xbe9196d9	-0.284354
15	0xbf030a6f	-0.51187795
16	0x3c7e44a3	0.015519294
17	0x3d6b0bc2	0.05738426
18	0xbea257c1	-0.31707576
19	0xbcab81eb	-0.020935973
20	0x3e6520ad	0.22375746
21	0xbead24c1	-0.33817104
22	0xbcdf9c93	-0.02729634
23	0xbe4917df	-0.19638012
24	0xbed38907	-0.4131548
25	0x3eedb38f	0.46426055
26	0xbe5d26dc	-0.21596855
27	0xbeb07dc6	-0.34470958
28	0x3f01492d	0.5050228
29	0xbe3c353a	-0.1837968
30	0x3e5c3276	0.21503624
31	0x3e45b5ea	0.19307676
32	0x3e0898fa	0.13339606
33	0x3e434d38	0.19072425
34	0x3e9c8059	0.30566671
35	0xbe12b05c	-0.14325088
36	0xbe7ceab8	-0.24698913
37	0x3e352c42	0.17692664
38	0xbd196fa7	-0.037459996
39	0x3efc31c8	0.4925673
40	0x3f3b3926	0.73134077
41	0xbdd1c323	-0.102422975
42	0x3dca0f3e	0.098661885
43	0xbda3bb01	-0.079946525
44	0x3da2c23c	0.079472035
45	0x3cbe5d00	0.023237705
46	0xbed6caf1	-0.41951707
47	0xbf3b8564	-0.7325041
48	0xbd7dc5ca	-0.061956204
49	0x3ee82674	0.45341837
50	0x3da67818	0.08128375
51	0x3e17f1df	0.1483836
52	0xbf19160a	-0.59799254
53	0x3e6ed4e4	0.23323399
54	0xbde5def5	-0.11224166
55	0x3e240cd2	0.16020516
56	0xbec2c5dc	-0.3804158
57	0xbe810672	-0.2520023
58	0x3d040bdf	0.032237884
59	0x3eae6618	0.34062266
60	0xbe172858	-0.14761484
61	0x3e10337a	0.14082137
62	0xbd43f3b1	-0.047839824
63	0xbe35e84c	-0.17764395
64	0xbf07460b	-0.5284125
65	0xbedab998	-0.42719722
66	0xbd8fd787	-0.070235305
67	0xbd0f2a47	-0.03495243
68	0x3e496f32	0.19671324
69	0xbcd41452	-0.025888596
70	0xbedbfc7f	-0.42966077
71	0xbec04f35	-0.3756043
72	0xbef83517	-0.48478004
73	0xbeb5db4d	-0.35518876
74	0xbe382936	-0.1798447
75	0x3eeb08ed	0.45905247
76	0xbe63ea10	-0.22257257
77	0xbd9f92ca	-0.0779167
78	0x3e349ca7	0.17637883
79	0xbe1a4e46	-0.15068921
80	0xbd735d26	-0.059415005
81	0xbd784d04	-0.060620323
82	0xbe86bcf9	-0.2631605
83	0x3d5a1bac	0.053249046
84	0xbe855200	-0.26039124
85	0x3ea350e7	0.3189766
86	0xbc067e20	-0.0082087815
87	0xbe99e744	-0.30059254
88	0x3e5af689	0.21383108
89	0x3e125a8a	0.1429235
90	0xbe1e4510	-0.15456033
91	0xbbcc9ab3	-0.0062440275
92	0x3d781a52	0.060571976
93	0xbedbaa47	-0.4290335
94	0x3d28c461	0.041202907
95	0x3cd82181	0.026383163
96	0xbed3d091	-0.4137006
97	0xbe70c1b0	-0.23511386
98	0x3d562379	0.052279923
99	0x3d892246	0.0669599
100	0xbd7bf21c	-0.06151019
101	0x3dc43201	0.0957985
102	0xbe84bc68	-0.25924993
103	0xbdd7d175	-0.10537998
104	0xbe8073f2	-0.2508846
105	0x3e4e7dbe	0.20165154
106	0xbec3cee4	-0.38243783
107	0xbe88e0f6	-0.26734132
108	0xbe92e8c4	-0.2869321
109	0xbd87a835	-0.0662388
110	0x3d1a57a7	0.037681248
111	0x3edfa10f	0.43677565
112	0x3dd21a85	0.102589644
113	0xbed3eea0	-0.41392994
114	0xbede40b7	-0.43408749
115	0xbefe2a6b	-0.49641737
116	0xbe9c6d5c	-0.30552185
117	0xbd616570	-0.05502838
118	0x3e83a912	0.25714928
119	0x3ed77ea1	0.42088798
120	0x3ccd4d30	0.02506122
121	0xbdb7bdb1	-0.08971728
122	0xbe22f887	-0.15915118
123	0xbf0f851b	-0.5606248
124	0x3e83c23b	0.25734124
125	0x3e12831c	0.14307827
126	0x3db68c00	0.08913422
127	0xbdcc99d4	-0.09990278
128	0x3e8913b4	0.26772845
129	0xbe8acb13	-0.27108058
130	0xbda5dc6f	-0.08098685
131	0xbeb307d9	-0.34966925
132	0xbe37ded6	-0.17956099
133	0xbe06af2d	-0.13152762
134	0xba9af866	-0.0011823296
135	0xbdd852da	-0.10562678
136	0xbe6aa779	-0.22915448
137	0xbee72a9a	-0.4514969
138	0xbf26f6a8	-0.6522012
139	0xbf402df6	-0.7507013
140	0x3c8bd54f	0.017069487
141	0x3ee2c095	0.44287553
142	0x3e311046	0.17291364
143	0xbe5db1a4	-0.21649796
144	0xbedd4f74	-0.4322468
145	0x3e9f791b	0.31147084
146	0xbeca95c4	-0.39567387
147	0x3dff0c18	0.124534786
148	0xbeb4d12b	-0.35315832
149	0xbea31d07	-0.31858084
150	0x3ed2cb96	0.4117095
151	0x3da94ecc	0.082669824
152	0xbf2a6ebd	-0.66575223
153	0x3cc6273b	0.024188628
154	0xbee38127	-0.44434473
155	0xbf1ffcd0	-0.62495136
156	0xbf279b02	-0.654709
157	0xbf51743f	-0.81818
158	0xbebafb2c	-0.36519754
159	0xbccb17bb	-0.024791589
160	0x3db62bc3	0.08895066
161	0xbf0c195a	-0.54726183
162	0x3f2949fa	0.66128504
163	0x3bb76dd1	0.005597808
164	0x3d91b726	0.07115011
165	0x3e92392b	0.2855924
166	0xbe408fd9	-0.18804874
167	0xbf34396c	-0.7040012
168	0xbdf69e7a	-0.12041946
169	0xbe623152	-0.22089127
170	0xbf263c12	-0.6493541
171	0x3d313b00	0.043269157
172	0xbe60ccfc	-0.21953195
173	0x3e9d3117	0.30701515
174	0xbf2b9cb6	-0.67035997
175	0x3e3cb333	0.18427734
176	0xbe9e1b14	-0.30880034
177	0xbeb28b18	-0.34871745
178	0xbe5fa70f	-0.21841072
179	0xbe9c1a19	-0.3048866
180	0x3e9998b8	0.29999328
181	0x3ee2be64	0.44285882
182	0xbe326679	-0.17421903
183	0xbcec64f6	-0.028856736
184	0xbecdb0c7	-0.40173933
185	0xbddd8ea8	-0.10818225
186	0xbf03d4c1	-0.5149651
187	0xbd4dda3b	-0.05025695
188	0x3eda45c6	0.42631358
189	0xbd2d038c	-0.04223971
190	0xbeb79e03	-0.3586274
191	0xbe559047	-0.20855819
192	0xbdb446be	-0.088025555
193	0x3ea42b5e	0.32064337
194	0xbbdb6971	-0.006695919
195	0xbe2c4a13	-0.16825132
196	0x3e75ac28	0.23991454
197	0x3bfc64e5	0.0077024573
198	0xbd8fd65b	-0.07023307
199	0x3e484d62	0.19560769
200	0xbb91ad9c	-0.0044457447
201	0xbdcbec76	-0.09957211
202	0x3b660abb	0.003510161
203	0x3e82ef74	0.25573313
204	0xbeb90044	-0.36133015
205	0x3c3d3f4b	0.011550735
206	0xbe9fa9ed	-0.3118433
207	0x3f09ba69	0.53800064
208	0xbe6a163c	-0.22860044
209	0x3e61a22d	0.22034521
210	0xbda705a6	-0.08155374
211	0xbe23a38f	-0.15980361
212	0xbdef6b07	-0.11690336
213	0xbdf9a8a9	-0.121903725
214	0x3daacf61	0.08340336
215	0x3cd6f1e4	0.02623839
216	0xbe80555e	-0.2506513
217	0x3f46b9b7	0.7762713
218	0xbcd0e1f4	-0.025498368
219	0x3d0a23e8	0.03372565
220	0x3ee38fdb	0.4444569
221	0x3c1ff761	0.00976357
222	0x3e895bfc	0.2682799
223	0xbf2e4a88	-0.68082476
224	0x3e8cb1b2	0.2747932
225	0xbea5e3b3	-0.32400283
226	0x3e952194	0.2912718
227	0x3e1ecc87	0.15507708
228	0xbf454d59	-0.7707115
229	0x3e1caf08	0.15301144
230	0xbdab7dc9	-0.08373601
231	0xbef5a046	-0.4797384
232	0xbda4069e	-0.08009075
233	0xbd0d80b9	-0.034546588
234	0x3e0a9152	0.13531998
235	0xbe486f24	-0.19573647
236	0xbeb154f5	-0.3463513
237	0x3ec03249	0.37538365
238	0x3e0f698c	0.14005107
239	0xbd073378	-0.03300807
240	0xbe89937a	-0.26870328
241	0x3bb6a65e	0.0055740317
242	0xbf0e5eac	-0.5561321
243	0xbe5f286c	-0.21792763
244	0xbe92b2f1	-0.28652146
245	0x3d0d0598	0.034429163
246	0xbf23f57d	-0.6404646
247	0xbf06248b	-0.5239951
248	0xbf13598a	-0.575585
249	0x3ca3ef39	0.020011531
250	0x3e3c5bee	0.18394443
251	0xbe0acbf8	-0.1355437
252	0xbcc5241f	-0.024065075
253	0x3ed3cec4	0.41368687
254	0xbdeefdc0	-0.11669493
255	0x3e61ecd7	0.22063003

l2.weight f4 [300, 400]
0	0x3d29087e	0.041267864
1	0x3d1b79c3	0.037957918
2	0xbd045f5f	-0.032317515
3	0x3d049bf1	0.03237528
4	0x3c62a2a7	0.013832725
5	0xbcca58a7	-0.024700476
6	0xbd4b416b	-0.049622934
7	0x3c6e01db	0.01452681
8	0x3b9b89a3	0.004746632
9	0x3a68f4fd	0.0008886604
10	0x3cd93be4	0.026517816
11	0xbc81f510	-0.015863925
12	0xbd405d6f	-0.046964105
13	0x3c07ca28	0.008287944
14	0xbcef6a78	-0.029225573
15	0xbd0dc320	-0.034609914
16	0xbd6e707b	-0.05821274
17	0xbd337199	-0.043809507
18	0xbc49d9cb	-0.012319992
19	0x3d0db33f	0.03459477
20	0xbd011768	-0.031516463
21	0xbad2fbf1	-0.0016096813
22	0x3c8b6fd1	0.017021092
23	0x3b75c8dd	0.0037503757
24	0xbcfb491a	-0.030674506
25	0x3b8eb975	0.0043556043
26	0xbd42e5d8	-0.047582477
27	0x3d070dab	0.03297202
28	0x3c3f6711	0.011682288
29	0x3d03c844	0.03217341
30	0x3cab7c8e	0.020933416
31	0xbb58bcd0	-0.0033071525
32	0xbd4e4bef	-0.050365385
33	0xbd013a5d	-0.0315498
34	0xbd3977d9	-0.04528031
35	0xbd22c2f7	-0.039736714
36	0xbd367f30	-0.04455489
37	0x3ccc954d	0.024973536
38	0x3cb29692	0.021800313
39	0xbcc8e208	-0.024521843
40	0xbc364463	-0.011124703
41	0x3ba04028	0.0048904605
42	0xbb16fda0	-0.0023039356
43	0x3cfa9e5e	0.030593093
44	0x3c457477	0.012051693
45	0xbd2f272c	-0.042761967
46	0x3d30143e	0.042988054
47	0xbcbf65cf	-0.023363976
48	0xbcf627a6	-0.030048203
49	0x3d1e766c	0.038687155
50	0xbcfe6ce3	-0.03105778
51	0xbcc59672	-0.02411959
52	0xbaf71fc4	-0.0018854071
53	0xbd56d0e0	-0.052445292
54	0x3d057616	0.03258332
55	0x3d173665	0.03691711
56	0xbd76fd77	-0.060300317
57	0xbbf84758	-0.007576864
58	0x3c113f38	0.00886517
59	0x3cc761d3	0.024338638
60	0xbbc0560b	-0.005869632
61	0xbb974c90	-0.0046172813
62	0x3d093ffd	0.03350829
63	0xbc76dc4e	-0.015067173
64	0xbb5bb85f	-0.0033526642
65	0xbd38283c	-0.044960245
66	0xbceb860a	-0.028750438
67	0xbcbdff2f	-0.02319297
68	0xbd502910	-0.05082041
69	0xbc8ded67	-0.017325116
70	0x3bbaa95c	0.0056964587
71	0xbd2dfa67	-0.04247513
72	0xbd48a9e3	-0.04899014
73	0x3d143dd0	0.03619176
74	0xbcb28c2a	-0.021795351
75	0xbd27f20b	-0.041002315
76	0xbcab7877	-0.020931466
77	0xbcc09ab7	-0.023511274
78	0xbd78cf02	-0.060744293
79	0xbc7ff86a	-0.015623191
80	0xbcf861b2	-0.030320022
81	0xbca09db1	-0.019606443
82	0x3c57fdc1	0.013183058
83	0xbb5be953	-0.003355582
84	0x3d0837b3	0.033256244
85	0xbd5590d7	-0.052140083
86	0x3d334b87	0.0437732
87	0x3c96a737	0.018390281
88	0xbc95205e	-0.01820391
89	0x3d0da9f3	0.034585904
90	0x3d3fc68f	0.04682022
91	0xbb66f5aa	-0.0035241642
92	0x3c639a84	0.01389182
93	0xbc95ea51	-0.018300207
94	0xbc50af38	-0.012737088
95	0xbb1d01a0	-0.0023957267
96	0xbd1aba4c	-0.037775323
97	0x3b0122d0	0.0019704588
98	0xbcee3edb	-0.029082706
99	0x3c8780e2	0.016540948
100	0x3bfb7fa8	0.00767513
101	0xbd1eb6ad	-0.038748432
102	0x3d0c0643	0.03418566
103	0x3c080df3	0.008304107
104	0x3cc3296e	0.023823466
105	0xbd599f66	-0.05313053
106	0x3d19a789	0.03751329
107	0x3ba7fd67	0.0051266435
108	0xbb808880	-0.003922522
109	0xbd1c9886	-0.038231395
110	0x39f771f4	0.00047196413
111	0x3c72cc25	0.01481918
112	0x3c380b64	0.0112331845
113	0x3cd00eaa	0.025397617
114	0xbd5c8517	-0.053837862
115	0xbd4c4ba7	-0.049876835
116	0x3d322687	0.043493774
117	0x3d2cf00b	0.04222111
118	0xbb9eb1ad	-0.004842958
119	0x3c808cd6	0.015692156
120	0x3d126b3b	0.035746794
121	0x3cf457f3	0.029827094
122	0xbd0f5447	-0.034992483
123	0xbcc28e31	-0.023749443
124	0xbcd60c5d	-0.026128942
125	0xbccd9e6a	-0.025099952
126	0x3d4097b5	0.04701968
127	0xbb3b933a	-0.002862169
128	0xbd23ae46	-0.039961122
129	0x3d024c82	0.031811245
130	0x3c206c6f	0.009791478
131	0xbb819244	-0.003954204
132	0xbd1c5559	-0.03816733
133	0x3ce1bc17	0.027555509
134	0xbd492f8e	-0.049117617
135	0x3c5ed9e2	0.013601752
136	0xbc2ab25a	-0.010418499
137	0xbcdc75c4	-0.026911624
138	0xbd4ee99e	-0.050515763
139	0x39106a15	0.00013772429
140	0xbd075fd3	-0.03305037
141	0xbcc96b99	-0.02458744
142	0x3ca1f276	0.019768935
143	0xbd2f19d2	-0.042749234
144	0x3d282073	0.04104657
145	0x3d0b12e0	0.033953547
146	0x3cd4b5ad	0.025965536
147	0xba4d1cf5	-0.00078244443
148	0xbd4211e2	-0.047380336
149	0xbc966a42	-0.018361215
150	0xbceec09a	-0.029144574
151	0xbbe64d70	-0.0070282742
152	0xbd50af0c	-0.050948188
153	0xbcda9897	-0.026684089
154	0xbc8c8fe8	-0.017158464
155	0xbbf5679e	-0.007489159
156	0xbcaa9d60	-0.020826995
157	0x3bca2743	0.006169231
158	0xbcff0041	-0.03112805
159	0xbd1c1df2	-0.038114496
160	0xbd153150	-0.03642398
161	0x3d2d61c8	0.04232958
162	0x3b07ed72	0.0020740894
163	0xbd58056d	-0.05273955
164	0xbd4d61e5	-0.050142188
165	0xbc63c9a5	-0.013903056
166	0xbcfd6813	-0.030933416
167	0x3c30e161	0.010795922
168	0xbcd540e9	-0.026031928
169	0xbbc82fba	-0.006109205
170	0xbc8e8a69	-0.017399983
171	0xbd1f22fa	-0.038851716
172	0xbb99b718	-0.004691016
173	0x3d2eb617	0.042654123
174	0x3cfcff52	0.030883465
175	0xbd2f0a95	-0.0427347
176	0x3b5ba371	0.0033514167
177	0x3d0f683d	0.03501152
178	0x3b4252e0	0.0029651448
179	0xbc8aac23	-0.016927784
180	0x3d1fe7af	0.03903931
181	0xbceec6c7	-0.029147519
182	0xbc420bf6	-0.011843672
183	0x3d18d98a	0.037316836
184	0x3c4c0443	0.012452188
185	0xbd1d293e	-0.03836941
186	0x3cfc1bb6	0.030774932
187	0x3d031d26	0.03201022
188	0x3bfeecb5	0.0077796825
189	0xbcd7f5b7	-0.026362283
190	0xbcea1824	-0.028575964
191	0x3c9cfaf8	0.01916264
192	0x3d18b029	0.037277374
193	0xbd7c288d	-0.06156211
194	0x3d0da749	0.034583364
195	0x3c91c261	0.017792882
196	0x3c75587c	0.01497471
197	0xbcd3a51b	-0.025835564
198	0xbc7bfef8	-0.0153806135
199	0x3cb4882c	0.022037588
200	0xb99068ce	-0.00027543906
201	0x3cfe8f01	0.031074049
202	0xbd2450be	-0.040116064
203	0xbcc36b60	-0.023854911
204	0xbc89cdf2	-0.016821835
205	0x3ca5f432	0.020258043
206	0x3c5030a1	0.012706907
207	0x3c8e5eb8	0.01737915
208	0xbd0128ea	-0.03153316
209	0xbcda4f87	-0.02664925
210	0x3c7511e8	0.014957882
211	0xbcfae151	-0.030625017
212	0x3d026a36	0.031839572
213	0x3bcffdab	0.0063473783
214	0x3ce2f666	0.027705383
215	0x3c8f29cd	0.017475987
216	0x3ccaa507	0.024736894
217	0xbd4069ae	-0.046975784
218	0xbc98ab68	-0.01863642
219	0x3d197c45	0.03747203
220	0xbccadd4a	-0.024763722
221	0xbc0f2596	-0.0087369885
222	0xbcdfc13c	-0.027313821
223	0xbc1d7733	-0.009610939
224	0xbcacba7c	-0.021085016
225	0xbcc3980e	-0.023876216
226	0xbcad9f18	-0.021194026
227	0x3d1b2693	0.037878584
228	0xbb382bdc	-0.0028102314
229	0xbc6b4820	-0.014360458
230	0x3cf3a60f	0.029742269
231	0xbce03128	-0.02736719
232	0x3c12e188	0.008964904
233	0xbc07bbb4	-0.008284498
234	0x3b763755	0.0037569602
235	0x3c9c8e12	0.019110713
236	0xbc51cdf4	-0.012805451
237	0xbbfeb221	-0.0077726995
238	0x3cafa0b2	0.02143893
239	0xbad84a71	-0.0016501677
240	0xbc97fde3	-0.01855368
241	0x3b14a8eb	0.002268369
242	0xbd2489c0	-0.04017043
243	0xbbab2fea	-0.0052242177
244	0xbd0dcb2c	-0.034617588
245	0x3cb87bd2	0.02251998
246	0x3d312ff7	0.043258633
247	0xbcc22939	-0.023701297
248	0xbd4795b5	-0.048726756
249	0x3cea1977	0.028576596
250	0xbcd35137	-0.025795562
251	0x3c9b57ff	0.018962858
252	0x3cbc72b1	0.023003908
253	0xbceb1739	-0.028697597
254	0xbc046ea4	-0.008083019
255	0xbcd2679b	-0.025684169

l2.bias f4 [300]
0	0xbd61d473	-0.055134248
1	0x3e94b2ec	0.29042757
2	0xbbc4a236	-0.0060007824
3	0xbd39daf1	-0.045374814
4	0xbdb040fb	-0.08606144
5	0xbd130592	-0.035893984
6	0xbd33b94b	-0.04387788
7	0x3e817a3d	0.25288573
8	0xbc2cf1bb	-0.01055568
9	0x3e74102e	0.23834297
10	0xbda6d791	-0.08146585
11	0xbe2b60f0	-0.16736197
12	0xbd86bf91	-0.06579507
13	0xbbc7d2f1	-0.006098144
14	0xbd2d8ef9	-0.042372677
15	0xbce67b3d	-0.028134936
16	0xbd4e46fe	-0.050360672
17	0xbd94bfc3	-0.07263138
18	0xbd813a71	-0.06309975
19	0x3cb68510	0.022280246
20	0xbd3cd7cf	-0.04610425
21	0xbd0ac915	-0.033883173
22	0xbe558363	-0.20850901
23	0xbe142937	-0.14468847
24	0xbe742020	-0.2384038
25	0x3d0ee1d9	0.034883354
26	0xbce21eaa	-0.027602512
27	0xbd3b136f	-0.04567283
28	0x3cc235d7	0.023707313
29	0xbc9f0f5e	-0.019416507
30	0xbd46cb63	-0.04853381
31	0xbd21bd54	-0.039487198
32	0x3ebf1747	0.37322447
33	0x3e60a03c	0.21936125
34	0xbd753c1e	-0.059871785
35	0x3c3dfd11	0.01159598
36	0x3da5b72d	0.08091579
37	0xbd1ceb61	-0.038310412
38	0xbd510ce0	-0.05103767
39	0xbce0115c	-0.027352028
40	0xbbf0025b	-0.0073244995
41	0x3c90bc1d	0.017667824
42	0xbd68cc7c	-0.056835636
43	0x3c5f3fa2	0.013626011
44	0xbd5c1624	-0.053732052
45	0xbd2f2a95	-0.04276522
46	0x3eb7ca33	0.35896453
47	0xbd14f599	-0.036367033
48	0x3b222a4d	0.0024744452
49	0xbd446915	-0.047951777
50	0xbda8d984	-0.08244613
51	0x3dedbb96	0.11608045
52	0xbd146870	-0.03623241
53	0x3d2e9278	0.042620152
54	0xbde324ba	-0.110909894
55	0x3e5853c9	0.21125712
56	0xbc907841	-0.017635467
57	0x3c96cab2	0.0184072
58	0xbe6cba34	-0.23117906
59	0xbe505f52	-0.20348862
60	0xbe57b693	-0.2106574
61	0xbb2c6527	-0.0026305409
62	0xbe5d8350	-0.21632123
63	0x3deb4d85	0.11489395
64	0x3c5928dd	0.0132543715
65	0xbdaa65c4	-0.083201915
66	0x3d8766bf	0.06611394
67	0xbd437155	-0.047715504
68	0x3d10288d	0.035194922
69	0x3e2b5067	0.1672989
70	0xbcc0cbff	-0.023534773
71	0x3e1e6289	0.15467276
72	0xbd2cae65	-0.042158503
73	0xbd9a1562	-0.0752361
74	0xbe5126bd	-0.20424934
75	0xbc3c6007	-0.011497504
76	0xb9565bc6	-0.00020442819
77	0xbd83e71f	-0.06440567
78	0xbda07d7f	-0.078364365
79	0xbc1c3336	-0.009533694
80	0xbc806e3b	-0.015677562
81	0x3c6e343c	0.014538821
82	0xbda4e3eb	-0.080512844
83	0xbdef5d5f	-0.11687731
84	0xbcb10f96	-0.021613877
85	0x3e1cfe00	0.15331268
86	0xbc40d76a	-0.011770109
87	0xbd01be8e	-0.031675868
88	0xbd81902c	-0.06326327
89	0xbc19fc2e	-0.009398503
90	0xbba49c91	-0.005023547
91	0x3cc00dca	0.023444075
92	0xbdbd1145	-0.092318095
93	0xbb61336a	-0.003436292
94	0xbc0afb41	-0.008482755
95	0xbe4adaf3	-0.19810085
96	0xbccfcfb0	-0.025367588
97	0xbd64ef2d	-0.05589216
98	0x3ea14a7a	0.31502134
99	0xbcfdb426	-0.03096969
100	0xbd8ee79b	-0.06977769
101	0xbd0d230d	-0.034457255
102	0xbe1203be	-0.1425924
103	0x3e875187	0.26429388
104	0xbd2e7677	-0.042593446
105	0xbc32ca42	-0.01091248
106	0xbe23d3e2	-0.15998796
107	0xbc5fa1a5	-0.013649379
108	0xbe83ea6a	-0.2576478
109	0xba179461	-0.0005782303
110	0xbdd12dd6	-0.10213821
111	0xbdd6d9ab	-0.104907356
112	0xbd310c9c	-0.043224916
113	0xbd624b94	-0.05524786
114	0xbd4ec2df	-0.050478812
115	0x3d56c709	0.05243591
116	0x3cdfcdb5	0.027319768
117	0x3c74edcb	0.014949272
118	0xbd34c55d	-0.044133533
119	0x3e9130be	0.283575
120	0xbe997ad2	-0.29976517
121	0xbd1ef4d8	-0.03880772
122	0x3e09e722	0.13467076
123	0x3d165498	0.03670177
124	0xbd071185	-0.032975692
125	0xbd127ec5	-0.035765428
126	0x3c996a42	0.018727425
127	0xbd9c4f9b	-0.07632371
128	0xbd5dec33	-0.054180335
129	0xbe06c1dc	-0.13159889
130	0x3c1e3064	0.009655092
131	0xbdb6b24d	-0.08920727
132	0xbe398bc9	-0.1811973
133	0x3d1d8209	0.03845409
134	0xbc54234a	-0.012947867
135	0xbe8597ba	-0.2609232
136	0xbbb627ab	-0.005558928
137	0x39f49ee4	0.0004665769
138	0xbd24cee6	-0.040236376
139	0xbd73ed4e	-0.059552483
140	0xbd0ada71	-0.03389973
141	0xbe0953b0	-0.1341083
142	0x3d95876c	0.0730122
143	0xbc6c059a	-0.014405632
144	0xbd92aa70	-0.071614146
145	0xbd159ffe	-0.036529534
146	0x3e44ff0b	0.19237916
147	0x3dabb86c	0.08384785
148	0xbd475948	-0.04866913
149	0xbc5846dd	-0.013200489
150	0xbccf4d6a	-0.025305469
151	0xbd20a041	-0.03921533
152	0xbe25c2ce	-0.16187593
153	0xbdff8911	-0.12477315
154	0xbb834c51	-0.0040069004
155	0x3c59d59d	0.013295558
156	0x3d0386cb	0.03211097
157	0xbd7fe2ba	-0.062472083
158	0x3a5f61c1	0.00085213414
159	0xbcd7407c	-0.026275866
160	0xbcb666db	-0.022265842
161	0xbd607d88	-0.054807216
162	0xbd068482	-0.032841213
163	0xbd19707b	-0.037460785
164	0xbe14399d	-0.14475103
165	0xbaed9523	-0.0018126111
166	0xbd22dab3	-0.03975935
167	0x3d8eedc1	0.06978942
168	0xbcbbbb9b	-0.022916606
169	0x3c818115	0.015808621
170	0xbe47345e	-0.1945357
171	0xbd0e0b15	-0.034678537
172	0x3c6e042b	0.014527361
173	0xbdcead92	-0.100917
174	0xbdb866dd	-0.090039946
175	0x3c1e13f5	0.009648313
176	0x3eb31b5e	0.34981817
177	0x3b473858	0.0030398574
178	0xbe3105cb	-0.17287366
179	0xbd7a6227	-0.06112876
180	0x3e809e07	0.25120565
181	0xbd0856ed	-0.033286024
182	0xbd845531	-0.064615615
183	0xbe0e65bd	-0.13905998
184	0xbd82d932	-0.06389083
185	0xbe1acdc3	-0.15117554
186	0xbe2b5089	-0.1672994
187	0xbd94ba11	-0.07262052
188	0x3c934154	0.017975487
189	0xbd87762a	-0.06614335
190	0x3e8f7f50	0.2802682
191	0xbd8bbb42	-0.06822826
192	0xbe6b6b0c	-0.22990054
193	0xbd75a874	-0.059975103
194	0xbc85c763	-0.016330427
195	0x3e3894b9	0.18025483
196	0xbe7858fd	-0.24252696
197	0xbe3521c7	-0.17688666
198	0xbd3ce36b	-0.04611532
199	0xbc3667a5	-0.011133109
200	0xbe1e9afc	-0.1548881
201	0xbd83c2a6	-0.064336106
202	0x3bd5a5ef	0.006520025
203	0xbd088457	-0.033329334
204	0x3b7a57f3	0.0038199394
205	0xbdee80bb	-0.11645647
206	0x3b899030	0.0041980967
207	0xbd042abb	-0.032267313
208	0xbd0f6b6e	-0.035014562
209	0xbcd9a8cf	-0.026569752
210	0xbdc65e9b	-0.09686013
211	0x3bee731c	0.0072769057
212	0x3c4bedb2	0.012446808
213	0x3baa2447	0.005192313
214	0xbe63163e	-0.22176453
215	0xbd630d50	-0.055432618
216	0x3eb2586f	0.34833094
217	0xbe674f6f	-0.22588895
218	0x3ea3da86	0.32002658
219	0xbd2c1dce	-0.04202061
220	0x3d113694	0.03545244
221	0x3e28f423	0.16499381
222	0xbd5d8ac5	-0.05408742
223	0xbcfcf28a	-0.03087737
224	0xbc703c07	-0.014662749
225	0xbd3c8744	-0.046027437
226	0xbba4dc45	-0.005031141
227	0x3de36650	0.11103499
228	0x3e8ba70e	0.2727589
229	0xbe15801e	-0.14599654
230	0xbcbb4af3	-0.022862887
231	0x3cb66471	0.022264691
232	0xbd20d3ee	-0.039264612
233	0xbdbabb5c	-0.09117767
234	0xbc2544d7	-0.0100872135
235	0xbe2a63a1	-0.16639568
236	0xbc57146c	-0.013127428
237	0x3e627023	0.2211309
238	0x3e461dcf	0.19347309
239	0x3c9a3045	0.018821845
240	0xbc72fc49	-0.014830657
241	0xbc9062cb	-0.017625233
242	0xbd159295	-0.036516745
243	0xbde5963a	-0.11210294
244	0x3d560983	0.052255165
245	0x3e0a3873	0.13498096
246	0x3ea4015a	0.3203228
247	0xbcc7b7d6	-0.024379652
248	0xbd677276	-0.056505643
249	0x3cceae1a	0.025229502
250	0xbd28d0f7	-0.04121491
251	0x3cc0cdc0	0.02353561
252	0xbe75ae54	-0.23992282
253	0x3cc5d16b	0.02414771
254	0x3cfa029a	0.030518819
255	0xbe28f1ad	-0.16498442

l3.weight f4 [6, 300]
0	0x3caee845	0.02135099
1	0xbd7fee5b	-0.062483173
2	0xbb9164fb	-0.0044370866
3	0x3d45be06	0.048276924
4	0x3d8d35f9	0.0689506
5	0x3b21be30	0.002468001
6	0x3ca7a693	0.020465171
7	0xbd8ffc9f	-0.070306055
8	0xbd8a3e50	-0.067501664
9	0x3d1c4139	0.03814814
10	0xbd5df40c	-0.05418782
11	0xbcb01706	-0.021495353
12	0x3b8747bb	0.004128424
13	0xbd599068	-0.053116232
14	0x3cc7f0e8	0.024406865
15	0xbd1f1c4e	-0.038845353
16	0xbc6bde0f	-0.014396205
17	0x3d9182c1	0.071050175
18	0xbd69f5a5	-0.05711903
19	0x3d061301	0.032732967
20	0x3ce46328	0.027879313
21	0x3cb5a2a9	0.022172289
22	0x3dc0b42c	0.09409365
23	0x3d189d5c	0.037259445
24	0xbc15dff9	-0.0091476375
25	0xbd26a7f1	-0.040687505
26	0x3c8971a5	0.016777823
27	0xbd41cbb8	-0.047313422
28	0x3cbc290a	0.022968788
29	0x3bfe6c2b	0.0077643595
30	0x3ce17850	0.02752319
31	0xbd18eb22	-0.037333615
32	0x3dd821bf	0.105533116
33	0x3d981192	0.07425226
34	0x3d3af080	0.045639515
35	0x3cec7d80	0.028868437
36	0xbe008cc7	-0.12553702
37	0x3cdb352c	0.026758753
38	0xbd103757	-0.035209026
39	0x3d20db9d	0.03927194
40	0xbd33f052	-0.04393036
41	0xbd06e133	-0.03292961
42	0xbd9594f0	-0.07303798
43	0xbd0c13eb	-0.034198683
44	0x3c18b18a	0.009319672
45	0xbd351dce	-0.044217877
46	0x3d73f20a	0.059557
47	0xbc8dd8e4	-0.017315336
48	0x3c3cf296	0.011532446
49	0x3d083ebc	0.033262953
50	0x3ddfc8f9	0.10927004
51	0x3c247276	0.010037055
52	0xbda7292f	-0.08162152
53	0x3dc7a8b0	0.097489715
54	0x3c8bc427	0.017061306
55	0x3d45d846	0.048301958
56	0xbcc84096	-0.02444486
57	0xbd51c390	-0.051211894
58	0xbc9d47cd	-0.019199276
59	0xbd81288c	-0.06306562
60	0x3c9c1818	0.019054458
61	0xbcdd660f	-0.027026204
62	0x3eadc88e	0.33942074
63	0x3e31cdb5	0.17363627
64	0x3ca7c2d2	0.02047864
65	0x3d818c31	0.063255675
66	0x3d6f33a7	0.05839887
67	0xbbc6e9b8	-0.006070342
68	0xbd4e52b3	-0.050371837
69	0xbc9420aa	-0.018081982
70	0xbd355213	-0.044267725
71	0xbdd54ccc	-0.104150385
72	0x3bcbba75	0.006217296
73	0x3d5bfc3b	0.053707343
74	0x3de4d67f	0.111737244
75	0xbaf70415	-0.0018845821
76	0xbce40fe2	-0.027839605
77	0xbd405bae	-0.046962433
78	0xbd6fd32c	-0.058551
79	0x3ce4b3b0	0.027917713
80	0x3d0690a5	0.032852788
81	0xbd053e55	-0.032530148
82	0x3de8c38f	0.11365425
83	0x3d3731bd	0.04472517
84	0x3d629995	0.05532225
85	0x3ccbc109	0.02487232
86	0xbd465cca	-0.048428334
87	0x3dc74d55	0.09731547
88	0xbcc5e194	-0.024155416
89	0x3c2eef48	0.010677166
90	0xbce490f0	-0.027901143
91	0xbbf0cb0a	-0.007348423
92	0xbd6d04c5	-0.057865877
93	0x3d062224	0.032747403
94	0x3c7e873c	0.015535172
95	0x3b6c49e1	0.0036054777
96	0xbbd6bac8	-0.006553028
97	0x3c89dd70	0.016829222
98	0x3c47a48a	0.012185225
99	0xbd345502	-0.044026382
100	0xbd4e992a	-0.050439037
101	0x3d3e153e	0.046406977
102	0xbd017788	-0.031608135
103	0x3d9ab7a7	0.0755456
104	0xbc8c410e	-0.017120864
105	0xbbf389a6	-0.0074321805
106	0x3dd69dea	0.104793385
107	0xbc953fe6	-0.018218946
108	0x3d42978f	0.04750782
109	0xbd56c026	-0.05242934
110	0xbcbdfe53	-0.02319256
111	0xbd117b12	-0.03551776
112	0xbb0a5b83	-0.0021111674
113	0x3c740d16	0.014895698
114	0x3a8a3e73	0.0010547176
115	0xbc8c5c1d	-0.017133767
116	0xbd8bc6cf	-0.06825029
117	0x3cb2058d	0.021731162
118	0xbc452a51	-0.012034015
119	0x3c820557	0.015871687
120	0xbb3d6789	-0.0028900823
121	0x3c6a269c	0.014291432
122	0xbcc04f17	-0.023475213
123	0x3b97d674	0.004633719
124	0x3d25c12f	0.040467437
125	0x3c5b4cf2	0.013385044
126	0x3c18f12c	0.009334844
127	0x3c5a305d	0.013317195
128	0x3c5567bf	0.013025223
129	0x3c95208b	0.018203994
130	0xbd8587ff	-0.0652008
131	0x3d81e9b2	0.06343402
132	0x3e09f970	0.13474059
133	0xbd202cbe	-0.03910517
134	0xbd705d13	-0.058682512
135	0x3dfc0322	0.12305285
136	0xbd1a95b7	-0.037740435
137	0x3d329fd2	0.043609448
138	0x3e183af0	0.14866233
139	0x3e8b867d	0.27251044
140	0xbd2a7724	-0.041617528
141	0x3c2f8989	0.010713943
142	0x3ca95c73	0.020673966
143	0x3d32ee84	0.043684497
144	0x3cd6320b	0.02614691
145	0x3cb6a3d1	0.02229491
146	0x3d644e09	0.055738483
147	0x3c34cf67	0.011035777
148	0xbccaa831	-0.024738403
149	0xbc338d30	-0.010958955
150	0xbc9c4abd	-0.019078607
151	0xbce68d9d	-0.028143698
152	0xbd238260	-0.039919257
153	0x3e0edf43	0.13952355
154	0xbd7b1006	-0.061294578
155	0xbd39fc39	-0.045406554
156	0x3b9635fc	0.004584072
157	0x3c0b1120	0.00848797
158	0xbd4a8462	-0.049442656
159	0x3d2a5ce1	0.041592482
160	0x3cc31b9e	0.02381688
161	0xbce255df	-0.027628837
162	0x3d223451	0.039600674
163	0xbcec3220	-0.028832495
164	0x3d2ba691	0.041906897
165	0xbd3e978e	-0.046531253
166	0x3cdebaca	0.027188677
167	0x3dc256d6	0.09489219
168	0x3efa0f77	0.48839924
169	0xbd29725d	-0.04136883
170	0x3d512d5d	0.051068652
171	0xbd4afcc5	-0.049557466
172	0xbb893af8	-0.004187938
173	0x3c99a45d	0.018755132
174	0xbca20705	-0.019778738
175	0xbcda3ddd	-0.026640827
176	0xbd5877e5	-0.052848715
177	0xbd18b04f	-0.037277516
178	0x3db26007	0.08709722
179	0x3ce6bbb9	0.028165685
180	0x3d537771	0.05162758
181	0xbc189713	-0.009313363
182	0x3ca7783a	0.02044307
183	0x3c903571	0.017603608
184	0xbc872b16	-0.016500037
185	0x3dc1a4d6	0.09455268
186	0x3e0fd216	0.14044985
187	0x3bb7f539	0.0056139496
188	0x3cc0cde1	0.02353567
189	0xbcb0595e	-0.021526989
190	0x3d76230b	0.060092013
191	0x3d13018f	0.03589016
192	0x3d4ec2f8	0.050478905
193	0xbc3822d6	-0.011238774
194	0x3c12ba48	0.008955546
195	0x3d3f5535	0.04671212
196	0x3de92d15	0.11385552
197	0x3e446298	0.19178236
198	0x3d49dc92	0.049282618
199	0x3d187bec	0.037227556
200	0x3ddf73c1	0.1091075
201	0xba0fa835	-0.0005480082
202	0x3cf2a49b	0.029619506
203	0xbcadb2c5	-0.021203408
204	0xbd225f18	-0.03964147
205	0xbd388e70	-0.045057714
206	0x3c4834f1	0.012219653
207	0xbd395689	-0.045248542
208	0x3cb88962	0.022526447
209	0x3d51ef90	0.051253855
210	0x3bad68fd	0.0052920566
211	0xbd2b45c2	-0.041814573
212	0xbd7b9886	-0.061424755
213	0xbd376eb3	-0.044783305
214	0x3c5ffa0e	0.0136704575
215	0xbcf9a404	-0.030473717
216	0xbd8df4fd	-0.069314934
217	0xbcf53e7f	-0.029937027
218	0x3db189ad	0.08668838
219	0xbc7a4d1f	-0.015277176
220	0x3cb508b0	0.02209887
221	0x3ca8088f	0.020511894
222	0x3d51eb52	0.05124981
223	0xbc3ff9b8	-0.011717252
224	0xbd80321c	-0.062595576
225	0x3cf5c06a	0.029998977
226	0x3c5884fb	0.013215299
227	0x3dbaf7ae	0.091292724
228	0x3de3dc00	0.11125946
229	0x3e06411a	0.13110772
230	0xbcb086bd	-0.021548623
231	0x3cb37e20	0.021910727
232	0xbd407334	-0.046984866
233	0x3d14b05d	0.036301006
234	0xbd18938e	-0.037250094
235	0x3e3d10c4	0.18463427
236	0xbc8c63bb	-0.017137399
237	0xbcf315c0	-0.029673457
238	0x3d4bdfff	0.049774166
239	0x3d1e0388	0.038577586
240	0xbdb77421	-0.08957697
241	0x3a56e7ed	0.0008198012
242	0x3de61466	0.112343594
243	0x3af27bf2	0.0018500073
244	0x3cdf630e	0.027268913
245	0xbd09ad4a	-0.033612527
246	0x3d2711b3	0.040788364
247	0xbc4a2223	-0.01233724
248	0xbd14e1b2	-0.036348052
249	0x3cb2c48e	0.02182224
250	0xbd0f68b8	-0.035011977
251	0x3ca5a0be	0.02021825
252	0x3d9aba6d	0.07555089
253	0x39362d66	0.00017373785
254	0xbca0d165	-0.019631097
255	0xbd8fcd92	-0.07021631

l3.bias f4 [6]
0	0x3cb90a73	0.02258799
1	0x3e5bc633	0.21462326
2	0xbe7f1767	-0.24911271
3	0xbd9f7b47	-0.07787185
4	0x3deebc07	0.11656957
5	0xbc15ff7d	-0.009155151
