2019_test_data/single_assembly/TD3_Peg-in-hole-single_assembly_seed_10/_actor.pth (torch_old, 510312 bytes, 6 tensors)

l1.weight f4 [400, 12]
0	0x3e433f42	0.190671
1	0xbe5d0bb4	-0.21586496
2	0x3e70e618	0.23525274
3	0x3e3d249c	0.18470997
4	0x3e785e30	0.2425468
5	0xbe62a454	-0.22132999
6	0xbe4669fa	-0.19376364
7	0x3e0ca8d6	0.13736281
8	0xbe89f7f2	-0.2694698
9	0x3e921528	0.28531766
10	0x3d7baf60	0.061446548
11	0x3d18b328	0.03728023
12	0xbd500350	-0.05078441
13	0xbe3ffae6	-0.18748054
14	0x3ead9360	0.339015
15	0x3eaa8451	0.33304074
16	0x3e1fc441	0.15602209
17	0xbe048034	-0.1293953
18	0xbeb912ac	-0.36147058
19	0x3eeb2fc7	0.4593489
20	0x3dffb85c	0.12486336
21	0xbe977def	-0.29588267
22	0xbe917baa	-0.2841466
23	0x3f1b106d	0.6057194
24	0x3ea83762	0.32854754
25	0xbd2bc453	-0.041935276
26	0x3bf83c71	0.0075755646
27	0xbdcfcf59	-0.1014697
28	0xbe914197	-0.28370354
29	0xbdd6effd	-0.10494993
30	0xbf663e89	-0.8993917
31	0xbe121409	-0.14265455
32	0xbefb637a	-0.49099332
33	0xbcbd8ec4	-0.023139365
34	0x3f4f58b0	0.809947
35	0x3e12f31c	0.14350551
36	0x3e91240f	0.28347823
37	0xbecd2934	-0.40070498
38	0x3d0cd0bd	0.034378756
39	0x3e76b2d0	0.24091649
40	0xbe047bb1	-0.1293781
41	0x3d7314d2	0.059346028
42	0xbf1f22e5	-0.6216262
43	0x3ebe1038	0.3712175
44	0xbd6db25e	-0.058031432
45	0x3efec079	0.4975622
46	0x3f00f8f0	0.5037985
47	0x3e5c8ed7	0.21538864
48	0x3ed16e88	0.4090464
49	0xbd48126f	-0.048845705
50	0x3ec89f50	0.39184046
51	0x3e94edda	0.29087716
52	0xbed24189	-0.41065624
53	0xbe2ebf18	-0.17065084
54	0x3e8d4b7c	0.27596653
55	0x3eaa6929	0.33283356
56	0x3e5cfef0	0.21581626
57	0xbea31a89	-0.31856182
58	0xbedb029f	-0.42775437
59	0x3f082fcf	0.5319795
60	0xbf47c79a	-0.7803894
61	0xbe8458a8	-0.2584889
62	0xbd26d963	-0.04073466
63	0x3d8733f0	0.06601703
64	0xbc9904b5	-0.018679002
65	0x3f16b565	0.58870536
66	0x3e8e0fba	0.27746373
67	0x3e366fa6	0.17816028
68	0x3e230c6f	0.15922712
69	0xbd408299	-0.046999548
70	0x3c4943dd	0.012284246
71	0xbe50389a	-0.20334092
72	0xbd3c4030	-0.04595965
73	0x3e5fb458	0.2184614
74	0x3e8844f6	0.26615113
75	0x3e81bf86	0.25341433
76	0x3e2a0268	0.1660248
77	0x3e896062	0.26831347
78	0xbdd503d6	-0.10401122
79	0xbc9684b0	-0.018373817
80	0xbdca3620	-0.09873605
81	0xbcadcf90	-0.021217138
82	0xbd0fc630	-0.035101116
83	0x3e1deefc	0.15423197
84	0x3e1c96dd	0.15291925
85	0xbd9e4201	-0.07727433
86	0x3c00d3f6	0.007863035
87	0xbddbcbe9	-0.10732252
88	0xbd1d4e92	-0.03840501
89	0x3da9f3ef	0.0829848
90	0xbf39aacd	-0.72526246
91	0xbd6b0612	-0.057378836
92	0xbedb2e20	-0.42808628
93	0x3be22d52	0.0069023753
94	0x3ea33a31	0.31880334
95	0x3d05083f	0.032478567
96	0xbdea20c0	-0.11432028
97	0xbd429681	-0.047506813
98	0x3e81fb48	0.25387025
99	0x3e42004c	0.18945426
100	0xbdbeedfb	-0.09322735
101	0xbe877ce5	-0.26462474
102	0xbe3e9326	-0.1861082
103	0xbe475a8a	-0.19468132
104	0xbd5de7e0	-0.05417621
105	0xbdf7ef6a	-0.121062115
106	0xbe50dc41	-0.2039652
107	0x3d824d7e	0.06362437
108	0xbf0e8934	-0.55678105
109	0xbeb863a8	-0.36013532
110	0x3c927a89	0.017880695
111	0x3e96662f	0.29374835
112	0xbf10f2f4	-0.5662072
113	0x3eb34b05	0.35018173
114	0xbcff7999	-0.031185912
115	0x3f48d648	0.7845197
116	0xbf227958	-0.63466406
117	0x3ef034ba	0.46915227
118	0x3f0ee422	0.55816853
119	0x3f5887e6	0.84582365
120	0x3db2c440	0.08728838
121	0xbe029dbf	-0.12755488
122	0x3e4d280e	0.20034811
123	0xbdddb30c	-0.10825166
124	0xbe1f2e8e	-0.15545103
125	0x3e8610c0	0.26184654
126	0x3d9c9ce4	0.07647112
127	0xbb029a00	-0.0019928217
128	0xbe4e0298	-0.20118177
129	0xbd82dc96	-0.0638973
130	0xbe631533	-0.22176056
131	0xbe46e40d	-0.19422932
132	0xbf044c1f	-0.5167865
133	0x3e13e245	0.14441784
134	0xbcd5c173	-0.02609322
135	0x3e879a85	0.26485077
136	0x3ea9d50b	0.3317035
137	0xbd9e4346	-0.07727675
138	0x3ccd800d	0.025085473
139	0x3dbc0390	0.09180367
140	0xbf1250a8	-0.5715432
141	0x3f17a354	0.59233594
142	0x3ce510f5	0.027962187
143	0x3e483b37	0.19553839
144	0xbf022059	-0.5083061
145	0x3d9c32db	0.076268874
146	0x3c9d1912	0.019176994
147	0x3da538f0	0.080675006
148	0x3e1891f3	0.14899425
149	0x3ce8c62d	0.02841481
150	0xbe74d91f	-0.2391095
151	0x3e2321a6	0.15930805
152	0xbd32967c	-0.043600544
153	0x3ebfa06a	0.37427074
154	0xbb7eb03c	-0.0038862368
155	0xbe9c1550	-0.3048501
156	0xbf34f160	-0.7068081
157	0xbeccb2de	-0.39980215
158	0xbc866331	-0.01640472
159	0x3ea2d7cd	0.31805268
160	0x3e7ac91f	0.24490784
161	0x3f0c8b7f	0.54900354
162	0x3eae45f6	0.3403775
163	0x3e1f63ce	0.15565416
164	0x3e52775b	0.20553343
165	0x3e0eaad3	0.13932352
166	0xbe31a354	-0.17347461
167	0xbe306e97	-0.17229687
168	0x3f18fc97	0.5976042
169	0x3efdac68	0.49545598
170	0xbce2c1bc	-0.02768027
171	0x3e99bdeb	0.30027708
172	0x3eba5a67	0.36397097
173	0xbe9e8f53	-0.30968723
174	0xbf49987d	-0.78748304
175	0xbe2be6c3	-0.16787247
176	0xbeb134cb	-0.3461059
177	0xbdc71afe	-0.09721945
178	0x3e2b93fc	0.1675567
179	0x3db32feb	0.08749374
180	0xbee477c3	-0.4462262
181	0xbe5d76e5	-0.21627386
182	0xbd8f24dd	-0.06989453
183	0xbe930f79	-0.28722742
184	0x3e31e1b3	0.17371254
185	0x3e4029fe	0.18766019
186	0x3eaa23fc	0.3323058
187	0x3d566dbc	0.052350745
188	0x3e4b8d5b	0.19878142
189	0xbe57dfc7	-0.21081458
190	0xbead6107	-0.33863088
191	0xbe18d041	-0.14923193
192	0x3e9b9591	0.30387548
193	0x3f312294	0.6919339
194	0xba4c0074	-0.000778205
195	0xbd6ae97a	-0.057351567
196	0xbe0b4a1c	-0.13602489
197	0x3e5241a9	0.2053286
198	0x3c770121	0.015075953
199	0x3db01b05	0.085989036
200	0xbeff1a41	-0.49824718
201	0x3ecc5820	0.39910984
202	0xbeb5f19d	-0.355359
203	0x3f173f0c	0.59080577
204	0x3e39d082	0.18145946
205	0xbb4e9d00	-0.0031526685
206	0x3e1b1452	0.1514447
207	0x3e4f11ce	0.20221636
208	0x3e3cba36	0.18430409
209	0xbe8cc371	-0.2749286
210	0x3e85f574	0.26163828
211	0x3d9c53a4	0.07633141
212	0xbe9285dc	-0.28617752
213	0x3d931d70	0.07183349
214	0xbe4b8da8	-0.19878256
215	0x3e88cef0	0.2672038
216	0x3e15862c	0.14601964
217	0xbebec826	-0.37262076
218	0xbca70a49	-0.020390647
219	0x3eac2f58	0.3362987
220	0x3d94d946	0.07268004
221	0x3eab1f4b	0.33422312
222	0xbeb49e14	-0.35276854
223	0x3eee7ca6	0.46579474
224	0xbd468cd1	-0.048474137
225	0x3e8572b0	0.26064062
226	0xbe34e877	-0.17666803
227	0x3dbc229a	0.09186287
228	0x3e6d331e	0.23164031
229	0x3eb5ed80	0.3553276
230	0xbaa845a4	-0.0012838137
231	0x3c898df9	0.01679133
232	0x3cb8cd17	0.022558732
233	0x3e9fe1e3	0.31227025
234	0xbf5c0b25	-0.85954505
235	0x3ca45cbd	0.020063752
236	0xbf0910a6	-0.5354103
237	0x3ec530ae	0.38513702
238	0x3edfbfb6	0.4370095
239	0x3ec47aae	0.38374847
240	0xbcbf0116	-0.023315948
241	0xbc7a7287	-0.0152860945
242	0x3c4da4bd	0.012551484
243	0x3e5c2d65	0.21501692
244	0xbee82776	-0.45342606
245	0x3edc9070	0.43078947
246	0xbe8da6fe	-0.27666467
247	0x3ec2adc6	0.38023204
248	0xbd960022	-0.07324244
249	0x3d69d68a	0.057089366
250	0x3dbdf4cb	0.09275206
251	0x3c96ce6e	0.01840898
252	0xbdb3c84e	-0.087784395
253	0xbc94bae0	-0.018155515
254	0x3debfe74	0.115231425
255	0xbe6c9408	-0.23103344

l1.bias f4 [400]
0	0x3cc42c80	0.023947
1	0xbd5765f8	-0.05258748
2	0x3f0d309f	0.55152315
3	0x3ef4b994	0.47797835
4	0xbe1e2830	-0.15445018
5	0xbe2915d0	-0.16512227
6	0x3dd83f94	0.105590016
7	0x3ee3b28c	0.44472158
8	0xbe2ec840	-0.17068577
9	0x3eb1a8d2	0.34699112
10	0xbe26adab	-0.16277187
11	0xbe63875b	-0.22219603
12	0xbe7dc265	-0.24781187
13	0xbd283734	-0.04106827
14	0xbe8bdf38	-0.2731874
15	0xbeef1ad3	-0.46700153
16	0x3eb280c1	0.34863856
17	0xbe89694b	-0.26838145
18	0xbf236c6f	-0.6383733
19	0x3ebc49dc	0.367751
20	0x3f30c1fd	0.69046
21	0xbdec3eaa	-0.1153539
22	0xbdac020d	-0.08398829
23	0xbef88832	-0.4854141
24	0xbea4c0a3	-0.3217822
25	0xbd8b8a99	-0.06813545
26	0x3ef75493	0.48306713
27	0x3c92f120	0.017937243
28	0xbe94f872	-0.290958
29	0x3cfc6c4a	0.030813355
30	0xbe65e690	-0.22451234
31	0x3e9924b2	0.2991081
32	0xbed5208a	-0.41626388
33	0xbe315863	-0.17318873
34	0xbf470c94	-0.7775357
35	0xbf3f46af	-0.7471723
36	0x3d33fced	0.04394238
37	0xbe6ba18f	-0.23010848
38	0x3e936c95	0.2879378
39	0xbf46c574	-0.7764504
40	0x3e356fc2	0.17718413
41	0xbf21d2bd	-0.63212186
42	0xbe20f9a3	-0.15720229
43	0x3ea5154d	0.32242814
44	0xbe8de732	-0.2771545
45	0xbd9a509b	-0.075349055
46	0x3f04d860	0.5189266
47	0x3eb4e3f0	0.35330153
48	0xbf01d3e7	-0.5071396
49	0x3e68558d	0.22688885
50	0xbee50a25	-0.44734302
51	0xbf1dd3f6	-0.6165155
52	0x3db2016f	0.0869168
53	0x3f1b7971	0.6073218
54	0x3df75999	0.12077636
55	0xbe7d71f1	-0.24750496
56	0xbd4b4998	-0.04963073
57	0xbea4d13e	-0.3219089
58	0xbf224faf	-0.6340284
59	0xbde0346e	-0.109475
60	0xbecd9c05	-0.40158096
61	0x3e8ca526	0.27469748
62	0xbf231f7e	-0.6371993
63	0xbed4b7a5	-0.4154636
64	0x3ec3b773	0.38225898
65	0x3f12c7ae	0.5733594
66	0xbe269e98	-0.16271436
67	0xbdeb90e6	-0.115022466
68	0x3f02538f	0.5090875
69	0xbe7c82c2	-0.24659255
70	0xbd9d54d6	-0.07682197
71	0x3f3e9e16	0.7445997
72	0xbec0a8a7	-0.37628672
73	0x3d61e3e8	0.05514899
74	0xbdd152ba	-0.10220857
75	0xbeb303a0	-0.34963703
76	0xbf02f02f	-0.5114774
77	0xbecf61f3	-0.40504417
78	0x3c0e537e	0.008686898
79	0xbf1f7176	-0.622825
80	0xbeb221f2	-0.34791523
81	0x3eef62ec	0.4675516
82	0xbea0de4f	-0.31419608
83	0x3efdc5f6	0.49565095
84	0x3e9dc2a9	0.30812576
85	0xbf007809	-0.5018316
86	0x3d950ff6	0.07278435
87	0xbf2f52b1	-0.6848555
88	0xbd0928f0	-0.033486307
89	0xbf06a046	-0.5258831
90	0x3eb409f5	0.35163847
91	0x3d818b1a	0.0632536
92	0xbde04ab3	-0.10951748
93	0xbd8fe46a	-0.070259884
94	0xbefcedca	-0.4940017
95	0xbea580f8	-0.32324958
96	0xbf0f93b8	-0.56084776
97	0x3e4d633a	0.20057383
98	0xbf1ff1b3	-0.6247818
99	0xbf5bb005	-0.8581546
100	0xbf0d76fa	-0.5525967
101	0x3ea65bb7	0.32491848
102	0x3e6462b8	0.22303283
103	0xbe88bda2	-0.26707178
104	0xbe3ca4cd	-0.18422242
105	0xbf09a00d	-0.53759843
106	0x3e7d9268	0.24762881
107	0x3e61a3a5	0.22035082
108	0x3defda76	0.1171159
109	0xbf08ef43	-0.53490084
110	0xbf12dee4	-0.57371354
111	0x3cdb3399	0.026758002
112	0xbe24a834	-0.1607979
113	0xbe701360	-0.23444891
114	0xbdac5288	-0.08414179
115	0x3f055348	0.520802
116	0x3cafd586	0.02146412
117	0x3d86d4bf	0.06583547
118	0xbe29d7fa	-0.16586295
119	0x3f495f49	0.7866102
120	0xbec16410	-0.37771654
121	0x3f1fb9ea	0.6239306
122	0xbf109747	-0.5648083
123	0x3e617ea0	0.2202096
124	0xbecf0fd3	-0.4044176
125	0x3e175a62	0.14780572
126	0x3ea1007b	0.3144568
127	0x3eee8e0b	0.46592745
128	0x3e8df808	0.27728295
129	0xbef153a9	-0.4713414
130	0xbf4f87c9	-0.81066567
131	0xbeb4620b	-0.3523105
132	0xbdaea1e1	-0.0852697
133	0x3ea65774	0.32488596
134	0x3d4b5b7c	0.049647793
135	0x3de31933	0.11088791
136	0xbe7c00da	-0.246097
137	0xbf1701a2	-0.58986866
138	0x3e23a198	0.15979612
139	0x3e3c3f69	0.18383564
140	0xbe0aebf6	-0.13566574
141	0x3eb18201	0.34669498
142	0xbf561e62	-0.8364011
143	0xbda7261e	-0.08161567
144	0xbeb89010	-0.3604741
145	0x3e8d8c62	0.27646166
146	0xbe19c62b	-0.15017001
147	0xbf4eb371	-0.80742556
148	0xbe9258d2	-0.2858339
149	0xbe4e21a5	-0.20130022
150	0x3f1a9d44	0.6039622
151	0x3f151f53	0.5825092
152	0xbee46ad0	-0.4461274
153	0x3dae247c	0.085030526
154	0xbe731f31	-0.23742367
155	0xbe265b1b	-0.16245691
156	0xbf06ffe4	-0.5273421
157	0xbee03d95	-0.43796983
158	0x3e867086	0.26257724
159	0xbe644d7e	-0.22295186
160	0x3c559da0	0.013038069
161	0xbedf7d6f	-0.43650386
162	0xbf3b5ceb	-0.73188657
163	0xbdc0e8d8	-0.094194114
164	0xbd59ed6c	-0.05320494
165	0xbee70a2f	-0.45124957
166	0x3deb1520	0.11478639
167	0xbe17dc9d	-0.14830251
168	0x3ec489aa	0.3838628
169	0x3f43c2cc	0.7646911
170	0x3e08cf0a	0.13360229
171	0xbe88f360	-0.2674818
172	0xbe615ea2	-0.22008756
173	0xbe1f972c	-0.15585011
174	0x3eaf006f	0.34180018
175	0x3e9041a5	0.28175083
176	0xbd893171	-0.06698883
177	0x3dd479d1	0.10374797
178	0xbdd6db84	-0.10491088
179	0x3ef78446	0.48343104
180	0x3e096a18	0.13419378
181	0x3e78ba60	0.24289846
182	0xbf47eb66	-0.78093565
183	0x3d568084	0.052368656
184	0xbe8cc9c8	-0.27497697
185	0x3ed37679	0.41301325
186	0x3d889bd0	0.06670344
187	0x3e535fcd	0.20642014
188	0xbdac34c5	-0.084085025
189	0x3ecb1ebe	0.39671892
190	0xbf545d61	-0.82954985
191	0xbdc6ccfc	-0.097070664
192	0x3da4d933	0.0804924
193	0x3a880fde	0.0010380705
194	0x3e32c62a	0.17458406
195	0xbf43dd85	-0.76509887
196	0x3de70fa8	0.11282283
197	0xbddcf154	-0.10788217
198	0xbe7cddf3	-0.24694042
199	0x3d3e27d8	0.046424717
200	0x3d0cc2f9	0.034365628
201	0x3e31fcbc	0.17381567
202	0xbe22d2bb	-0.159007
203	0xbe6940ec	-0.22778672
204	0xbf19bc47	-0.60052913
205	0xbec54fab	-0.38537344
206	0xbf44af6f	-0.7683019
207	0x3f23e190	0.64016056
208	0x3ec4b1e1	0.3841696
209	0xbf25bb08	-0.6473851
210	0x3e9fdf15	0.31224886
211	0x3e10651b	0.14101069
212	0xbe44cba2	-0.19218305
213	0x3e9560e0	0.29175472
214	0x3e1cefb2	0.15325812
215	0xbf3a98f5	-0.72889644
216	0x3e8ff321	0.2811518
217	0xbe817726	-0.25286216
218	0xbe6e32a1	-0.23261501
219	0xbce72647	-0.028216494
220	0x3c8dbee7	0.017302943
221	0xbe637ee6	-0.22216377
222	0x3d504332	0.050845332
223	0x3e1547e4	0.14578205
224	0x3e1ce5ba	0.15322009
225	0xbe4b23cc	-0.19837874
226	0x3e8f91c9	0.28040913
227	0xbe002c18	-0.1251682
228	0xbece54a6	-0.40298957
229	0xbc63943f	-0.013890325
230	0xbe9de65c	-0.30839813
231	0xbf5de784	-0.8668139
232	0x3e71fa4f	0.23630641
233	0x3e347fe2	0.17626908
234	0x3edafe72	0.4277225
235	0x3ea1f221	0.31630042
236	0x3e2b163c	0.167077
237	0xbe99187b	-0.2990149
238	0x3ea5c8b9	0.32379702
239	0xbef3f0a8	-0.47644544
240	0xbee9fcdb	-0.45700726
241	0x3e9195f1	0.2843471
242	0x3e6adf7c	0.22936815
243	0x3d5a7b4e	0.05334025
244	0xbe81aab8	-0.2532556
245	0x3e2b66c2	0.16738418
246	0xbe89b501	-0.26895908
247	0x3e759886	0.23983964
248	0xbedba0c8	-0.42896104
249	0x3c72e1a0	0.014824301
250	0xbf1d3b83	-0.6141893
251	0xbcab76e2	-0.020930711
252	0xbe855dae	-0.26048034
253	0xbc9c7a5a	-0.01910131
254	0xbe5a99bb	-0.21347706
255	0xbecb51e5	-0.39710918

l2.weight f4 [300, 400]
0	0xbcf788b3	-0.03021655
1	0xbdb26bc9	-0.08711965
2	0xbbe4313f	-0.0069638784
3	0x3df60c7e	0.120141014
4	0xbdf1b058	-0.11801213
5	0xbdec8dd8	-0.11550492
6	0xbc4ad1d4	-0.0123791285
7	0x3cfacac8	0.030614272
8	0x3d218fbf	0.039443728
9	0xbddc4203	-0.10754778
10	0xbba70e90	-0.0050981715
11	0xbc057267	-0.008144951
12	0x3e2c29c9	0.16812815
13	0xbdfc4f83	-0.12319853
14	0x3b40b8f3	0.0029407113
15	0x3cc9496c	0.024571143
16	0x3db100e8	0.08642751
17	0xbd29d2b6	-0.041460715
18	0xbd457876	-0.048210584
19	0x3d7c40a7	0.061585095
20	0x3e370831	0.17874219
21	0x3d429df9	0.047513936
22	0xbe20a0f0	-0.15686393
23	0x3d37e73a	0.04489825
24	0xbccb49eb	-0.02481552
25	0x3d75690f	0.059914645
26	0x3e422cb2	0.18962362
27	0xbc5b5920	-0.013387948
28	0xbd8faf21	-0.07015825
29	0xbd9ab205	-0.07553486
30	0xbe2dd28a	-0.16974846
31	0xbdeb1437	-0.11478465
32	0xbd80c699	-0.062878795
33	0xbd38a0c4	-0.045075193
34	0xbe3e6ed5	-0.18596967
35	0xbd66a4ee	-0.056309633
36	0xbd0c0125	-0.03418078
37	0xbe6d0330	-0.23145747
38	0xbdc697a8	-0.09696895
39	0xbe866138	-0.26246047
40	0xbb32cb0c	-0.002728167
41	0xbd239712	-0.039938994
42	0xbdc366f2	-0.0954112
43	0x3cd11458	0.025522396
44	0xbd36cfe2	-0.044631846
45	0xbd832ab4	-0.06404629
46	0x3cab82b7	0.020936353
47	0xbdb0b2ed	-0.086278774
48	0xbd194f94	-0.037429407
49	0xbe48ef9d	-0.19622655
50	0xbe0f4685	-0.13991745
51	0xbd9d71ff	-0.07687759
52	0xbeaaeb02	-0.33382422
53	0x3e82c53f	0.25541112
54	0xbdbdd8b0	-0.092698455
55	0xbd181333	-0.037127685
56	0xbb616850	-0.003439445
57	0xbe27efcf	-0.16400073
58	0xbd811ade	-0.06303953
59	0xbbed15d8	-0.00723527
60	0x3d9c4771	0.07630814
61	0x3ce6fdfe	0.028197285
62	0x3c32f364	0.010922287
63	0xbdb281b3	-0.087161444
64	0xbcf3b316	-0.02974848
65	0x3e12a6bf	0.14321421
66	0x3d05cb69	0.03266469
67	0xbdaae968	-0.083453
68	0x3e827f14	0.25487578
69	0xbc17aa14	-0.009256858
70	0x3cd03fc2	0.025421027
71	0x3debcf45	0.11514143
72	0xbd99f2dc	-0.07517025
73	0xbcd91223	-0.026497906
74	0xbc285d68	-0.010276176
75	0xbe5ae2c6	-0.2137557
76	0xbd2d2cc7	-0.04227903
77	0xbde6a712	-0.11262335
78	0x3e58e713	0.21181898
79	0xbd8893ba	-0.066688016
80	0x3c29d42b	0.010365526
81	0x3df4a0f9	0.119447656
82	0x3db7fc87	0.08983713
83	0x3e7f718d	0.2494566
84	0x3e1b1157	0.15143333
85	0xbd4cbb04	-0.04998304
86	0xbd2b98cc	-0.041893765
87	0xbd023972	-0.031793065
88	0xbc82925c	-0.01593893
89	0x3a3f0972	0.0007287479
90	0x3d218a0f	0.039438304
91	0xbd7bc086	-0.0614629
92	0xbd04aaf1	-0.032389585
93	0xbdc0f013	-0.094207905
94	0xbcad655e	-0.0211665
95	0xbd253696	-0.04033526
96	0x3d96e919	0.073686786
97	0xbc97f254	-0.018548168
98	0xbbb825f6	-0.0056197597
99	0xbe3ce0d3	-0.18445139
100	0xbd2474ad	-0.040150333
101	0x3be633e1	0.0070252274
102	0x3bfcecb0	0.007718645
103	0xbdae8ea3	-0.085232995
104	0x3cea83ea	0.028627355
105	0xbe29e609	-0.16591658
106	0x3d4b1007	0.04957583
107	0x3dc71092	0.097199574
108	0xbb85ac10	-0.0040793493
109	0x3cacf046	0.021110665
110	0x3d7151a6	0.058915757
111	0x3dcbc87f	0.09950351
112	0x3baa4d0d	0.0051971735
113	0xbd977078	-0.073944986
114	0x3d3d78ba	0.046257712
115	0xbdf1f55c	-0.11814377
116	0xbdab6051	-0.0836798
117	0xbd886d3f	-0.06661462
118	0xbb76bbd0	-0.0037648566
119	0x3e79fa1d	0.24411817
120	0xbe297e0e	-0.16551992
121	0xbe65d1fd	-0.22443385
122	0xbdf7d15b	-0.12100478
123	0xbd383f0b	-0.044981997
124	0x3e234be0	0.15946913
125	0x3d155671	0.03645939
126	0xbdcfec7d	-0.101525284
127	0x3e24b89d	0.1608605
128	0x3c0498b4	0.008093048
129	0xbe0cac52	-0.1373761
130	0x3c41a7fe	0.011819838
131	0xbd63cecc	-0.05561714
132	0xbd57fe4e	-0.05273276
133	0x3e78c880	0.24295235
134	0xbd1f6afe	-0.038920395
135	0x3e12e1f7	0.14344011
136	0xbd3031c5	-0.043016214
137	0xbdd61e47	-0.10454994
138	0xbcdf6b15	-0.02727274
139	0xbd8bfb05	-0.068349876
140	0x3cf65504	0.030069835
141	0xbe27e0e8	-0.16394389
142	0xbe5ed556	-0.21761069
143	0xbeb9ffb2	-0.36327893
144	0xbb55841a	-0.003257996
145	0x3c91efce	0.017814543
146	0xbced9900	-0.02900362
147	0xbceeeded	-0.029166186
148	0xbc377018	-0.011196159
149	0xbd836f6e	-0.06417738
150	0x3d7c28e3	0.06156243
151	0x3ea1678b	0.3152431
152	0xbdc93450	-0.09824431
153	0x3e5d09a8	0.21585715
154	0x3d81e935	0.06343309
155	0x3cf15002	0.029457096
156	0xbb9b2133	-0.0047341823
157	0x3d68d833	0.05684681
158	0x3c99ba86	0.0187657
159	0xbcfed698	-0.031108186
160	0xbcd682b0	-0.026185364
161	0xbcc93339	-0.024560558
162	0xbd1cea8d	-0.038309623
163	0x3d4c06e9	0.049811278
164	0x3c8ef93e	0.017452832
165	0xbde9a232	-0.114078894
166	0xbd04fb6a	-0.03246633
167	0x3cb52169	0.022110658
168	0xbe55b83d	-0.20871063
169	0x3e968467	0.2939789
170	0xbd1ad338	-0.03779909
171	0x3c682ca5	0.0141708
172	0x3e040330	0.12891841
173	0xbd4a258b	-0.04935221
174	0xbdc00a40	-0.09376955
175	0xbdbd5b79	-0.09245963
176	0x3dc40f71	0.09573258
177	0x3d906618	0.07050723
178	0xbb98f9b5	-0.0046684393
179	0xbd48c131	-0.049012367
180	0xbd0e76c6	-0.03478124
181	0x3cfaa126	0.03059442
182	0xbe20dc25	-0.15708978
183	0xbe145042	-0.14483741
184	0xbdb68599	-0.089122005
185	0x3e700a16	0.23441347
186	0x3d215239	0.039385054
187	0xbe343ec7	-0.17602073
188	0xbe2f67a3	-0.17129378
189	0x3d06d49d	0.032917608
190	0xbdfbef0f	-0.12301456
191	0xbda35595	-0.07975308
192	0xbd624eb7	-0.05525085
193	0xbd537ef6	-0.05163475
194	0xbc2b2088	-0.010444768
195	0xbcc682a2	-0.024232212
196	0xbcde4a76	-0.027135115
197	0x3d23214b	0.039826673
198	0xb9216a34	-0.0001539372
199	0x3c628764	0.013826225
200	0xbd7c578f	-0.06160694
201	0xbd4c7c32	-0.04992313
202	0xbe1fe787	-0.15615664
203	0xbdce3f26	-0.10070638
204	0x3c91d9d0	0.017804056
205	0x3d2e3106	0.04252722
206	0xbde345b0	-0.11097276
207	0x3b7cd504	0.0038579116
208	0xbe008494	-0.12550575
209	0xbe114c38	-0.14189231
210	0xbe83defa	-0.25756055
211	0xbd9a238b	-0.075263105
212	0xbea53d61	-0.3227339
213	0x3df0bf70	0.11755264
214	0xbccd992d	-0.025097454
215	0xbd7d6fc4	-0.061874166
216	0x3d5bb1da	0.05363641
217	0xbd198c01	-0.037487034
218	0xbe95dd18	-0.29270244
219	0x3c8f1dd3	0.017470276
220	0xbaf964bb	-0.0019027212
221	0xbc8b4ca0	-0.017004311
222	0x3d0af056	0.03392061
223	0x3d1c7eb5	0.038206775
224	0xbd2fb9d4	-0.04290183
225	0xbeab23a9	-0.33425644
226	0xbe29b843	-0.16574197
227	0xbdfc723f	-0.12326478
228	0x3de36889	0.11103923
229	0xbe811226	-0.2520916
230	0xbdd0e9ea	-0.102008656
231	0xbe5243ce	-0.20533678
232	0x3bda45ea	0.0066611664
233	0x3c3e5938	0.011617951
234	0x3da0890e	0.07838641
235	0xbd832278	-0.06403059
236	0x3d132743	0.035926115
237	0x3c5437c1	0.012952746
238	0xbe41d7ba	-0.1892995
239	0xbcc4b5d4	-0.024012484
240	0x3ddf4cb5	0.109033026
241	0xbce26414	-0.027635612
242	0xbd23143b	-0.039814215
243	0x3d6112b1	0.054949466
244	0xbc14cf0c	-0.009082567
245	0x3e9b8456	0.30374402
246	0xbe8b7689	-0.27238873
247	0xbe913f0a	-0.28368407
248	0xbd87d147	-0.06631713
249	0x3d450251	0.048097912
250	0xbdada962	-0.08479573
251	0xbe00b5ba	-0.12569323
252	0x3d21ac73	0.0394711
253	0xbe504c09	-0.20341505
254	0x3cb16e26	0.021658968
255	0xbe45c166	-0.19312057

l2.bias f4 [300]
0	0x3c334d7c	0.010943767
1	0x3d155a2c	0.036462948
2	0xbdb20ca0	-0.08693814
3	0xbccf655e	-0.02531689
4	0x3d01d69c	0.031698808
5	0xbdc463e6	-0.095893666
6	0xbe6a5cec	-0.2288701
7	0xbc4a2aea	-0.012339333
8	0x3e19b523	0.15010504
9	0x3cd84522	0.026400153
10	0x3dcbd535	0.099527754
11	0x3d2de105	0.042450923
12	0xbd159813	-0.036521982
13	0x3d23cd66	0.039990805
14	0x3caffdb8	0.021483287
15	0xba366dec	-0.00069591287
16	0xbe0f6ba5	-0.14005907
17	0x3c9c357e	0.019068476
18	0x3d111c71	0.035427514
19	0x3e73e466	0.23817596
20	0xbd962b0d	-0.0733243
21	0xbcaaacb9	-0.020834314
22	0xbd6ff7ff	-0.058586117
23	0xbd91b7e3	-0.07115152
24	0xbce3275a	-0.027728725
25	0xbd2c2229	-0.042024765
26	0xbcf99ab2	-0.030469272
27	0xbce3c178	-0.027802214
28	0xbd8fc4b7	-0.07019942
29	0x3e1eedf7	0.15520464
30	0xbd10147c	-0.035175785
31	0xbd167989	-0.036737
32	0xbc9e6990	-0.019337445
33	0xbe40c598	-0.18825376
34	0x3d09b9d7	0.033624496
35	0x3d0648b2	0.03278417
36	0x3c35dfa7	0.011100686
37	0xbd703eaa	-0.05865351
38	0xbe899405	-0.26870742
39	0x3e210ef4	0.1572836
40	0xbbce1766	-0.0062894104
41	0xbd195f14	-0.03744419
42	0xbd85fc1f	-0.06542229
43	0x3c37a4b9	0.011208707
44	0xbd085b48	-0.033290178
45	0x3de690be	0.11258076
46	0x3d37925b	0.04481731
47	0xbd49a457	-0.049228992
48	0xbd7c3398	-0.06157264
49	0xbdff42f0	-0.12463939
50	0xbd76e635	-0.060278136
51	0xbd036b7a	-0.03208492
52	0xbd4d4fd4	-0.05012496
53	0xbc3b80d8	-0.011444293
54	0x3cfef3e4	0.031122155
55	0xbd2d1d6a	-0.04226438
56	0xbe394fa2	-0.18096784
57	0x3d95ce81	0.07314778
58	0x3d1a9695	0.037741262
59	0x3c875c53	0.016523516
60	0xbd06f7a9	-0.03295103
61	0x3d3207fe	0.043464653
62	0x3d25ef55	0.040511448
63	0xbd683f80	-0.056701183
64	0xbdc1aa51	-0.094563134
65	0xbd4568eb	-0.04819576
66	0xbce5e409	-0.028062837
67	0xbd77015e	-0.06030404
68	0x3c5176c6	0.012784665
69	0xbeb55368	-0.35415196
70	0xbd37b6a0	-0.0448519
71	0xbc301ff7	-0.0107498085
72	0x3e6e3f15	0.23266251
73	0xbd819848	-0.063278735
74	0xbd0f2e3d	-0.034956206
75	0x3c6313ff	0.013859748
76	0xbe2eb07d	-0.17059512
77	0x3cd961cb	0.02653589
78	0x3e080e16	0.13286623
79	0x3bfb8793	0.007676074
80	0xbd64f745	-0.055899877
81	0x3e44c98a	0.19217506
82	0x3c578f28	0.01315669
83	0xbc5bed11	-0.01342322
84	0xbdc21d02	-0.09478189
85	0xbd10a3cb	-0.035312455
86	0x3ca9135a	0.02063911
87	0x3c57b5e9	0.013165929
88	0xbca848c3	-0.020542508
89	0xbd5b06c9	-0.053473268
90	0x3deab569	0.114603825
91	0xbd4d318f	-0.05009609
92	0x3e057eb0	0.13036609
93	0x3d64faad	0.055903126
94	0xbc3aca62	-0.011400791
95	0xbcb666b1	-0.022265764
96	0x3ca2dd6f	0.019880978
97	0x3bf8d390	0.0075935796
98	0xbbd09c0e	-0.0063662594
99	0xbd90642a	-0.07050355
100	0x3d487d49	0.048947606
101	0x3d5f77cd	0.05455761
102	0xbd9449ae	-0.07240616
103	0xbce9c14c	-0.028534554
104	0xbd93d9e5	-0.072192945
105	0x3e475e12	0.19469479
106	0x3bc99ab9	0.0061524776
107	0x3c8b0eef	0.016974894
108	0xbc8abc59	-0.016935514
109	0x3d5fe0c7	0.054657724
110	0x3c829615	0.015940705
111	0xbe4b6b03	-0.1986504
112	0xbcc44849	-0.02396025
113	0xbcde8a38	-0.027165517
114	0x3c81f25d	0.015862638
115	0x3d267862	0.04064215
116	0xbd2b6fbe	-0.041854613
117	0x3cf5f4b4	0.03002391
118	0xbba5d307	-0.005060557
119	0xbe09524c	-0.134103
120	0xbd2051fe	-0.039140694
121	0xbcb51be8	-0.022108033
122	0x3cdf2824	0.02724082
123	0x3e471ced	0.19444628
124	0xbe645b72	-0.22300509
125	0xbd6e34a7	-0.058155682
126	0x3ce64d07	0.028112901
127	0xbc949df8	-0.018141732
128	0xbe44ea13	-0.19229917
129	0xbe4c0d02	-0.19926837
130	0x3c46cd3c	0.012133893
131	0xbd3a6fee	-0.0455169
132	0x3ceded85	0.029043922
133	0xbc1e6f17	-0.009670041
134	0x3ce6927f	0.028146027
135	0x3e7625c5	0.24037845
136	0x3d1142e4	0.035464182
137	0xbc5c42c9	-0.013443657
138	0x3d24a8d5	0.040200073
139	0xbd7e8782	-0.06214095
140	0x3d2009f2	0.039071985
141	0xbce07852	-0.027401123
142	0xbc364d52	-0.011126833
143	0xbda9bed9	-0.082883544
144	0xbe38f967	-0.1806389
145	0x3b64c6be	0.0034908499
146	0x3cf06c65	0.029348562
147	0xbcc349ed	-0.023838961
148	0xbc9e29e8	-0.019307092
149	0xbdd0bc9f	-0.101922266
150	0xbe1f56ce	-0.15560457
151	0xbdb65f1e	-0.08904861
152	0xbd175190	-0.03694302
153	0xbe29f1b3	-0.16596107
154	0xbd899dfc	-0.06719586
155	0x3c1de8d3	0.009638029
156	0x3bb6b13b	0.0055753267
157	0xbe8815ef	-0.26579234
158	0xbd51ac2f	-0.051189598
159	0xbcc75928	-0.024334505
160	0x3ccd4719	0.025058316
161	0x3a7c68b1	0.00096286373
162	0x3c8a8987	0.016911281
163	0x3c2f9258	0.010716043
164	0xbd2f1a48	-0.042749673
165	0xbc301bd5	-0.010748823
166	0x3d29e8f6	0.041481934
167	0xbe33390c	-0.1750223
168	0xbc50c65f	-0.012742608
169	0xbda122d1	-0.07867969
170	0xbd84103e	-0.064484105
171	0xbc8f2ba2	-0.01747686
172	0xbea583fc	-0.3232726
173	0xbdd504d5	-0.10401312
174	0xbbdf1a16	-0.0068085296
175	0xbe25a9b2	-0.16178015
176	0xbd5705b8	-0.05249569
177	0x3d13a49e	0.036045663
178	0xbee2dcac	-0.44308984
179	0xbde1bc1e	-0.11022209
180	0xbe8f467f	-0.27983472
181	0x3c498573	0.012299883
182	0xbbe285d2	-0.0069129253
183	0xbe60c154	-0.21948749
184	0x3e5fba66	0.21848449
185	0xbcc3de7a	-0.023909796
186	0x3e8148a1	0.25250724
187	0xbe63672d	-0.22207327
188	0xbccdd821	-0.025127472
189	0x3b8e7b61	0.004348204
190	0x3e1f75c1	0.15572263
191	0xbcf19251	-0.029488714
192	0x3d847e11	0.06469358
193	0xbc953eee	-0.018218484
194	0xbbc34a2a	-0.005959769
195	0x3cce7c78	0.025205836
196	0x3dcdd9da	0.100513175
197	0x3d20ebc7	0.039287355
198	0xbd7b62bd	-0.06137346
199	0x3d053df0	0.03252977
200	0xbd6ff574	-0.05858369
201	0xbd29899b	-0.041390996
202	0xbc193f75	-0.009353508
203	0x3d437f9f	0.04772913
204	0xbd1423d3	-0.036166977
205	0xbc819057	-0.015815897
206	0x3cfa76d4	0.03057424
207	0x3ce5579f	0.027995883
208	0x3ac73ef5	0.0015201258
209	0xbd6e3cc1	-0.05816341
210	0xbcfe8fbd	-0.0310744
211	0x3ef9db22	0.48799998
212	0x3cee7331	0.029107662
213	0xbd8fc765	-0.07020453
214	0xbc455788	-0.012044795
215	0xbe36336d	-0.17793055
216	0xbd0682d5	-0.032839615
217	0xbd90a831	-0.0706333
218	0x3d0c1387	0.03419831
219	0x3c6f6b74	0.014613021
220	0x3c94b01e	0.018150385
221	0xbd00ee86	-0.031477474
222	0x3c22c07a	0.009933585
223	0x3e055f94	0.13024741
224	0xbb4d9caa	-0.0031373897
225	0xba86399e	-0.001024056
226	0xbc863889	-0.01638438
227	0xbd17aa73	-0.037027787
228	0x3e869950	0.26288843
229	0xbeaa9ec5	-0.33324257
230	0xbe959f09	-0.29222897
231	0xbccc28e4	-0.024921842
232	0xbbc2fa4a	-0.005950247
233	0x3e0b8b34	0.1362732
234	0x3c903dfd	0.017607683
235	0x3cb98700	0.02264738
236	0xbdf22f80	-0.11825466
237	0xbd88b2ce	-0.06674729
238	0x3f007d99	0.50191647
239	0xbc70f065	-0.014705752
240	0xbbf38925	-0.0074321204
241	0x3be9ccdb	0.0071350164
242	0xbdb5a3c4	-0.088691264
243	0x3e1af59e	0.15132758
244	0xbd7bc1d5	-0.06146415
245	0xbcbf0cef	-0.023321597
246	0xbcb936b1	-0.022609087
247	0xbd844e27	-0.06460219
248	0xbe8cd638	-0.27507186
249	0xbe001e80	-0.12511635
250	0x3d234251	0.039858166
251	0xbe4b9c6b	-0.19883887
252	0xbcebbc52	-0.028776322
253	0xbd4ced14	-0.050030783
254	0xbd14e791	-0.03635365
255	0xbc08f2c2	-0.008358659

l3.weight f4 [6, 300]
0	0x3d668d60	0.05628717
1	0x3d3e725d	0.046495784
2	0xbbf28fde	-0.007402404
3	0xbcc2084d	-0.023685599
4	0x3c78d030	0.0151863545
5	0xbc47627f	-0.012169479
6	0x3e3d587a	0.18490782
7	0x39381ac0	0.00017557573
8	0x3cb62742	0.022235516
9	0xbcd0e7fc	-0.025501244
10	0xbc6867c1	-0.014184893
11	0xbd1812d9	-0.03712735
12	0xbcd16efc	-0.025565617
13	0xbd17b556	-0.03703817
14	0xbd5ee63f	-0.0544188
15	0x3c2a885f	0.01040849
16	0x3ccc09b6	0.024906974
17	0xbb849150	-0.004045643
18	0x3c0af2a2	0.0084807
19	0x3d022e32	0.031782337
20	0xbbd04754	-0.006356159
21	0x3cfb2407	0.030656828
22	0xbd1d072b	-0.038336914
23	0xbd03c4ef	-0.032170232
24	0xbd1df331	-0.038562004
25	0xbc077086	-0.008266574
26	0xbd464b2b	-0.04841153
27	0xbbf4f8d7	-0.007475953
28	0xbd6b08aa	-0.05738131
29	0x3da1469a	0.07874794
30	0xbd32b9a6	-0.04363408
31	0xbcbfdbec	-0.023420297
32	0xbc8c5f17	-0.017135186
33	0xbd7f1bef	-0.0622825
34	0xbc671141	-0.014103235
35	0xbcb863e9	-0.022508578
36	0x3d4a4ea0	0.04939139
37	0xbbf4abe9	-0.0074667824
38	0xbb58a095	-0.0033054699
39	0x3cc57ddf	0.024107872
40	0x3d60458d	0.05475383
41	0x3d04aa5e	0.032389037
42	0x3c5ad855	0.013357242
43	0xbc8f6a26	-0.01750667
44	0xbc97dbc4	-0.01853741
45	0x3e2d2a07	0.16910563
46	0xbd698ba8	-0.057017952
47	0xbd33d047	-0.0438998
48	0x3d14a53a	0.036290385
49	0x3d9c8127	0.07641821
50	0xbcf23afa	-0.029569138
51	0xbaaa3f1b	-0.0012988778
52	0xbc0ce35b	-0.008599128
53	0x3d088238	0.03332731
54	0x3bdaa8e0	0.0066729635
55	0xbb37e28c	-0.0028058616
56	0xbb0650bf	-0.0020494906
57	0x3df4d195	0.11954037
58	0xbb253d18	-0.0025213417
59	0xbc3a6d6e	-0.011378629
60	0xbd4ec296	-0.05047854
61	0xbd615f8b	-0.055022758
62	0xbd6acbe2	-0.057323344
63	0x3dc2c0a1	0.09509397
64	0x3d819738	0.06327671
65	0xbc698e86	-0.014255172
66	0xbe1cad85	-0.15300567
67	0x3d373c5f	0.04473531
68	0xbd1e000d	-0.038574267
69	0x3d588a44	0.052866235
70	0xbd6bb13c	-0.05754207
71	0x3b318dad	0.0027092502
72	0x3d9c0867	0.0761879
73	0xbcca5893	-0.024700439
74	0xbc303a62	-0.010756107
75	0xbd69432e	-0.056948833
76	0x3d1b8cc0	0.037976027
77	0xbd7d62f6	-0.061861955
78	0x3dff6599	0.1247055
79	0x3cffd600	0.031229973
80	0x3e1b8016	0.1518558
81	0x353c6b83	7.019191e-07
82	0xbcd5ef7e	-0.026115175
83	0xbb598b30	-0.0033194534
84	0xbd62271a	-0.05521307
85	0xbd09f3b6	-0.033679686
86	0xbcd5d435	-0.026102165
87	0x3b82b7ce	0.0039891964
88	0x3d226464	0.03964652
89	0x3d27583a	0.040855624
90	0x3db32bb2	0.087485686
91	0xbb71c435	-0.003689063
92	0x3d3b378a	0.045707263
93	0xbdc20483	-0.09473517
94	0xbd1e2a5e	-0.038614623
95	0x3d3f5f9e	0.046722047
96	0xbd4e99a1	-0.05043948
97	0xbcd3693d	-0.025807017
98	0xbd1e7502	-0.038685806
99	0xbd5c64ab	-0.053806942
100	0x3c8a247c	0.0168631
101	0x3d672b81	0.056437973
102	0x3a9fda6b	0.0012195831
103	0x3d28ea4c	0.041239068
104	0xbda1046a	-0.0786217
105	0x3dc87fbc	0.097899884
106	0xbd2fb501	-0.04289723
107	0x3ccf78a3	0.025326079
108	0x3c984418	0.018587157
109	0xbdf96bc9	-0.121787615
110	0xbd46af73	-0.048507165
111	0x3d96a148	0.07354981
112	0x3ca3c610	0.019991904
113	0xbd42acbd	-0.047528017
114	0xbc928505	-0.017885694
115	0x3deaa59c	0.11457369
116	0x3d0c463d	0.034246672
117	0xbbdef5b4	-0.0068041924
118	0xbd150695	-0.03638323
119	0x3d3316ab	0.04372279
120	0xbd71f8a6	-0.05907502
121	0xbd501550	-0.050801575
122	0x3d236660	0.039892554
123	0x3c34ce32	0.011035489
124	0x3d39e0a3	0.045380246
125	0xbd9c56b3	-0.07633724
126	0x3d4afe92	0.049559183
127	0x3bd5d0f2	0.0065251524
128	0x3d81d1d5	0.063388504
129	0xbe383d08	-0.17992032
130	0x3ca77fbf	0.020446656
131	0xbcb2f6bf	-0.021846173
132	0xbd2cfa8b	-0.042231124
133	0x3cfe5194	0.031044759
134	0xbcb7f541	-0.022455813
135	0x3e96920a	0.29408294
136	0x3dbb2d58	0.09139508
137	0x3d0d497f	0.03449392
138	0xbbf558da	-0.0074873986
139	0x3d2f3916	0.04277905
140	0x3c93e60b	0.018054029
141	0xbc580e6e	-0.013187034
142	0x3d812e0b	0.0630761
143	0x3f24386a	0.6414858
144	0x3e12facb	0.14353482
145	0xbd5f18cb	-0.054467004
146	0xbd20798c	-0.039178416
147	0x3caaf85d	0.020870382
148	0x3d37d423	0.044880044
149	0x3c2a5e06	0.0103983935
150	0x3da0a995	0.07844845
151	0x3df1e376	0.11810963
152	0xbd88f7f7	-0.066879205
153	0x3b93c693	0.004509756
154	0x3d73cffd	0.059524525
155	0x3c086ffe	0.008327482
156	0x3cca58f6	0.024700623
157	0x3d5cb9bc	0.053888068
158	0xbc3e0b71	-0.0115994075
159	0xbd130391	-0.035892073
160	0x3d1ae0d4	0.03781207
161	0x3ca6366e	0.020289626
162	0x3aff7180	0.0019488782
163	0x3b998491	0.0046849926
164	0x3cac0278	0.020997271
165	0xbd47929e	-0.04872381
166	0xbdbe036c	-0.092779964
167	0xbca1dc44	-0.019758351
168	0x3b983275	0.004644687
169	0x3d4842c3	0.048891794
170	0xbd1a8451	-0.037723843
171	0xbd327a63	-0.04357375
172	0x3da519e1	0.08061577
173	0x3db0c603	0.08631518
174	0x3ca2f544	0.019892342
175	0x3d6878ee	0.056755953
176	0x3cd12302	0.025529388
177	0xbcdd35b1	-0.027003141
178	0xbbb7803b	-0.005600003
179	0xbd8ef127	-0.0697959
180	0x3c959e0f	0.018263845
181	0xbc69ae91	-0.014262811
182	0x3ca4e403	0.020128256
183	0x3d0cfdc0	0.034421682
184	0x3d87b17a	0.06625648
185	0xbd139760	-0.036033034
186	0x3d629400	0.055316925
187	0x3cc2d9a6	0.023785423
188	0xbd7c8d26	-0.061658047
189	0xbd3793f3	-0.04481883
190	0xbe089df6	-0.13341507
191	0xbd210a98	-0.039316744
192	0xbcb05740	-0.021525979
193	0xbd94adb2	-0.07259692
194	0x3cfd8419	0.030946778
195	0x3d82e0c7	0.06390529
196	0x3e6342b2	0.22193411
197	0xbc90728e	-0.017632749
198	0xbca57778	-0.020198569
199	0xbcb76755	-0.02238814
200	0xbc6cb3c4	-0.014447156
201	0x3d123d99	0.035703275
202	0x3d511362	0.051043876
203	0x3ceb100c	0.028694175
204	0xbd196be9	-0.037456427
205	0x3cf429b7	0.029805047
206	0x3c8b538b	0.01700761
207	0xbce1d862	-0.027569
208	0x3cc457da	0.023967672
209	0x3d512df6	0.051069222
210	0x3d624e5b	0.055250507
211	0xbdbfea49	-0.09370858
212	0xbc85d826	-0.01633842
213	0xbb28cf1a	-0.0025758208
214	0xbc5e5ed0	-0.01357241
215	0x3c79ce58	0.01524695
216	0xbc9e95b1	-0.019358488
217	0xbbf09387	-0.0073418054
218	0x3cfdcffb	0.030982962
219	0xbd60456f	-0.054753717
220	0xbd14321e	-0.036180608
221	0x3d48ff82	0.049071796
222	0x3c855c32	0.016279314
223	0x3d248bb6	0.0401723
224	0xbd3f1b78	-0.046657056
225	0xbd7a164f	-0.06105643
226	0xbd3de509	-0.046361003
227	0xbd27595a	-0.040856697
228	0xbe1db080	-0.1539936
229	0x3ea01e9b	0.3127335
230	0x3bca7be8	0.0061793216
231	0x3c6696db	0.014074053
232	0xbcd90cd7	-0.02649538
233	0x3cb81d87	0.022475017
234	0xbc8114e6	-0.015757035
235	0x3e9a19d5	0.30097833
236	0x3c8148d9	0.015781807
237	0xbd5d7491	-0.054066245
238	0xbe08acb1	-0.13347127
239	0x3cd58400	0.026063919
240	0x3d54e90d	0.051980067
241	0x3e833bfa	0.25631696
242	0x3c8e5070	0.01737234
243	0x3c79869f	0.01522985
244	0xbd0edaf6	-0.034876786
245	0xbcbb83f1	-0.022890063
246	0x3d1a7828	0.037712246
247	0x3d190505	0.037358303
248	0x3ddc3396	0.10752027
249	0x3c337ab7	0.0109545505
250	0x3d2cac73	0.042156648
251	0x3e10e06c	0.1414811
252	0xbd358333	-0.044314574
253	0xbb1a76f0	-0.0023569427
254	0x3cb2c114	0.021820582
255	0x3d4125ca	0.04715518

l3.bias f4 [6]
0	0xbc47563d	-0.012166557
1	0x3d9eebfd	0.07759855
2	0x3d9d3196	0.076754734
3	0x3dbbfd89	0.09179217
4	0x3d93498f	0.071917646
5	0x3d15c7b0	0.03656739
