2019_test_data/single_assembly/Average_TD3_Peg-in-hole-single_assembly_seed_2/_actor.pth (torch_old, 510312 bytes, 6 tensors)

l1.weight f4 [400, 12]
00000000: 3542 acbc 7c38 4a3d 193d dc3d 344f afbd
00000010: 2b51 133e a241 e73d 0b49 8bbd 16df c2be
00000020: 6c3f 353d 7d54 8bbe a907 783d d66c 97bd
00000030: 6001 82bd c4b6 713e 30d2 9d3c 2029 f53d
00000040: 1032 fa3d c062 2ebe bc47 e3bd be24 8e3e
00000050: b5c4 90be 709d a0bc 7069 bbbc 9aac 513e
00000060: 5280 9f3d a267 d73d 90de 4a3d 4523 5ebe
00000070: 2b28 04be 4927 2bbe 2ea3 83be 7b5a 08bf
00000080: 56ab 66bc 1c0f e63d 7dcb 78bd 9ebd e3bc
00000090: 8691 b13e c343 9abe 2182 4cbc 1024 b4bd
000000a0: 66b2 0dbd 36b6 a5be c3da a03e 6493 903e
000000b0: 6e14 063c 4af8 ab3e 607c e63b 0d2e 923c
000000c0: c072 fa3c c094 b43c b6bb 1d3e 1292 463e
000000d0: 4649 543e 5655 2b3e 4c24 90bd a08d 52bc
000000e0: f84a 70bd 3ef6 2b3e 1051 033d c0cb 883e
000000f0: 82a5 123f 0f83 04bf 3a2a e63b b691 d73e
00000100: ab3a bc3e e441 21be 4165 503e 99b5 18bf
00000110: 0265 a73c 3627 91bb c40f aebe 3585 ed3e
00000120: 8e5d f7be 33c1 2e3e 9c30 243d e1d9 de3c
00000130: 0a57 183d 404d 65be ea15 853c fd3d 65be
00000140: 8e49 593e 25a9 84bd 8fb8 e0be addf 07bd
00000150: e9ba 863e 0260 90be f084 263b 24b9 203e
00000160: 6240 e1bd 0db2 eebd 496c 8b3e 8b33 47be
00000170: 7c74 943b 6e52 573e 538f 00be 6c80 a4bd
00000180: 2bae 9d3d 5255 39be 91a2 23be 8809 52bd
00000190: 9016 34be 1490 0bbe 9f0c 04bf 6360 503e
000001a0: 4571 8e3c ccc9 533e 5951 963e ab53 073f
000001b0: fae7 91be 109c 323d 3e1a 893e 873a 56be
000001c0: 689e 03be 6012 79bc d2e3 37be 08dd 5ebd
000001d0: d8b9 2ebd e0af 833e 90b2 94bc 224c 203e
000001e0: 81e9 cc3e 9742 e13d 8320 80be e1bd 313e
000001f0: 156e 6e3e d962 b7be acd7 12be 3c6f b33e
00000200: 6d0b 77be f94f 55bd 01dc 21be df76 8f3e
00000210: 1e6e f1bd c6d0 83be 642b e53d e485 153e
00000220: 9871 dd3d ce43 7dbe caea 8f3e 506d b2bc
00000230: 89ac 8cbe 7c00 32bd 1813 413e 4a22 083e
00000240: fc62 3a3e 7ce9 423e 9db2 64be 014a 333e
00000250: f677 a83e 9ba2 83be dfda bfbd 2825 37be
00000260: 143e bbbe 8ab7 83bd 04fa 7739 3450 2fbe
00000270: a065 57be c066 ce3b 9e05 893e c8ab d33d
00000280: 00ad 44be 4ae4 4b3e 401d c23c 686c 90be
00000290: 405a 603c 94c2 3d3e f8d0 2dbe 609e 59bc
000002a0: 5062 d1be 6a0c bdbd 8858 e7bd 534a a1bd
000002b0: 28c9 503e dfb0 073d d099 c5be fe03 60bd
000002c0: c209 afbe 580a 78bb f633 923e fb11 e03c
000002d0: 16b1 7cbe 6e9e bc3b a928 723e d0fb a43d
000002e0: a428 84be c468 13be 53e9 fa3d 86a2 5abd
000002f0: e4b6 053e a5cb 2e3e bc75 bebd 9255 07bf
00000300: 414a 883e a154 a23c 71c6 f9bd 67fd fbbd
00000310: f919 de3d 4569 5bbe abd1 60bc 07af 813e
00000320: c5c3 5dbe 619c fcbd 6d70 87bb eb67 28be
00000330: 8b3c f6bb 2250 4d3e c0bc 203e fc20 c1bd
00000340: 1980 0ebd 2f20 00be 3d27 3ebe 61f7 afbd
00000350: f81d ecbc cda5 e4bd 167f 80be c75d 833d
00000360: d5a9 1abe 1a0b f8bd 2a21 803d 1682 493e
00000370: a817 803d 9093 6cbd 29e9 263f 9a89 a23e
00000380: 2ee1 413d c03e 2f3e 795f c9be 1160 06be
00000390: c7d3 103f f5fd d2be 66cc 57bd 24b1 1b3e
000003a0: 0f8d 8c3e fb10 84be 03f2 b2be fa00 34be
000003b0: 8b3d 53be 8b57 6cbe 1d52 103d d55f 99be
000003c0: 82f0 d03e 0186 e0bd acc0 8bbe edfc 5cbe
000003d0: 61c6 943e 0536 f5bc 7452 863e 3547 3a3e
000003e0: 47da 24be 95ef b2bc 3a24 b2be 6618 4d3d
000003f0: 247b fe3e 5442 0fbf b886 5dbe a6b2 623e
-0.021027664 0.049370274 0.10753841 -0.08560029 0.14386432 0.11291815 -0.06801041 -0.38060826
0.044249937 -0.27212897 0.06055418 -0.07393806 -0.063479185 0.23604876 0.019265264 0.119707346
0.1221658 -0.17029858 -0.110976666 0.27762407 -0.28275076 -0.019606322 -0.022877425 0.20475999
0.07788147 0.10517813 0.04952866 -0.21693142 -0.12905948 -0.16714205 -0.25710434 -0.5326306
-0.014078936 0.11233351 -0.060740937 -0.027800377 0.34681338 -0.30129823 -0.012482197 -0.08795941
-0.034593962 -0.32365578 0.31416902 0.2823745 0.008183582 0.33587867 0.0070338696 0.017844224
0.030572295 0.022043586 0.15403637 0.19391659 0.20731077 0.16731772 -0.07038173 -0.012851149
-0.058665246 0.16793153 0.03205973 0.2671795 0.57283795 -0.5176248 0.007024077 0.42103356
0.3676351 -0.15747792 0.20351125 -0.59652096 0.020433906 -0.004429723 -0.33996403 0.4639069
-0.48313564 0.17065887 0.04008542 0.027203502 0.037192382 -0.2239275 0.016245801 -0.22386928
0.21219465 -0.06477574 -0.43890807 -0.0331723 0.26314476 -0.28198248 0.0025408827 0.15695626
-0.10998608 -0.11655054 0.27231053 -0.19453256 0.0045304876 0.21027538 -0.12554674 -0.08032307
0.076992355 -0.18098953 -0.15979983 -0.05127862 -0.17586732 -0.1362918 -0.5158176 0.20349269
0.017387995 0.20682448 0.29358938 0.5286204 -0.28497297 0.043605864 0.26777834 -0.20920764
-0.12853396 -0.015202135 -0.17958 -0.05441001 -0.042657703 0.2572012 -0.018151551 0.15654042
0.400219 0.10999029 -0.25024804 0.1735759 0.2328418 -0.35817602 -0.14340085 0.35045803
-0.24125452 -0.05207822 -0.15806581 0.2802038 -0.11788581 -0.2574522 0.11189917 0.14601856
0.10812682 -0.24732897 0.28108817 -0.02178064 -0.27475384 -0.043457493 0.1885494 0.1329433
0.18201822 0.1903438 -0.2233376 0.17508699 0.32904023 -0.25709996 -0.09367918 -0.17885268
-0.365708 -0.06431492 0.00023648894 -0.17120439 -0.2103486 0.00629887 0.26762098 0.10335499
-0.1920662 0.19911304 0.023695588 -0.28207707 0.013693392 0.18531257 -0.16974247 -0.013282388
-0.4089532 -0.092308834 -0.11296183 -0.07875504 0.20389235 0.03312766 -0.38593912 -0.054691307
-0.34187132 -0.0037847962 0.28555268 0.027352324 -0.24676928 0.005756191 0.23648323 0.08055842
-0.25812256 -0.14395434 0.12251534 -0.05337765 0.13058048 0.17069872 -0.092998 -0.52864945
0.2661915 0.019815745 -0.12196053 -0.12304192 0.10844798 -0.21426876 -0.013721864 0.25328848
-0.21656711 -0.123345144 -0.0041332752 -0.16445892 -0.0075145415 0.200501 0.15697002 -0.094301194
-0.034790132 -0.12512277 -0.18569656 -0.08592106 -0.028822884 -0.111644365 -0.2509696 0.06414371
-0.15103848 -0.121114925 0.062563255 0.1967853 0.06254512 -0.057757914 0.65199524 0.31745607
0.04733389 0.17113781 -0.39330652 -0.13122584 0.56573147 -0.4120938 -0.052685164 0.15204293
0.2745137 -0.25794205 -0.34950265 -0.17578498 -0.20628946 -0.2308027 0.03523456 -0.29955927
0.40808493 -0.10963059 -0.27295434 -0.21580859 0.290576 -0.029932985 0.26234782 0.18191226
-0.16098891 -0.021842757 -0.34793264 0.050072096 0.49703324 -0.55960584 -0.21633422 0.22138461

l1.bias f4 [400]
00000000: 96e2 ab3d 93dc 3cbe c847 36be 8fde 2dbd
00000010: c008 4dbc 1dcb 1ebd 2c6a 94bd ca85 953e
00000020: 5729 a7be cc2f 213e 68d0 143d 5e5e 433e
00000030: ddaa 73be f85c 3c3d 58ee 59be 1c49 80bd
00000040: 6daf 9a3e a6ae 323d bd18 353e 97fd 763e
00000050: 2320 1f3e 8458 983e 1819 31bc 5d68 9cbe
00000060: 59f4 2d3c d6e5 90bd 6501 07bd a20a 163d
00000070: 2aeb 8ebe 9647 83be 87eb 0dbe 7fca c83d
00000080: 0e9d 3cbe 94a8 633e b1bf d9be 4cd5 e43d
00000090: ac35 aabe 94f9 afbd c4b9 49be 065d c63d
000000a0: 157d 8bbe 5e88 a2be f62e aabd 5816 323d
000000b0: 89bf aebd f152 26bb 551e 3fbe 171d 0a3e
000000c0: f5db 163e 9bd1 3ebe c491 be3d 8484 463e
000000d0: bfca 42bd 585b a13d c934 073e a34b 9cbe
000000e0: c13b 9ebe 0694 41bd bb29 473e 8e97 a63e
000000f0: b931 91be 36cc 83bd 0a98 a03e 72e6 3e3e
00000100: ee8b 863e 3f71 31be c7d5 02be b8a6 073d
00000110: 0319 6e3e 2a5d 2d3e 2da6 80be a618 9a3e
00000120: 031b 7fbe bf44 793e 3df9 e03d 2a0a c0bd
00000130: a4b7 41be 9599 2cbe 9061 ec3d e177 f5bc
00000140: 0f9c 2fbe 2b53 68be 740b 9cbe 98ff 1fbd
00000150: 2fac bbbd a828 8b3d 42ff 553d 7fa6 8c3c
00000160: 410c 6e3e 2432 89be 6994 303e ac0a d13d
00000170: b5c2 f4bd 293a b2be 3529 23be 6fe1 9f3e
00000180: 38cf 84be b7a0 3fbe 6611 9cbd 2805 96bd
00000190: 6f3e f13d bf53 1ebe adda 863e 5c6d eb3d
000001a0: be88 fcbd 6787 81be 0ceb 87be 11de 533c
000001b0: 714a 8ebe 7e99 b23e bf53 f63c 12b4 84bc
000001c0: b08b 793b 662e 62bd 9708 8abe 9754 8abe
000001d0: 2c59 5d3e 4a11 a23e a4cd 193e f646 833e
000001e0: f571 b3be 5448 79be c1c2 b03d 724a 893e
000001f0: 3ccd b23d 81be 0c3e aa09 c53d b09d 0abb
00000200: fbce b9bd 9e29 77be 43f8 d9bd d41e 5e3e
00000210: bf3e a3bc 87c6 8bbe 7b56 0f3e e68b 253e
00000220: 3412 b33d a8c1 8cbe 0138 1fbe 0a94 013e
00000230: 12c6 413e 737c 64be 90e3 44be 1047 abbd
00000240: 4ff9 88be 18a8 d8ba 9ec5 a3bc 7606 b83d
00000250: 60b9 77bd 91d6 303e 676d fd3c 9663 1fbe
00000260: 90d1 7d3e 475a a6be 485e 8abd d84d 843e
00000270: 1be3 383d ae1b 21be 62f5 45bd d411 813e
00000280: 3b3a f73c ccb4 8e3d 61ad c13e c4ea 2a3e
00000290: 0345 bebd d1bf 70be 04a8 53bd 4756 1fbd
000002a0: 96b0 acbe 19a1 cb3d 8c91 3cbe 01ba 7e3e
000002b0: f5d7 22be dbdb a63d bedc b0be 5886 893e
000002c0: 2a02 c73d 0c38 b83d 75a8 a1bc 5b98 f33d
000002d0: 4b6c 833e e43f d23d 28ee d7ba 4a81 e0bd
000002e0: fd49 04be 2b75 51be b1ee 853d 1d66 833e
000002f0: 1ddd 9a3e 5294 833e f8e7 283e 42da 5cbe
00000300: 2e59 2cbe 4a98 283e c0a4 b5bc f3f2 adbe
00000310: e2a8 673c 340d 54be ecee 203e c4c1 c9bd
00000320: cecc b9be 79b1 9c3d e5c4 853d 1e01 0f3e
00000330: 587b 6abe d285 053e 3841 49be 6d2a 863d
00000340: 5519 4b3e 5931 7dbd 5053 3cbe 4cf6 b0be
00000350: 6811 253e f236 693e b3eb 94bd 4acb 9d3d
00000360: a4ae 713e 092f 7bbe ee3e 28bd fcfa 64be
00000370: 6b54 67be 97b8 dcbc 0bdb 883e 2d11 7f3e
00000380: 2613 a6bc e0f4 073e c921 dfbd 2061 ad3d
00000390: a296 34bd 07dc 03be fca6 abbe d0a3 7d3e
000003a0: e907 14be 9b46 9abe 83cb fb3d 4020 f2bb
000003b0: 16d0 bcbd 2d9f 0e3e 1524 193e bd51 9cbe
000003c0: 405e de3d 3436 fdbd 611a c9bd 8ee3 573d
000003d0: de3e 46be 3e21 88be d82f 96bd 94b5 173e
000003e0: 2b3e 6fbe b207 ccbd 7400 0fbe bad3 febd
000003f0: 3bc0 fd3d deaf 913e 082a 88be 9d6f d3bd
0.08392827 -0.18443517 -0.1780082 -0.042448577 -0.012514293 -0.038767923 -0.07246813 0.29203635
-0.32648727 0.1574089 0.036331564 0.19078967 -0.23795648 0.0459871 -0.21282327 -0.062639445
0.30211964 0.04362359 0.17685218 0.24120174 0.15539603 0.29755032 -0.0108092055 -0.30548373
0.010617339 -0.07075088 -0.032960314 0.036631234 -0.2791379 -0.25640553 -0.13859378 0.09804248
-0.18419287 0.22232276 -0.4252906 0.11173496 -0.33244073 -0.08592525 -0.1969977 0.096857116
-0.27243868 -0.31744665 -0.08309738 0.04347834 -0.08532626 -0.0025379027 -0.18663915 0.1348766
0.14732344 -0.18634646 0.09305146 0.19386488 -0.047556635 0.078787506 0.1320373 -0.30526456
-0.30904964 -0.047260307 0.19449513 0.32537502 -0.28358248 -0.064354345 0.31365997 0.18642595
0.26278633 -0.17328356 -0.12776862 0.03311798 0.23251729 0.1693007 -0.25126782 0.3009693
-0.24912648 0.24342631 0.109850384 -0.09376939 -0.1891771 -0.16855462 0.11542046 -0.02996439
-0.17149375 -0.22687976 -0.30477488 -0.039062113 -0.09163701 0.06794864 0.052245386 0.017169235
0.23246862 -0.26796067 0.17244114 0.102071136 -0.119512 -0.34809998 -0.15933688 0.3122668
-0.25939345 -0.18713652 -0.07620506 -0.07325202 0.117794864 -0.15461634 0.2633871 0.11495468
-0.12330769 -0.25298616 -0.26546514 0.012931363 -0.2779117 0.3488273 0.03006923 -0.016199145
0.0038077645 -0.05522003 -0.2695968 -0.27017662 0.21616048 0.31653816 0.15019852 0.25640076
-0.3504788 -0.24343997 0.08630896 0.2681461 0.087305516 0.13744546 0.09620984 -0.0021151118
-0.090726815 -0.2413697 -0.10643055 0.21691447 -0.01992738 -0.27299902 0.13997833 0.16166648
0.08743706 -0.27491498 -0.15548708 0.12654129 0.18923214 -0.22313099 -0.19227433 -0.083631635
-0.26752707 -0.0016529588 -0.019991692 0.08985607 -0.06047952 0.1726935 0.030935956 -0.15565333
0.24786973 -0.3249075 -0.06756264 0.2584064 0.04513846 -0.15733215 -0.04832972 0.25208914
0.030179134 0.06968078 0.3782759 0.16691118 -0.09290507 -0.23510672 -0.051673904 -0.03890064
-0.33728474 0.09942836 -0.18414897 0.24875642 -0.15902694 0.08147403 -0.34543413 0.2686031
0.0971721 0.08995065 -0.019733647 0.11894294 0.25668558 0.102660924 -0.0016474174 -0.1096216
-0.1291885 -0.20454852 0.065396674 0.25663844 0.3024682 0.25699097 0.16494739 -0.21567634
-0.16830894 0.16464344 -0.022173285 -0.33974418 0.014139386 -0.20708162 0.15716141 -0.09851411
-0.36289066 0.07651038 0.06531695 0.1396527 -0.22898614 0.1303933 -0.19653785 0.06551061
0.19833882 -0.06181464 -0.18391156 -0.3456291 0.16119921 0.22774866 -0.072715186 0.0770479
0.23601776 -0.24529661 -0.04107564 -0.22361368 -0.22590797 -0.026943488 0.26729617 0.24908896
-0.020272803 0.13277006 -0.10895116 0.08465791 -0.044088967 -0.12876903 -0.33525836 0.24769521
-0.14456142 -0.30131993 0.12294676 -0.0073890984 -0.09219377 0.13927908 0.1495517 -0.3053111
0.108578205 -0.12363854 -0.098194845 0.052707247 -0.1935992 -0.26587862 -0.07333344 0.1481536
-0.23363559 -0.09962405 -0.13965017 -0.124427274 0.12390181 0.2845449 -0.26594567 -0.10324023

l2.weight f4 [300, 400]
00000000: 49b8 173d 86ab 82bc 7f5b 413d 0059 a6b9
00000010: d068 adbc 62d6 3cbd 8a70 dbbc 750d 45bd
00000020: f87d 12bd 38b3 17bd 94e2 103c 0096 1d3a
00000030: 804e b039 40d6 a53b 227a d53c 467d 973c
00000040: 332b 253d fa07 85bc f729 433d 146b 773c
00000050: 48ab 4ebc 427b 44bd 948f 5dbc e875 aebb
00000060: 4659 d23c 94ba 0ebc c54a 49bd ae0c 923c
00000070: 82f9 15bd 1a2c 3bbd 02d3 d63c e496 7f3c
00000080: 1eee e33c 0d31 2c3d 57a2 42bd b005 f8bb
00000090: 366c e63c 54d3 263c 20fa 4abd 4182 283d
000000a0: c094 113c 6857 043c c40a 8dbc 974a b8bc
000000b0: a8cd d53b 05ec 30bd 0778 b0bc 3809 2cbc
000000c0: 80d4 01bc eb6d 3ebd 86aa d63c 746f 65bc
000000d0: e3f3 efbc 3240 f63c 3be8 0a3d 3dd9 aabc
000000e0: 03e2 40bd d87d 05bd ef28 183d 281a bfbb
000000f0: 4151 273d ddb6 04bd 26d3 27bd 6010 daba
00000100: 7e8b 15bd a6c9 17bd d0f1 c5bb 201a 2dbc
00000110: 177f b9bc 47ab 423d 3a44 d43c 4ca9 3e3c
00000120: b833 4bbc 6080 a8bc 4147 1f3d cc16 513c
00000130: 372a d4bc 62e2 c43c eb9e 043d f5c5 003d
00000140: 005a 7fb9 c254 16bd 3972 443d e952 433d
00000150: 5444 97bc b863 20bd aafb b9bc 1959 363d
00000160: 5843 d33b beb9 a73c 2048 08bb a21e 9e3c
00000170: 7f9e 42bd b06c f0bc 4d41 c4bc cc9d 0b3c
00000180: 9de1 41bd 854a 093d 4dde c2bc 40bc adbc
00000190: c7b0 f6bc 874e dbbc 4016 48bc 05dd 113d
000001a0: baac 9c3c 124c de3c 8a62 8ebc 9878 4bbc
000001b0: 8a9d d7bc 7490 93bc a326 2bbd e3df 1ebd
000001c0: 8f63 023d c3b8 debc 885b 4cbd 7a12 adbc
000001d0: 4642 d33c b4ab 78bc 6d0f f0bc b0a9 d4bb
000001e0: 647c 6d3c 22b6 b13c 359e 323d 5090 04bb
000001f0: 95c7 153d 3efe d53c a6d7 17bd b86a 203c
00000200: 380d 38bd c649 96bc 4056 8d3b 821d f23c
00000210: f59f 44bd e368 2d3d 18f0 99bb 0c04 5bbc
00000220: 80e9 703a a5e4 003d da9b 82bc ded9 b63c
00000230: 7815 6dbc cb8d 3abd f0c9 e53b 060b 0cbd
00000240: 83f7 0ebd f45a 2bbc a5e8 413d 1a8c 35bd
00000250: ca2b f2bc 7476 793c a790 303d 0df9 c0bc
00000260: f26b ba3c 08e1 42bd 0063 96ba cd04 abbc
00000270: c812 11bc 3246 833c 30ca f83b 014c 3e3d
00000280: 91b0 4a3d c333 443d 4a9a 47bd 26ec e63c
00000290: abfb 093d 5076 b33b da16 9b3c 5fbf 44bd
000002a0: 58cf 1a3c 7cee 4d3c 5399 2cbd a376 0fbd
000002b0: a112 0a3d 8dc5 043d e095 7fbc 3d7b b4bc
000002c0: 70fc dbbb 3000 90bb 8094 c8bc 4d37 fbbc
000002d0: 00ab 443c c039 b83b 3a5b 903c 540c 263c
000002e0: 2fb5 38bd ce69 b23c 28be 9cbb 2081 4cbc
000002f0: 96ac 8f3c dfa2 063d 1c44 80bc 7d89 0cbd
00000300: 5af3 e5bc 16df 9e3c d513 28bd f0ce 973b
00000310: 70d6 b6bc 7d36 b4bc 71af 103d c0d9 aa3a
00000320: 00b6 9138 7e65 983c 9216 cf3c 02a1 b03c
00000330: 5673 f93c eeab 903c 79c8 063d 91d3 2e3d
00000340: 1bd3 193d 5263 8a3c 2bc2 38bd ed51 003d
00000350: 3072 9a3b 6d33 2b3d c00f a6bb 342f 27bc
00000360: 3f69 0a3d 32ce 953c cc41 84bc 409f ab3b
00000370: fe1e b83c 7719 39bd 9ac9 32bd e3ab fdbc
00000380: 90fa babb a10d 143d e87f 41bc 301d 5bbb
00000390: 5861 3fbc 8803 5cbc 383c 34bd c8f5 09bd
000003a0: 1a45 b5bc b8da 14bd 2686 b23c 9929 273d
000003b0: ca3a d2bc 4ba4 3fbd 1817 a8bb 42fc 9a3c
000003c0: 60fc 0b3c 398e 0f3d 90b7 bdbb 585f 6abc
000003d0: 3182 0d3d 2732 0e3d 8e12 1ebd c9d6 083d
000003e0: f429 3abc c0e7 a33a ee63 db3c 8009 7d3b
000003f0: 9256 38bd bd9d e6bc 6420 543c 1387 3c3d
0.037040982 -0.01595093 0.047206398 -0.00031728297 -0.021168143 -0.04610289 -0.026787061 -0.048108537
-0.035764664 -0.03703615 0.008843083 0.00060114264 0.00033627823 0.005060941 0.026059214 0.018492352
0.0403244 -0.016239155 0.047647443 0.015101213 -0.012614079 -0.04796911 -0.013523001 -0.005324114
0.025677335 -0.008711476 -0.04914357 0.017828312 -0.036614902 -0.045696355 0.026223663 0.01559994
0.027823504 0.042038966 -0.0475181 -0.0075690374 0.02812777 0.0101822205 -0.049554944 0.041139845
0.008885562 0.00807748 -0.017217048 -0.022496505 0.0065247603 -0.043193836 -0.021541608 -0.010500245
-0.007924199 -0.046491545 0.026204359 -0.014003623 -0.029291099 0.030059908 0.03391288 -0.02085554
-0.04709054 -0.032590717 0.037148412 -0.0058319755 0.040848974 -0.032400955 -0.04097285 -0.001663696
-0.036509983 -0.03705754 -0.006040789 -0.010565311 -0.022643609 0.047526624 0.02591144 0.011637043
-0.012402467 -0.020569026 0.038886312 0.012761783 -0.025899036 0.024033729 0.03237812 0.031438787
-0.00024352223 -0.036701925 0.047960494 0.04768649 -0.018465199 -0.0391576 -0.02270301 0.044518564
0.006447237 0.020474311 -0.0020794943 0.019301716 -0.047514435 -0.029348701 -0.02395692 0.008521508
-0.047334302 0.033518333 -0.023787642 -0.021207929 -0.03011359 -0.026770843 -0.012212336 0.03561117
0.019125331 0.027135883 -0.017380971 -0.0124188885 -0.026320238 -0.018013217 -0.041784894 -0.038787734
0.031833228 -0.02718771 -0.04989198 -0.021126974 0.025788438 -0.015177656 -0.02930423 -0.006489955
0.014494989 0.021693293 0.04360791 -0.0020227619 0.03656729 0.026122209 -0.037070893 0.009791069
-0.04493448 -0.018345725 0.0043132603 0.029555086 -0.04800411 0.042336356 -0.004697811 -0.013367664
0.00091900676 0.031468052 -0.015943456 0.022320684 -0.014470451 -0.04554538 0.007012598 -0.0341902
-0.034904014 -0.010458697 0.047341008 -0.044323064 -0.029561896 0.015225995 0.0431067 -0.023556257
0.02275655 -0.047577888 -0.0011473596 -0.020876313 -0.008854575 0.016024683 0.007592462 0.0464592
0.049484793 0.047900926 -0.048731126 0.028188776 0.033687275 0.0054767504 0.018931795 -0.04803407
0.009448849 0.012569066 -0.04213841 -0.03502525 0.033709172 0.03241496 -0.015599698 -0.02203142
-0.0067134425 -0.0043945536 -0.024484873 -0.030666018 0.01200366 0.0056221187 0.017621625 0.010134775
-0.045094665 0.021778967 -0.0047834106 -0.012481958 0.01753835 0.03287017 -0.015657477 -0.034310807
-0.02807014 0.019393485 -0.04103454 0.004632823 -0.022319049 -0.021998638 0.035323564 0.0013034865
6.948039e-05 0.018603083 0.025279317 0.02156115 0.030450504 0.017660107 0.03290603 0.042682234
0.03755484 0.016893063 -0.045107048 0.03132813 0.0047133192 0.04179709 -0.0050677955 -0.010204125
0.033791777 0.018286798 -0.016144656 0.00523749 0.022475716 -0.0451903 -0.043649293 -0.030965751
-0.005706139 0.03614581 -0.01181028 -0.0033434145 -0.011680923 -0.013428576 -0.04400274 -0.03368166
-0.022127677 -0.0363414 0.021792483 0.040811155 -0.025662798 -0.04678754 -0.005129706 0.018919114
0.008544058 0.035047743 -0.0057897046 -0.014304958 0.03454799 0.034715798 -0.038591914 0.03340796
-0.0113625415 0.001250498 0.026781049 0.0038610399 -0.045004435 -0.028151387 0.012947176 0.046027254

l2.bias f4 [300]
00000000: c68b 10bd 46e1 c8bc bc8c c03b 2eb0 ba3c
00000010: a16b d3bd 6714 3c3c 5cef 60bd 7a9e 22bd
00000020: f5bb f93c 2de0 9abc 6967 7e3c 628b 283d
00000030: 7b48 a43d f238 c83c 212a 00bd 6342 14bd
00000040: 533b 323d 363f 283d 0bd1 afbc 184b 93bc
00000050: d33f c23c 1092 acbc e6b3 0a3d 9ed6 15bd
00000060: a5e9 513a 8246 23bc 7872 2bbd c163 5c3c
00000070: ad44 053d 01e6 503c 96f5 93bd 8e29 3f3d
00000080: 765f 343d 7b57 42bd a9dc f73d 0536 073d
00000090: 2a4f 82bd b247 7bbc ef6f c13c 83ca b53c
000000a0: efb1 59bd 5d3e 23bd 3696 97bd b4f9 183c
000000b0: 0514 4abd 9cac 93bd c521 8fbc 452b 723d
000000c0: ed13 da3c 3e14 823d 7620 b43c 0591 ed38
000000d0: 35f9 b53b 18b6 9f3c 9394 64bd de4f a7bb
000000e0: 2a3b 20bd 6f8c 74bb 1dbe 74bd fdb5 c1bb
000000f0: ea43 1fbd 913a e9bc 9908 2dbd 5e28 26bc
00000100: dce7 8dbc 1b70 9c3c 513d 0ebd da3a 68bd
00000110: d4cb 08bd 9f22 dd3b ec95 06be 6a87 8ebc
00000120: 4b2a 8b3c a2ba 62bc be10 d93d 38bf 0d3d
00000130: bf55 8fbd d478 3b3c 999f 013d 0769 27bd
00000140: eee6 c2bc 8fa7 853d aa12 ed3d 7179 8ebd
00000150: aa3e 51bc 9dbf 3ebd 8f79 cd3b 44d1 5fbd
00000160: 8104 e43c b282 5bbc 902a 653c 741e ea3c
00000170: 46f8 89ba eb35 9f3b 3aa0 52bd 1f57 54bd
00000180: 72ca c0bc 5b60 34bc f625 33bc 6d53 44bd
00000190: 29dc b5bc cfdf 103c 709e c03c d91e 1cbc
000001a0: d14f af3d fb99 25bb 83f2 b5bb 4956 10bd
000001b0: d125 e9bd 893f 08be e12d 8bbc 5453 c3bc
000001c0: 2a88 9bbc 9531 d33c fb68 7f3c e210 c33c
000001d0: c573 4a3d e33e 5fbd 56aa fabc c9e5 db3c
000001e0: 32e6 ea3c 70e4 86bd 0ac4 4b3d e1e1 793c
000001f0: af61 12bd e625 02bc 8950 88bd c667 e43b
00000200: 70ec e5bb f261 293b 965a 5abd 1d6d 023d
00000210: 7a84 d1bc 97ee 1c3d b089 c4bc adb5 503d
00000220: f7a9 8c3d 3497 003c 3264 91bd d752 ccbd
00000230: 380a debc 86ef b2bc e665 5dbd 021e 05bd
00000240: a4bb 90bc f282 0d3d af4b 54bd 6ed1 d73c
00000250: 8cc9 adbb bded 35bd cd22 8fbc e558 873c
00000260: 1d3f 82bd 4013 0fbd 086a 413c f415 113d
00000270: 9ff4 013c bed5 c3bc 920a b63c 8622 4b3b
00000280: cc37 f93c f128 a33d 5af8 b5bd 1a2f d2bc
00000290: 8982 1d3d 8f65 123d d69d dd3c 0f38 fbbc
000002a0: 1b49 d7bc a3f6 9f3c f657 1e3d 2422 0dbd
000002b0: b5a3 e93d 94b2 1abd 60b5 e3bc c6c2 97bc
000002c0: 05ff 27bd f64a a3bc 34ca c73c 77df 3b3d
000002d0: 3a8a 9ebd c598 983d 481b 473d cd78 14bd
000002e0: 388e 6ebd 8ea7 ae3c a885 313d 998e 5abd
000002f0: 0316 363b a1af 753c 97c7 74bd 7a0f 903c
00000300: 406d 6cba aaa2 2cbd 3a65 003d 63c0 00bc
00000310: 91c4 953d e12a 5ebc 717b 37bc e060 e63c
00000320: 0fc0 39bd 385c eabc a22b 0a3d cc56 653c
00000330: ea0e 773c 3234 71bd 0547 5cbd 891a b73d
00000340: f218 aebd 332d 33bc 4465 1cbc 6a28 98bc
00000350: 97f5 de3c 45d7 3a3b d7f5 c43d 3fa4 63bc
00000360: ed5e 28bd 85dc 0ebd bb69 3fbd dba0 10bb
00000370: 9779 2cbd be63 efbb 9c54 f3bc 2530 043d
00000380: 1a17 6abd 4a8f a13c 1ba1 4fbe 6cd6 19bd
00000390: d42f 8abd ef05 b5bc c28f 22bd 4db1 733a
000003a0: ce93 68bd 39ff 0f3c 0c87 783c f371 7633
000003b0: 22e1 02bb 7ab7 55ba 41d8 fb3c 81d0 8e3c
000003c0: 8ade cabc 5d29 e83b 41e4 f0bc 6cad 213d
000003d0: 54d4 20bd c3e6 80bc 7942 003d c17f 5bbc
000003e0: 5fc2 663d 97d9 1c3d 3faa d6bc 2ab7 66bd
000003f0: 09c1 5dbd f1f9 333d ab2f f03d 592d eb3c
-0.03528955 -0.024521481 0.005876152 0.022789087 -0.10323263 0.011479474 -0.05491577 -0.039701916
0.030485133 -0.018905723 0.015527585 0.04114855 0.08021637 0.024441216 -0.031290177 -0.036196124
0.043513607 0.041075908 -0.021461984 -0.017980143 0.023712074 -0.021065742 0.03386297 -0.036581628
0.0008007533 -0.009965541 -0.041857213 0.013451518 0.032536197 0.01275015 -0.07224576 0.04667049
0.04403635 -0.04744671 0.121026345 0.0330105 -0.063627556 -0.015336918 0.023612944 0.022191292
-0.053148206 -0.039854396 -0.07401697 0.009336878 -0.0493355 -0.07210657 -0.017472157 0.059123296
0.02662083 0.06351517 0.021988135 0.00011328053 0.0055533894 0.019496009 -0.055805754 -0.0051059565
-0.039118923 -0.003731515 -0.05975162 -0.0059115873 -0.038883127 -0.02847031 -0.042244527 -0.01014146
-0.017322473 0.019096425 -0.034726445 -0.05669675 -0.03339751 0.006748512 -0.13143128 -0.017398555
0.01698794 -0.013838442 0.105988964 0.03460619 -0.06998777 0.011442382 0.031646345 -0.040871646
-0.023791756 0.065261 0.115758255 -0.06956757 -0.012771288 -0.046569455 0.0062705944 -0.05464293
0.027834179 -0.013397859 0.0139871985 0.028578974 -0.0010526262 0.0048587224 -0.051422335 -0.051840898
-0.023534033 -0.011009301 -0.010934344 -0.047931124 -0.022199707 0.008842423 0.023513049 -0.009528839
0.08560146 -0.0025268781 -0.0055525913 -0.035238538 -0.11384166 -0.13305487 -0.01698965 -0.023843445
-0.018985827 0.025780478 0.015588994 0.023811761 0.049426813 -0.054503333 -0.0305988 0.026842969
0.028674219 -0.0658654 0.049747504 0.015251608 -0.03573769 -0.007943606 -0.06655986 0.0069703786
-0.007016711 0.0025845733 -0.053309046 0.03184234 -0.025575865 0.038313475 -0.023991436 0.05095451
0.06868356 0.00784855 -0.07099189 -0.09976738 -0.027104482 -0.02184273 -0.054052256 -0.03249932
-0.017667599 0.034548707 -0.05182999 0.026344981 -0.0053035673 -0.044416178 -0.017472649 0.01652188
-0.06359694 -0.034930468 0.011805065 0.035421327 0.007931857 -0.023905631 0.022221837 0.003099592
0.030422114 0.07966793 -0.0888526 -0.025657225 0.038454566 0.035741385 0.027052801 -0.03066638
-0.026279977 0.019526785 0.038658105 -0.034456387 0.11408178 -0.03776796 -0.027796447 -0.018525492
-0.04101469 -0.019933205 0.02438841 0.04586741 -0.077412084 0.074510135 0.04861 -0.036248017
-0.0582411 0.02132013 0.043340355 -0.053358648 0.0027784116 0.0149954865 -0.059760656 0.017585505
-0.0009018965 -0.042147316 0.031346537 -0.007858369 0.07312883 -0.013560028 -0.011198864 0.028122365
-0.045349177 -0.028608426 0.033733018 0.013997745 0.015079239 -0.058887668 -0.053778667 0.08940608
-0.08500852 -0.010936069 -0.009545628 -0.018573958 0.027216716 0.0028509658 0.09617203 -0.01389414
-0.041106153 -0.034878273 -0.04673169 -0.0022068534 -0.042108145 -0.0073055914 -0.02970343 0.032272477
-0.057150938 0.019721646 -0.202763 -0.037558004 -0.06747404 -0.022097556 -0.03968788 0.0009296134
-0.056781583 0.008788877 0.015168916 5.7379975e-08 -0.0019970615 -0.00081526453 0.030742766 0.017433407
-0.024764318 0.007085009 -0.029405715 0.03947203 -0.039264992 -0.015735036 0.031313393 -0.013397158
0.05633771 0.038293447 -0.026204227 -0.056327023 -0.05413917 0.043939535 0.11727842 0.028708147

l3.weight f4 [6, 300]
00000000: 38e7 8bbb e0d6 45bd 6ebe 4fbd 21fc 36bd
00000010: d062 10bd 7df5 393d 3a2c 5dbd 5b43 103d
00000020: 7d35 4c3d 5392 d33d 6c4c ea3d 1c62 553d
00000030: f12c 843d 5d49 4bbd 2989 2f3d 7037 ab3c
00000040: 84bf 47bd ef12 2cbd ec7d cb3c 900f 27bb
00000050: ee38 bebd a0a3 e53b 2db9 0d3d 3bfa d23d
00000060: 2651 09bd 9d01 2c3d 9d8a 5d3d 30b8 7dbc
00000070: af06 e2bb 449c 25bd 4860 3d3d 2f52 2b3d
00000080: 484a b73c 35e0 b13d 87ec 5a3d 4abd 373d
00000090: 224c 2d3d d779 07bb b743 38bd 5ae3 463d
000000a0: dca2 9bbc fa95 a1bc f6b1 2b3d 5f6e 55bd
000000b0: 0e67 46bd 6672 893d f0a5 0fbc 3778 58bd
000000c0: 041d 06bd 56d2 e23c 8e33 0e3d e6ba 00bd
000000d0: a83c 80bb fb34 0d3d 44da 953c 7c7d 79bc
000000e0: 4724 0abc fa94 983c 1eae babb 9116 4ebd
000000f0: efaa abbc 9029 723b 55e9 e5bb 54d3 bdbd
00000100: e1f4 00bd 897d 39bb 615e 503d a896 343c
00000110: 154f 21bd b046 bb3c 0a6b 083d 0c30 ac3d
00000120: b466 013d a51b 29bd d587 923d a58a 35bd
00000130: 2d5c fcbc 72e2 3bbc 09c5 c23b 720d 00bc
00000140: 97c4 92bc 5ae1 b83d dd97 f03d f5a8 573d
00000150: fef0 10bd 5e74 08bd 9ed6 103d b0f5 59bb
00000160: 4039 983c 8611 853c ab7e 96bd 1cee dd3d
00000170: e009 793c 9ece 23bc 129a c3bb 4afc 09bd
00000180: dd40 bdbc 1bd3 9e3c 55a5 ae3d e265 453d
00000190: a08b c63c c44a 9ebd 0065 9d3c 4ea9 f93c
000001a0: 95de b13d 7fe0 37bb ea58 c43c b851 3e3c
000001b0: e966 eebc 9fcb debc 17f8 e4bc de12 973c
000001c0: 7510 443d f0a3 9c3b cd00 f7bc 4f4f c33d
000001d0: 7673 113d 7835 043c 7290 2dbd 27f2 1ebd
000001e0: 00f0 293a 15a1 40bc 2c67 90bd f82a eb3c
000001f0: 10fd 0fbd f0a3 52bb aebe 8f3d cf85 37bd
00000200: a5a6 a33c 4d95 48bd f089 d63c 2020 653b
00000210: d1b4 383d ef40 c03c a51f cc3c 7f4c 183d
00000220: 64b0 3d3d 44ac 6e3d df0c 703d 0c93 85bd
00000230: 8282 52bd c671 2cbd e29c 5e3d 844f 393d
00000240: d09c 343d 98d7 453d 3d5b cabc d0f5 45bd
00000250: 3503 4c3d 80a7 48ba e07b 35bd dadb 063d
00000260: 8a88 173d 45af d23b 9083 883c 4cc8 de3c
00000270: 68d2 ae3d 4ea0 23bd 1551 4abd f6b3 6a3d
00000280: f91b 46bc 9644 3b3c 51ce a8bc 6034 b33c
00000290: 2335 b9bd d760 043d 1b67 3b3c ee97 c8bc
000002a0: e0f6 11bd 79cc 62bc bde0 a73d ed89 ffbc
000002b0: 8fdd 423d 0a6e 253d 554b 20bd 9f75 49bd
000002c0: b832 9b3d 0024 e73c afc5 953c ea01 1fbd
000002d0: a194 a23c c715 d93c 1b45 973d 66bc fe3c
000002e0: 8ac3 06bd 7443 69bc fc71 febc 07ea cabc
000002f0: 0799 0cbd 4f98 88bb 67db 5fbd be53 27bd
00000300: 0c5d 993d 8e9e ce3c 27a9 dabc e443 6c3d
00000310: 4f76 823d bd0c 6a3d c23a 57bd 4ae4 933d
00000320: 19f2 a4bc 5043 cb3c 1a90 1ebb e07d 693c
00000330: 065c 36bd d91a 4abd 04f5 abbc f713 013d
00000340: a518 acbc 949d 833d f728 40bc e136 69bc
00000350: 7b00 2a3c fc22 a9bc ce67 963d 9e1c 9e3c
00000360: 06c0 c6bb 5289 dcbc e730 9b3c 834d a43d
00000370: 5173 923d de6c 42bd 2b0d c1bc 60ce b33b
00000380: 28ac 04bc 22ba 83bc 894c 233d b479 0a3b
00000390: 8e36 46bd ad20 ce3b 20f2 253b e0ec 58bd
000003a0: ce06 b1bc 6528 53bd f8b1 34bc 68a5 303c
000003b0: d8c1 7bbc a48f 523c 9cea 44bd a412 edbc
000003c0: 1c84 a6bc 52af d73d 0155 a53c e7f0 3bbd
000003d0: bddd 2fbd 0edf cdbc 1f0f 683d 9f93 dabc
000003e0: cac0 903c c93c 28bd 0029 3c3d bc2e e93c
000003f0: 4357 c0bb 3a96 e5bc f72a db3c 8309 0ebd
-0.004269507 -0.048300624 -0.050718717 -0.044674043 -0.035250485 0.04540013 -0.053997256 0.035220485
0.049855698 0.103306435 0.114403576 0.052095518 0.064538844 -0.04963051 0.042855415 0.020900458
-0.048766628 -0.042010244 0.024840318 -0.0025491454 -0.09288202 0.007008031 0.034600426 0.10301634
-0.033524655 0.041993726 0.05408727 -0.015485808 -0.0068977694 -0.04043223 0.0462344 0.041826423
0.022374287 0.08685342 0.053448226 0.044858254 0.042308934 -0.0020671987 -0.044986453 0.048556663
-0.018998556 -0.019724835 0.041917764 -0.05210721 -0.048438124 0.06711273 -0.00876759 -0.05284902
-0.032742515 0.027688187 0.034717135 -0.03142824 -0.003913481 0.034474354 0.018292554 -0.015227672
-0.008431501 0.018625725 -0.005697026 -0.05031449 -0.02095553 0.0036951043 -0.0070163407 -0.09268823
-0.031483535 -0.0028303585 0.050871257 0.011022247 -0.03938206 0.022860855 0.033305205 0.08407602
0.031592086 -0.04128613 0.07154814 -0.044321675 -0.030805672 -0.011467563 0.0059438986 -0.007815706
-0.017916007 0.090273574 0.117477156 0.052651364 -0.035386078 -0.0333141 0.035360925 -0.0033258013
0.018581986 0.016243707 -0.07348379 0.108364314 0.015200108 -0.009997992 -0.0059692943 -0.033687867
-0.023102218 0.019387772 0.08527628 0.048192866 0.0242365 -0.07729104 0.0192132 0.030476239
0.08685032 -0.0028057394 0.023968179 0.011616163 -0.029101806 -0.027196703 -0.02795033 0.018441614
0.047867257 0.004780285 -0.030151749 0.09536611 0.035510503 0.008069389 -0.042374082 -0.038805153
0.0006482601 -0.011757155 -0.070509285 0.028707013 -0.03515345 -0.0032141171 0.07018791 -0.044805344
0.019976923 -0.04897051 0.02618882 0.0034961775 0.045094315 0.023468463 0.024917433 0.037182327
0.046310797 0.058269754 0.058606025 -0.065221876 -0.051393993 -0.04210069 0.054348834 0.045241848
0.04409486 0.04830131 -0.024701709 -0.04833013 0.049807746 -0.0007654354 -0.04430759 0.03292451
0.03699545 0.006429585 0.016664296 0.027195118 0.085362256 -0.0399478 -0.049393732 0.05730053
-0.01209163 0.011429926 -0.020606192 0.02187556 -0.09043338 0.032318916 0.0114381565 -0.024486508
-0.03563583 -0.013842695 0.08197162 -0.031193698 0.047574576 0.040388145 -0.039134342 -0.049184438
0.07578033 0.028215408 0.01828274 -0.038820185 0.019846262 0.026499642 0.07386228 0.031095695
-0.032901324 -0.0142372735 -0.031060211 -0.024769796 -0.034325626 -0.004168547 -0.054652598 -0.040851347
0.074884504 0.02522209 -0.026691986 0.057681933 0.06370222 0.057141054 -0.05254627 0.07221277
-0.020134972 0.02481237 -0.0024194778 0.014251202 -0.044521354 -0.04934201 -0.020990856 0.03151318
-0.021007845 0.0642654 -0.011728517 -0.014234276 0.010376091 -0.020646565 0.07344018 0.019300755
-0.0060653714 -0.026920948 0.018944217 0.08022597 0.07150901 -0.047467105 -0.02356585 0.0054872483
-0.008097686 -0.016079966 0.03986791 0.002112967 -0.04839187 0.0062905164 0.002532132 -0.052960277
-0.02160969 -0.051552195 -0.011028759 0.010781623 -0.01536604 0.012851629 -0.048075303 -0.028939553
-0.020326667 0.105314866 0.020182135 -0.04588404 -0.042936075 -0.025130775 0.056655046 -0.02668172
0.017670054 -0.041073594 0.04593754 0.028464667 -0.0058697774 -0.028025735 0.026753886 -0.03467704

l3.bias f4 [6]
00000000: bb76 0bbc b672 20bb e66f a9bc ec56 4bbd
00000010: a981 023d 6be4 9b3d
-0.008512194 -0.0024482436 -0.02068324 -0.049643442 0.031861935 0.07611927
