2019_test_data/single_assembly/TD3_Peg-in-hole-single_assembly_seed_3/_actor.pth (torch_old, 510312 bytes, 6 tensors)

l1.weight f4 [400, 12]
-0.45056617 -0.27168286 -0.090581015 -0.04018272 -0.21015106 -0.49999994 0.08285742 0.2522077
0.036335174 0.22378284 -0.036135346 0.2685153 -0.6391684 0.010114734 -0.10749235 0.23991162
-0.6567309 0.4974281 0.14935195 0.23427944 0.04388625 -0.19943798 0.27779275 -0.32178205
-0.774965 0.046772223 -0.04042782 0.13752472 -0.29853666 0.03746802 -0.07947582 0.6397298
-0.5861645 0.12072116 -0.35067317 0.2651911 -0.25358185 -0.41831216 -0.048731714 0.11975478
-0.17633578 -0.27305624 -0.32816088 -0.38985583 0.03428652 -0.23404029 -0.023505805 -0.30188212
-0.040329516 0.26691067 0.15044537 -0.11656344 -0.040954858 0.2550934 0.1854555 0.07197666
-0.10355249 0.24019992 0.123677164 -0.12856868 -0.05134594 -0.023770252 -0.011439748 0.0062306286
-0.23895837 -0.113003075 -0.13444802 0.026522437 0.12624003 0.23583992 0.10828736 0.33675802
-0.13094884 0.0043047965 0.17738253 0.099784255 0.0349755 0.24138874 0.06579062 0.19422963
-0.24878094 -0.24875444 -0.26055652 0.01634121 0.46812335 -0.4177681 0.0072797304 -0.21539448
-0.033841945 -0.24607834 0.09852288 0.35720924 -0.40651488 0.5301769 -0.20131588 0.23141952
-0.16538115 0.33027568 -0.06853406 -0.061324663 -0.6033579 0.057506867 0.033114452 -0.29323006
-0.008047562 -0.22184876 -0.09469838 -0.28621316 0.4614847 0.35080484 0.20736018 -0.03379984
0.004017433 -0.5138751 -0.18853407 -0.35437244 0.31943864 0.29685828 0.03802816 0.20781434
-0.0023513439 -0.486858 -0.03129234 -0.01766216 -0.11783036 -0.080247395 -0.18402982 0.1368285
-0.044438075 -0.0061179735 0.4447431 0.13393483 -0.016781632 -0.13729744 -0.06598264 0.06434981
0.4793609 0.438491 -0.41713336 0.13323787 -0.1409849 0.007321829 0.15135221 0.0715714
-0.5778541 -0.3299736 -0.0025476262 -0.18828157 0.43192592 0.68657136 -0.49820256 0.8078299
0.088344544 0.67936915 0.5545928 0.36920124 0.21732277 0.009875149 0.07315725 -0.1047557
-0.23138526 0.027624875 0.080308974 0.14517307 -0.24214347 -0.2793318 0.13736245 -0.05779302
0.33639345 -0.12945877 0.084177226 -0.050990365 -0.036970172 -0.13981524 0.07178865 0.030454703
-0.2982641 0.108212516 0.12237595 -0.13300306 0.25275904 0.03715217 0.2548585 0.26240498
0.045273572 0.046682686 0.090410024 0.1853889 -0.2636002 0.0018154383 0.2757812 -0.20382452
-0.1625903 0.030188054 0.104379 0.15505469 0.016287565 0.068098396 -0.13081145 0.27346885
-0.19023228 0.18772796 0.15670663 0.25211614 0.21608864 0.20380385 0.4197277 -0.22995077
0.22178409 -0.24186032 -0.06456711 -0.16244851 0.21924996 0.0907193 -0.41574237 -0.39433402
0.13285147 -0.12875332 0.2475161 0.410651 -0.19645463 -0.15664592 0.15084314 0.16157869
0.15927058 -0.035123333 -0.20777896 -0.20915812 0.16657221 -0.44805554 0.012355368 0.22323792
0.876455 0.32102317 0.22485828 0.6915403 -0.06538965 0.31823468 -0.02289206 0.45326203
-0.4127129 0.21231724 -0.09497527 0.12176703 0.12979932 0.32641196 -0.15112515 0.43743062
-0.09429363 0.052582365 0.32362154 0.37986907 0.37241015 -0.16363889 0.006541795 -0.31000057
00000000: 9cb0 e6be 041a 8bbe 8a82 b9bd a396 24bd
00000010: d731 57be feff ffbe 27b1 a93d 5e21 813e
00000020: 31d4 143d 5427 653e a802 14bd d67a 893e
00000030: 8aa0 23bf 45b8 253c f324 dcbd 64ab 753e
00000040: 841f 28bf e5ae fe3e b8ef 183e f3e6 6f3e
00000050: 12c2 333d 7839 4cbe da3a 8e3e 9ec0 a4be
00000060: 1b64 46bf 3b94 3f3d a497 25bd 48d3 0c3e
00000070: ccd9 98be 1178 193d 38c4 a2bd 55c5 233f
00000080: e00e 16bf a83c f73d 6f8b b3be 21c7 873e
00000090: 7bd5 81be 032d d6be e89a 47bd fe41 f53d
000000a0: 5e91 34be 07ce 8bbe b404 a8be 2f9b c7be
000000b0: 0670 0c3d 42a8 6fbe 3f8f c0bc 4b90 9abe
000000c0: 9030 25bd 84a8 883e 5a0e 1a3e d0b8 eebd
000000d0: 48c0 27bd 9a9b 823e 0ce8 3d3e 8068 933d
000000e0: 5413 d4bd f8f6 753e 744a fd3d 82a7 03be
000000f0: 1f50 52bd d5b9 c2bc c86d 3bbc 4d2a cc3b
00000100: 81b1 74be 286e e7bd beac 09be 9545 d93c
00000110: 1145 013e 0580 713e c3c5 dd3d 8c6b ac3e
00000120: 7417 06be 400f 8d3b c4a3 353e b05b cc3d
00000130: 7842 0f3d 9c2e 773e 3cbd 863d 22e4 463e
00000140: 6ec0 7ebe 7cb9 7ebe aa67 85be 00de 853c
00000150: ddad ef3e b3e5 d5be ce8a ee3b 5f90 5cbe
00000160: da9d 0abd f6fb 7bbe 5dc6 c93d 21e4 b63e
00000170: b822 d0be acb9 073f c025 4ebe 3df9 6c3e
00000180: ad59 29be e519 a93e 965b 8cbd 922f 7bbd
00000190: aa75 1abf 528c 6b3d 05a3 073d 4022 96be
000001a0: ecd9 03bc 522c 63be 39f1 c1bd 888a 92be
000001b0: b947 ec3e b19c b33e 3a56 543e b371 0abd
000001c0: aca4 833b 528d 03bf 130f 41be 4e70 b5be
000001d0: 768d a33e cffd 973e 6ac3 1b3d 48cd 543e
000001e0: 0119 1abb 7445 f9be 662c 00bd 3cb0 90bc
000001f0: 0b51 f1bd bf58 a4bd 5072 3cbe c51c 0c3e
00000200: b304 36bd 4879 c8bb 5eb5 e33e 3626 093e
00000210: a279 89bc b397 0cbe e821 87bd d5c9 833d
00000220: cb6e f53e e481 e03e 8192 d5be 826f 083e
00000230: 585e 10be f4eb ef3b 13fc 1a3e 0794 923d
00000240: 3fee 13bf 4df2 a8be 13f6 26bb e2cc 40be
00000250: 6525 dd3e 24c3 2f3f 6814 ffbe f1cd 4e3f
00000260: fced b43d 23eb 2d3f cbf9 0d3f f207 bd3e
00000270: dc89 5e3e 60cb 213c 78d3 953d 288a d6bd
00000280: 42f0 6cbe 904d e23c 0879 a43d 40a8 143e
00000290: 75f4 77be 9404 8fbe bea8 0c3e 60b8 6cbd
000002a0: c33b ac3e d790 04be 1c65 ac3d 46db 50bd
000002b0: 096e 17bd ba2b 0fbe ed05 933d 247c f93c
000002c0: 12b6 98be 869e dd3d 3ea0 fa3d f431 08be
000002d0: a269 813e e02c 183d d07c 823e f259 863e
000002e0: c870 393d 5836 3f3d e428 b93d 96d6 3d3e
000002f0: 9bf6 86be 00f4 ed3a 3233 8d3e 60b7 50be
00000300: 127e 26be f04c f73c a8c4 d53d a8c6 1e3e
00000310: 806d 853c 2c77 8b3d 70f3 05be 1c04 8c3e
00000320: 40cc 42be c23b 403e b477 203e 5e15 813e
00000330: 5746 5d3e f5b1 503e 8de6 d63e 3778 6bbe
00000340: 5e1b 633e 3baa 77be c33b 84bd e758 26be
00000350: 1083 603e 0acb b93d 2fdc d4be 26e6 c9be
00000360: 370a 083e e9d7 03be dc74 7d3e d940 d23e
00000370: 672b 49be ca67 20be a076 1a3e e274 253e
00000380: d417 233e 7cdd 0fbd 02c4 54be 8c2d 56be
00000390: e891 2a3e 8967 e5be 2b6e 4a3c 7b98 643e
000003a0: 5b5f 603f 265d a43e 4041 663e c908 313f
000003b0: 02eb 85bd a8ef a23e 2188 bbbc f611 e83e
000003c0: 1b4f d3be b169 593e 6582 c2bd fe60 f93d
000003d0: 1dea 043e 781f a73e 8dc0 1abe e8f6 df3e
000003e0: 051d c1bd 9b60 573d b9b1 a53e 337e c23e
000003f0: 8bac be3e f490 27be 8e5c d63b 65b8 9ebe

l1.bias f4 [400]
-0.4761047 -0.48915437 -0.39553565 -0.65842956 -0.028727084 -0.040478293 -0.024700433 -0.015001177
-0.45053363 0.2574509 -0.42055365 0.2403333 0.2589595 -0.090076566 0.4461724 0.15366098
0.15084535 -0.33720782 -0.0056341146 0.3692277 -0.52993226 0.4531678 -0.050364446 0.23331611
0.6363565 -0.40989265 -0.83946127 0.42838916 -0.1366181 -0.35087904 -0.54138076 -0.26484674
-0.20434232 0.052745987 0.15437698 0.047061637 -0.10552482 -0.42755613 -0.2587921 0.054614097
0.23341769 0.015610161 0.21943551 -0.3767755 -0.1483094 -0.0060300133 -0.026820054 -0.10733024
-0.10791151 -0.010132551 -0.41858497 -0.22484422 -0.7091976 0.047249645 -0.0024244383 0.31113607
-0.5511478 0.055402424 -0.45557594 0.22965163 -0.18075275 0.3367769 0.5774469 -0.62191916
0.08669144 -0.36856872 0.2639805 -0.12729079 0.10973363 0.13611358 0.24660176 -0.21338657
-0.20524515 -0.5743678 0.17676724 0.32874095 0.22564521 0.15895657 -0.33731622 0.1513749
-0.1405726 -0.035054665 -0.19730602 -0.006265819 0.35746962 0.112603575 -0.14355126 0.15104297
0.26948076 -0.23726055 0.017254949 -0.061718106 0.17560034 -0.16920628 -0.5171429 0.7549957
0.35814384 -0.3963779 0.4466238 -0.13797894 0.0848341 0.14252022 -0.6526022 -0.88054323
-0.04599639 0.25303122 -0.85594493 -0.67647094 -0.03491944 -0.13546616 0.23547702 -0.4464406
0.04933299 0.15994869 0.40360674 -0.10612045 -0.14950252 -0.13051543 -0.19953296 -0.21837118
0.30204883 -0.6287619 0.028202374 -0.45829836 -0.12306319 -0.53794783 -0.25928938 0.04211953
-0.74671704 0.14565553 -0.38340852 -0.16982804 -0.11986855 -0.28924048 0.5115229 0.083289325
0.17342311 -0.07388022 0.17583567 -0.03142977 -0.41995806 0.013101041 0.39971784 -0.037123606
0.10816068 -0.34156552 -0.24881968 0.12877628 0.5314825 -0.21104781 0.028525963 0.17667197
-0.26258224 -0.25392073 -0.050719332 -0.16979864 -0.0953525 0.2931402 -0.6051398 -0.2493678
-0.06445757 -0.21440284 0.09502303 -0.68093073 -0.16522275 0.3535117 0.18141866 -0.1901629
0.20109989 0.26144788 -0.7665641 0.11981729 0.296183 0.03352126 0.37607378 -0.46619236
-0.30772173 -0.71734375 -0.114382245 -0.15239972 -0.21702316 -0.11815219 0.08606492 0.28817797
-0.19048403 -0.31902578 0.17805237 0.31663486 0.44129726 -0.27538648 -0.10986867 0.42792985
-0.08409912 0.0021605492 -0.2632112 0.19292042 -0.054324254 -0.048979025 0.23064049 -0.23571455
-0.022170842 -0.64795756 -0.5533322 0.38793048 0.07821254 -0.3608829 -0.42366886 0.1380673
0.5213944 0.16366251 0.08356273 0.48027444 0.018635083 -0.089838535 -0.305946 -0.47128716
-0.32495174 0.32629183 -0.13335907 -0.11184242 0.20151733 0.37911698 -0.14629854 -0.38923725
-0.28663298 0.20326081 0.24407041 0.36908966 0.042787597 -0.22637144 0.046226747 -0.28124806
-0.13101384 -0.4752261 -0.5928794 -0.080828235 0.00019048149 0.6203071 0.16622087 -0.26740333
0.5095296 -0.4517527 0.1844776 0.49964055 0.03213813 -0.19908644 0.19210045 -0.5899744
-0.3594075 -0.60360205 0.050502367 0.18238217 0.074227415 -0.25906488 -0.28600505 0.10192406
00000000: ffc3 f3be 7172 fabe a683 cabe d78e 28bf
00000010: 1055 ebbc 91cc 25bd 9058 cabc 7fc7 75bc
00000020: 58ac e6be 9bd0 833e cf52 d7be ef19 763e
00000030: 5796 843e 107a b8bd b570 e43e 4e59 1d3e
00000040: 3477 1a3e 81a6 acbe 619e b8bb 6a0b bd3e
00000050: a4a9 07bf 9c05 e83e f34a 4ebd 6bea 6e3e
00000060: 42e8 223f 73dd d1be efe6 56bf d355 db3e
00000070: 9de5 0bbe 6ba6 b3be ee97 0abf fe99 87be
00000080: 1d3f 51be 2d0c 583d 0015 1e3e b4c3 403d
00000090: 661d d8bd a3e8 dabe 6680 84be 08b3 5f3d
000000a0: 0c05 6f3e c3c1 7f3c b4b3 603e b8e8 c0be
000000b0: 6bde 17be 6b97 c5bb bbb5 dbbc f5cf dbbd
000000c0: b600 ddbd 0003 26bc c550 d6be 903d 66be
000000d0: f98d 35bf d888 413d 53e3 1ebb 3a4d 9f3e
000000e0: 0618 0dbf a7ed 623d 4041 e9be cc29 6b3e
000000f0: 4017 39be 066e ac3e 8fd3 133f 1836 1fbf
00000100: 488b b13d 0ab5 bcbe 7428 873e 8458 02be
00000110: 07bc e03d 5c61 0b3e 2c85 7c3e 0282 5abe
00000120: c92b 52be c509 13bf 7902 353e bc50 a83e
00000130: 8a0f 673e 83c5 223e b6b4 acbe 0602 1b3e
00000140: 43f2 0fbe 7b95 0fbd 970a 4abe 8051 cdbb
00000150: 4206 b73e b49c e63d 1aff 12be 02ab 1a3e
00000160: 62f9 893e 6ef4 72be 405a 8d3c 20cc 7cbd
00000170: 93d0 333e 6944 2dbe 7a63 04bf 6647 413f
00000180: a15e b73e 0bf2 cabe e0ab e43e 5a4a 0dbe
00000190: 80bd ad3d d2f0 113e f010 27bf 486b 61bf
000001a0: b666 3cbd 4f8d 813e 351f 5bbf 332d 2dbf
000001b0: b007 0fbd a4b7 0abe e320 713e dd93 e4be
000001c0: 6411 4a3d 97c9 233e 8ba5 ce3e ae55 d9bd
000001d0: 3017 19be d6a5 05be 5e52 4cbe b29c 5fbe
000001e0: 25a6 9a3e 8af6 20bf aa08 e73c 15a6 eabe
000001f0: 8e08 fcbd f3b6 09bf 94c1 84be 8785 2c3d
00000200: d928 3fbf b926 153e 1f4e c4be 67e7 2dbe
00000210: a47d f5bd 5417 94be 2af3 023f 9893 aa3d
00000220: d495 313e 834e 97bd 440e 343e 81bc 00bd
00000230: be04 d7be c0a5 563c d1a7 cc3e ec0e 18bd
00000240: 5983 dd3d ade1 aebe 96ca 7ebe eedd 033e
00000250: 3d0f 083f eb1c 58be 48af e93c 7fe9 343e
00000260: 2e71 86be e601 82be 13bf 4fbd b2df 2dbe
00000270: 2c48 c3bd 7916 963e 71ea 1abf 465a 7fbe
00000280: 5502 84bd 6b8c 5bbe 6f9b c23d 7a51 2ebf
00000290: 2730 29be 7cff b43e d0c5 393e 10ba 42be
000002a0: 21ed 4d3e 7fdc 853e 8b3d 44bf c462 f53d
000002b0: 4ca5 973e 974d 093d be8c c03e c4b0 eebe
000002c0: b48d 9dbe d7a3 37bf 3d41 eabd ac0e 1cbe
000002d0: 523b 5ebe c7f9 f1bd ce42 b03d 108c 933e
000002e0: 3f0e 43be 5957 a3be 5c53 363e f71d a23e
000002f0: b7f1 e13e 75ff 8cbe d302 e1bd 9f19 db3e
00000300: 293c acbd 0098 0d3b 9ec3 86be ee8c 453e
00000310: 1c83 5ebd 3b9e 48bd 052d 6c3e 285f 71be
00000320: a09f b5bc 8ce0 25bf 2ea7 0dbf d39e c63e
00000330: e52d a03d a5c5 b8be 20eb d8be 8461 0d3e
00000340: 1a7a 053f 2597 273e f022 ab3d 88e6 f53e
00000350: 9aa8 983c 44fd b7bd f4a4 9cbe 8d4c f1be
00000360: 1360 a6be b90f a73e 488f 08be a40d e5bd
00000370: 8f5a 4e3e 9f1b c23e 49cf 15be 1b4a c7be
00000380: 8fc1 92be 9a23 503e 98ed 793e 52f9 bc3e
00000390: 0c42 2f3d eacd 67be 4258 3d3d bfff 8fbe
000003a0: 7e28 06be d650 f3be f2c6 17bf 4689 a5bd
000003b0: fcbb 4739 72cc 1e3f ce35 2a3e 17e9 88be
000003c0: 8870 023f 214c e7be b2e7 3c3e e3d0 ff3e
000003d0: 46a3 033d 51dd 4bbe fbb5 443e 9008 17bf
000003e0: 4304 b8be aa85 1abf 92db 4e3d 64c2 3a3e
000003f0: 8b04 983d 27a4 84be 416f 92be 90bd d03d

l2.weight f4 [300, 400]
-0.051972486 -0.028137326 -0.055853326 -0.05522712 0.016916167 -0.018007936 -0.04930229 0.034645956
0.039811503 0.020644758 0.015319215 -0.06068052 0.044966016 -0.028841866 0.029482784 -0.026211595
-0.019658893 0.038147833 0.03384075 0.028944585 -0.012471056 -0.047848824 -0.032931365 0.0055092946
-0.008271691 0.04333521 0.034778465 0.038004022 -0.02729327 -0.0071631833 0.006583259 0.034441475
-0.027463144 -0.037625905 -0.043581374 -0.0321715 -0.011845451 -0.034333043 -0.01533404 -0.0014460343
0.017895032 -0.036010873 0.036326203 -0.03241337 0.02991921 -0.018588452 -0.0610062 -0.0070752203
0.019666834 -0.043685924 -0.027497299 -0.016275179 -0.031043211 0.037871737 0.027203582 0.04436973
-0.007598352 -0.05790754 -0.041634787 -0.006488554 -0.0014725812 0.042258564 0.032244835 -0.02101925
-0.010355454 -0.020299291 0.018220779 -0.012981117 0.002544101 0.024704728 0.037616353 -0.005894713
-0.03513049 -0.054766882 0.025069501 -0.019675437 0.045411866 -0.0021493137 0.030725602 -0.04838592
-0.042064957 0.0104017835 -0.0057253614 -0.039709114 -0.018273782 -0.016502053 -0.042761426 0.0021072924
-0.010403372 0.029400643 0.0024637096 0.014941793 -0.05177557 -0.047971766 0.024908263 0.020316109
-0.054729383 0.03816303 0.030833337 -0.028689964 0.009075336 -0.025310738 0.041695897 -0.006837284
0.031351548 -0.045413535 0.018254735 -0.021498943 0.045693044 0.04507384 -0.0073558763 0.030455368
0.020961652 -0.025237931 -0.0055919774 0.0105761625 -0.025993127 0.037574776 -0.0039811507 0.015979975
-0.039609697 -0.0067520277 0.007922083 -0.0029219212 -0.04784578 -0.041161332 0.026889775 -0.028357763
-0.045281243 -0.025473693 0.010945852 -0.04627485 -0.007483579 -0.030282682 -0.02060299 0.025625203
0.04855806 0.041321937 -0.0036212988 -0.027190048 0.0018782609 -0.021013826 0.016194467 0.023400862
0.038165662 -0.04324485 0.025593642 0.047508594 -0.03341909 -0.03391754 -0.041471947 -0.027292851
-0.03909977 -0.057538196 0.019466061 0.021465223 0.027899139 0.0075826235 -0.033288077 0.024496432
-0.024525216 -0.0045924033 -0.0019696006 -0.050661255 0.041720446 -0.0062078875 0.017987374 -0.01605153
-0.009285341 -0.054408334 0.023470577 -0.021681834 -0.018972253 -0.005371896 0.014284867 -0.030459065
-0.05051371 -0.0313674 0.034145277 -0.04894263 -0.008169912 -0.021716258 -0.031872414 -0.047548313
0.010615319 -0.028079808 0.005620528 0.019419111 -0.010488434 -0.044251103 0.03301571 0.021194005
0.011615223 0.0026146993 -0.011883605 -0.018779878 -0.0022410527 -0.044469576 0.008466365 0.03343085
0.018893216 0.029153163 -0.005623792 -0.038000666 0.001373399 -0.0063946266 -0.016784303 -0.015348483
-0.047861204 0.008574016 -0.01574251 -0.049527146 0.031021988 0.034162287 0.038601007 -0.036266953
-0.024063675 -0.048265852 0.04485551 0.019095559 0.011979244 0.04043109 -0.044424374 -0.0528718
-0.035226833 -0.03772469 0.013317872 -0.03643021 -0.012595294 -0.005584193 0.016743053 -0.04845247
-0.011324476 -0.058270343 -0.039815433 0.04282937 -0.060075793 0.027413463 -0.007036548 -0.017438479
0.031186873 -0.04387768 -0.02101617 0.036833253 0.017659266 0.0003126748 -0.029233497 -0.048973933
0.02634505 9.795777e-05 -0.015040315 0.044827778 -0.04664954 0.03376902 -0.007979631 0.032060955
00000000: 1ae1 54bd 4080 e6bc 75c6 64bd d535 62bd
00000010: c693 8a3c 6185 93bc 33f1 49bd ebe8 0d3d
00000020: 6311 233d 321f a93c 72fd 7a3c 238c 78bd
00000030: 492e 383d c745 ecbc e185 f13c b3b9 d6bc
00000040: b00b a1bc e740 1c3d 999c 0a3d 321d ed3c
00000050: 6653 4cbc 21fd 43bd 0ae3 06bd 5087 b43b
00000060: fd85 07bc 4380 313d dd73 0e3d 1baa 1b3d
00000070: 2396 dfbc 23b9 eabb 61b8 d73b 8112 0d3d
00000080: 63fa e0bc 9f1d 1abd 6282 32bd 43c6 03bd
00000090: 6c13 42bc cea0 0cbd a03b 7bbc dc88 bdba
000000a0: 9a98 923c 2380 13bd c9ca 143d e2c3 04bd
000000b0: 2219 f53c cf46 98bc a3e1 79bd 40d7 e7bb
000000c0: 571c a13c 03f0 32bd 0442 e1bc 8653 85bc
000000d0: 554e febc 651f 1b3d 0cda de3c 09bd 353d
000000e0: 99fb f8bb 7530 6dbd 3d89 2abd f09d d4bb
000000f0: a003 c1ba 5117 2d3d 2913 043d 9030 acbc
00000100: eca9 29bc b34a a6bc be43 953c c0ae 54bc
00000110: efba 263b 9261 ca3c 9b13 1a3d 7028 c1bb
00000120: fde4 0fbd 3d53 60bd 8e5e cd3c 622e a1bc
00000130: cb01 3a3d 80db 0cbb 42b4 fb3c 5030 46bd
00000140: 4e4c 2cbd 3e6c 2a3c d09b bbbb 06a6 22bd
00000150: e6b2 95bc 502f 87bc 9b26 2fbd 801a 0a3b
00000160: e872 2abc 9ed9 f03c 3076 213b 6cce 743c
00000170: 9f12 54bd 0b7e 44bd 6a0c cc3c f86d a63c
00000180: eb2b 60bd d650 1c3d 3296 fc3c 3707 ebbc
00000190: b8b0 143c 7758 cfbc 51c9 2a3d 4c0b e0bb
000001a0: 7b6a 003d 8b03 3abd f48a 953c 8d1e b0bc
000001b0: a128 3b3d 599f 383d 9009 f1bb 897d f93c
000001c0: c5b7 ab3c c7bf cebc e83c b7bb a447 2d3c
000001d0: 8aef d4bc 02e8 193d 5074 82bb 70e8 823c
000001e0: c73d 22bd 1d40 ddbb a0cb 013c b47d 3fbb
000001f0: f0f9 43bd c998 28bd f247 dc3c 8a4e e8bc
00000200: d378 39bd 35ae d0bc 3b56 333c b28a 3dbd
00000210: d038 f5bb 6313 f8bc 9ac7 a8bc f2eb d13c
00000220: d1e4 463d 3141 293d 5053 6dbb aabd debc
00000230: fa2f f63a 3025 acbc 42aa 843c 2ab3 bf3c
00000240: 9953 1c3d 8321 31bd c2a9 d13c 5f98 423d
00000250: 75e2 08bd 1eed 0abd 7dde 29bd 4295 dfbc
00000260: 1527 20bd 2cad 6bbd 4a77 9f3c d6d7 af3c
00000270: bc8c e43c a877 f83b 1459 08bd beac c83c
00000280: 1be9 c8bc df7b 96bb 6a14 01bb 2d82 4fbd
00000290: 0fe3 2a3d 896b cbbb 425a 933c 807e 83bc
000002a0: 8b21 18bc 46db 5ebd 5e45 c03c 1a9e b1bc
000002b0: b36b 9bbc bb06 b0bb 130b 6a3c 4a85 f9bc
000002c0: 77e7 4ebd 1a7b 00bd ebdb 0b3d 1178 48bd
000002d0: 18db 05bc 4be6 b1bc a68c 02bd 05c2 42bd
000002e0: e0eb 2d3c a007 e6bc 682c b83b d414 9f3c
000002f0: aed7 2bbc a540 35bd 7b3b 073d 0d9f ad3c
00000300: c74d 3e3c 605b 2b3b 74b3 42bc 42d8 99bc
00000310: a0de 12bb bb25 36bd 82b6 0a3c c9ee 083d
00000320: f2c5 9a3c 9dd2 ee3c c947 b8bb 96a6 1bbd
00000330: a003 b43a 048a d1bb 3c7f 89bc 3478 7bbc
00000340: 1c0a 44bd 087a 0c3c 70f6 80bc fadc 4abd
00000350: d321 fe3c c1ed 0b3d 171c 1e3d a88c 14bd
00000360: 2f21 c5bc 6ab2 45bd 69ba 373d 4a6e 9c3c
00000370: 9744 443c 129b 253d 55f6 35bd 1a90 58bd
00000380: 034a 10bd 3485 1abd 3433 5a3c d837 15bd
00000390: 7e5c 4ebc 9bfb b6bb ba28 893c 1976 46bd
000003a0: 4c8a 39bc e2ac 6ebd 8215 23bd d96d 2f3d
000003b0: 0912 76bd 3392 e03c d892 e6bb 24db 8ebc
000003c0: 9d7b ff3c 15b9 33bd 1a2a acbc 77de 163d
000003d0: 2aaa 903c 80ee a339 167b efbc e498 48bd
000003e0: 93d1 d73c ad6e cd38 a76b 76bc 559d 373d
000003f0: 9713 3fbd 6251 0a3d 00bd 02bc 5952 033d

l2.bias f4 [300]
-0.018581698 0.039035667 -0.05770776 0.14029273 0.27732468 -0.00740174 -0.045588274 0.0176029
0.055615745 -0.015555493 -0.03412101 0.0021599096 0.034034457 -0.0063651223 -0.11091016 -0.08428257
-0.05005053 -0.020942047 -0.059686303 0.035889957 -0.15191963 0.03931637 0.09720679 -0.038140256
-0.04692446 0.018300246 -0.064361 -0.1195009 -0.035446756 -0.0296732 0.033609364 -0.054217424
-0.0332002 0.0071958015 -0.0070907096 0.16798437 -0.028863953 0.13374086 -0.05507543 -0.1409239
0.00024506025 -0.34038654 -0.0049608406 0.018568613 0.029845247 -0.046806194 -0.039204407 -0.03219264
0.019795299 -0.032716602 -0.15208587 -0.16098775 0.015812088 0.0345356 -0.018238842 -0.056430314
0.019972693 -0.056005206 -0.012622969 -0.086763635 0.11779085 -0.16472247 -0.074237995 0.0021870078
-0.04653978 0.04023918 0.019516885 -0.048828047 0.0036717947 -0.045329362 0.027044062 -0.025617057
0.057234425 0.081240274 -0.031903338 0.06097945 -0.24892543 -0.02095844 0.0216128 0.027574385
-0.013238849 -0.20039392 0.00096689956 -0.039476156 -0.04377691 -0.073229305 -0.016966857 -0.0787921
0.034407742 0.005494553 0.022499615 0.07363021 -0.0012002458 -0.13434795 0.037594475 -0.04550363
0.013070512 0.23852879 0.05316293 -0.55654055 -0.05230433 -0.05066236 -0.040317833 0.04717511
0.03355046 -0.025026564 -0.12953882 -0.03373816 0.23186584 -0.026313985 -0.095186554 0.035560362
0.34237507 0.1059305 -0.034817997 -0.1289193 -0.11212015 0.34699214 -0.040237546 -0.037374225
0.014420681 0.01790293 -0.13758561 -0.005800571 -0.3124727 -0.3004835 0.00059585454 -0.051672526
0.043846946 -0.01074824 0.2528292 -0.02730244 -0.06884588 0.0046357075 -0.061492845 -0.031043388
0.011727281 -0.035175137 0.20853172 0.29204416 0.30238563 0.0324917 0.117826074 -0.034985375
0.13241445 0.018797215 -0.015752854 0.07484277 0.01244963 -0.123605825 -0.22213697 0.053486787
-0.017081467 0.0065030535 -0.031820472 0.3367249 -0.044674236 0.044344917 -0.016989635 0.0018701539
-0.041312024 -0.046571165 -0.004122069 -0.028821616 -0.09927193 0.15343744 -0.05783581 -0.19589627
-0.03752379 0.11931449 0.060834724 0.013314075 0.11324981 -0.0821112 0.039195362 -0.42125455
-0.040108364 -0.027669048 -0.0351834 -0.07016354 -0.02921239 -0.028595531 0.07102579 0.22761133
0.14176498 0.037934914 0.035561454 0.14869888 0.019801205 -0.08040627 0.13304007 -0.003480297
0.0017260395 0.078109905 -0.034945693 -0.011940308 -0.21038574 0.23260921 0.062378656 0.21860223
0.0066637294 -0.018047549 -0.01731898 0.02279707 0.2906967 0.09437146 0.0045967777 -0.012461665
0.058222417 -0.0024972898 -0.05399906 0.025837716 0.0037247427 0.046609726 0.011130792 -0.016519345
-0.004173599 0.02901678 0.042389333 -0.023568848 -0.032919858 0.3055877 -0.035595994 0.007180323
-0.030807566 0.3377707 0.027751438 -0.14429773 -0.187651 0.14069353 0.008058008 0.025903152
0.0075614275 0.19552012 -0.0315726 -0.28835353 -0.00854179 -0.02240831 -0.026846899 -0.055632576
-0.24260734 0.008757081 -0.056043733 -0.05202251 -0.031810086 -0.05555836 0.0357995 -0.01889943
0.28753734 0.016591853 0.052140106 0.021244075 0.10625851 -0.046706546 -0.0066616475 -0.04606227
00000000: a538 98bc dde3 1f3d f95e 6cbd e6a8 0f3e
00000010: 80fd 8d3e 4c8a f2bb c5ba 3abd f533 903c
00000020: 56cd 633d 77dc 7ebc 79c2 0bbd 458d 0d3b
00000030: b767 0b3d 8492 d0bb de24 e3bd 579c acbd
00000040: c901 4dbd a88e abbc a079 74bd 5901 133d
00000050: d290 1bbe 340a 213d 5a14 c73d f538 1cbd
00000060: dd33 40bd 66ea 953c b3cf 83bd e3bc f4bd
00000070: 9e30 11bd 3615 f3bc f9a9 093d 1713 5ebd
00000080: effc 07bd c2ca eb3b 2f59 e8bb 1804 2c3e
00000090: 1974 ecbc 5df3 083e c696 61bd 5b4e 10be
000000a0: 6e7b 8039 2547 aebe 8c8e a2bb 341d 983c
000000b0: 057e f43c dab7 3fbd cd94 20bd 6edc 03bd
000000c0: c029 a23c d801 06bd 66bc 1bbe f9d9 24be
000000d0: 5a88 813c 3475 0d3d a069 95bc 7923 67bd
000000e0: c69d a33c b765 65bd 92d0 4ebc 22b1 b1bd
000000f0: 543c f13d 02ad 28be 170a 98bd e753 0f3b
00000100: 7fa0 3ebd d7d1 243d e0e1 9f3c ebff 47bd
00000110: 7ea2 703b 48ab 39bd 828b dd3c ddda d1bc
00000120: a56e 6a3d 4d61 a63d 13ad 02bd 96c5 793d
00000130: 4fe6 7ebe 09b1 abbc 540d b13c ade3 e13c
00000140: c2e7 58bc 1034 4dbe 8877 7d3a c0b1 21bd
00000150: 6b4f 33bd 3ff9 95bd 14fe 8abc c15d a1bd
00000160: 22ef 0c3d a70b b43b 1d51 b83c 6fcb 963d
00000170: 9151 9dba 8292 09be aafc 193d 0462 3abd
00000180: b325 563c e440 743e 5fc1 593d 7179 0ebf
00000190: 113d 56bd 5683 4fbd 5024 25bd b03a 413d
000001a0: 356c 093d 8204 cdbc d3a5 04be 0631 0abd
000001b0: 3d6e 6d3e 6d90 d7bc 2bf1 c2bd bea7 113d
000001c0: c94b af3e 17f2 d83d 519d 0ebd 6c03 04be
000001d0: 409f e5bd f4a8 b13e 20d0 24bd b715 19bd
000001e0: b844 6c3c 2aa9 923c 3ee3 0cbe b712 bebb
000001f0: 6cfc 9fbe f9d8 99be 1f33 1c3a 92a6 53bd
00000200: db98 333d 6319 30bc d472 813e 5ea9 dfbc
00000210: 12ff 8cbd 22e7 973b ecdf 7bbd b44e febc
00000220: c823 403c ce13 10bd 5789 553e d086 953e
00000230: 4ad2 9a3e 0416 053d cc4e f13d d34c 0fbd
00000240: a797 073e 9efc 993c 210c 81bc 2b47 993d
00000250: 88f9 4b3c 0d25 fdbd e077 63be f614 5b3d
00000260: 6fee 8bbc 9117 d53b 2f56 02bd 3567 ac3e
00000270: 55fc 36bd 04a3 353d d92d 8bbc f41f f53a
00000280: cc36 29bd 68c1 3ebd 6c12 87bb 4f1b ecbc
00000290: 154f cbbd b41e 1d3e 3ee5 6cbd 0899 48be
000002a0: 8cb2 19bd 285b f43d d52d 793d 4723 5a3c
000002b0: 84ef e73d eb29 a8bd 518b 203d adae d7be
000002c0: ab48 24bd 33aa e2bc 781c 10bd e7b1 8fbd
000002d0: d24e efbc 2d41 eabc f875 913d f212 693e
000002e0: d72a 113e a461 1b3d e3a8 113d 8544 183e
000002f0: 2336 a23c 0bac a4bd a83b 083e b215 64bb
00000300: 463c e23a 16f8 9f3d 3723 0fbd 48a1 43bc
00000310: 5c6f 57be 1c31 6e3e c380 7f3d 43d9 5f3e
00000320: 6a5b da3b 74d8 93bc 89e0 8dbc ecc0 ba3c
00000330: 33d6 943e d345 c13d 91a0 963b 032c 4cbc
00000340: a17a 6e3d 92a9 23bb 1e2e 5dbd 9ea9 d33c
00000350: d01a 743b d7e9 3e3d ed5d 363c 9453 87bc
00000360: b0c2 88bb 99b4 ed3c 70a0 2d3d 7513 c1bc
00000370: f9d6 06bd fe75 9c3e 1bcd 11bd ea48 eb3b
00000380: 2660 fcbc 48f0 ac3e fc56 e33c c9c2 13be
00000390: 9527 40be f711 103e bc05 043c d932 d43c
000003a0: dac5 f73b 6d36 483e 4552 01bd 13a3 93be
000003b0: ddf2 0bbc a291 b7bc 07ee dbbc fcde 63bd
000003c0: 0f6e 78be dc79 0f3c 1d8e 65bd 8e15 55bd
000003d0: 4b4b 02bd 2a91 63bd 7fa2 123d fad2 9abc
000003e0: 1838 933e a3eb 873c dd90 553d 0e08 ae3c
000003f0: 109e d93d 5d4f 3fbd f349 dabb caab 3cbd

l3.weight f4 [6, 300]
0.04876921 -0.017261023 -0.034350835 -0.09448229 0.06176735 0.007934593 0.021303222 0.017093334
0.028015323 0.04630544 0.018692268 -0.0336351 0.008046292 0.053124942 0.019381916 -0.018919785
-0.031662717 0.04031399 0.033211853 0.011994154 0.019207288 0.044235118 0.0017663355 0.032107923
-0.032470003 -0.044326946 -0.008703787 0.0036723926 0.039644033 -0.013458178 -0.005838169 -0.04595817
0.01915606 0.008315236 -0.008660105 0.05268297 -0.03173503 0.08081215 0.010583348 0.027457545
-0.013553706 0.00165182 0.0355615 -0.053062454 0.045464795 0.007565961 -0.0101960525 0.054088723
-0.019863896 0.042307686 -0.007044034 -0.0051165805 0.0069372784 -0.04870436 -0.00011598298 0.017799819
0.043940775 -0.018049028 -0.05547122 -0.012671039 0.09691703 -0.0030082825 -0.0028372947 -0.011613724
0.030289548 0.04357693 -0.022610629 -0.009625112 -0.054612096 0.017165078 -0.026138302 -0.02809878
-0.05831684 -0.0029667097 0.0080662165 -0.04402126 0.23755665 -0.0325146 0.007780218 -0.03130536
0.056944907 0.1419486 0.049930587 0.035832226 -0.006965939 -0.02522027 -0.03900612 -0.05052675
-0.015638243 0.037693184 0.0003684014 -0.003416238 0.01229683 0.030868446 0.0110047385 -0.0015649247
-0.034649625 -0.121292494 -0.036890335 0.04465979 -0.024240058 0.0024513095 0.058628757 0.010798171
0.013424225 0.029550636 -0.07054812 -0.006126662 -0.25430584 0.01281365 0.02532464 0.044479504
0.08517804 0.03778196 -0.009693293 -0.014382592 0.014756736 0.037077576 -0.029837284 -0.026423834
-0.014482766 0.03128603 0.16113131 0.017419178 0.06236051 0.054206256 0.043931205 -0.016758408
-0.008632225 0.023683779 -0.022129543 -0.034751944 0.01812002 -0.044412497 0.033438683 -0.01634258
-0.0036456313 0.005429993 0.02296806 -0.048675794 0.053813834 0.011140399 0.020797994 -0.039629642
0.085353605 0.010080345 0.00835693 -0.02521947 0.04121812 0.010362693 0.055608604 0.058231045
0.112259105 0.02019364 -0.019082773 -0.012211945 -0.009342961 0.0033649222 -0.023673603 0.04112212
0.055709846 0.011645031 0.00030776113 0.049938194 0.030569851 0.0014264531 0.035126604 0.108632535
-0.04791404 0.1589235 -0.01630157 0.018767 -0.049268812 0.07144795 -0.020316336 0.10888181
-0.028458407 0.024359837 0.020089552 -0.017657332 0.12770127 -0.017808741 0.0069197207 0.04778547
-0.016333949 -0.03185436 -0.02120598 -0.028599204 -0.028780067 -0.05364035 -0.12404481 0.020748178
0.0093668625 -0.009754625 -0.023126759 0.0035870853 0.22251022 0.04796843 0.0009670054 -0.03623055
-0.04454357 0.22818643 -0.006135959 0.086619616 0.022653844 0.15517242 0.036050774 -0.0052118716
-0.006113109 -0.032233294 -0.02924792 0.010276341 -0.017567541 0.009215991 -0.024596822 0.04595092
0.0016329549 0.013082981 0.049569186 0.010142498 0.03406556 0.1840708 -0.009825062 0.037250895
-0.012224626 -0.058895975 -0.020476561 0.009353095 -0.0077865827 0.038031124 -0.041743785 -0.0037574961
0.021017926 0.013672255 0.033009443 0.015912784 0.0033600382 0.042819526 -0.009018736 0.05751154
-0.0020360355 0.03748404 0.011885896 0.04887121 -0.038107857 0.022512719 -0.006000567 0.024689168
0.03219964 0.014401658 0.0029074263 0.051084585 0.004636277 -0.028964274 0.055064276 0.024117673
00000000: 39c2 473d fd66 8dbc 76b3 0cbd ee7f c1bd
00000010: c3ff 7c3d 1800 023c 1884 ae3c 5207 8c3c
00000020: 6480 e53c c6aa 3d3d 8720 993c f5c4 09bd
00000030: 98d4 033c 8a99 593d d3c6 9e3c aafd 9abc
00000040: c4b0 01bd 4820 253d 2709 083d 2183 443c
00000050: 9a58 9d3c e22f 353d 6284 e73a 9983 033d
00000060: 44ff 04bd 2c90 35bd 549a 0ebc 86ac 703b
00000070: c861 223d b17f 5cbc 1c4e bfbb a23e 3cbd
00000080: 2bed 9c3c a13c 083c 1de3 0dbc 19ca 573d
00000090: 97fc 01bd d780 a53d c765 2d3c a5ee e03c
000000a0: 5d10 5ebc e281 d83a efa8 113d 0458 59bd
000000b0: 4b39 3a3d e2eb f73b 580d 27bc 238c 5d3d
000000c0: 9cb9 a2bc d34a 2d3d a4d1 e6bb fda8 a7bb
000000d0: 1c52 e33b 397e 47bd e33b f3b8 edd0 913c
000000e0: 3efb 333d 8edb 93bc ca35 63bd 319a 4fbc
000000f0: 707c c63d 9b26 45bb e8f1 39bb 7d47 3ebc
00000100: c921 f83c b97d 323d ed39 b9bc a5b2 1dbc
00000110: efb0 5fbd c79d 8c3c fe1f d6bc 6a2f e6bc
00000120: a4dd 6ebd 216d 42bb 2a28 043c a34f 34bd
00000130: 0d42 733e 072e 05bd 33f1 fe3b 0d3a 00bd
00000140: 103f 693d f95a 113e 0484 4c3d d0c4 123d
00000150: 8842 e4bb bd9a cebc e2c4 1fbd 23f5 4ebd
00000160: c61b 80bc 2b64 1a3d 0026 c139 f6e2 5fbb
00000170: a578 493c d3df fc3c 384d 343c 291e cdba
00000180: c4ec 0dbd 3368 f8bd 521a 17bd 2fed 363d
00000190: 1693 c6bc 26a6 203b b524 703d d0ea 303c
000001a0: 48f1 5b3c 2d14 f23c 887b 90bd 2ac2 c8bb
000001b0: 6034 82be 58f0 513c 9f75 cf3c 2430 363d
000001c0: d371 ae3d 42c1 1a3d 9ed0 1ebc f7a4 6bbc
000001d0: 3dc6 713c a8de 173d 526d f4bc cc76 d8bc
000001e0: 2049 6dbc c825 003d 9bff 243e aab2 8e3c
000001f0: bc6d 7f3d 6107 5e3d 35f1 333d ee48 89bc
00000200: 2d6e 0dbc 7c04 c23c 0449 b5bc 0e58 0ebd
00000210: 7070 943c e1e9 35bd 00f7 083d e0e0 85bc
00000220: 8beb 6ebb 15ee b13b 8327 bc3c 4560 47bd
00000230: e56b 5c3d 3886 363c 8e60 aa3c b152 22bd
00000240: dfcd ae3d 0828 253c 81eb 083c 1099 cebc
00000250: 55d4 283d 49c8 293c d9c5 633d ad83 6e3d
00000260: 1ae8 e53d 226d a53c 7a53 9cbc 9c14 48bc
00000270: 3813 19bc 0786 5c3b 25ef c1bc ab6f 283d
00000280: 0230 643d cdca 3e3c 005b a139 fe8b 4c3d
00000290: a06d fa3c d3f7 ba3a eae0 0f3d bc7a de3d
000002a0: 8341 44bd d8bc 223e df8a 85bc 40bd 993c
000002b0: 18ce 49bd 4e53 923d 726e a6bc 6dfd de3d
000002c0: 9b21 e9bc 488e c73c d892 a43c 1ca6 90bc
000002d0: 1fc4 023e a3e3 91bc d3be e23b b2ba 433d
000002e0: c6ce 85bc b879 02bd 2ab8 adbc e148 eabc
000002f0: 2dc4 ebbc fcb5 5bbd 350b febd 15f8 a93c
00000300: 7877 193c ddd1 1fbc 5474 bdbc 4e15 6b3b
00000310: b8d9 633e 8b7a 443d a27e 7d3a 7c66 14bd
00000320: 5273 36bd b4a9 693e 2810 c9bb a065 b13d
00000330: 8e94 b93c 85e5 1e3e faa9 133d 59c8 aabb
00000340: 7a50 c8bb 0f07 04bd 5599 efbc 195e 283c
00000350: cee9 8fbc abfe 163c 467f c9bc 0837 3c3d
00000360: e008 d63a 005a 563c 0f09 4b3d b82c 263c
00000370: 5488 0b3d 0e7d 3c3e 4cf9 20bc 6594 183d
00000380: cc49 48bc e83c 71bd 76be a7bc b93d 193c
00000390: 9726 ffbb 86c6 1b3d 88fb 2abd 5340 76bb
000003a0: c92d ac3c 9801 603c e934 073d 875b 823c
000003b0: 1634 5c3b 8763 2f3d 52c3 13bc 3891 6b3d
000003c0: 026f 05bb dd88 193d 10bd 423c 2e2d 483d
000003d0: fc16 1cbd 986c b83c 68a0 c4bb f040 ca3c
000003e0: c5e3 033d eff4 6b3c 858a 3e3b 123e 513d
000003f0: e9eb 973b 7c46 edbc 148b 613d 6d92 c53c

l3.bias f4 [6]
0.013904526 0.015698541 -0.123372704 0.007989214 0.093676694 -0.022745235
00000000: cfcf 633c 3a9a 803c d4aa fcbd 31e5 023c
00000010: 91d9 bf3d 3754 babc
