2019_test_data/single_assembly/Average_TD3_Peg-in-hole-single_assembly_seed_3/_actor.pth (torch_old, 510312 bytes, 6 tensors)

l1.weight f4 [400, 12]
00000000: 6196 7fbe b3a8 7fbe 77e6 05be 85fe 8dbe
00000010: d5fb 88bc d03a 8dbe 430d 4f3e a675 273e
00000020: eead e73d edc1 4b3e 2b24 20bd 48f4 333e
00000030: 15f8 6dbe a034 5ebd 2b12 80be d6cd 82bc
00000040: 790c 41be 86c9 8b3e 6e82 563e eb3f 843e
00000050: 5449 403d cbdc ffbd d6bd 7a3e 6729 86be
00000060: 2ed7 46be 49eb 1bbe 528c d9bd db9b 663d
00000070: 68f5 5fbe 4989 5bbe 0a6e 19be 6a73 113e
00000080: fbf9 5ebe 65ad 93be b470 77be da7d 24be
00000090: 3037 62bd 82e5 9bbe dcca 0fbe e1e8 083b
000000a0: ce1a 303d f462 7abd d7fe 1a3c ced2 2abe
000000b0: 3039 163e bd0a 69bd cc4f 6abe 450b 86bd
000000c0: 9030 25bd 84a8 883e 5a0e 1a3e d0b8 eebd
000000d0: 48c0 27bd 9a9b 823e 0ce8 3d3e 8068 933d
000000e0: 5413 d4bd f8f6 753e 744a fd3d 82a7 03be
000000f0: 5c41 7f3e d98b 1e3c e541 5abe 91cb 19be
00000100: e977 59be 7c50 8dbe 2cd5 083d b031 82be
00000110: d516 5c3e ccbd b03d 66ab a53d e325 543e
00000120: 7417 06be 400f 8d3b c4a3 353e b05b cc3d
00000130: 7842 0f3d 9c2e 773e 3cbd 863d 22e4 463e
00000140: 6ec0 7ebe 7cb9 7ebe aa67 85be 00de 853c
00000150: a4da 7a3e f1fb 80be bc3d eb3d a46e 82be
00000160: 8772 44be 849a c9bd 1868 f0bd a89f ae3d
00000170: 1dde 77be da28 923e b060 2c3d ec19 ce3d
00000180: cde2 79be 7f9f 373e 1816 47bd 6b1d 00be
00000190: 0303 363d 1a12 1e3e 7108 d3bb a9cd 69bd
000001a0: 6407 55bb 2a24 90bd 0184 fcbd b1e0 acbd
000001b0: d6f8 5f3e 6545 3dbe 844c 903d 3664 093e
000001c0: 1ab4 3dbe 8c2b 76be 75e0 59be b462 99be
000001d0: 3f13 963e a02c 543e a268 663b b72e 6d3e
000001e0: d519 8e3d 2096 8dbe 9d06 84be 3394 0abe
000001f0: 04c4 94be 4bff fdbd c690 b53d cd6a a33b
00000200: 9f4a 9bbd be3b ef3c e78c 7b3e 2ac2 003c
00000210: 4f44 c33d 91fb 65bd 2350 5abe 7d76 9e3d
00000220: bfcb 023e e1a2 4e3e 57fe 8bbe b81b cb3c
00000230: 4fbc a5be b054 6e3d 14bc dbbb 439d fa3d
00000240: fd65 01be a90b 85bd 5e87 e53c a32b 8fbe
00000250: cb4c 113e 148c 8e3e 2a4a 69be e76f 903e
00000260: 54ce b73d 129c 863e dfeb 8f3e 3885 70be
00000270: dc89 5e3e 60cb 213c 78d3 953d 288a d6bd
00000280: 42f0 6cbe 904d e23c 0879 a43d 40a8 143e
00000290: 75f4 77be 9404 8fbe bea8 0c3e 60b8 6cbd
000002a0: cb2f 14bd 0ec8 8ebd fee3 413b 8342 493d
000002b0: 013e 88be 8efe f43d 6e39 9dbb 1fb8 cd3d
000002c0: 4d65 1fbe 06d6 3f3e 642f 573e ac79 20be
000002d0: a269 813e e02c 183d d07c 823e f259 863e
000002e0: c870 393d 5836 3f3d e428 b93d 96d6 3d3e
000002f0: 9bf6 86be 00f4 ed3a 3233 8d3e 60b7 50be
00000300: 127e 26be f04c f73c a8c4 d53d a8c6 1e3e
00000310: 806d 853c 2c77 8b3d 70f3 05be 1c04 8c3e
00000320: 40cc 42be c23b 403e b477 203e 5e15 813e
00000330: a9e8 8d3e cd9e debd 230f 253e 6765 64be
00000340: 4fcd 543e ded2 47be 51e9 66be 9568 75be
00000350: 707e a63e 34d1 2d3d f1b2 20be 3301 7dbe
00000360: cc2d 8a3d 7321 c4bd 8980 463d 9de6 393e
00000370: c011 3bbe 722e 8bbe fad1 543d bf1b 6f3e
00000380: f2c6 363e a000 073d 4433 c8bd 32e2 db3d
00000390: d1d2 2f3e 4081 7abe 1f7b 12bd c747 633e
000003a0: 3a20 653e 8e31 933e 2817 853d 12e1 833e
000003b0: afc1 a5be 4c91 0b3d 4d67 a53d 3562 423e
000003c0: a484 8e3d 91af 413e 24e8 78be 33e7 fabc
000003d0: 31fc de3d 3a84 393e 14b9 bc3d 8e90 4d3e
000003e0: 92ec 7ebd ca89 babc 74f3 853e a111 4b3e
000003f0: 1f71 453e 95a1 82be 2d99 a2bb 367b 7dbe
-0.24959709 -0.24966697 -0.13076197 -0.27733245 -0.016721645 -0.27583933 0.20219903 0.16353473
0.11312471 0.19898196 -0.039096992 0.17573655 -0.23239167 -0.054249406 -0.2501386 -0.01596729
-0.18852414 0.27302188 0.20948192 0.25830016 0.04694493 -0.12493285 0.24486479 -0.26203462
-0.19418022 -0.15226473 -0.10622467 0.05630098 -0.21870959 -0.21439089 -0.14983383 0.14204183
-0.21775047 -0.28843227 -0.24164087 -0.16063634 -0.055228412 -0.30448538 -0.14042228 0.002089076
0.042994313 -0.061129525 0.009460173 -0.16681978 0.14670253 -0.056895006 -0.22882003 -0.06545118
-0.040329516 0.26691067 0.15044537 -0.11656344 -0.040954858 0.2550934 0.1854555 0.07197666
-0.10355249 0.24019992 0.123677164 -0.12856868 0.24927276 0.009676897 -0.213142 -0.1501906
-0.21237148 -0.27600467 0.03340642 -0.25428534 0.21493085 0.08629951 0.08089332 0.20717578
-0.13094884 0.0043047965 0.17738253 0.099784255 0.0349755 0.24138874 0.06579062 0.19422963
-0.24878094 -0.24875444 -0.26055652 0.01634121 0.24497467 -0.25192216 0.11486384 -0.25475037
-0.19184314 -0.09843925 -0.11738604 0.08526546 -0.24205823 0.28546792 0.042084396 0.10063538
-0.24402924 0.17931937 -0.048605055 -0.12511222 0.044436466 0.15436593 -0.0064402153 -0.0570809
-0.0032505626 -0.07038148 -0.12329865 -0.08441294 0.21872267 -0.18483503 0.07045844 0.13417134
-0.18525735 -0.2404005 -0.2127703 -0.29958117 0.2931156 0.20720148 0.003515758 0.23162352
0.06938521 -0.276536 -0.25786296 -0.13533096 -0.29055798 -0.12402209 0.08865504 0.004987097
-0.07582592 0.029203292 0.24565469 0.007858792 0.09534513 -0.056148116 -0.21319632 0.077374436
0.12773035 0.20179321 -0.27342483 0.02479349 -0.3237023 0.058186233 -0.0067057703 0.122370265
-0.12636562 -0.064963646 0.02801865 -0.2796298 0.1418945 0.27841246 -0.22782198 0.28210375
0.08974901 0.26290947 0.28109643 -0.23488319 0.21732277 0.009875149 0.07315725 -0.1047557
-0.23138526 0.027624875 0.080308974 0.14517307 -0.24214347 -0.2793318 0.13736245 -0.05779302
-0.03617839 -0.06971751 0.0029585357 0.049135696 -0.26609805 0.11962615 -0.004798106 0.10044884
-0.15565987 0.18733987 0.21014172 -0.15671414 0.25275904 0.03715217 0.2548585 0.26240498
0.045273572 0.046682686 0.090410024 0.1853889 -0.2636002 0.0018154383 0.2757812 -0.20382452
-0.1625903 0.030188054 0.104379 0.15505469 0.016287565 0.068098396 -0.13081145 0.27346885
-0.19023228 0.18772796 0.15670663 0.25211614 0.27716568 -0.108701326 0.16119055 -0.22304307
0.20781444 -0.19514033 -0.2254994 -0.23965676 0.3251834 0.04243584 -0.1569326 -0.24707489
0.06747016 -0.095766924 0.048462424 0.18154378 -0.1826849 -0.27183872 0.05195806 0.23350428
0.17849329 0.03295958 -0.09775403 0.10736503 0.17170264 -0.24463367 -0.03576195 0.2219535
0.22375575 0.28748745 0.06498557 0.25757653 -0.3237433 0.034074113 0.08076344 0.18982776
0.06958893 0.1891463 -0.24307305 -0.030627823 0.108879454 0.18116847 0.09214988 0.20074674
-0.06223733 -0.022770781 0.26162302 0.19830944 0.19281434 -0.25513902 -0.0049621076 -0.24754032

l1.bias f4 [400]
00000000: 7314 febd 40da 813d 123d 73be 9659 8fbd
00000010: 1055 ebbc 1d49 7f3e 9058 cabc 6310 03be
00000020: 9a46 06be da7b 7a3e bb6b 83be c893 123e
00000030: ffa0 013e 107a b8bd c317 913e 4e59 1d3e
00000040: 3477 1a3e 4474 dabd aee8 403e 98a6 f13d
00000050: 3ef9 2abe 9627 eb3d e1f1 c8bd e163 9f3e
00000060: 664f 8f3e 6bcc 10be bbac 87be 9ab0 7b3e
00000070: 9de5 0bbe 1771 f6bd 5d36 09be a1f2 e53c
00000080: 046c e0bc 882c 963e 8413 a23e ca93 413e
00000090: 661d d8bd 7c59 5fbe df70 3abe 68d6 283e
000000a0: 0c05 6f3e ab80 7dbc b4b3 603e 9238 4fbe
000000b0: 18e0 933c 48db 0fbe 5844 a03d ab12 8ebd
000000c0: 575d e7bd 44ab 5c3e 8f8d 22be 1e73 aa3d
000000d0: 334e 89be d888 413d 2272 08be 8b36 303e
000000e0: 99cf 97be 60c1 b43a 7093 48be cc29 6b3e
000000f0: 21ec 54bd 9960 013e 7018 733e 02d2 fcbd
00000100: 488b b13d 4924 52be 7428 873e a942 72bd
00000110: 33fd a7bd 6fea 643e 2c85 7c3e d5de 61be
00000120: 8ed0 653b 48b9 e5bd 08b0 643e 2185 823e
00000130: 508d 863e 3e6b 6c3e 7b58 1fbe f489 a23d
00000140: cccb 18bc fbff 073d 970a 4abe 8051 cdbb
00000150: f853 7c3e b49c e63d 1aff 12be e402 ce3d
00000160: 2cdd b73c 99f3 71be 7ca0 ddbd 82ce 1fbe
00000170: fa14 053e 130c 01be d5dc da3d fa20 913e
00000180: ec1b 853e e7d4 43bd ed4e 983e 0e10 e1bd
00000190: 80bd ad3d d2f0 113e c02c febd 35b5 7cbe
000001a0: 548e 213c ec6a 623e 881f 9cbe f736 6bbd
000001b0: b007 0fbd f42b b0bd e26b aa3c ff3c 25be
000001c0: 2455 413e 8655 943e a283 8e3e 8de7 f03d
000001d0: a510 74bc 5c22 40be f120 39be 7148 6a3d
000001e0: d48a 123e 1dca 15be 78c4 333d c6f4 59be
000001f0: 8e08 fcbd a2a6 07be 2537 51be f382 0b3e
00000200: 217c d5bd 76fb 823e c100 58bc 0e5e a23d
00000210: a47d f5bd 1d90 5bbe f8b7 743e 9893 aa3d
00000220: d495 313e 4874 f1bc e815 493c d1d5 433d
00000230: c18f 063d c0a5 563c 994e 9f3e 6db6 3c3d
00000240: 41a5 ee3d f4ba 81be 96ca 7ebe 039c c63c
00000250: 131b 6a3e d2d4 4dbe 5707 8c3c 7572 503e
00000260: 2e71 86be f782 363e 989f 113d d22d 70bd
00000270: dbbd 00be 7971 5d3e 824a 30be 465a 7fbe
00000280: 1be5 153e 2113 6f3e b22d ab3e e427 18be
00000290: d1e0 ac3c 1c80 3a3e 1b71 883d 10ba 42be
000002a0: 4dcb 603e fd3b 163e ec47 0cbe bec9 033e
000002b0: 15c2 d53d 77f4 5d3c 63ac a23d 99fb 95be
000002c0: 5835 b2bd 6835 09be 6d9d 193e 5d54 353e
000002d0: d256 0abc 14f1 933d 64fc 423d 108c 933e
000002e0: 2a39 98bc 056c 75be 5c53 363e c15a 8e3e
000002f0: 644b 523e 75ff 8cbe d3b5 b13d 365c 193e
00000300: 2b87 383c 0098 0d3b 5a45 ebbc e274 333c
00000310: 1c83 5ebd a568 033d 317b 863d 656f 5cbd
00000320: a09f b5bc d94e 83be 1940 23be 9737 833e
00000330: 9f00 9c3d ba7a 53bc 2cc7 95be c212 e0bd
00000340: 80ff d83d 41af 083e f022 ab3d ebfb 813e
00000350: b66b e73d 44fd b7bd 7d21 1ebe 5a92 96bd
00000360: dc08 a9bc 0168 473e 488f 08be a40d e5bd
00000370: 827d 5f3e 14b8 303d b167 4d3b 7ced a8bd
00000380: 8fc1 92be b7b2 eebd 98ed 793e d271 8c3e
00000390: 1e2d 763a e08b 69bd 2749 d53d 04df 363d
000003a0: 2e87 9dbd 126c 05be 476f 77be 4689 a5bd
000003b0: 27d0 0f3e ec12 663e ce35 2a3e 17e9 88be
000003c0: 6faf 973e a18f 80be a3c2 e03d 73ed 7b3e
000003d0: 3016 6d3d c589 32be 827e 1d3e 1103 b8bd
000003e0: 5d1f e5bd 1c21 85be cfa8 a83d 64c2 3a3e
000003f0: e819 fe3d 23d7 143d 416f 92be 6046 603e
-0.12406244 0.06340456 -0.23753765 -0.06999509 -0.028727084 0.24930234 -0.024700433 -0.1279922
-0.1311287 0.24461308 -0.2566813 0.14314187 0.12659071 -0.090076566 0.2833844 0.15366098
0.15084535 -0.10666707 0.1883876 0.11799353 -0.16696641 0.1148216 -0.0981176 0.3113089
0.27990264 -0.1414048 -0.2649897 0.24579087 -0.1366181 -0.12033289 -0.13399644 0.028069796
-0.027395256 0.2933085 0.31655514 0.18904033 -0.10552482 -0.2181148 -0.1820712 0.1648804
0.23341769 -0.015472571 0.21943551 -0.20236424 0.018051192 -0.14048493 0.078255355 -0.069371544
-0.112971 0.21549708 -0.15874313 0.08322738 -0.26817474 0.047249645 -0.13324788 0.17208306
-0.29650572 0.001379054 -0.19587493 0.22965163 -0.051983003 0.12634505 0.23739791 -0.12344743
0.08669144 -0.20521654 0.2639805 -0.059145603 -0.08202591 0.22355054 0.24660176 -0.2205766
0.0035066935 -0.1121698 0.22332776 0.25492194 0.26279688 0.23087785 -0.15561096 0.07936469
-0.009325933 0.033203106 -0.19730602 -0.006265819 0.24641407 0.112603575 -0.14355126 0.10059145
0.02244433 -0.23628081 -0.108216256 -0.1560612 0.12996283 -0.12602262 0.106866516 0.28345472
0.25997865 -0.04781046 0.29747716 -0.1098939 0.0848341 0.14252022 -0.12410879 -0.246785
0.009860594 0.221111 -0.30492806 -0.057425465 -0.03491944 -0.086021334 0.020803396 -0.1613655
0.18880135 0.289715 0.27834803 0.11762915 -0.0148965465 -0.18763107 -0.18078972 0.05719799
0.14310771 -0.14627881 0.04388854 -0.2128478 -0.12306319 -0.13247159 -0.20431192 0.13624172
-0.10424066 0.25582474 -0.0131837735 0.07928096 -0.11986855 -0.21441694 0.23898304 0.083289325
0.17342311 -0.029474393 0.012273289 0.047811333 0.03285194 0.013101041 0.31114653 0.046072412
0.116526134 -0.25337946 -0.24881968 0.024244314 0.2286189 -0.20100716 0.017093344 0.20356162
-0.26258224 0.17823397 0.03555259 -0.058637448 -0.12572424 0.21625318 -0.17215922 -0.2493678
0.14638178 0.23347141 0.334333 -0.14858967 0.021103295 0.18212932 0.06662198 -0.1901629
0.21952553 0.14671321 -0.13699311 0.12869927 0.10437409 0.0135470545 0.079430364 -0.29293516
-0.08701581 -0.13399279 0.1500146 0.17707963 -0.008443551 0.072237164 0.04760398 0.28817797
-0.018581945 -0.23966987 0.17805237 0.27803615 0.20536572 -0.27538648 0.08677258 0.14976582
0.011262695 0.0021605492 -0.028719593 0.01095316 -0.054324254 0.03208222 0.06566466 -0.05381717
-0.022170842 -0.25646093 -0.1594242 0.2562835 0.07617306 -0.012907678 -0.2925352 -0.10941078
0.10595608 0.13348104 0.08356273 0.2538751 0.11299841 -0.089838535 -0.15442462 -0.07352133
-0.020634107 0.19473268 -0.13335907 -0.11184242 0.21825221 0.0431443 0.0031342322 -0.082484215
-0.28663298 -0.11655181 0.24407041 0.27430588 0.0009390878 -0.05701816 0.10414343 0.044646278
-0.07691799 -0.13029507 -0.24163543 -0.080828235 0.14044248 0.22468156 0.16622087 -0.26740333
0.29626033 -0.2510958 0.10974624 0.24602298 0.057882488 -0.17435367 0.1538029 -0.0898496
-0.11187623 -0.26001823 0.08235323 0.18238217 0.12407285 0.036337983 -0.28600505 0.21901846

l2.weight f4 [300, 400]
00000000: b20c 33bc 1b94 a53c 9552 19bc eac6 4ebc
00000010: c693 8a3c f610 e43c 33f1 49bd ebe8 0d3d
00000020: 8649 9e3d 6b52 573d 129a 833d 8740 10bc
00000030: c457 8f3d c745 ecbc b08e 8a3d b3b9 d6bc
00000040: b00b a1bc 2f5e 903d 7315 773d a58c 943d
00000050: 8161 0d3d b909 4bbc 0e67 403c 7dfc 183d
00000060: 696d 153d 2044 a93d cdd7 a33d 2580 763d
00000070: 2396 dfbc 5519 bb3c 7217 4e3d b8e7 9e3d
00000080: d2f9 e0bc 0f8e 163c faf0 59bc 3d39 833c
00000090: 6c13 42bc b59c b4bc dfa1 fb3c 56af 453d
000000a0: 9a98 923c 2380 13bd c9ca 143d 43af a43a
000000b0: bbe6 a23d 8001 aa3c ba80 62bc 1cac cd3c
000000c0: 675e 813d 5888 4abc cbd5 883b 2767 c03c
000000d0: f269 773c 651f 1b3d 59da 783d 765e 9c3d
000000e0: 33b8 2d3d 84df 13bc 2aea 7abb f09d d4bb
000000f0: 23d0 0d3b 2f49 983d e97d 8b3d a92f af3c
00000100: eca9 29bc b16d db3c be43 953c c0ae 54bc
00000110: d75a f23c 8660 6f3d 9b13 1a3d 7028 c1bb
00000120: 4180 54bb 647c 1bbc 8e5e cd3c 5407 5b3c
00000130: cb01 3a3d 512a fc3c acc9 fb3c 5030 46bd
00000140: 8ec8 04bc 26f1 783d d09b bbbb 06a6 22bd
00000150: fecc 013d 502f 87bc 9b26 2fbd f3b2 d73c
00000160: 0c36 a03c 9ed9 f03c 3390 133d 4888 3f3d
00000170: 1890 08bc 0b7e 44bd 4968 923d 3c7b 6b3d
00000180: ee22 80bc 2c95 a53d 3296 fc3c 3707 ebbc
00000190: b8b0 143c 7758 cfbc 7252 aa3d 3c95 343d
000001a0: 53b1 823d 9b67 41bc 11a8 733d 8e6d a53c
000001b0: a128 3b3d 5186 9c3d d2c5 143d 590f 943d
000001c0: a9e9 843d ceee 193c 38d6 c83c b343 223d
000001d0: 8b08 0ebc 971d a43d 5074 82bb 8550 813d
000001e0: 96c0 013c 8ab3 253d a0cb 013c bd64 2f3d
000001f0: f0f9 43bd 5736 31bb 6027 6c3d b618 a73c
00000200: ec6e e73a 5c62 ce3c deb0 4b3d a1a7 63bc
00000210: d038 f5bb e01d 89bb f972 4c3c f2eb d13c
00000220: d1e4 463d 6a03 8f3d c65f dc3c e1ae ca3b
00000230: f57d 4b3d 3025 acbc e6a8 333d 1356 593d
00000240: 8b38 b43d 8321 31bd c2a9 d13c ce97 a33d
00000250: 5ea1 f23b 1eed 0abd 187c dc3b 1fae ad3c
00000260: 1527 20bd c202 40bc 4a77 9f3c d6d7 af3c
00000270: 0c0f 8f3d db4f 2d3d 63d0 d73b beac c83c
00000280: 79b3 5c3c 76ac 203d 9f52 fa3c a295 08bc
00000290: 84ed 2d3d 98ff 1b3d 584a 543d 807e 83bc
000002a0: dc69 fb3c 49c0 95bb b82e 953d 7392 743c
000002b0: 2c1e 623c 2e0b 223d f3b8 5a3d e0a1 853c
000002c0: af71 d6bb ed50 5c3c 331e 913d 6059 1dbb
000002d0: 4b98 cf3b f963 363c 6f3e 7a3c 05c2 42bd
000002e0: 9966 413c c694 bcba 682c b83b 818d 8c3d
000002f0: 9119 e33c a540 35bd 9e69 843d c5a9 843d
00000300: cf2d 763d 605b 2b3b 41f2 6d3c 16c0 e03c
00000310: a0de 12bb bb25 36bd 4c82 353d 0602 093d
00000320: f2c5 9a3c 9af9 973d 7c0d 333d 72ea 75b9
00000330: 1fce 693c 8b1a 1d3d 832e 023d 3478 7bbc
00000340: c31e 92bc c742 803c 70f6 80bc bf11 85bc
00000350: 7507 9c3d c1ed 0b3d aa9a 8a3d 9639 e33b
00000360: 6480 783c d37d b1bc 69ba 373d 4a6e 9c3c
00000370: 67c7 533d feca 9c3d 140a 90bc ac76 93bb
00000380: 034a 10bd 1619 fbbb 3433 5a3c 443e 0abd
00000390: e002 053d a8bc d23c 4f69 143d 7fc4 7abb
000003a0: d959 773c 46d7 28bc c413 6b3a d96d 2f3d
000003b0: e9e2 69bc 2ad8 853d d892 e6bb 24db 8ebc
000003c0: 622e 9f3d d507 2ebd 4d02 9dbc ed2c 993d
000003d0: 2aaa 903c 5489 053d fd53 b43c 19d3 46bb
000003e0: 2ab9 943d c651 483d dd26 bb3c 559d 373d
000003f0: 67d7 a5bc 1c37 a83d 00bd 02bc f0d1 993d
-0.01092832 0.020212224 -0.009358068 -0.012620667 0.016916167 0.027840119 -0.04930229 0.034645956
0.07728867 0.052568834 0.06425871 -0.008804447 0.06999162 -0.028841866 0.06765497 -0.026211595
-0.019658893 0.07049214 0.06032319 0.07253388 0.034516815 -0.012392455 0.01174332 0.037350167
0.036481295 0.08264947 0.08000145 0.060180802 -0.02729327 0.022839228 0.050315328 0.077590406
-0.027462874 0.009189143 -0.013302082 0.016018504 -0.011845451 -0.02204738 0.030716835 0.048262917
0.017895032 -0.036010873 0.036326203 0.0012564439 0.079541646 0.020752668 -0.013824636 0.025106482
0.06316834 -0.012361608 0.0041758767 0.023486687 0.015100943 0.037871737 0.060755108 0.076352045
0.042411994 -0.009025458 -0.0038286545 -0.006488554 0.0021638952 0.07435834 0.06811125 0.02138503
-0.010355454 0.026785703 0.018220779 -0.012981117 0.029584331 0.05844166 0.037616353 -0.005894713
-0.0032425078 -0.009490106 0.025069501 0.013368446 0.045411866 0.030781897 0.030735813 -0.04838592
-0.008104457 0.060776852 -0.0057253614 -0.039709114 0.031689636 -0.016502053 -0.042761426 0.026330447
0.019557022 0.029400643 0.03602619 0.046760827 -0.008335136 -0.047971766 0.07148797 0.057490572
-0.015641656 0.08085093 0.030833337 -0.028689964 0.009075336 -0.025310738 0.083165064 0.044087633
0.06381478 -0.011804487 0.059486452 0.020193841 0.045693044 0.07642806 0.03632147 0.0722949
0.0648988 0.009395314 0.02451621 0.039615344 -0.008669029 0.08013456 -0.0039811507 0.06314186
0.007919451 0.040454425 0.007922083 0.04282068 -0.04784578 -0.0027040446 0.05765474 0.020397525
0.0017656959 0.025193386 0.04972922 -0.013894946 -0.007483579 -0.0041844696 0.0124785835 0.025625203
0.04855806 0.06983073 0.026901137 0.006185398 0.04968067 -0.021013826 0.043862246 0.053060602
0.08799847 -0.04324485 0.025593642 0.07987939 0.0074044904 -0.03391754 0.0067286603 0.021201191
-0.03909977 -0.0117194075 0.019466061 0.021465223 0.06985292 0.042312484 0.006586121 0.024496432
0.013470524 0.03922697 0.030556975 -0.0083364565 0.04246284 0.03808555 0.051828712 -0.01605153
0.030690126 -0.0045700413 0.072843015 0.014927494 0.013801139 0.039561443 0.053399038 0.01631254
-0.006544314 0.013447029 0.07085838 -0.002400957 0.0063352934 0.011132234 0.015273674 -0.047548313
0.011804246 -0.00143876 0.005620528 0.06862927 0.027722152 -0.044251103 0.064654574 0.064776935
0.06010228 0.0026146993 0.01452309 0.027435344 -0.0022410527 -0.044469576 0.044313714 0.033449195
0.018893216 0.074206546 0.04371403 -0.00023452358 0.0142703345 0.03835539 0.03178264 -0.015348483
-0.017836934 0.015656842 -0.01574251 -0.016243814 0.0761861 0.034162287 0.06767781 0.006934355
0.015167329 -0.021666443 0.04485551 0.019095559 0.051703837 0.07655905 -0.01758293 -0.004500231
-0.035226833 -0.0076629026 0.013317872 -0.033750787 0.032473445 0.025724724 0.036233243 -0.0038264093
0.015097105 -0.010305231 0.0008967484 0.04282937 -0.014275291 0.06535371 -0.007036548 -0.017438479
0.07772519 -0.042487938 -0.019166136 0.07479272 0.017659266 0.03260167 0.022012705 -0.0030338226
0.0726188 0.04890611 0.02284568 0.044827778 -0.020244313 0.08213636 -0.007979631 0.075107455

l2.bias f4 [300]
00000000: 004b bd3c ccde 1f3d 8bae 5ebd 7dfe a13c
00000010: f3e9 343d 3a7f b53c 7179 3ebd 2173 503d
00000020: 6a0c 88bc 1a03 9abc e265 d0bc 4240 123b
00000030: de63 2cbd a8c3 96bb afeb c3bb 18fb 193d
00000040: 35c2 20bd 1689 06bd 9285 3bbd 0491 223d
00000050: 7410 8dbc 3c56 c63d 0b91 023d 20b0 e1bc
00000060: b14e 65bd 4f9b a93c db92 78bd f1ff 15bd
00000070: 9e30 11bd 7e73 043d 3cd9 05bd 0618 04bd
00000080: 0c8a 5dbc 250c bb3b 8f4d f2bc 588b 2c3c
00000090: d87a 4dbc 8c89 153d 18c6 4bbd 8cb4 413b
000000a0: 312e 1d39 b528 02bc 1637 00bc 7749 f03c
000000b0: 9b02 ef3c abba d13b 5df9 953c 854b 20bd
000000c0: a4aa 393d fa46 febc 25a5 303d b948 243d
000000d0: 8da9 773c 08f3 273c c316 8abc 5759 18bd
000000e0: 08a1 953d 47c5 14bd 3940 69bc 14bd 413d
000000f0: e970 efbb 65aa 0ebd 0e04 ec3c 79ac 8b39
00000100: b069 89bc 11e2 393d 2b4e 9a3c 5381 29bd
00000110: 00ba 353c e99a 38bd 3abd e63c 4839 53bc
00000120: 1b14 133d 4727 3b3b 6aac 02bd d08c 18bd
00000130: ea86 46bd c09e caba 4615 ec3c 7ec8 2fbc
00000140: 97f1 423d 37ed 093d 83fc 623d 8a66 12bd
00000150: 432c debc 35f6 90bd 00c2 88bc bca3 56bd
00000160: ddca 48bd fd66 423c a255 cf3c 4b4d 683c
00000170: 1a3b 9dba 38aa 443d 1400 1a3d 7458 39bd
00000180: 2074 07bd 240b abbb 15fd 983c d82a babc
00000190: 1368 ddbc 5514 883c 0119 613d 1f1b 423d
000001a0: 6a67 673c 3968 6f3d 4910 8c3c 8c41 48bc
000001b0: 28e8 cb3b 61b0 d5bc d296 c03d 818d 2c3d
000001c0: 7970 7a3d 53b0 2fbd 0c9a 4dbc 2613 953c
000001d0: f728 d1bc e056 17bc 8619 1fbd 1c0f 1ebd
000001e0: 0b61 60bd d15f b83c 7840 66bc 6900 d9bb
000001f0: 92c1 663c 3bfd 23bd a9ef 443b 7acc b6bc
00000200: 8726 29bd 192e 84b9 7d2d 30bd 5b40 f3bc
00000210: c2a4 4bbd dae1 913c 1c10 693c c7fa 193d
00000220: 0c42 c3bc 46c8 96bc 37b1 d73c 7f21 be3c
00000230: 5347 6cbc 3473 fa3c 027e cabc 3c98 24bd
00000240: be01 8fbb 9f14 3c3d 2d9e 89bc 6f36 eb3c
00000250: ccf0 653c 9b95 f4bc 18d1 d63b 5522 7a3c
00000260: 48e7 08bc 3fdc f43b 5221 e5bc 0b5b bb3c
00000270: fc58 a4bc e7ec 303d 32a4 f33c 2ad2 243a
00000280: 4652 d03d b366 c7bc ba9c a6bb 545a 5fbc
00000290: 5f4b 1dbd 2d08 533c c2e0 6dbd 22c3 0fbd
000002a0: 8301 20bd 00ec 11b8 7d74 153d 4b45 b6bb
000002b0: 8e7b 923a 7bc5 493d 2bcd 66ba 64bb 553c
000002c0: 87c0 c5bc 6cd1 f6bc a5d7 01bd 95d4 1dbd
000002d0: 43ca 873d 87f4 e4bc 6dec cf3a de64 a83b
000002e0: d897 13bd e2e4 5fbd 2511 103d 1f1d d73c
000002f0: 69ba 003c 9598 22bd a915 09bd b792 e0bc
00000300: bab6 dd3b 03a3 17bd c67d 0fbd 5143 47bc
00000310: 73cd e8bc 3104 273d 7b2d b93c d085 2d3d
00000320: 070e 8eba 4295 be3c e80c 2e3d e851 0c3c
00000330: 9796 20bc 9c54 e33c 2b46 803c 0e2d 4cbc
00000340: 7750 3a3d 31f1 61bd c293 4bbd a922 de3c
00000350: b3e4 b1bc f7a9 a7bc a6e5 523c 2042 2cbc
00000360: b0c2 88bb b9f5 003d 1ddb 043d 72af b4bc
00000370: 14aa 8abc 0c94 533d facc 11bd 84a6 ed3b
00000380: 1acf 56bd be76 ee3c 9658 0c3d a5ef 963b
00000390: 513b 51bd 82a6 5fbd f8f8 73bc 9364 d43c
000003a0: cd49 983b 8c23 1ebc 4047 d9bc 65b0 abbc
000003b0: b32d 05bc 961b 61bc b21a dbbc 4e2a dabc
000003c0: 2a8a 9d3d 96e5 ff3b 047a a2bc c72a 7b3c
000003d0: 4319 01bd 0598 46bd 54a6 323d fad2 9abc
000003e0: d802 0f3d 3a43 bb3c 9f7a 45bd f5ad ad3c
000003f0: 783a ebb8 58fd 3cbd d2ab 853c 228d 22bd
0.023107052 0.039030835 -0.054365676 0.01977467 0.044168424 0.022155393 -0.046502534 0.050891045
-0.016607482 -0.018800307 -0.025439207 0.0022316133 -0.04208743 -0.0046009608 -0.0059790234 0.037592977
-0.03924771 -0.03284558 -0.04578168 0.03968908 -0.01721976 0.09684417 0.031876605 -0.027549803
-0.05598325 0.02070394 -0.060686927 -0.036621038 -0.035446756 0.032336704 -0.032677874 -0.032249473
-0.0135216825 0.005708235 -0.029577998 0.010531269 -0.012541495 0.036508128 -0.049749464 0.0029557077
0.00014989894 -0.007944276 -0.0078256335 0.029331906 0.029176047 0.0064004264 0.018307382 -0.03913452
0.04532875 -0.031039704 0.043126244 0.040108416 0.015116108 0.010250814 -0.016856557 -0.037194576
0.07306105 -0.03632095 -0.014236503 0.04729946 -0.007307161 -0.03483047 0.028810527 0.00026640648
-0.016774029 0.04538161 0.018836102 -0.0413831 0.011091709 -0.04506961 0.028166402 -0.012892075
0.035907846 0.0028557347 -0.031902708 -0.037243664 -0.048468508 -0.0015458688 0.028818738 -0.010728953
0.04759368 0.03367349 0.055416595 -0.03574232 -0.027120715 -0.0707821 -0.016694069 -0.052402243
-0.04902159 0.011865375 0.025309388 0.014178584 -0.0011995763 0.048013896 0.03759773 -0.04525037
-0.03306973 -0.005219834 0.018675366 -0.022725508 -0.027027166 0.016611258 0.054955486 0.047389146
0.014123777 0.058449004 0.01709761 -0.012222659 0.0062227435 -0.02608508 0.09403767 0.042127136
0.06114242 -0.042892765 -0.012548935 0.018197607 -0.025532229 -0.009237021 -0.0388427 -0.03858863
-0.054780047 0.022506626 -0.0140534565 -0.0066223633 0.014084237 -0.04003642 0.0030050075 -0.022314299
-0.04129651 -0.00025211347 -0.04301213 -0.029693773 -0.049717672 0.01780789 0.014225032 0.037592676
-0.023835205 -0.018406045 0.02632962 0.023209332 -0.014421302 0.030572511 -0.024718288 -0.040184245
-0.0043642214 0.045918103 -0.016799057 0.02871248 0.014034461 -0.029856494 0.0065556876 0.015266974
-0.008355923 0.0074725444 -0.02796999 0.022870561 -0.020061962 0.043194678 0.02974138 0.00062874204
0.101719424 -0.024340963 -0.005084601 -0.013632376 -0.038401958 0.012880367 -0.058075674 -0.035098203
-0.03906394 -3.4790486e-05 0.036488045 -0.0055624596 0.0011175738 0.049260598 -0.0008804376 0.013045166
-0.024139656 -0.030129157 -0.031699795 -0.038532812 0.06630375 -0.027948631 0.0015863307 0.0051389774
-0.03603348 -0.05466164 0.0351726 0.026259003 0.007856944 -0.039696295 -0.033467922 -0.02741371
0.0067661675 -0.037020694 -0.035032056 -0.012162046 -0.028418278 0.04077548 0.022604695 0.04236394
-0.0010837921 0.023264531 0.042492777 0.00856445 -0.009801528 0.027750306 0.015658459 -0.012461914
0.045486894 -0.05516166 -0.04970146 0.027116137 -0.021715498 -0.020466788 0.012872135 -0.010513812
-0.004173599 0.03148434 0.032435525 -0.022056315 -0.016926803 0.05165486 -0.03559587 0.007252516
-0.0524436 0.029109355 0.03426417 0.0046062046 -0.05108196 -0.054602154 -0.014890902 0.025926864
0.0046474696 -0.00965203 -0.026523232 -0.020958135 -0.008128571 -0.013739487 -0.026746128 -0.0266315
0.07692368 0.007809351 -0.019833572 0.015330023 -0.031518232 -0.04848482 0.043615654 -0.01889943
0.03491482 0.022859205 -0.048212644 0.021201113 -0.00011216564 -0.046140045 0.016317282 -0.039685376

l3.weight f4 [6, 300]
00000000: 16cc b53d 2f0b acbb 84b3 1a3c d5ac a53d
00000010: d8d7 cebb 3216 08bc 1884 ae3c 7a73 843d
00000020: de72 2fbc ee4f 3a3d 6985 fb3c 57d8 09bd
00000030: 6d9f 8fbc 6099 593d 3d88 06bc 7088 fcbc
00000040: c4b0 01bd 326c 023d 8324 083d faa2 253c
00000050: 2fad 7f3c 6b6f be3d db48 b0bc f0cc 013d
00000060: 27eb 97bc 28d9 35bd 2bf7 bdba 577b 06bb
00000070: c861 223d 67b2 28bc fe1b 36bd 190e 3cbd
00000080: 48ca 9c3c adb8 213c 4bc0 913c a5d2 b43c
00000090: 4756 02bd 486c b3bb fa13 173c 7f4d 35bd
000000a0: 027a 01bb 6cc3 233c 4126 3c3d d346 59bd
000000b0: cde3 5f3d 08ed 473d 091d 323d d07b 63bb
000000c0: 9cb9 a2bc 6a86 283d 5b96 30bd 816b 7bb9
000000d0: dfda c43b d4c1 0fbd 2b90 3f3c 9a15 60bc
000000e0: 36af ab3d af4d 14bd 19a8 b0bc 1775 903b
000000f0: fc61 043d 421c 13bd cd5c c43a 98e3 14bd
00000100: 1808 f93c 249b 2a3d 5eb6 2dbc 6933 9d3c
00000110: efb0 5fbd e766 823c aaa8 d5bc b705 e6bc
00000120: 43aa 53bd e541 c9bc 7978 a43c 7fad 49bd
00000130: ccae 2f3d dac4 20bd c056 fc3b c704 1ebd
00000140: 9574 ce3d 96b9 ba3d 2b97 d63d 0a75 083d
00000150: 8842 e4bb 5027 16bd e2c4 1fbd 7f52 47bd
00000160: fe19 94bc 2478 4b3d 0026 c139 9e08 4ebd
00000170: ec20 c73c b9f3 d23c ed67 bc3c d0b1 293c
00000180: 4f20 e33c a45e 1bbc d5ba 4bbd a189 b33c
00000190: 1693 c6bc 0a2a 25bd f708 a63d d0ea 303c
000001a0: 7da3 1abc 25db a83d 3ff1 3dbc 6f7b f73c
000001b0: 5996 50bd 58f0 513c 8c92 6d3d f6b2 363d
000001c0: 4aa8 933d 01e8 033d d483 9a3c 1142 1bbb
000001d0: 4d07 32bd f062 073b 526d f4bc 289a b53c
000001e0: f695 d6bc c825 003d 368b 5b3d ade4 983c
000001f0: be72 023c 1f2c 15bc c160 2d3d ee48 89bc
00000200: 1357 88bc 38e6 ec3c 665b 44bd f02d 093c
00000210: 7070 943c e1e9 35bd 60a3 e53a 14fb 3c3c
00000220: 3d0a 2fbd 538b 973c 8963 9abc df8f 41bd
00000230: b21b 493d 3886 363c e0b1 8abb b3be 423c
00000240: ae07 5f3d f81d 253c 7d32 e83b c6e1 a8bb
00000250: 3cda 2a3d 1e8f 8dbb 4eee 303d d9e3 123d
00000260: 997b 263d ecf9 a53c 1513 dcbb d087 36bb
00000270: 6194 163d 12b1 283c 3aba 33bd fd7c 433d
00000280: 2823 c13d 99ef ebbc 005b a139 6696 4c3d
00000290: 98ae a1bb 2ce9 d0bc 89e7 3b3d d110 473d
000002a0: 8341 44bd 38fc 683d 37f0 4dbd 328c cdbc
000002b0: b642 31bd 9633 d43c 6c76 3dbd d5ef c23d
000002c0: 64fa 273d 1519 133d 145f 123c 68bd e4bb
000002d0: b5f8 6f3d 88af a4bc aceb 7fbc fdf6 64bb
000002e0: 9537 55bd f519 5bbc 68a2 83bc 47f9 fc3c
000002f0: 275c 90ba d384 833c 3648 2fbd 482f aa3c
00000300: 7877 193c 9a39 883c d2af 383b 045b bb3b
00000310: 2e7a c3bc 2355 553d bfd5 0ebc d0ee 1cbd
00000320: 13ce e13b 848e 693d bbf2 3a3d 24ab a33c
00000330: 8126 a43b df30 da3d faa9 133d 28c8 de3b
00000340: 168b c13b 3398 c1bc 5599 efbc 94e3 3c3d
00000350: eb10 39bd ffa0 04bd 467f c9bc 7d0e 3a3d
00000360: e008 d63a 005a 563c 16ec 533d b82c 263c
00000370: 5488 0b3d 2d9b e33c 4cf9 20bc 571b 3e3d
00000380: 43ee 413c 534b f6bc 76be a7bc 4756 3e3c
00000390: 127b f3bc 86a1 14bd 844e 84bc 1239 073c
000003a0: ffd1 9c3c 004d 24bb 1090 0a3d 2b5b 8a3c
000003b0: a1e6 8e3c d948 2c3d 5610 443b e19b 5f3d
000003c0: 8fba a03d d0df 453d d1bc 3e3d f56b c23d
000003d0: fc16 1cbd 986c b83c 68a0 c4bb f040 ca3c
000003e0: 303d 843c 8043 6c3c 1db8 b2bc f0e7 4b3d
000003f0: 9678 d2bc dd1f 12bd 148b 613d 5062 b43c
0.08876817 -0.0052503566 0.009442214 0.08089606 -0.0063123517 -0.008306073 0.021303222 0.06467338
-0.010708539 0.045486383 0.030703263 -0.033653583 -0.017532075 0.053124785 -0.008211193 -0.030826777
-0.031662717 0.031841464 0.033237945 0.010109657 0.015605255 0.09298595 -0.021519115 0.031689584
-0.018544747 -0.04439655 -0.0014493217 -0.0020520294 0.039644033 -0.010296441 -0.04446029 -0.045911882
0.019139424 0.00987069 0.017791888 0.0220731 -0.03182056 -0.0054755546 0.009221071 -0.04426336
-0.001975656 0.009995323 0.04593492 -0.05304606 0.054660607 0.048810035 0.04348472 -0.003471125
-0.019863896 0.041143812 -0.04311214 -0.00023977274 0.006007537 -0.03509696 0.011692087 -0.013677025
0.08383028 -0.036206897 -0.02156453 0.0044084894 0.032320008 -0.03591562 0.001498127 -0.036349863
0.030399367 0.04165186 -0.010602562 0.019189553 -0.054612096 0.015918208 -0.026081402 -0.028078897
-0.051676046 -0.024567554 0.020076977 -0.049237724 0.04289131 -0.039250232 0.007700771 -0.038578775
0.1008083 0.09117429 0.10478052 0.033314742 -0.006965939 -0.036658585 -0.03900612 -0.04866266
-0.0180788 0.049675122 0.0003684014 -0.050301187 0.02430769 0.025750982 0.022998774 0.010357335
0.027725367 -0.009483013 -0.049738724 0.021916213 -0.024240058 -0.040323295 0.08107179 0.010798171
-0.009438393 0.082449235 -0.011593162 0.030210225 -0.050924633 0.01281365 0.058001086 0.044604264
0.07209833 0.032203678 0.018861689 -0.0023690502 -0.043463994 0.0020658337 -0.029837284 0.022168234
-0.026194554 0.03128603 0.05359956 0.018663729 0.007961927 -0.009104758 0.0423286 -0.016758408
-0.016643083 0.02891837 -0.047938727 0.008372769 0.01812002 -0.044412497 0.0017520003 0.011534471
-0.042734373 0.018499052 -0.01884629 -0.047256347 0.049098678 0.011140399 -0.00423263 0.011886287
0.054450683 0.010077946 0.007086097 -0.0051538674 0.04171203 -0.0043200394 0.043196015 0.035861824
0.040645216 0.020260774 -0.006716142 -0.0027851947 0.0367626 0.010296123 -0.04387877 0.04772662
0.09430534 -0.028800773 0.00030776113 0.04994812 -0.0049341433 -0.02550181 0.045875106 0.04860002
-0.04791404 0.05688116 -0.050277915 -0.025091264 -0.04327651 0.025903504 -0.046255514 0.095184006
0.041010275 0.035912592 0.008933801 -0.006980587 0.058586795 -0.020103231 -0.015620153 -0.0034937256
-0.05205496 -0.013372888 -0.016068652 0.030880583 -0.0011013792 0.016054546 -0.042793475 0.020774499
0.0093668625 0.016629029 0.002818097 0.005717637 -0.02386197 0.052083146 -0.008717953 -0.038313687
0.006891021 0.05702068 0.045641642 0.019979067 0.005009473 0.10653853 0.036050774 0.006798763
0.005906473 -0.023632145 -0.02924792 0.046115473 -0.04518215 -0.0323801 -0.024596822 0.045423973
0.0016329549 0.013082981 0.05173882 0.010142498 0.03406556 0.027783955 -0.009825062 0.046412792
0.011836591 -0.030065214 -0.020476561 0.01161725 -0.02972177 -0.036286853 -0.01615072 0.008253353
0.019143103 -0.002507031 0.033828795 0.016889175 0.017443957 0.04206166 0.0029916964 0.054592017
0.07848083 0.048309147 0.046566788 0.094932474 -0.038107857 0.022512719 -0.006000567 0.024689168
0.016142458 0.01442039 -0.021816308 0.04978174 -0.025692265 -0.03567492 0.055064276 0.022019535

l3.bias f4 [6]
00000000: 8b1e 533d 36b0 1c3c 89a7 42bb b02a 86bc
00000010: 6d3b d6bb e688 9a3c
0.0515428 0.009563496 -0.002970191 -0.016377777 -0.006537846 0.018864106
