2019_test_data/single_assembly/Average_TD3_Peg-in-hole-single_assembly_seed_1/_actor.pth (torch_old, 510312 bytes, 6 tensors)

l1.weight f4 [400, 12]
0.10421489 0.0017131316 -0.043886617 0.10594218 -0.2456886 0.16465344 -0.02982626 0.21894406
0.043010205 0.024459973 0.022643099 -0.071731195 0.03882151 -0.08354879 -0.06143589 -0.0282258
-0.018223302 -0.051636793 0.3753641 0.104733124 -0.03509485 -0.18539883 -0.17631806 -0.1770901
-0.12707871 0.020409599 0.1643673 0.15510745 -0.27307206 0.20548667 0.03498404 0.21055987
0.23415801 -0.32426828 -0.24013306 -0.08692571 0.25348902 -0.04808432 0.123541236 -0.13415062
0.28325325 -0.12213799 0.2164846 0.003418386 -0.15207909 0.14838329 -0.15323457 0.08490071
-0.16419692 0.08519643 -0.26699722 -0.14289656 0.16960783 -0.09564015 0.34797466 0.35300592
-0.044071846 -0.06695434 0.087662116 0.013899646 -0.1866053 0.18750736 0.17525518 0.25602454
-0.16181962 -0.047517657 -0.0055921674 0.042163163 -0.21908084 -0.20485033 0.1570406 -0.067692
0.14101014 0.016457349 0.094784975 0.06347638 0.10496211 0.14309937 -0.26734552 0.14530504
-0.20297419 -0.21780798 0.017555594 -0.04919231 0.14088833 -0.033682566 -0.25259048 0.16573043
0.020544697 0.09658602 0.060339365 -0.19723281 0.009572834 0.121495835 -0.19632755 -0.23897128
-0.042175543 0.18736012 -0.1640155 -0.12639347 0.34148017 -0.11206841 0.123499095 0.19679324
-0.13352486 -0.1413254 0.30082855 0.018989414 0.18090038 0.026273012 0.1223092 0.22893175
0.25358585 -0.1413992 -0.08500496 0.09898037 0.17414603 0.1402769 -0.09932858 -0.08618123
-0.0011305405 -0.28548 0.17568456 -0.1804133 0.11558376 -0.1678362 -0.3700128 -0.19893964
0.23038532 0.15730171 -0.07998831 0.107553 0.25823802 0.1805282 0.20313123 0.20537834
0.18231815 0.07471766 -0.17592749 -0.21930563 -0.15533786 -0.025325961 -0.18335374 0.10750809
0.089341916 -0.06531053 0.11605076 0.09329517 0.17624757 0.19440863 -0.097995475 0.27853116
-0.03867487 -0.010094701 -0.2725019 -0.18582222 -0.16864502 -0.12347297 0.20523924 -0.09433356
-0.21572149 0.11106771 0.09242499 0.18697217 -0.14938134 0.06258911 -0.10509236 -0.064858004
-0.3677066 -0.015188677 -0.1164784 0.07330583 0.13865829 -0.032502525 0.31174415 0.25973558
0.19088948 0.022413375 -0.24321611 0.12376569 -0.073496066 0.05461943 -0.23287687 -0.091715366
-0.15158139 0.24634603 -0.27568457 -0.20799565 -0.08029414 -0.08278477 0.08849637 -0.0821901
-0.12076171 0.0044905 0.25863606 -0.20310746 0.1357334 0.186279 0.23437259 -0.2171509
0.009220328 -0.1819852 0.27602136 -0.08522431 0.17116378 -0.030107386 -0.052708503 -0.008806665
0.045445267 0.15800154 0.09256543 0.11346009 -0.3025385 0.22638385 0.23533683 0.25263855
0.21809605 -0.21366511 -0.07916066 0.2608886 -0.21778683 0.27173057 -0.20535617 -0.24593855
0.14678544 -0.2497187 -0.09220713 0.2130964 0.13733982 0.3294643 -0.105735764 -0.2643558
0.38693532 -0.078950524 -0.23771039 0.1378493 -0.17716944 0.2995027 0.28182933 -0.2736035
-0.1565879 -0.14421001 0.047457457 -0.01787379 -0.139643 -0.013397437 -0.30611515 -0.3177623
-0.13265063 0.11465009 0.29025856 -0.06985343 0.18904668 -0.111803435 0.056733612 -0.076907
00000000: 9e6e d53d 288b e03a 74c2 33bd 37f8 d83d
00000010: cb95 7bbe e99a 283e 3356 f4bc df32 603e
00000020: 782b 303d 4860 c83c 057e b93c cee7 92bd
00000030: 4e03 1f3d a11b abbd 33a4 7bbd cb39 e7bc
00000040: 0949 95bc 1a81 53bd b92f c03e 527e d63d
00000050: 9ebf 0fbd 31d9 3dbe b98c 34be 1b57 35be
00000060: ec20 02be 0832 a73c e74f 283e 7dd4 1e3e
00000070: 1ad0 8bbe 196b 523e 6d4b 0f3d 029d 573e
00000080: 1ec7 6f3e 7e06 a6be 71e5 75be 1b06 b2bd
00000090: 50c9 813e 10f4 44bd 3003 fd3d c85e 09be
000000a0: 9206 913e 7c23 fabd 24ae 5d3e 0007 603b
000000b0: 9fba 1bbe caf1 173e 86e9 1cbe 6ce0 ad3d
000000c0: 3d23 28be 777b ae3d dcb3 88be 7a53 12be
000000d0: adad 2d3e fcde c3bd bc29 b23e 31bd b43e
000000e0: ae84 34bd 5b1f 89bd 3288 b33d 57bb 633c
000000f0: 7615 3fbe ee01 403e 1876 333e a615 833e
00000100: 0bb4 25be e0a1 42bd 803e b7bb 48b3 2c3d
00000110: ba56 60be 49c4 51be 40cf 203e 1aa2 8abd
00000120: f664 103e 90d1 863c a01e c23d e8ff 813d
00000130: 60f6 d63d a488 123e 83e1 88be d8ca 143e
00000140: 77d8 4fbe 0e09 5fbe c0d0 8f3c e07d 49bd
00000150: 0845 103e bbf6 09bd 8a53 81be 3db5 293e
00000160: 5a4d a83c e4ce c53d 6926 773d 66f7 49be
00000170: 60d7 1c3c cfd2 f83d 170a 49be e3b4 74be
00000180: 43c0 2cbd 55db 3f3e aef3 27be 4a6d 01be
00000190: 7dd6 ae3e 1f84 e5bd 18ed fc3d 2b84 493e
000001a0: beba 08be 9bb7 10be 3306 9a3e b08f 9b3c
000001b0: f33d 393e 803a d73c 3f7d fa3d 166d 6a3e
000001c0: 01d6 813e f4ca 10be 1517 aebd 38b6 ca3d
000001d0: 5653 323e bfa4 0f3e c86c cbbd c97f b0bd
000001e0: a52e 94ba 6f2a 92be a7e6 333e 44be 38be
000001f0: 2eb7 ec3d 41dd 2bbe 5172 bdbe d5b6 4bbe
00000200: 21ea 6b3e b313 213e e9d0 a3bd bf44 dc3d
00000210: c637 843e 62dc 383e a201 503e b34e 523e
00000220: 9cb1 3a3e 9305 993d 5626 34be a891 60be
00000230: e310 1fbe 6478 cfbc 15c1 3bbe 342d dc3d
00000240: e5f8 b63d 87c1 85bd 05ac ed3d 8a11 bf3d
00000250: 3e7a 343e 0e13 473e dab1 c8bd a39b 8e3e
00000260: 8a69 1ebd 3f64 25bc 5e85 8bbe 2e48 3ebe
00000270: 48b1 2cbe 66df fcbd 3c2a 523e f431 c1bd
00000280: 18e6 5cbe 7877 e33d 5049 bd3d a275 3f3e
00000290: 6cf7 18be b82e 803d aa3a d7bd 46d4 84bd
000002a0: 0a44 bcbe eed9 78bc 3a8c eebd 5e21 963d
000002b0: 70fc 0d3e 5e21 05bd ee9c 9f3e 10fc 843e
000002c0: 8878 433e 419c b73c a50d 79be de78 fd3d
000002d0: 1b85 96bd a0b8 5f3d 4677 6ebe 44d5 bbbd
000002e0: 2738 1bbe 2242 7c3e 8726 8dbe d0fc 54be
000002f0: 4171 a4bd 108b a9bd 963d b53d 4853 a8bd
00000300: ea51 f7bd 0b25 933b f26b 843e 67fb 4fbe
00000310: b2fd 0a3e ecbf 3e3e 5eff 6f3e ce5c 5ebe
00000320: dc10 173c 545a 3abe ac52 8d3e 158a aebd
00000330: 8f45 2f3e c4a3 f6bc dfe4 57bd d549 10bc
00000340: d124 3a3d 28cb 213e f292 bd3d c35d e83d
00000350: 54e6 9abe 2bd1 673e 23fc 703e d759 813e
00000360: 9254 5f3e 07cb 5abe fc1e a2bd 3193 853e
00000370: 8303 5fbe 4520 8b3e e348 52be 51d7 7bbe
00000380: ec4e 163e 42b6 7fbe 17d7 bcbd f135 5a3e
00000390: cfa2 0c3e 8baf a83e fe8b d8bd a559 87be
000003a0: 631c c63e d0b0 a1bd 5a6a 73be 5e28 0d3e
000003b0: e86b 35be 6b58 993e ef4b 903e c215 8cbe
000003c0: 9458 20be caab 13be c062 423d 0e6c 92bc
000003d0: 93fe 0ebe ec80 5bbc 20bb 9cbe bdb1 a2be
000003e0: 91d5 07be abcd ea3d c59c 943e 510f 8fbd
000003f0: 7495 413e 33f9 e4bd 8161 683d 6b81 9dbd

l1.bias f4 [400]
0.25487444 0.18722148 0.19574033 -0.15741737 -0.18093768 0.09471321 0.0035992265 0.22038893
0.31893083 0.19896418 0.20509285 -0.19832192 0.020775734 0.03729418 -0.14009582 -0.039016727
-0.002148796 -0.15639685 0.002833312 -0.19625945 0.23225401 -0.1964432 0.0803871 -0.017369788
-0.17474414 0.14547619 -0.21596855 0.1468919 0.010949301 0.043996144 0.27470735 0.18785325
0.27769968 0.1923598 -0.026231535 0.056089446 -0.24698913 0.0026463391 0.09587251 0.24285822
0.23515151 0.028299078 -0.11691283 0.1626595 0.11285424 -0.12100654 -0.24411476 -0.2502231
0.2861717 0.17261684 0.08128375 0.16720034 -0.18585812 0.25699183 0.11491243 0.13088423
-0.08490354 -0.2520023 0.062960714 0.095653445 0.012978721 0.14082137 -0.116237156 0.310153
-0.026810624 -0.2687506 -0.14371441 0.08110524 0.20027359 -0.18581006 -0.13378166 -0.030324485
-0.30210242 -0.17201336 -0.1798447 0.27863446 -0.086880766 0.025172401 0.22742961 0.033078343
0.1961459 -0.058666725 -0.06266667 -0.02539331 -0.21297622 0.19579583 -0.0082087815 -0.2549012
0.16908662 -0.11444929 -0.15456033 0.11207108 0.07286888 -0.16064644 0.17361058 0.03623408
-0.117551565 0.1155169 0.061629377 0.13541652 -0.06151019 0.09762788 0.065050974 0.16575925
-0.2508846 0.017709108 0.1552051 -0.13121761 -0.19114293 0.17630263 0.15032226 0.2377618
0.094690554 -0.06697247 -0.20064937 -0.2198638 0.044151083 -0.05502838 0.30091777 0.10922087
0.02506122 0.23740704 0.0064719766 0.047212783 0.337042 -0.05285513 0.08913422 0.053964373
0.26772845 0.09305192 -0.051374007 -0.28520828 0.094253734 -0.015890587 0.17258626 0.1802635
-0.3358413 -0.26968363 -0.11350338 -0.30037925 0.048360262 0.20014244 0.2581706 0.053664282
-0.19598106 0.18119702 -0.18226059 0.18985133 -0.025960343 -0.13614658 0.1836141 0.082669824
-0.091112144 0.16615765 -0.2411498 -0.10638147 -0.18108861 -0.19402575 -0.24376468 -0.20224713
0.09929532 -0.13517673 0.34412792 0.04526197 0.06324665 0.18062775 -0.0072047673 -0.19730566
0.012802246 0.07870655 -0.17816976 0.043269157 -0.21953195 0.105490565 -0.20619161 0.18349254
-0.051586963 -0.13253652 -0.21841072 -0.2830318 0.06910286 0.015830755 -0.17025015 -0.19222015
-0.19277705 -0.08806469 -0.14026828 -0.1537904 0.15588577 0.10454175 -0.16294037 -0.014991456
-0.088025555 0.09400371 -0.05951937 -0.13228141 0.23991454 0.07124994 0.12377655 0.21850407
0.0077629327 0.025643438 0.02631983 0.27314466 -0.20853296 0.07636028 0.08513893 0.1626804
0.038740408 0.2635283 0.26516238 -0.1287618 -0.20561281 0.12584607 0.1028927 0.12230794
0.13970652 0.3314175 0.14652507 0.03372565 0.32322243 -0.007941796 -0.06263506 -0.25886866
0.29457772 -0.10211906 -0.058129493 0.2565529 -0.26346394 0.14394343 0.0005323054 0.06607478
0.22155239 0.19661607 0.16482142 0.05340769 -0.047069777 0.2295993 0.14005107 0.061929625
-0.008198964 0.11713636 -0.17283055 -0.28142786 -0.2365575 0.034429163 -0.17739508 -0.03397022
-0.19148202 0.19526774 0.18394443 -0.041511223 0.042011335 0.0029998738 -0.03701173 0.25615644
00000000: e77e 823e fdb6 3f3e 2770 483e 0532 21be
00000010: ba47 39be 00f9 c13d 00e1 6b3b a3ad 613e
00000020: e74a a33e 44bd 4b3e dc03 523e e714 4bbe
00000030: df31 aa3c c8c1 183d 4775 0fbe 01d0 1fbd
00000040: d1d2 0cbb 7f26 20be 16af 393b 3df8 48be
00000050: ffd3 6d3e 6828 49be fea1 a43d 164b 8ebc
00000060: 21f0 32be b6f7 143e dc26 5dbe d56a 163e
00000070: b264 333c 4d35 343d 71a6 8c3e 9a5c 403e
00000080: a72e 8e3e f8f9 443e 84e3 d6bc 0cbe 653d
00000090: b8ea 7cbe 346e 2d3b ce58 c43d d3af 783e
000000a0: 8fcb 703e 78d3 e73c fe6f efbd 3690 263e
000000b0: 2020 e73d 47d2 f7bd 38f9 79be 3e1d 80be
000000c0: 1985 923e 78c2 303e 1878 a63d 9136 2b3e
000000d0: 9751 3ebe 6f94 833e 3557 eb3d 8406 063e
000000e0: e8e1 adbd 7206 81be 8cf1 803d f4e5 c33d
000000f0: b4a4 543c 7a33 103e bf0d eebd 60cc 9e3e
00000100: f4a1 dbbc ae99 89be df29 13be 811a a63d
00000110: 8514 4d3e fe44 3ebe 0ffe 08be 0e6b f8bc
00000120: 2bad 9abe 4524 30be 3629 38be 2da9 8e3e
00000130: 8bee b1bd 5a36 ce3c 4fe3 683e 287d 073d
00000140: 79da 483e 854c 70bd 6257 80bd a105 d0bc
00000150: 7016 5abe b47e 483e 207e 06bc 6982 82be
00000160: 0b25 2d3e 6464 eabd 1045 1ebe 8685 e53d
00000170: 483c 953d 8080 24be f9c6 313e 306a 143d
00000180: e0be f0bd 2094 ec3d 166f 7c3d a1aa 0a3e
00000190: 1cf2 7bbd 20f1 c73d 7239 853d cbbc 293e
000001a0: f273 80be b112 913c 16ee 1e3e e95d 06be
000001b0: f9ba 43be ad88 343e 14ee 193e d477 733e
000001c0: 1fed c13d dd28 89bd 0777 4dbe fa23 61be
000001d0: c4d7 343d 7065 61bd e511 9a3e 31af df3d
000001e0: 304d cd3c d51a 733e e012 d43b 3162 413d
000001f0: c590 ac3e 9f7e 58bd 008c b63d bf09 5d3d
00000200: b413 893e 0192 be3d 8d6d 52bd d206 92be
00000210: 1a08 c13d fa2c 82bc 74ba 303e ff96 383e
00000220: 64f3 abbe f913 8abe 7674 e8bd 4fcb 99be
00000230: 6915 463d 24f2 4c3e f02e 843e 14cf 5b3d
00000240: 42af 48be b68b 393e 85a2 3abe 6368 423e
00000250: c9aa d4bc 026a 0bbe 5605 3c3e cc4e a93d
00000260: 0199 babd 3b25 2a3e f9ef 76be 87de d9bd
00000270: 4b6f 39be b0ae 46be 739d 79be df19 4fbe
00000280: 585b cb3d c56b 0abe 8931 b03e 9e64 393d
00000290: 7687 813d 7bf6 383e f815 ecbb 7f0a 4abe
000002a0: 83c0 513c e630 a13d 2272 36be 003b 313d
000002b0: fccc 60be 700b d83d e523 53be 78e5 3b3e
000002c0: da4c 53bd a7b7 07be 0fa7 5fbe 8be9 90be
000002d0: cd85 8d3d 80af 813c 0e56 2ebe 5cd5 44be
000002e0: 5967 45be 435b b4bd 7da2 0fbe 3b7b 1dbe
000002f0: 85a0 1f3e fc19 d63d d7d9 26be b99e 75bc
00000300: be46 b4bd 0485 c03d 95ca 73bd c774 07be
00000310: 28ac 753e 7deb 913d 8f7e fd3d 88bf 5f3e
00000320: 3360 fe3b 3012 d23c af9c d73c 9ed9 8b3e
00000330: aa89 55be c762 9c3d 525d ae3d b195 263e
00000340: 43ae 1e3d 2eed 863e 5dc3 873e 22da 03be
00000350: 2a8c 52be cbdd 003e 68b9 d23d 967c fa3d
00000360: 3a0f 0f3e 8eaf a93e ab0a 163e e823 0a3d
00000370: 697d a53e 4f1e 02bc cf46 80bd 6f8a 84be
00000380: e4d2 963e cc23 d1bd 3119 6ebd e75a 833e
00000390: bfe4 86be e865 133e 698a 0b3a 3752 873d
000003a0: a1de 623e b955 493e f2c6 283e 06c2 5a3d
000003b0: 3dcc 40bd 141c 6b3e 8c69 0f3e eba9 7d3d
000003c0: f354 06bc 30e5 ef3d 7efa 30be 5017 90be
000003d0: 213c 72be 9805 0d3d 0ea7 35be 5b24 0bbd
000003e0: dd13 44be 44f4 473e ee5b 3c3e ac07 2abd
000003f0: 1414 2c3d 8899 443b 9d99 17bd f026 833e

l2.weight f4 [300, 400]
0.052481707 0.05817395 -0.07047861 0.03237528 0.031783897 -0.024700476 -0.049622934 0.024124619
0.021414174 -0.020820532 -0.013567508 -0.015863925 -0.019479744 0.008287944 -0.016300805 -0.028141288
-0.070846826 -0.037670046 -0.023565222 0.051144972 -0.027251218 -0.04371806 0.0071395095 0.02440483
-0.002223763 -0.013563751 -0.047582477 0.03857403 0.023459954 0.004733756 -0.01892585 -0.0033071525
-0.030537408 -0.0315498 -0.038811214 -0.04946014 -0.04455489 0.032398805 0.026653478 -0.009200387
-0.06867447 -0.008620925 0.0077205314 0.048789766 -0.04240683 -0.02810387 0.053672973 -0.006109961
-0.09024381 0.03593878 -0.03105778 -0.04406382 0.011579887 -0.03996943 0.044285256 0.053933498
-0.121434145 -0.007576864 0.00886517 0.029317414 0.0031961838 -0.0046172813 -0.0039377725 -0.0055225915
0.011015063 -0.07067051 -0.045420747 -0.12723824 -0.045984976 -0.04130298 0.013610882 -0.048637453
-0.042835496 0.047055572 -0.021795351 -0.026487412 -0.060752187 -0.18966486 -0.043029092 -0.07605692
-0.022854228 0.0015894305 0.026263854 0.008944338 0.029311245 -0.03646641 0.0437732 -0.051242758
-0.008335022 0.034585904 0.04682022 -0.0055056103 0.01389182 -0.0025190725 -0.060436055 -0.0023957267
-0.08909005 0.0058027687 -0.0078001935 -0.044450875 0.00767513 -0.038748432 0.03451677 -0.056296833
0.023823466 -0.032034125 0.048839968 -0.039932936 0.019715568 -0.023935113 0.006573379 0.029746355
0.029177448 -0.009379914 -0.039430086 -0.050675362 0.054968603 0.04222111 -0.096779175 0.002984307
0.035746794 0.03029561 -0.053142752 -0.010178106 0.008580484 -0.014805034 0.04701968 0.014040673
-0.039961122 0.038648885 -0.0551185 -0.022962444 -0.058000345 0.01876441 -0.086713456 -0.041080583
0.0030711354 -0.025924575 -0.0337367 0.007030703 -0.08188325 -0.012124882 -0.04102014 -0.10443204
0.052191857 0.04749413 -0.03536748 0.017584369 -0.104986675 -0.0036202644 -0.015328293 -0.0070282742
-0.03446165 -0.013108016 -0.04431084 -0.0028558394 -0.0107720615 0.017629107 -0.011992944 -0.026271781
-0.03642398 0.0538001 -0.05047454 -0.08305162 -0.043566767 -0.029867899 -0.01790141 0.0235056
-0.12618554 0.025682531 -0.004243046 -0.038851716 -0.004691016 0.049666837 0.03668587 -0.08726806
-0.057232548 -0.010258058 0.0029651448 -0.03367394 0.05649914 0.00072094053 -0.012902991 0.011476925
-0.03325236 -0.038073618 0.034383908 -0.019779721 -0.0057971305 -0.0106600365 -0.03274247 -0.015208146
0.037277374 -0.009220279 0.046750497 0.03162932 0.01497471 -0.065413535 -0.06536322 -0.03790386
0.00044832652 -0.020686584 -0.07178201 -0.018012863 -0.03752175 0.04714729 0.022110661 0.03550506
-0.015575846 -0.019126147 0.018420953 -0.13945223 0.0391779 0.03198942 0.027705383 -0.028150616
0.03878987 -0.028375756 -0.00735902 0.03747203 -0.0054091383 -0.0065057776 0.018599216 -0.0005682815
-0.03259927 -0.07233911 0.024468336 0.04359263 0.0149830105 -0.014360458 -0.031171119 -0.013780569
0.022193782 -0.018015226 -0.020680152 -0.026454823 0.029282408 0.0017027068 0.02143893 -0.072855346
-0.026770202 -0.057073846 -0.033635046 -0.042261653 -0.014676432 0.02251998 0.05602014 -0.019795144
-0.04117042 0.007220721 -0.025795562 0.036543824 0.016572136 -0.005040595 0.0018781809 -0.009263781
00000000: 0ff7 563d cf47 6e3d 1757 90bd f19b 043d
00000010: d52f 023d a758 cabc 6b41 4bbd fea0 c53c
00000020: c76c af3c d28f aabc 414a 5ebc 10f5 81bc
00000030: fc93 9fbc 28ca 073c 4489 85bc 8f88 e6bc
00000040: 2418 91bd e84b 1abd da0b c1bc 647d 513d
00000050: f23d dfbc b511 33bd 8cf2 e93b a3ec c73c
00000060: 8dbc 11bb 7f3a 5ebc d8e5 42bd cdff 1d3d
00000070: 172f c03c a01d 9b3b 620a 9bbc d0bc 58bb
00000080: 9629 fabc 5d3a 01bd 82f8 1ebd b796 4abd
00000090: 307f 36bd 9cb4 043d 6558 da3c 38bd 16bc
000000a0: 33a5 8cbd c83e 0dbc 83fc fc3b c7d7 473d
000000b0: c9b2 2dbd 163a e6bc 31d8 5b3d 1136 c8bb
000000c0: bfd1 b8bd 8b34 133d e36c febc 447c 34bd
000000d0: 91b9 3d3c fcb6 23bd 7564 353d 5fe9 5c3d
000000e0: 77b2 f8bd 5847 f8bb 383f 113c 132b f03c
000000f0: 1177 513b 904c 97bb 6e08 81bb dbf6 b4bb
00000100: 8678 343c b3bb 90bd 1b0b 3abd be4a 02be
00000110: be5a 3cbd 502d 29bd 2d00 5f3c 1138 47bd
00000120: 4674 2fbd 58bd 403d 2a8c b2bc 21fc d8bc
00000130: 49d7 78bd 8137 42be 463f 30bd bbc3 9bbd
00000140: ca38 bbbc 7054 d03a 4b27 d73c 468b 123c
00000150: 231e f03c cd5d 15bd 874b 333d ede3 51bd
00000160: 9e8f 08bc f3a9 0d3d 8fc6 3f3d 6868 b4bb
00000170: 849a 633c 0617 25bb cc8b 77bd a001 1dbb
00000180: d874 b6bd 2725 be3b c498 ffbb 1f12 36bd
00000190: a87f fb3b adb6 1ebd 7561 0d3d 8297 66bd
000001a0: 6e29 c33c 3736 03bd 6b0c 483d b890 23bd
000001b0: 8b82 a13c 9213 c4bc 8065 d73b a1ae f33c
000001c0: 8b05 ef3c 36ae 19bc 7181 21bd f890 4fbd
000001d0: c226 613d 0bf0 2c3d 2934 c6bd 5d94 433b
000001e0: 3b6b 123d 802e f83c 37ac 59bd 12c2 26bc
000001f0: 2995 0c3c d090 72bc b597 403d da0a 663c
00000200: 46ae 23bd 4b4e 1e3d f0c3 61bd bc1b bcbc
00000210: c591 6dbd d2b7 993c d396 b1bd 1d44 28bd
00000220: 1a45 493b c65f d4bc 7e2f 0abd d061 e63b
00000230: 68b2 a7bd 71a7 46bc bc04 28bd 77e0 d5bd
00000240: 21c7 553d 3489 423d 7edd 10bd 180d 903c
00000250: 4103 d7bd f541 6dbb 8523 7bbc 704d e6bb
00000260: a927 0dbd 01c3 56bc 497f 35bd 0929 3bbb
00000270: 4d7d 30bc eb6a 903c 0e7e 44bc eb37 d7bc
00000280: 5031 15bd 7e5d 5c3d 64be 4ebd f816 aabd
00000290: 1173 32bd 86ad f4bc faa5 92bc d18e c03c
000002a0: c836 01be 2c64 d23c 4009 8bbb fa22 1fbd
000002b0: 18b7 99bb 746f 4b3d ec43 163d 99b9 b2bd
000002c0: ad6c 6abd 6a11 28bc e052 423b afed 09bd
000002d0: a46b 673d 80fd 3c3a 1167 53bc b609 3c3c
000002e0: a033 08bd 15f3 1bbd 24d6 0c3d 1509 a2bc
000002f0: dbf5 bdbb 6fa7 2ebc f81c 06bd 962b 79bc
00000300: 29b0 183d a710 17bc 737d 3f3d bf8d 013d
00000310: 7c58 753c 88f7 85bd 27dd 85bd 1441 1bbd
00000320: 5e0d eb39 e976 a9bc 7202 93bd b68f 93bc
00000330: 68b0 19bd 841d 413d 6b21 b53c c16d 113d
00000340: d531 7fbc 70ae 9cbc 8ae7 963c 91cc 0ebe
00000350: 0179 203d 5707 033d 66f6 e23c 1f9c e6bc
00000360: 20e2 1e3d 4674 e8bc ef23 f1bb 457c 193d
00000370: 243f b1bb 6b2e d5bb 625d 983c baf8 14ba
00000380: d086 05bd 8726 94bd d271 c83c 308e 323d
00000390: 4d7b 753c 2048 6bbc 935a ffbc e5c7 61bc
000003a0: bccf b53c ab94 93bc 6c69 a9bc c9b7 d8bc
000003b0: a9e1 ef3c 5c2d df3a b2a0 af3c 2f35 95bd
000003c0: 2f4d dbbc 44c6 69bd e7c4 09bd 8e1a 2dbd
000003d0: 6b75 70bc d27b b83c 6075 653d 6d29 a2bc
000003e0: 50a2 28bd cc9b ec3b 3751 d3bc faae 153d
000003f0: 4ac2 873c 932b a5bb 4b2d f63a 1dc7 17bc

l2.bias f4 [300]
-0.05752614 0.0074442443 0.0032549964 -0.045694806 0.031471193 -0.012074433 -0.04499037 -0.0078079086
0.024267917 0.027716618 -0.05061383 0.046319257 -0.022457968 0.00023475642 -0.041990686 -0.055004224
-0.050955698 0.03647225 0.01588085 0.022814073 0.023081921 -0.029359734 -0.06733615 0.011269704
0.038211536 -0.014475162 -0.027470665 0.0026877006 -0.015439958 -0.00019378126 -0.048529427 -0.0417831
0.03950799 0.03268975 -0.030698955 0.06598557 -0.0393426 -0.011059064 -0.029254122 -0.030253539
-0.0028448065 0.024985 0.092815705 0.012218296 -0.029893065 0.022674175 -0.0024696952 -0.027994798
0.014127813 -0.040521227 -0.056490745 0.06105795 -0.032413784 0.09728548 0.043716192 -0.029693391
0.02622826 0.035858933 -4.0027615e-05 0.004685128 -0.02942757 -0.0058160448 0.031501774 -0.033506237
0.010901963 0.074334584 0.06389224 0.0395941 0.032514613 -0.00011698592 0.0054194927 -0.027966984
-0.03127441 -0.013440224 0.00281701 -0.011316973 0.02087145 -0.014552525 -0.03830895 0.010697871
-0.016802605 0.002253423 -0.039795086 -0.05972323 -0.032797053 0.03325948 -0.0043408936 0.004482162
0.017035792 0.007517696 0.0192867 0.033787914 -0.0037634326 0.0138920965 -0.009769858 0.047137484
-0.024132317 -0.053786833 0.00091748085 0.0013744356 -0.07265519 0.013136192 -0.07510961 -0.0010352955
-0.024661513 0.01121783 -0.013157985 -0.041627698 0.02877131 0.020371428 -0.037078697 -0.014687041
-0.039006516 -0.060710385 -0.047875877 0.04132131 0.024220264 0.03568388 -0.035077862 0.0105589805
-0.048806023 -0.01809277 -0.016138954 0.04138551 -0.037330825 0.10112548 0.030177683 -0.021920152
-0.037441116 -0.0037677113 0.04031978 -0.0076524788 -0.04822564 0.029425701 -0.013823946 0.0066106617
-0.009703697 0.0012384248 -0.020760985 0.025440443 -0.045759734 -0.05245455 0.038046915 -0.030310977
-0.00826418 0.014156948 0.01632121 -0.07963382 -0.039104868 -0.01915969 0.012449178 -0.04729855
-0.018758137 0.03878091 0.038404863 0.013296708 0.01546162 -0.08495117 0.015112413 -0.027174957
-0.0047175824 -0.04632673 -0.02618596 -0.021383917 0.021952333 -0.0011230484 -0.0025623534 -0.009437442
0.027383056 0.014065144 0.022476556 -0.03305446 0.037083685 -0.010532718 0.044968385 0.022646006
0.09966652 0.0005383178 0.0042856713 -0.03481737 0.010180155 -0.0077335723 -0.04173501 -0.040584084
-0.044506304 0.0031037335 -0.031812616 -0.035868738 0.05076531 -0.037246138 -0.004800998 0.044881094
-0.048169237 -0.05368985 0.032321054 -0.0099843 -0.031214748 -0.06679361 -0.05434179 -0.06401772
-0.051528558 -0.03435883 0.007394177 -0.027020445 -0.0114056785 -0.03186089 0.0039086095 -0.032093067
-0.03397137 -0.024462258 -0.028117465 -0.0045053856 0.1109097 0.025485236 -0.0031100437 0.011829179
-0.038644854 -0.03099449 0.030522974 0.011790547 0.046576854 0.025085011 -0.047084283 -0.030768147
-0.027458318 -0.008255962 0.021438165 0.0054451753 0.0033895161 -0.04619894 -0.020948565 0.045978557
-0.012818914 -0.0022593 0.0016685646 -0.045533344 -0.031772837 0.055564377 0.039361615 0.02025814
-0.044783514 -0.008864902 0.07606557 0.004250279 -0.04321495 0.04325149 -0.03648418 -0.02583471
-0.06447466 0.030037036 0.056865867 0.01744582 -0.03619708 0.071902454 0.028553506 0.011926969
00000000: 88a0 6bbd d9ee f33b c751 553b 7a2a 3bbd
00000010: f0e7 003d d8d3 45bc d247 38bd 7cd9 ffbb
00000020: 83cd c63c f60d e33c 7350 4fbd 43b9 3d3d
00000030: c6f9 b7bc f228 7639 6dfe 2bbd 1c4c 61bd
00000040: ecb6 50bd ed63 153d 8e18 823c 94e4 ba3c
00000050: 4c16 bd3c d383 f0bc 89e7 89bd 91a4 383c
00000060: b383 1c3d 3b29 6dbc 290a e1bc 2224 303b
00000070: e1f7 7cbc c331 4bb9 cbc6 46bd c224 2bbd
00000080: 21d3 213d b0e5 053d 607c fbbc 7123 873d
00000090: b525 21bd 1431 35bc 57a6 efbc 45d6 f7bc
000000a0: ef6f 3abb 58ad cc3c 2916 be3d 3f2f 483c
000000b0: 4de2 f4bc 31bf b93c 9cda 21bb 5955 e5bc
000000c0: 5878 673c 96f9 25bd d762 67bd e717 7a3d
000000d0: 51c4 04bd 9c3d c73d c00f 333d 8e3f f3bc
000000e0: a6dc d63c d1e0 123d 53e3 27b8 b485 993b
000000f0: 1612 f1bc 8594 bebb 0108 013d d63d 09bd
00000100: 269e 323c bb3c 983d efd9 823d 6c2d 223d
00000110: 0b2e 053d 5656 f5b8 0096 b13b 041b e5bc
00000120: 9919 00bd 6334 5cbc 969d 383b d36a 39bc
00000130: 9afa aa3c b76d 6ebc d8e9 1cbd 2046 2f3c
00000140: 9ea5 89bc 2aae 133b 2c00 23bd 58a0 74bd
00000150: 3456 06bd 183b 083d 0e3e 8ebb 1adf 923b
00000160: a58e 8b3c 0157 f63b 24ff 9d3c 3265 0a3d
00000170: eca3 76bb ad9b 633c c111 20bc 3c13 413d
00000180: 23b1 c5bc 954f 5cbd 1983 703a 6826 b43a
00000190: 3fcc 94bd 2f39 573c 11d3 99bd c1b2 87ba
000001a0: f106 cabc fdca 373c 9794 57bc ce81 2abd
000001b0: cfb1 eb3c fbe1 a63c d5df 17bd eaa1 70bc
000001c0: 4cc5 1fbd 74ab 78bd 7f19 44bd 8940 293d
000001d0: 9369 c63c 4329 123d cead 0fbd 93ff 2c3c
000001e0: d3e8 47bd 4a37 94bc d735 84bc da83 293d
000001f0: 35e8 18bd e01a cf3d 3037 f73c e491 b3bc
00000200: db5b 19bd b5eb 76bb 5b26 253d a5c1 fabb
00000210: 4088 45bd 2b0e f13c d57d 62bc 409e d83b
00000220: 41fc 1ebc a452 a23a f112 aabc 7a68 d03c
00000230: 8f6e 3bbd 95da 56bd 15d7 1b3d ba4e f8bc
00000240: 7c66 07bc 8bf2 673c 0fb4 853c 0e17 a3bd
00000250: 6d2c 20bd c8f4 9cbc a3f7 4b3c 20bc 41bd
00000260: aaaa 99bc bbd8 1e3d 6b4e 1d3d 70da 593c
00000270: bc52 7d3c e1fa adbd 0e9a 773c 049e debc
00000280: f395 9abb 19c1 3dbd f083 d6bc 532d afbc
00000290: 61d5 b33c 4033 93ba 28ed 27bb 809f 1abc
000002a0: 6e52 e03c 7d71 663c c120 b83c 1d64 07bd
000002b0: 10e5 173d 6c91 2cbc c530 383d 1e84 b93c
000002c0: f61d cc3d e51d 0d3a d16e 8c3b a99c 0ebd
000002d0: aaca 263c e869 fdbb 54f2 2abd 7f3b 26bd
000002e0: 3e4c 36bd 0268 4b3b f24d 02bd 19eb 12bd
000002f0: 49ef 4f3d 688f 18bd b151 9dbb 3dd5 373d
00000300: 1b4d 45bd e3e9 5bbd 1563 043d 3095 23bc
00000310: 12b6 ffbc 17cb 88bd 7f95 5ebd b91b 83bd
00000320: 9c0f 53bd d8bb 0cbd da4a f23b fb59 ddbc
00000330: e2de 3abc 9180 02bd cb13 803b 0574 03bd
00000340: 9025 0bbd 1365 c8bc 9956 e6bc eaa1 93bb
00000350: a024 e33d 6ac6 d03c e0d1 4bbb 2ccf 413c
00000360: 114a 1ebd 28e8 fdbc 510b fa3c 232d 413c
00000370: 5fc7 3e3d 157f cd3c 73db 40bd 7b0d fcbc
00000380: 44f0 e0bc 0444 07bc 179f af3c 716d b23b
00000390: a522 5e3b 1a3b 3dbd 539c abbc 0354 3c3d
000003a0: 6c06 52bc c410 14bb bdb3 da3a 2c81 3abd
000003b0: 3c24 02bd 7997 633d a539 213d 66f4 a53c
000003c0: eb6e 37bd 183e 11bc 44c8 9b3d ed45 8b3b
000003d0: 2902 31bd 7928 313d 6f70 15bd 50a3 d3bc
000003e0: 4a0b 84bd 3b10 f63c 2fec 683d 89ea 8e3c
000003f0: 6443 14bd 9841 933d 0be9 e93c 5569 433c

l3.weight f4 [6, 300]
0.032347567 -0.03837698 -0.0049429648 0.048960716 0.044545572 0.0024636574 0.020862758 -0.010978137
-0.053132515 0.06649856 -0.038099866 -0.0015851334 0.03642273 -0.05307107 0.02474164 0.024014426
-0.008915647 0.034913123 -0.039441437 0.03365661 0.027879313 0.022188857 0.03242147 -0.03403915
-0.024834614 -0.040470753 0.016885538 -0.05186098 0.047437027 0.0079993075 0.02752318 -0.034315467
0.04127887 0.044659033 0.04563292 0.040137473 -0.016736012 0.026758753 -0.020707676 0.045549195
-0.042671006 -0.032927193 0.01980455 -0.030971901 -0.011408091 -0.03005659 0.015152369 -0.017315336
0.050422177 0.033263136 0.047815897 0.025178391 -0.05150239 0.06836563 0.03120903 0.035116248
-0.02444486 0.013381461 -0.056913387 -0.0020778389 -0.03615898 -0.015497897 -0.05366452 0.051236555
0.022282727 0.06760914 0.06878042 0.0039920136 -0.04945156 -0.0044822167 -0.011904944 -0.03715407
0.007536907 -0.025715392 0.024857722 -0.0018845875 -0.027839605 -0.020218128 0.07690503 0.027917713
0.07805423 0.0018061496 0.01365285 0.027462658 0.039025262 -0.037560835 0.037420247 0.04751949
-0.046489224 0.01101211 -0.025778309 -0.007320944 0.01852853 0.05852829 0.04825912 -6.452948e-05
-0.006553028 0.039977092 0.030497577 -0.011815812 -0.019821191 0.0854322 -0.007686736 0.015275584
-0.017038617 0.019103384 -0.009517954 0.0021731062 -0.020471657 -0.03492684 0.0026676666 -0.022072848
-0.0021247044 0.044783093 0.0011445043 -0.014976423 -0.0470439 0.021520764 -0.0004081831 -0.035148565
-0.050449736 0.015506729 -0.009286533 0.0059417244 0.043823462 0.035478063 0.009334806 0.037239354
0.03149281 0.039690383 -0.052727666 0.033237446 0.04784427 -0.02729605 -0.04133748 -0.007816274
-0.037740435 0.043609448 0.043357532 -0.008997802 -0.041618146 0.04447357 0.020673832 0.043684497
-0.038313266 0.011057579 0.024277648 -0.006946496 -0.02472832 -0.010958955 -0.008545466 0.013052909
-0.021201864 0.068189554 -0.03712627 -0.045406554 -0.015103521 0.033347346 -0.015800366 0.04233551
0.071440786 -0.028327292 0.046438277 -0.028832495 -0.016714042 -0.046531253 0.03151865 0.008518577
0.050310645 -0.04108768 -0.027739648 -0.026818752 0.0020182065 -0.043073226 0.043176774 -0.024315424
-0.042183176 -0.031223113 0.015247301 0.028165594 0.05754746 -0.03980065 0.02044549 0.06295283
-0.0066658575 0.02093198 0.039195627 0.008036077 0.039700978 -0.021591417 0.022395482 0.03704318
0.05045016 -0.011239056 0.008955546 0.042645637 0.04535628 0.034253918 0.049287833 -0.0056110555
0.049342122 0.03979595 0.051024206 -0.01899415 -0.03919001 -0.016114848 0.012600995 -0.045248553
0.022526063 0.051253855 0.005292043 -0.026642865 -0.016262144 -0.043979347 -0.057724576 -0.043862056
-0.04032163 -0.007715995 0.019053092 -0.022539143 0.022989476 0.019763589 0.05124981 -0.011717256
-0.03734939 0.028483745 0.013219364 0.056161348 0.045752216 0.05772783 -0.02108742 0.021910727
-0.046984866 0.00969927 -0.037194476 0.050107792 0.027270459 -0.013768333 0.029441077 0.038577586
-0.020039365 0.0006514266 0.07267074 -0.01403842 -0.0003972162 -0.025407553 -0.0019893125 -0.011955919
3.079329e-05 0.022616308 0.00020511087 0.01907292 -0.016060542 0.019883476 -0.0021829177 -0.011798249
00000000: e27e 043d 2e31 1dbd 98f8 a1bb 088b 483d
00000010: 6b75 363d 5075 213b 60e8 aa3c a5dd 33bc
00000020: 7ba1 59bd 6630 883d 9b0e 1cbd 40c4 cfba
00000030: 0030 153d 0d61 59bd fbae ca3c e7b9 c43c
00000040: ef12 12bc 1001 0f3d 588d 21bd 83db 093d
00000050: 2863 e43c 68c5 b53c 60cc 043d a36c 0bbd
00000060: f671 cbbc a9c4 25bd 8a53 8a3c 2e6c 54bd
00000070: 544d 423d 870f 033c 4b78 e13c 608e 0cbd
00000080: 0814 293d 64ec 363d 96e9 3a3d 3167 243d
00000090: f619 89bc 2c35 db3c 25a3 a9bc cb91 3a3d
000000a0: cbc7 2ebd aade 06bd 273d a23c c9b8 fdbc
000000b0: 00e9 3abc 3d39 f6bc a441 783c e4d8 8dbc
000000c0: 7c87 4e3d ed3e 083d 9ada 433d ea42 ce3c
000000d0: 2cf4 52bd 4803 8c3d 14aa ff3c 0ed6 0f3d
000000e0: 9640 c8bc ea3d 5b3c 031e 69bd 5a2c 08bb
000000f0: 701b 14bd e4ea 7dbc 54cf 5bbd 6cdd 513d
00000100: 448a b63c a976 8a3d c0dc 8c3d 70cf 823b
00000110: b88d 4abd 8fdf 92bb f40c 43bc de2e 18bd
00000120: 29f8 f63b 16a9 d2bc 6ca2 cb3c 4304 f7ba
00000130: e20f e4bc 7da0 a5bc 6280 9d3d b0b3 e43c
00000140: e5da 9f3d 53bc ec3a 34b0 5f3c 5ef9 e03c
00000150: f4d8 1f3d 64d9 19bd f945 193d cca3 423d
00000160: 7c6b 3ebd 236c 343c 082d d3bc 88e4 efbb
00000170: 25c9 973c 5cbb 6f3d 5bab 453d 0054 87b8
00000180: c8ba d6bb 05bf 233d 0ed6 f93c 1c97 41bc
00000190: 0d60 a2bc 14f7 ae3d 04e1 fbbb 7146 7a3c
000001a0: 9294 8bbc b37e 9c3c 31f1 1bbc ac6a 0e3b
000001b0: 2db4 a7bc 720f 0fbd 05d4 2e3b 1ed2 b4bc
000001c0: a03e 0bbb 7a6e 373d 3103 963a ac5f 75bc
000001d0: 1bb1 40bd 504c b03c 6901 d6b9 f1f7 0fbd
000001e0: 62a4 4ebd ef0f 7e3c 8b26 18bc ccb2 c23b
000001f0: 3b80 333d 7251 113d 04f1 183c 4b88 183d
00000200: 9bfe 003d 6292 223d f7f8 57bd fd23 083d
00000210: 5af8 433d f79b dfbc 7d51 29bd d40f 00bc
00000220: b795 1abd d29f 323d ab97 313d 846b 13bc
00000230: ca77 2abd eb29 363d 2b5c a93c 84ee 323d
00000240: 5fee 1cbd d92a 353c ebe1 c63c 6f9f e3bb
00000250: 0c93 cabc 308d 33bc 4802 0cbc dedb 553c
00000260: 88af adbc f7a6 8b3d b711 18bd 39fc 39bd
00000270: c274 77bc 3a97 083d c56f 81bc 0068 2d3d
00000280: 8c4f 923d a30e e8bc 1036 3e3d 2032 ecbc
00000290: e3eb 88bc 8e97 3ebd b319 013d 8091 0b3c
000002a0: 8912 4e3d 8e4b 28bd 423e e3bc 00b3 dbbc
000002b0: e343 043b 8d6d 30bd 21da 303d 2431 c7bc
000002c0: 44c8 2cbd 9dc7 ffbc d1cf 793c 88bb e63c
000002d0: e3b6 6b3d 0206 23bd 4d7d a73c 6aed 803d
000002e0: 446d dabb 8b79 ab3c 988b 203d c0a9 033c
000002f0: 7e9d 223d 7ce0 b0bc bb76 b73c 97ba 173d
00000300: d4a4 4e3d 0424 38bc 48ba 123c 31ad 2e3d
00000310: 82c7 393d d64d 0c3d 0ae2 493d f2dc b7bb
00000320: f71a 4a3d 1401 233d c2fe 503d 9f99 9bbc
00000330: b485 20bd 4903 84bc 6774 4e3c 8c56 39bd
00000340: 9488 b83c 90ef 513d e068 ad3b 2342 dabc
00000350: 3038 85bc b023 34bd 9b70 6cbd b3a8 33bd
00000360: 4b28 25bd 75d6 fcbb 3b15 9c3c 02a4 b8bc
00000370: 6d54 bc3c 40e7 a13c 52eb 513d bcf9 3fbc
00000380: adfb 18bd be56 e93c 0896 583c 7109 663d
00000390: ad66 3b3d 0474 6c3d 86bf acbc 207e b33c
000003a0: 3473 40bd b0e9 1e3c 3c59 18bd d43d 4d3d
000003b0: 4c66 df3c 9394 61bc 6a2e f13c 8803 1e3d
000003c0: 9829 a4bc 80c4 2a3a 66d4 943d 6701 66bc
000003d0: 7541 d0b9 8023 d0bc 205f 02bb c2e2 43bc
000003e0: 0b28 0138 d645 b93c 0813 5739 d03e 9c3c
000003f0: 6691 83bc ace2 a23c 480f 0fbb 714d 41bc

l3.bias f4 [6]
0.006821426 0.031954847 -0.0063981614 0.016935319 -0.084548295 -0.0619969
00000000: 4586 df3b 16e3 023d aba7 d1bb f0bb 8a3c
00000010: a827 adbd 76f0 7dbd
