2019_test_data/triple_assembly/Average_TD3_Peg-in-hole-single_assembly_seed_4/_actor.pth (torch_old, 510312 bytes, 6 tensors)

l1.weight f4 [400, 12]
00000000: 5f6a e2be 8482 383d 6848 263e 83a0 4f3e
00000010: aa52 f6be 1ada afbe 32ae 90be 3016 2d3f
00000020: 8455 cf3d 4d55 e73e 584a ea3e 88ee bbbe
00000030: a3d3 413e 4989 043f ad52 2ebd 2db2 69be
00000040: 6c44 113f e90e dd3e 1232 1a3d 3c26 abbf
00000050: c8ae 76bd 5731 c1be 2d43 9bba bd91 733e
00000060: 5c5a 883f babe f6be b4ca fa3d cbcb 8d3e
00000070: 8d22 4ebf 4a12 543f 0203 1f3f 67db b5be
00000080: 9ce2 d3bd f84b d53e 9288 e13e 0251 0b3f
00000090: 089a e6bd 1a39 4a3e bc59 6e3e 78f5 9b3d
000000a0: d88c b53d 9cf1 5a3e d687 813e a8f4 3abe
000000b0: 442f f3bd 84e3 783e 4ca9 1f3e 28b3 0abe
000000c0: a7a9 e13e 692e 1040 437a d5bc d86b d4bf
000000d0: cb02 1cbf f2c4 09bf 9a51 4dbe 7392 1e3e
000000e0: 3f34 013d e5a4 023e 31fb b2be 5d6f d7bc
000000f0: e00d 52be 4db2 763e 1b35 e8bc 1f71 013f
00000100: 6d2c 0cbe 65f2 02bf d16d db3e 999d 20bf
00000110: fba6 5c3d 22e5 043e 1b8c 86be a95b 0abf
00000120: 28ad 5ebf cd63 16bf 2c65 063e f77f 413f
00000130: 9d57 403f 15a9 b2be cdf6 bcbb abb7 c9be
00000140: 5d67 b4bc b958 e03e 171a cf3e 07e4 95bc
00000150: 1b4c 1ebf 4383 153f de3a 6c3e 6d7d b8be
00000160: 0410 febd 55d2 70bf ed87 81be 2db4 61bd
00000170: cd80 633e b14e 303e a1ff 413f 0954 1ebf
00000180: 6ac3 8fbe 48c3 103e 9c91 8e3e 4050 57be
00000190: eace 14be 0419 7d3e 94e0 663e d02d e2bc
000001a0: 8cb9 28be e0c4 583d 45c3 90be 4485 e9bd
000001b0: 73df 6cbd db44 f4bb fe0e 3d3e b42f 37bb
000001c0: b255 69be 6430 04bd 216b bd3c a448 f83d
000001d0: e02f 2ebd 94a4 06be 7525 cd3d 6ded e23d
000001e0: 7ff5 81bb cfad 9abb 63bf 2dbd 7a3e b13e
000001f0: 3c9c dabe b4c3 40bf ddd6 a9be 4fb1 a03e
00000200: 5bbf f23c 6b68 ac3e c69e 123f 4149 003f
00000210: 66d1 75bd 11ea e23b 8063 233e defb 09bd
00000220: 308e 813e 2e1b 4f3c ead7 ff3d bcec 15be
00000230: 3bb1 35bd 83c3 1e3e 1446 65be 5926 143e
00000240: 758d 84bf 8910 273e 9f36 fe3d 9d97 91be
00000250: 7fc7 b03f 9eae af3f 1f29 42bf b234 d53e
00000260: 89fb a0be 9ee3 9f3e 734f d03e 2234 41bf
00000270: 0623 41bf 0e0d 6a3f 881f bc3d 2cbb 46bf
00000280: 6768 a1be 4659 74bf 4641 55bf a20a 323e
00000290: 55b6 23bd 3cc3 34bb 655c 723e 2d27 ff3e
000002a0: ab71 1cbf 40e4 bcbe c931 d23e 1e53 9a3e
000002b0: da53 f73e ea87 15bf 7d37 10be a0cc ba3e
000002c0: b4e4 683e e1ca 193f 582d 80bd 9c2e fdbd
000002d0: c295 b13f 1023 85bd 03f9 76bc ff05 b63d
000002e0: 4c85 57bf d6e7 2bbf d49c 343e ef67 59bd
000002f0: d9e0 db3d 0842 6fbf 107a 76bf 5fb1 c93e
00000300: ac47 a03f 4042 cdbe 3bf6 4f3d 07c1 c03e
00000310: 0a70 07bf 0523 c9be 9ec4 403e c435 cbbe
00000320: 3609 6c3d 8cc7 09bf 7149 503e ee65 033f
00000330: 5920 12bf bd31 f33e 4ce2 fb3d da4b c3bd
00000340: 4953 073f 90f3 253f 3c73 2f3f 40b4 05bf
00000350: 98a4 803d 0919 babc 423e 8fbe 0298 0bbf
00000360: 610a cb3d 7a48 883f 6b05 9f3d 00ba 58bf
00000370: 6948 9f3e 08d0 743d a024 43bf 9a3e b9bd
00000380: 7935 b1bc dee7 13be 799b c5bd 6b1f 67be
00000390: 5e99 e83e 3385 243f 0518 32bd 2e72 81be
000003a0: b64f 2bbe 5205 11bf f188 073e fc58 553e
000003b0: b369 fcbd dbee d93e 4c66 53bf fa32 bf3d
000003c0: 84de a4bf 672a e33e 4925 86bb 9dd7 21be
000003d0: da3b 6b3f 582f 033f 5db2 76bf e926 a2be
000003e0: 00c4 4f3d 261d 81bd 2072 13bf 8077 6f3e
000003f0: 6d90 d6bf d57f 303f 17ae be3c 1a39 67bf
-0.4422178 0.045046344 0.16238558 0.20276074 -0.48109943 -0.34346086 -0.282579 0.6761198
0.10123733 0.45182267 0.45759845 -0.36705422 0.18928389 0.5177198 -0.042559315 -0.22821875
0.5674503 0.43175438 0.037645407 -1.3371043 -0.06022528 -0.37732956 -0.0011845581 0.23786063
1.0652575 -0.48192388 0.12245694 0.27694544 -0.8052147 0.82840407 0.62113965 -0.35518953
-0.10345957 0.41659522 0.44049507 0.54420483 -0.11259848 0.19748345 0.23276418 0.07615179
0.088647544 0.21381229 0.25298947 -0.18257391 -0.118742496 0.2430554 0.15591925 -0.13544905
0.44074747 2.2528327 -0.026059275 -1.6595411 -0.6094176 -0.5381614 -0.2005066 0.15485553
0.031543966 0.12758215 -0.3495727 -0.02629822 -0.20513105 0.24091454 -0.028345635 0.50563234
-0.13688822 -0.51151115 0.4285722 -0.62740475 0.053870182 0.12978032 -0.26278767 -0.5404611
-0.86982965 -0.58746034 0.13124532 0.75585884 0.7513369 -0.34894624 -0.0057667256 -0.3939794
-0.022021944 0.4381769 0.40449592 -0.018297208 -0.6183488 0.58403414 0.23069331 -0.36033192
-0.124053985 -0.9407094 -0.25299016 -0.05510347 0.22217102 0.17217518 0.75780684 -0.6184698
-0.28078777 0.14136994 0.27845466 -0.21026707 -0.14532056 0.24716574 0.22546607 -0.027609736
-0.1647703 0.05292213 -0.2827398 -0.114023715 -0.057830285 -0.0074544973 0.1846275 -0.0027952017
-0.22786596 -0.03227271 0.023122372 0.1212323 -0.042526126 -0.13148719 0.1001691 0.110804416
-0.003966033 -0.0047204266 -0.04241885 0.34617978 -0.42697322 -0.7529862 -0.3317174 0.31385276
0.029632261 0.33673415 0.5727352 0.50111777 -0.06001415 0.0069248755 0.15955925 -0.033687465
0.25303793 0.0126407575 0.12492354 -0.14641088 -0.044358473 0.1550427 -0.22390014 0.14467753
-1.0355669 0.16314901 0.12412762 -0.28435984 1.3810881 1.3725164 -0.75843996 0.41641766
-0.31441906 0.31228346 0.40685615 -0.75470173 -0.75444067 0.9142617 0.091857016 -0.7762935
-0.31524965 -0.9544872 -0.83302724 0.17386869 -0.039968807 -0.002758219 0.23668058 0.49834576
-0.61110944 -0.3689289 0.41053608 0.30141538 0.4830616 -0.58410513 -0.14083667 0.3648424
0.22743493 0.60075194 -0.06258649 -0.12362406 1.3873827 -0.06500828 -0.015074017 0.088878624
-0.8418777 -0.6715063 0.1763795 -0.053077634 0.10736246 -0.9346013 -0.9628 0.39393136
1.2521873 -0.40089607 0.050771933 0.37647268 -0.52905333 -0.3928453 0.18825004 -0.39689457
0.05762597 -0.5382011 0.20340516 0.5132741 -0.5708061 0.47498885 0.12299022 -0.09535952
0.5286146 0.6482477 0.6853521 -0.52228165 0.06281394 -0.022717016 -0.27977186 -0.5452882
0.09914089 1.0647118 0.07764705 -0.84658813 0.31109932 0.059768707 -0.7622776 -0.090451434
-0.021631943 -0.14443919 -0.09648795 -0.22570579 0.4542951 0.64265746 -0.043479938 -0.25282425
-0.16729626 -0.56648743 0.13235833 0.20834726 -0.12324848 0.42565045 -0.8257797 0.09335895
-1.2880406 0.44368288 -0.0040938 -0.15804906 0.918882 0.51244116 -0.9636591 -0.3167031
0.05072403 -0.06304388 -0.57596016 0.2338543 -1.6762825 0.68945056 0.023276372 -0.90321505

l1.bias f4 [400]
00000000: 1597 afbe bf02 403f ff4b 1d3f a01e 70be
00000010: c774 8a3d 99cf abbf a61b 3f3e e906 b33d
00000020: 204f 2e3d 09f0 3d3d 0702 97be 0372 3a3e
00000030: 39d8 253f 3b24 76be d872 0f3e fba7 79bf
00000040: 17f8 e6be 3c0b 66bf e93c 7d3e 1637 99bf
00000050: 68fe 88be de44 25bf e68d bd3d 89ea 1ebe
00000060: 02b4 41bf 3a00 94bd d4c2 35bf 684a dcbe
00000070: 3d52 96be 8267 7e3e b232 23bf a370 16bc
00000080: aeb3 0f3e 2e62 27bf 7c06 93bf f65f b03d
00000090: e93c c73e d2f5 443f 8a3a 4ebe e701 d2be
000000a0: 0c0e 953e 760b cabe 368b 19bf 41c4 02bf
000000b0: 7dbe e0be e45c 00be 5b16 773f 7b20 24be
000000c0: 2dd5 ecbe edf1 49bf 631a 93be fdf4 81be
000000d0: b63f 863e 2880 78bf d4e5 0dbf 1b1f 26bf
000000e0: d00f 56be 274c 5dbf e33a 2b3e 2f83 9fbe
000000f0: d4a0 3ebf f048 593f b0ec a7bc 9aec b6bd
00000100: ae57 e8bd 11e1 df3e ad2e 33bd 3782 58be
00000110: 038b ae3e f703 613e f3b8 7f3f 3a5e c63e
00000120: 5424 203f 428f 8d3e 0650 eabd 0399 72bf
00000130: ce8d 303e 41de e8be c6d0 2e3e 2973 e13e
00000140: 32b6 9b3d a431 333e abaa 27bf 5da1 783e
00000150: f39f e13e eb45 82bd a5ac 1c3d 2f93 99be
00000160: 63d8 39bf 06f8 d43e 3a90 35bf ba6d 2bbe
00000170: 1c0f b8be 7e54 2a3f 049a 36bf 06eb fc3d
00000180: da5f bebe 71fc 18bf b6f9 b83d 53f9 31bf
00000190: 46b3 243e 4f32 913f 9b37 df3e e535 18be
000001a0: a080 fcbe 860e 77bf 205b 39bf 133f edbe
000001b0: 2a70 193e 290c 4abe 8e1d bb3d 06b2 f93d
000001c0: 46fe 7d3e 7060 7f3f baa8 14bf 14d6 14be
000001d0: f893 3bbe de19 4f3f 6f07 0abf 6c94 303f
000001e0: b6e7 87be 4cb0 2e3e 841c a0be 80cb 1f3e
000001f0: a385 243e 51af 1cbf 9d92 1dbf 7df3 93be
00000200: efde 87be 7e22 47bf 97df 9fbe c88b 793f
00000210: 2d44 88bf 4e99 e8be d5f3 e83d 5d48 753d
00000220: dea4 9ebe e0a0 35be a2e7 363e a9ec 4dbf
00000230: bd15 98be da86 233e 976d 9cbe 651b 973e
00000240: b53c 3cbf b165 cfbe 9b40 a53c d5db 78be
00000250: 53bc 873f e633 0fbf 3286 e4be f467 10be
00000260: 8f46 cebe d186 3cbe 8cc2 f0be 6395 98be
00000270: 56f9 253e a3e9 40bf 5aaa 9ebe 06e1 583f
00000280: 96c9 883e b91c 32bf 5417 cc3e cff2 27bf
00000290: 8c42 34bf 0494 11bf 9164 493f 3c07 f2bd
000002a0: 2265 9cbc 780c a3be 4b40 8dbd a1f0 e03d
000002b0: be15 053f 3a03 543f fc3f 98bf f532 ebbe
000002c0: b75e 4abe 735f 92be 84d7 50bf a7f1 8cbd
000002d0: 7131 393f 1fd1 283c 8dc7 8cbf d60a 85bf
000002e0: 29fa 3cbf 983a babe b8c1 833e 6435 1b3f
000002f0: 575b 63bf 58ed 8d3e 44f9 7cbe 0779 603f
00000300: b068 64bf de41 653f aefa babe 8a92 c73e
00000310: 083d 01be 77f8 3fbf 0767 64be a6dc 0fbf
00000320: a155 b93d 93a0 8f3e 1431 23bd fbd0 7abe
00000330: 1b09 d4be d98f b3be f4c1 c73d e41a fbbe
00000340: 518c 913e b7ad 19be 1082 82be d961 d23d
00000350: 5f7f 8ebf 95a3 0d3e 1ffd 73bf b6ba a8bd
00000360: 56cc d43d 74d9 1abf 25a9 39bd 4e9f 11be
00000370: 25f6 013f 444b dbbe 4492 90be 61d2 493f
00000380: 78a8 91bd 026d d5be f1f4 bd3e 6f7d 27bf
00000390: 174b 93bf e3a4 363f 1e87 08be 1e9e c03d
000003a0: f4f3 49bd b0c5 e73c 50b3 89be 8b8a 383e
000003b0: e64c 4d3e c393 623f d5c4 d83e 9148 5abf
000003c0: 18eb 03be 7d4b 473f d78f 5abf 18e1 723e
000003d0: d674 df3e cd2c acbe c7d7 58bf cf14 a1bf
000003e0: e5fd 473b d619 903e 3eed 6abf ce42 68bd
000003f0: f2c5 2bbf 7093 183e 853b 04bf 034a 3d3f
-0.34294954 0.7500419 0.61444086 -0.23449183 0.06760555 -1.3422729 0.18662891 0.087415524
0.04255593 0.046371493 -0.29493734 0.18207555 0.64783055 -0.24037258 0.14008653 -0.9752194
-0.45111153 -0.8986089 0.24730267 -1.1969936 -0.26756597 -0.6455821 0.092555806 -0.15519156
-0.75665295 -0.07226606 -0.7100041 -0.43025517 -0.29359618 0.24844173 -0.6374923 -0.009182128
0.14033386 -0.65384185 -1.1486354 0.08612053 0.38913658 0.7693759 -0.20139518 -0.41017076
0.2911228 -0.3946187 -0.59978044 -0.5108071 -0.4389533 -0.12535435 0.96518487 -0.16028015
-0.4625639 -0.78884774 -0.2873107 -0.25382224 0.26220483 -0.9707055 -0.55428815 -0.64891213
-0.2090447 -0.86444324 0.16721682 -0.31154773 -0.74464154 0.8487692 -0.020498604 -0.08931847
-0.113448486 0.437264 -0.043745685 -0.21143423 0.34090433 0.21974169 0.99891585 0.38743764
0.6255543 0.2764836 -0.114410445 -0.9476473 0.17241594 -0.45482066 0.17071828 0.44033173
0.076031104 0.17499405 -0.65494794 0.24280305 0.44067344 -0.06360992 0.038250584 -0.29995105
-0.72595805 0.41595477 -0.709232 -0.16741076 -0.35949028 0.66535175 -0.7132876 0.12349515
-0.37182504 -0.59760195 0.090320036 -0.69521064 0.16084012 1.1343478 0.4359711 -0.14864309
-0.49316883 -0.96506536 -0.7240467 -0.46337184 0.14984193 -0.19731201 0.091364965 0.121921584
0.24804029 0.99756527 -0.58069956 -0.1453479 -0.18318164 0.80898845 -0.5391759 0.68976474
-0.2654397 0.1705944 -0.31271756 0.15604973 0.16066603 -0.6120501 -0.6155184 -0.28896704
-0.26537272 -0.77787006 -0.31225273 0.97478914 -1.0645806 -0.45429462 0.11374632 0.059883464
-0.3098516 -0.1773715 0.17861798 -0.8043924 -0.29704085 0.1596941 -0.3055236 0.29513088
-0.7353013 -0.40507272 0.020172408 -0.2430261 1.0604347 -0.55938566 -0.44633633 -0.14102155
-0.40288207 -0.18410803 -0.47023427 -0.29801473 0.16208395 -0.753565 -0.30989343 0.8471836
0.26716298 -0.6957508 0.39861548 -0.6560487 -0.7041404 -0.5686648 0.7866908 -0.11817786
-0.019091193 -0.3184545 -0.068970285 0.10983396 0.519863 0.82817423 -1.1894526 -0.45937315
-0.19762693 -0.28588447 -0.8157885 -0.06882029 0.72341067 0.010303765 -1.0998398 -1.0393932
-0.73819214 -0.36372828 0.25733733 0.6062834 -0.8881125 0.2772014 -0.24704462 0.87684673
-0.8922224 0.8955363 -0.36519378 0.38978988 -0.12620938 -0.749885 -0.22304927 -0.5619606
0.090495355 0.28052196 -0.039841726 -0.24493782 -0.41413197 -0.35070685 0.097537905 -0.49043953
0.28427365 -0.15007673 -0.25489855 0.10272569 -1.113262 0.13831933 -0.9530811 -0.08238737
0.103905365 -0.6048806 -0.045327324 -0.14220926 0.5076621 -0.4283086 -0.28236592 0.7883664
-0.07112211 -0.4168473 0.37100938 -0.6542577 -1.1507291 0.7134535 -0.13332793 0.094051585
-0.049304917 0.028292507 -0.26894617 0.180216 0.20048866 0.88506716 0.4233767 -0.8526698
-0.1288265 0.7784956 -0.8537573 0.23718679 0.43643826 -0.3362793 -0.8470425 -1.2584475
0.0030516323 0.2814471 -0.9176825 -0.056704335 -0.67098916 0.14899993 -0.5165332 0.7394106

l2.weight f4 [300, 400]
00000000: 676b 8ebb 3935 313d 6a1f a23c 5413 5fbc
00000010: 42e1 c23c 4a8a 7b3c 2dd9 5abd 565a 97bc
00000020: d918 413d a5ac 443d 1e5c fcbc b043 9a3b
00000030: 8ad7 22bd 329b 913c 3141 103d 8a96 3ebd
00000040: e0b1 e4bc 804c 75bb c0fb c23b 9171 3bbc
00000050: 64ff 81bd 1e41 75bd 68db f33b 09c4 4a3d
00000060: 1cde e83b 0280 a5bc cc2a 22bd dd4b 2abd
00000070: b3bf 7fbd 702a dbbc 21dd 7ebd 4204 e63c
00000080: 2610 f53c 00a2 0139 05eb 17bd 9a22 fcbc
00000090: 2f01 9d3c 1cb1 153c 027c a73c b46c 00bc
000000a0: e12f 81bd 54d3 8fbc 7cd1 02bc dbae 163d
000000b0: be1a f7bc 0095 b0bc 3b8e 8ebd 81e5 2d3d
000000c0: 3395 303d d6ba 14bd 6418 743c 5856 a7bb
000000d0: 76a4 8abc a958 88bd 320b c23c fe6d ce3c
000000e0: ea1e cf3c d72a 0bbd 8478 88bc 0cbb bebc
000000f0: de31 bf3c c158 ad3c 8c01 013c 9878 f6bc
00000100: 8201 ff3c fa84 ecbc dd62 65bd 40f3 8bbd
00000110: a266 933c 07ba 45bd 1441 713c 738b e43b
00000120: cd0f f6bc 965b 203b 1df4 fdbc 625b c13b
00000130: fd0c 4cbd ca27 a9bc 9948 33bd 462c 94bc
00000140: 1b15 0b3d 0b66 3a3d e1a5 e7bc b30c 1ebd
00000150: 1cef 20bd 5e94 d53c 625d a3bc 98ae 283c
00000160: d0da 98bc a4cd 44bc 17d4 393c df3d 0e3d
00000170: af48 2c3d 3236 2fbd f029 55bc 3103 25bc
00000180: 8051 ec3b b3c2 3cbd 72d2 df3c ebec aabc
00000190: ce48 1fbd 4089 e8bc e099 863d a3f3 98bc
000001a0: 88c4 063c 9d5c ffbc 9021 3abd 4aa0 14bd
000001b0: 10dd b7bc 0074 193a fadb 873c d8f4 393c
000001c0: 3dc4 f6bc 19b6 1cbd 2011 a0bc 4ce3 173c
000001d0: e64d 933c 5502 58bd 96f7 d3bc e63c 863c
000001e0: f2ec ff3c 2406 5c3c ac20 6ebc 1cdf 81bd
000001f0: 2c39 3f3c a85f b9bb 05c6 80bd 6791 1f3d
00000200: 28ce 4cbc 6210 0fbd 6170 303d 0f5b 6ebd
00000210: 92b7 9b3b 2ca8 293d 51cc fbbc 97e1 d9bc
00000220: 615d eabc 963a 883c adf9 1f3c 7850 75bc
00000230: 9229 a2bc 0533 133d e6f1 8cbc 3405 7dbc
00000240: 19e6 993c 829c a23c 57e3 223d 7a4c a43c
00000250: 10f9 0cbc a04f a6ba 003c c9bb 5e6f ca3c
00000260: 91e5 26bd 0370 d7bc acea 4cbc 9dd4 303d
00000270: fbea 57bd f276 c63c a602 84bc a1b5 bebb
00000280: 26a0 22bd adec d4bc c2d3 5ebd 0454 6a3c
00000290: 38fd 243c 099c 023d 2aab 243a 89d4 113d
000002a0: 8d7f 14bd c8b9 39bd e0df 6dbb a91f f4bb
000002b0: 4648 72bc 92fd 77bd 076f ccbc 47ff 41bd
000002c0: a3c5 903c ec57 253c 25aa 08bd c832 133c
000002d0: 66fc 20bd ae45 0cbd c06d 263c dd7f 00bd
000002e0: 6afa dfbc b22b 0dbd d880 d73b bcbd 6d3b
000002f0: 6aa3 0cbd d9d4 acbb 2832 eabb 8e75 3bbd
00000300: b3b4 79bc 4e18 c03c 26e4 d03c 5863 0ebd
00000310: b043 48bb 5cc9 b83c c726 ccbc 64e6 48bd
00000320: 10ad 37bd 8c41 7ebc fd34 443d 5e9b a43c
00000330: 125f be3c 607e 243b 7212 ff3c d427 03bd
00000340: b431 48bd 7762 bfbc e0f6 32bd 49b8 243d
00000350: db4e d4bc 0284 3bbd 7bd9 72bd 1f52 fa3b
00000360: bac8 8f3c 8a37 89bc cb46 67bc 75cb 26bd
00000370: a053 99bc b0cc 303b 8a0a e4bc 4593 28bd
00000380: 164d e13c 51ed 273d 8088 74bc d32b 433d
00000390: ab8b 1bbd 7669 4dba 11e9 3f3d a058 0cbb
000003a0: d0a3 033b 959b 07bd 539b 1bbd b410 96bc
000003b0: ea8a 94bd 221d 1abd 092d b23c 3179 74bc
000003c0: 7adf 9bbc b99b 18bc 2622 1bbd b399 babc
000003d0: 7b59 89bd 889c 09bc ea01 d63c 893b b8bc
000003e0: 7fcc 47bd d083 373b 288b 97bc 8c87 ffbc
000003f0: 043a 0abd d6ff c73c 8594 8abd f340 02bd
-0.0043462995 0.043263648 0.01979037 -0.013615448 0.023789052 0.015352795 -0.05342977 -0.018475693
0.047142837 0.04801621 -0.030805644 0.004707776 -0.039756335 0.017774198 0.03521842 -0.046530284
-0.027916849 -0.003742963 0.005950421 -0.011440651 -0.0634754 -0.059876554 0.0074419267 0.04950336
0.0071065556 -0.02020264 -0.039591596 -0.041576255 -0.062438678 -0.026753634 -0.062222604 0.028078202
0.029914927 0.00012362748 -0.037089366 -0.030778218 0.019165603 0.009136464 0.020444874 -0.007838417
-0.0630796 -0.017556824 -0.007984515 0.03678785 -0.030164119 -0.021555424 -0.06960722 0.0424552
0.043111037 -0.036310993 0.014898393 -0.0051067285 -0.016924124 -0.066575356 0.023686979 0.025198933
0.025283296 -0.033976402 -0.016659029 -0.02328255 0.023339208 0.021160485 0.007873904 -0.0300868
0.031128649 -0.028872002 -0.056002486 -0.06833506 0.017993275 -0.048273113 0.0147249885 0.0069746315
-0.030036831 0.0024468652 -0.031000191 0.0059007863 -0.049817074 -0.020648856 -0.043770406 -0.018087517
0.033955675 0.045507472 -0.02827734 -0.03858633 -0.039290532 0.026071724 -0.01994199 0.010295533
-0.018659025 -0.012011919 0.01134207 0.034726974 0.042061504 -0.042776294 -0.013010487 -0.010071562
0.007211864 -0.046084117 0.027322028 -0.020864924 -0.03888779 -0.028385758 0.06572318 -0.018670863
0.008225568 -0.031172091 -0.045442164 -0.036285676 -0.022444278 0.0005853772 0.016584385 0.011349879
-0.03012287 -0.0382596 -0.019539416 0.0092705 0.01798148 -0.0527366 -0.025874894 0.01638646
0.031240914 0.013429198 -0.014534157 -0.06341383 0.011671346 -0.005657155 -0.06287769 0.038957026
-0.012500323 -0.034927733 0.043075923 -0.05819231 0.004752108 0.041420147 -0.030737074 -0.026596827
-0.02860898 0.016629498 0.009764117 -0.0149727985 -0.019795213 0.035937328 -0.01720519 -0.015443135
0.018786477 0.01985002 0.03976759 0.020055998 -0.008604303 -0.0012688525 -0.0061411858 0.024711307
-0.040746275 -0.026298529 -0.012507122 0.043171514 -0.05271433 0.02422664 -0.016114544 -0.0058199917
-0.03970351 -0.025991762 -0.054401167 0.014302257 0.010070138 0.031887088 0.0006281609 0.03560308
-0.036254454 -0.04534319 -0.003629677 -0.0074500632 -0.014787739 -0.060544558 -0.024955286 -0.047362592
0.017672366 0.010091763 -0.033365387 0.008984275 -0.039303206 -0.03424614 0.010158002 -0.03137194
-0.027341086 -0.0344655 0.0065766387 0.003627642 -0.03433553 -0.005274397 -0.0071470924 -0.045766406
-0.015240836 0.02344909 0.025499415 -0.03476271 -0.0030557923 0.022556953 -0.024920834 -0.049047843
-0.04484278 -0.015518557 0.047902096 0.020093616 0.023238692 0.002509974 0.031136725 -0.032020405
-0.048875526 -0.023362381 -0.04369247 0.04021481 -0.025916507 -0.04578019 -0.059289437 0.007639184
0.017551769 -0.016750116 -0.014115999 -0.040721375 -0.018716633 0.0026977472 -0.027837057 -0.041156072
0.027502578 0.040997807 -0.014925122 0.047649216 -0.037974995 -0.00078358443 0.04685313 -0.002141513
0.0020086654 -0.03310736 -0.037989926 -0.018318512 -0.07253058 -0.03762544 0.02174999 -0.014921472
-0.01902746 -0.009314471 -0.037874363 -0.022778368 -0.0670652 -0.008399136 0.02612396 -0.022489326
-0.048779007 0.002800215 -0.018498972 -0.031192563 -0.033746734 0.024413984 -0.06766609 -0.03180022

l2.bias f4 [300]
00000000: 6789 653c efc8 8dbc f88a b0bc 7bb2 c8bd
00000010: bbdf 67bd 757b 35bd a552 0d3c 626a 34bd
00000020: 6142 873e 44d8 22bd a0ba 3b3c bea4 1dbc
00000030: 6393 a9bd ef48 e0be 2817 13bd 68e5 bfbe
00000040: f23d 6abc 8f56 46be 2895 233e e089 88bd
00000050: c632 e43c bab6 16bd adb6 833d 9b4a e1bc
00000060: c532 763e 946c 5fbd fb3a 8abd 6b47 4fbc
00000070: bdbf 52be b38a 243c c0d8 a6bb 5496 c23a
00000080: 1c69 ecbc 0ee9 0bbd db04 5abd 15f7 bfbc
00000090: cabe 83bd 06a0 a6bd cd23 7dbe 0392 9dbd
000000a0: 5c2f 79bb e948 253d 8c45 743c a93c 42bc
000000b0: b275 5abc a5d5 b9bb b15a 84be 6cd4 0fbd
000000c0: 3bca b6bd ebc6 cdbd b9ca 163e 79ad 09be
000000d0: 752d 47bd a814 efbd a914 593e abd1 c63e
000000e0: fe65 5cbd f809 06be a3a7 5fbd 25be 81bd
000000f0: 1e3c adbe 8196 3bbe a7ee 423d 3c3a a2bd
00000100: 9fe8 27bc af9a 3cbd 2aa6 303f f720 acbb
00000110: b4c7 2abe c787 c83e 6c4d 9fbd 3761 fe3c
00000120: bc63 c6be e478 3cbd 5bf6 5f3e 6fcb 49bd
00000130: d1e5 593e 6184 48bd 7da3 b4bd 25de 9dbd
00000140: eb95 523c f194 e5bd afee 053c 72d5 ffbd
00000150: a70c b7bc 1cb1 87bd b11e 9dbc c3e7 e4bc
00000160: 99ea 0cbd feb0 2bbc 460b 21bd 6f9a e1be
00000170: d9c7 92bd e8dc b2bd 16ed 39bd 97df d93d
00000180: 343f 8ebb 5428 15bd 26f7 a7be c053 c33d
00000190: 1fd8 40bd 8321 03bd 3f0d 153f cff5 a13e
000001a0: a54a a5bd 0789 a13e d732 40be 42d0 1c3f
000001b0: e7b6 06be 59f8 19bb 6200 4dbd e7ee b43e
000001c0: 349d 6b3c f423 9ebd e25e 84bd 2e47 a0bd
000001d0: a868 82bd e355 bbbd 516e 6abd 7f3a aabd
000001e0: b599 e7be 546a 133e b072 e7be e322 48bd
000001f0: fbed 77bd 1a04 46be cfc1 b73e 3a5a 95bd
00000200: 19e0 35bd 2d96 193c 4c6a 52bd 1d96 c43d
00000210: 2ce7 5cbc 46f6 053f 912f 1bbd cd32 eabc
00000220: 4710 01bf d2d6 03bb dece d5ba 5e42 8dbd
00000230: a19b 4abe aab1 873b bf07 69bd 15a7 9bbe
00000240: 2f36 6ebc 244a 343e dabf acbe 3c00 80bb
00000250: 5814 2fbd 7357 38bd 6723 46bb f476 993d
00000260: bce2 b1ba 1426 ffbe 9bac b4bd e16b c6bc
00000270: 3470 f8bd 95ef 043f 6d2d cfbe 6c37 ff3d
00000280: cd31 b5bd 895d 47be 10b4 6fbd 95fb 80bd
00000290: fe3c f4bd c493 06bd 8302 42bd 6830 8e3e
000002a0: 9f28 47bd 3e86 eebd c38e 12be 0c2d 6fbc
000002b0: 1d5c ac3c 1b71 acbd 461b c6bc eb41 48be
000002c0: 4132 803d 3360 afbe b812 473e c144 f338
000002d0: c0cb b7bd 9734 1f3e 7693 cd3d 73f9 b3bd
000002e0: 96a1 013e 3c99 25bd dffc d1bd 4bb2 1bbf
000002f0: 2819 22be 823b 62bd 9d22 a5be 6b04 b73e
00000300: e3c7 1b3e 2d21 303b d7d5 8fbc ae25 4c3e
00000310: 27fb d9be 9941 c7bc 3700 0b3c af3e 1d3e
00000320: 233c 86be 515b 02be eb56 93bd 5b91 65bd
00000330: 2fc1 513d e996 01bd 3cd3 ccbe 1534 61bd
00000340: eb6a 71be 1e62 75bd 6c6a 23bd 6113 7f3e
00000350: 47e8 25bd 5417 72bd e2dc 9bbd f6ae 3a3b
00000360: 1073 923d 2d28 993d 4744 d33a 1800 73bd
00000370: 8337 b63d 6f24 44be 5960 ae3c 1fa9 653e
00000380: 7605 b5be cb95 1ebb 5593 47bd 9af9 12bf
00000390: 10a4 82bd f69d 94bd d049 a8bb 921c 58bc
000003a0: d980 84bc 4753 68bd 419d 5dbd 7bcd 073e
000003b0: 6684 64bd babb 133d 5c9a f33d 59ad 50be
000003c0: fa3b b43c 67b0 583c 2269 1c3e a595 c2bc
000003d0: 6476 ffbb 18fe a83c ac5a 87be 5f0c a53c
000003e0: 9bc1 b8bd 03b7 b7bc 8e78 b4bd 2ef5 0e3e
000003f0: 6210 63bd ab15 443b 1459 8cbd d15c 8abd
0.01400981 -0.017307727 -0.02155064 -0.097996674 -0.05660985 -0.04430719 0.008625661 -0.044046767
0.2641783 -0.03975703 0.011458069 -0.009621797 -0.08280065 -0.43805644 -0.035910755 -0.3747971
-0.0142969955 -0.19368957 0.15974867 -0.066669226 0.027856242 -0.036795355 0.06431327 -0.027501395
0.24042805 -0.054546908 -0.06749531 -0.012651305 -0.20580955 0.010042834 -0.0050917566 0.0014845827
-0.028858714 -0.034157805 -0.053227287 -0.023433248 -0.064328745 -0.08135991 -0.24720688 -0.07693865
-0.0038022613 0.040352736 0.014909159 -0.011855283 -0.013333725 -0.0056712204 -0.25850442 -0.03511469
-0.08925291 -0.10047706 0.1472577 -0.13445081 -0.048627336 -0.11673862 0.21199287 0.3883184
-0.053808205 -0.1308974 -0.05460323 -0.06335095 -0.33834928 -0.18319131 0.047590878 -0.079212636
-0.010248332 -0.046045955 0.69003546 -0.005252953 -0.16677743 0.3916609 -0.07778439 0.031052215
-0.38747966 -0.046013728 0.21871321 -0.049266275 0.21279074 -0.04895437 -0.088202454 -0.07708386
0.012853126 -0.11210049 0.008174582 -0.12491883 -0.0223449 -0.06625578 -0.019179674 -0.027942544
-0.034403417 -0.01047921 -0.03931739 -0.44063136 -0.07167024 -0.08733541 -0.04539212 0.106383495
-0.0043410305 -0.036415413 -0.32805747 0.095374584 -0.04708111 -0.03201438 0.58223337 0.3163285
-0.08070878 0.31549856 -0.18769394 0.61255276 -0.13155709 -0.0023493974 -0.050049193 0.35338518
0.014380742 -0.07721701 -0.0646341 -0.078260764 -0.06367618 -0.09147241 -0.057234112 -0.083119385
-0.45234457 0.1439603 -0.45204687 -0.048861396 -0.06052969 -0.19337502 0.35890052 -0.072926
-0.04440317 0.009374184 -0.051370904 0.09598944 -0.01348285 0.5232891 -0.03788716 -0.028588677
-0.5041546 -0.0020117057 -0.0016312262 -0.06897424 -0.1978593 0.0041410523 -0.056892153 -0.3040091
-0.014539286 0.17606407 -0.3374012 -0.003906278 -0.04274401 -0.045005273 -0.0030233504 0.07493392
-0.00135716 -0.4983374 -0.088219844 -0.024221363 -0.12130776 0.51928073 -0.40464345 0.12461743
-0.08847389 -0.19469275 -0.05852133 -0.062979855 -0.11925696 -0.032855764 -0.047365677 0.27771306
-0.048622724 -0.116466984 -0.14312272 -0.014598142 0.021040017 -0.08420011 -0.024182927 -0.19556396
0.06259585 -0.34253082 0.19440734 0.00011599949 -0.08974409 0.15547405 0.100378916 -0.08787813
0.12659296 -0.04042934 -0.102533095 -0.6081893 -0.15829909 -0.055232532 -0.3225297 0.35745558
0.1521297 0.0026875243 -0.017558021 0.19936249 -0.42574427 -0.024323272 0.008483938 0.15355943
-0.26217756 -0.12730147 -0.07194313 -0.056046825 0.051209625 -0.03163806 -0.4000491 -0.05498131
-0.23575942 -0.059908025 -0.039896414 0.24909736 -0.04050472 -0.05910428 -0.076104894 0.0028485633
0.07150853 0.07478366 0.0016118371 -0.05932626 0.08897307 -0.19154523 0.021286177 0.22427796
-0.3535573 -0.002419817 -0.04872449 -0.5741211 -0.06378949 -0.07256691 -0.0051357523 -0.013190405
-0.01617472 -0.056720044 -0.054105047 0.13261978 -0.055790327 0.036067702 0.11894676 -0.20378627
0.022001255 0.013225651 0.1527448 -0.023752997 -0.0077960957 0.020628974 -0.26436365 0.0201475
-0.09021302 -0.022426134 -0.088120565 0.13960716 -0.055435546 0.0029920142 -0.06852928 -0.067559846

l3.weight f4 [6, 300]
00000000: 30e8 e2bb a3c8 35bc 46e9 6b3d 1731 a1bd
00000010: 15a3 53bd 99ec 6bbd 0189 03bc 80da f23c
00000020: f880 253e 2939 543d 2bbc f93c cd9e b8bc
00000030: a491 9dbc 5b4a ee3e c069 35bd 0bde 0ebd
00000040: 5cdc a0bc 6895 173e 81b7 ee3d 35f8 53bd
00000050: 7838 78be bc56 163d 4e46 0dbe a2d8 243d
00000060: 55f7 4f3e 8138 f3bc d354 7bbe a09a 513c
00000070: 0949 9fbd 0d96 95bc 640f 9f3c 12b6 e03e
00000080: 023a 8cbc a2d0 913b 28e2 c7bb 0449 bc3c
00000090: 6655 5ebd 2317 6a3e 0f53 bc3d 6f76 513d
000000a0: 0077 073d 1c1f 093f 6139 34bc cfde c43c
000000b0: 7dc6 163d 4f10 353b f9e7 9cbd 93c1 d1be
000000c0: 011c 8f3d 86e2 4dbe 3fa0 0cbe 0b22 54bd
000000d0: 01a8 123d 2bd9 80bd 7e5e ed3d 233c 703e
000000e0: a2d2 a9bc 1b66 71be 59db da3b 724f 473d
000000f0: 2bb2 a13c 1b4a 53be 7f3f 453d 401a fabb
00000100: f75b 6c3d 93aa 35bd b07f 313f 2e7b 493d
00000110: 78c7 923a 8047 db3e 6457 d9bc 94cd 183e
00000120: df05 95be b8f9 033c ae84 59be 28b0 d4bc
00000130: d733 83bc a05d 8bbb c12a a9bc a206 1c3e
00000140: 4a8c d13c 3b18 0f3e 88c7 373d bb41 3a3e
00000150: 76cc 2b3d bd53 893c a920 9e3b e8ba b938
00000160: f0b5 073c acaf 833c f362 38bd 77e2 f23d
00000170: f913 b03b 682a 473c 7bdc 2d3d 4f63 4fbe
00000180: 9b62 423d b778 5c3d cc9a 60bc bf97 b83e
00000190: f2ad 183d e250 06be e84e 093f 903c ee3d
000001a0: e04c 283d 4c4c a63e 3f71 dd3d 0382 fa3e
000001b0: 8062 2abd cb16 24bd 10a6 7c3c 8c0b d73e
000001c0: 61d4 2c3e 42ca 07bc 8e63 033e 661d fa3c
000001d0: 83dd 3abc aef1 183d 050d 543b e368 f6bc
000001e0: 9383 33be 052d ea3d 9cf2 7b3e 53aa 91bb
000001f0: d395 29bd a489 c3bd 814b 283e c257 29bd
00000200: d7f4 f13c 0762 19bd 135f 2dbe 8325 0b3f
00000210: d3c6 ce3d ab45 963e 540c c83c c7f4 e03c
00000220: 77cc 25bd 2841 d33c 39a7 c7bc 1093 a83c
00000230: ae91 c2bc e391 f3bc dd17 f1bc 1507 3e3d
00000240: 545e 5b3c 4462 933e 1243 243e 4062 5f3d
00000250: 6020 45bc 3d2f 4e3d 1a10 393d dc7e e0bc
00000260: 02a9 5fbc f84a 8cbd 2145 2b3d 0783 81bc
00000270: 5df8 40be 6bfc ab3e bffe 993e 0a7b 363c
00000280: d860 3bbb aee7 363e 8a25 00bd bc4a ac3c
00000290: b374 bf3c ad1a 25bd 3408 2ebc e1eb ad3e
000002a0: 35fd 113c 8202 cfbd 52ac 22be f84c 303d
000002b0: 5f6a 2ebd 1ab0 6cbd 3bc7 943c 4a9c 923e
000002c0: 940e b1bd 2ee6 1ebe 1d7e 843e 3faf 3d3d
000002d0: ccd6 28bd c785 bfbc 8c5d 283e 596b d53c
000002e0: b370 7d3e 8ebf e63b 5f82 4cbe ec31 76be
000002f0: c0a5 44be d1a2 9abc e285 303e 6d81 8b3e
00000300: 51e5 a63d 1f9e eabc 5c4c 5d3d 9ad3 803e
00000310: 8bac 43bb ba7f aa3c 1fc8 353d 514f 1b3e
00000320: 134d edbd 544a a3bc 2097 3c3c 03eb c33c
00000330: e3b5 b03e 180b a1bb 6ac5 03bd e2b7 86bc
00000340: 4dbb 113d 85e4 6f3c 7b48 aabd 1cfb 0e3e
00000350: 2098 0d3d c0f9 283c c045 6abb 79eb 45bc
00000360: 2987 c93b b4a1 5c3c 77c7 733c 5516 e93c
00000370: 964b b53c 0c57 053c dbda 33be 23bb b93e
00000380: becb 293e 76a4 58bd 8788 923e c419 81be
00000390: e6ff 37bd 8c11 0d3d 6cd1 b53c bd7f 5cbd
000003a0: be6b ae3e 5f01 c6bc bcd6 bfbb 910d c93d
000003b0: 7aee 89bc f480 c3bd 0f24 2fbe fef9 8bbe
000003c0: 2136 723b 1df3 a43c a095 f1bd de63 5a3a
000003d0: cbf3 893a 5cc6 f13c 5d3e 743e 8b16 da3c
000003e0: 1727 543e c46f 413d 1692 843b b2fb d03d
000003f0: 00b0 5d3d 8fb6 a6bc 36fd eabc a0a0 8c3c
-0.0069246516 -0.011095199 0.057595514 -0.07870691 -0.0516692 -0.057598684 -0.00802827 0.029645205
0.16162479 0.051812325 0.030485233 -0.02253666 -0.019234486 0.46541104 -0.044290304 -0.034879725
-0.019636326 0.14803088 0.11656094 -0.05175038 -0.24240291 0.03670381 -0.1379635 0.04024566
0.20309193 -0.02969003 -0.24544077 0.012793213 -0.07777602 -0.018260026 0.019416519 0.4388891
-0.017117504 0.00444992 -0.006099958 0.022984035 -0.05428066 0.22860388 0.0919553 0.051138338
0.03307247 0.53563094 -0.011000008 0.024032025 0.036810387 0.002762813 -0.07661433 -0.40967998
0.06987763 -0.20105943 -0.13733004 -0.05179028 0.035804752 -0.062914215 0.115902886 0.2346044
-0.02073032 -0.23574106 0.0066789803 0.04865975 0.019738277 -0.20633738 0.048156258 -0.007632524
0.057704892 -0.044352125 0.6933546 0.04918974 0.0011198362 0.42827988 -0.026530929 0.14922172
-0.29106042 0.008055143 -0.2124202 -0.025962904 -0.01601593 -0.0042531043 -0.02065027 0.15236905
0.02557959 0.13974087 0.044868022 0.18189137 0.041943036 0.016763562 0.0048256707 8.8563014e-05
0.008283123 0.016074978 -0.04501624 0.11859601 0.0053734747 0.0121561065 0.042446595 -0.20252727
0.04745732 0.05382606 -0.013708781 0.36053273 0.037275262 -0.13116792 0.53636026 0.11632645
0.04108894 0.32480085 0.108126156 0.48927316 -0.041597843 -0.0400608 0.015420452 0.42000997
0.16877891 -0.008287968 0.12830946 0.030531596 -0.011405352 0.03733986 0.0032356393 -0.03007931
-0.1753066 0.11434368 0.24604267 -0.004445353 -0.04140265 -0.09547737 0.16435052 -0.041343458
0.029535694 -0.037447 -0.16930799 0.54354113 0.100965165 0.29350027 0.024419941 0.027460469
-0.040478196 0.025787905 -0.02437173 0.020577937 -0.023751106 -0.02973265 -0.029430324 0.046393473
0.013389189 0.28785908 0.1604121 0.054537058 -0.012031645 0.05033802 0.04518137 -0.027404241
-0.013651134 -0.06850237 0.041813973 -0.015809549 -0.18844743 0.33591017 0.30077168 0.011137733
-0.002859166 0.17861816 -0.0312858 0.02103173 0.023371076 -0.040308643 -0.010622073 0.33969024
0.008910467 -0.101079 -0.15886047 0.043042153 -0.042581912 -0.05778513 0.018161407 0.28634864
-0.08645359 -0.15517494 0.25877467 0.046309706 -0.04122047 -0.02337922 0.16441935 0.026052164
0.24750023 0.007041878 -0.19971608 -0.24042481 -0.19203854 -0.018876465 0.17238572 0.27247182
0.081492074 -0.028639851 0.0540279 0.2516144 -0.0029857482 0.020812858 0.044380303 0.15166976
-0.11586966 -0.019932903 0.01151064 0.023915773 0.3451377 -0.0049146526 -0.03217069 -0.016445104
0.035579015 0.014641886 -0.08314606 0.13962978 0.034568906 0.010313451 -0.003574714 -0.012080067
0.0061501455 0.013466287 0.014879099 0.028453032 0.022130769 0.008138429 -0.17563955 0.36275586
0.16581628 -0.052891217 0.28619787 -0.2521497 -0.04492178 0.034440562 0.022194587 -0.05383276
0.34066576 -0.024170576 -0.0058544558 0.09817041 -0.016837347 -0.0954608 -0.17103599 -0.27339166
0.0036958533 0.020135457 -0.11796117 0.00083309214 0.0010524926 0.02951353 0.23851915 0.026622077
0.20718037 0.04722573 0.004045735 0.10204257 0.054122925 -0.020350723 -0.028685194 0.017166436

l3.bias f4 [6]
00000000: 918d 743d 9c67 863d 5618 bf3d 19e1 a3be
00000010: 81c8 913c 2047 a73d
0.05970532 0.06562731 0.093308136 -0.32007673 0.017795803 0.08167863
