2019_test_data/dual_assembly/TD3_Peg-in-hole-dual_assembly_seed_2/_actor.pth (torch_old, 510312 bytes, 6 tensors)

l1.weight f4 [400, 12]
0	0x3c0e1ced	0.008673889
1	0x3e450fca	0.19244304
2	0x3c5c30e3	0.01343939
3	0xbe7cc3d7	-0.24684082
4	0xbe131bf1	-0.14366128
5	0xbdcc7fe8	-0.09985334
6	0xbd65bd49	-0.05608872
7	0xbe79a39e	-0.24378821
8	0x3e05145e	0.1299605
9	0xbea13bb1	-0.31490853
10	0x3d89c825	0.06727628
11	0x3e3f1a6f	0.18662427
12	0xbd878db1	-0.06618822
13	0x3e6e3dc7	0.23265754
14	0x3d202f2d	0.03910749
15	0x3df53037	0.11972087
16	0x3dfa34ae	0.12217079
17	0xbe2e6ac1	-0.17032911
18	0xbde348c9	-0.11097867
19	0x3e8e2726	0.27764243
20	0xbe8e3ca6	-0.27780646
21	0xbca09c7b	-0.019605866
22	0xbcbb7614	-0.022883452
23	0x3e51ac9a	0.20475999
24	0xbe0db651	-0.1383908
25	0x3e8587e7	0.26080248
26	0xbd0bd51b	-0.03413878
27	0xbeacd84c	-0.3375877
28	0x3c00966c	0.007848363
29	0xbebc00cc	-0.36719358
30	0xbe685328	-0.22687972
31	0xbe52c5df	-0.20583294
32	0x3e631d47	0.22179137
33	0x3e810825	0.25201526
34	0x3d0cbec2	0.03436161
35	0x3ce7402a	0.028228838
36	0xbe6fca31	-0.23416974
37	0xbe442bc5	-0.19157322
38	0xbc32630a	-0.010887871
39	0xbd4374f7	-0.04771897
40	0xbe136695	-0.143946
41	0xbe5cc0f4	-0.21557981
42	0xbc17ba9c	-0.0092608
43	0x3e788964	0.2427116
44	0xbe0555c2	-0.13020995
45	0x3e869f5a	0.2629345
46	0x3e81de71	0.25365022
47	0xbe13269c	-0.14370197
48	0x3cfa72c0	0.030572295
49	0x3cb494c0	0.022043586
50	0x3e1dbbb6	0.15403637
51	0x3e469212	0.19391659
52	0x3e544946	0.20731077
53	0x3e2b5556	0.16731772
54	0xbd90244c	-0.07038173
55	0xbc528da0	-0.012851149
56	0xbd704af8	-0.058665246
57	0x3e2bf63e	0.16793153
58	0x3d035110	0.03205973
59	0x3e88cbc0	0.2671795
60	0x3eea4cc7	0.457617
61	0xbebd55ee	-0.36979622
62	0x3d854df9	0.06509013
63	0x3ea9f786	0.33196658
64	0xbe1ec155	-0.15503438
65	0xbc31edc9	-0.010859915
66	0x3ea836bc	0.3285426
67	0xbed34f62	-0.41271502
68	0xbdb7bb40	-0.08971262
69	0x3df01002	0.11721803
70	0xbf0e335f	-0.55547136
71	0x3ed5ba20	0.41743565
72	0xbe81ab75	-0.25326124
73	0x3e8e8c22	0.27841288
74	0xbcd12e2e	-0.025534716
75	0xbdeb9865	-0.11503676
76	0x3da46e31	0.0802883
77	0xbf1579f3	-0.58389205
78	0xbe3cdcdf	-0.1844363
79	0xbe719e9f	-0.23595665
80	0x3e53a4ad	0.20668288
81	0x3e00bd15	0.12572129
82	0xbe4ec532	-0.20192412
83	0x3eca2b18	0.39486003
84	0x3e6fc7c9	0.23416056
85	0x3eac7ad6	0.33687466
86	0xbc47949d	-0.012181428
87	0xbec4f66d	-0.38469258
88	0xbe912048	-0.2834494
89	0xbde39f4e	-0.11114369
90	0xbdda1d9e	-0.1065018
91	0xbecd7c4e	-0.401339
92	0x3e014896	0.12625346
93	0xbe99bb3b	-0.30025658
94	0x3e7fe8dc	0.24991173
95	0x3ebd9171	0.37025025
96	0xbeb97121	-0.36219123
97	0xbee31e0e	-0.44358867
98	0xbd9dcb26	-0.07704763
99	0x3e831420	0.25601292
100	0xbc7e7dd6	-0.015532931
101	0xbf051ba2	-0.5199529
102	0xbea89e30	-0.32933187
103	0x3e806b95	0.2508208
104	0x3b97ff53	0.0046385913
105	0x3eee7154	0.46570837
106	0x3e55d177	0.20880686
107	0x3d86e511	0.0658666
108	0xbee86e8d	-0.45396844
109	0xbd408dbb	-0.047010165
110	0x3e244f5d	0.160459
111	0xbe64d154	-0.22345477
112	0xbd4f23bf	-0.0505712
113	0x3cc946da	0.024569917
114	0xbe9fc479	-0.31204584
115	0x3d8dcc8f	0.06923782
116	0x3db1858e	0.08668052
117	0x3e96f5be	0.2948436
118	0x3dc0a3a2	0.094062105
119	0x3e0839d1	0.13303305
120	0x3e4be21b	0.19910471
121	0x3dbf40cb	0.0933853
122	0xbc5702d2	-0.013123231
123	0x3eac3677	0.33635303
124	0x3e501c66	0.20323333
125	0xbdcb0182	-0.09912397
126	0xbebe911d	-0.37220088
127	0xbe3c705e	-0.1840224
128	0xbf1d748b	-0.61505955
129	0xbf040090	-0.5156336
130	0x3cb6cfd6	0.0223159
131	0xbe070e5a	-0.13189068
132	0xbf0a2408	-0.5396123
133	0xbeac2af8	-0.33626533
134	0x3d498195	0.049195845
135	0x3dcca2c3	0.09991982
136	0x3ec241bf	0.37940785
137	0xbed72bf0	-0.4202571
138	0x3d741187	0.059587028
139	0x3d1be363	0.03805865
140	0xbea3e01f	-0.32006928
141	0xbdb4bd44	-0.08825162
142	0x3ebbf9ce	0.36714023
143	0x3da1b4cb	0.07895812
144	0x3da1d099	0.07901115
145	0x3e328d2f	0.1743667
146	0xbd8d6c45	-0.069054164
147	0x3ed88806	0.42291278
148	0x3c426d62	0.011866899
149	0xbcf54e2a	-0.029944498
150	0x3e2fd565	0.17171247
151	0xbda4d857	-0.08049076
152	0xbe9462a1	-0.28981498
153	0x3d96f228	0.073704064
154	0xbe4b4521	-0.1985059
155	0xbe0345e4	-0.1281963
156	0x3e183884	0.14865309
157	0xbe4c0d8a	-0.1992704
158	0x3e269f1b	0.16271631
159	0x3e3fa1fb	0.18714134
160	0xbee1d60a	-0.4410861
161	0x3ec2e127	0.38062403
162	0xbeda1fb7	-0.42602322
163	0xbee7ffa4	-0.45312226
164	0x3e600903	0.21878438
165	0x3d1e2d08	0.038617164
166	0x3e711a3b	0.23545162
167	0xbd70c7b9	-0.05878422
168	0xbea8a439	-0.32937792
169	0xbdb55c9f	-0.08855557
170	0xbd280edb	-0.041029792
171	0xbe6c7e79	-0.2309512
172	0x3f22f33f	0.63652414
173	0x3e485f14	0.1956752
174	0xbf1f38c3	-0.62195987
175	0xbf0c0c8b	-0.5470664
176	0xbebc3ca7	-0.36765024
177	0xbeb7026e	-0.3574404
178	0x3f119722	0.56871235
179	0xbd340df1	-0.043958608
180	0xbef099bf	-0.469923
181	0x3d7e77ba	0.0621259
182	0x3e64ecba	0.22355929
183	0xbd880f44	-0.06643537
184	0x3d7040c0	0.0586555
185	0xbe479886	-0.19491777
186	0xbe5b62d9	-0.21424426
187	0x3dc22a37	0.09480708
188	0x3ea5d356	0.323878
189	0x3ea37803	0.319275
190	0x3e678e60	0.22612906
191	0xbe3fb039	-0.18719567
192	0x3ceee0ca	0.029159922
193	0x3da37d1b	0.07982846
194	0xbda9e4f2	-0.08295621
195	0xbe04d01e	-0.12970015
196	0xbd653746	-0.055960916
197	0x3e090048	0.13379014
198	0x3de74705	0.11292843
199	0x3edc165b	0.42985806
200	0xbeb7282c	-0.35772836
201	0xbd22e0cd	-0.039765168
202	0xbd9543af	-0.072883
203	0xbefaecfb	-0.49008927
204	0x3dec2fd2	0.115325585
205	0x3f10c9cc	0.5655792
206	0xbc89f17b	-0.01683878
207	0xbedf114e	-0.4356789
208	0xbe296b41	-0.1654482
209	0xbed89463	-0.4230071
210	0xbee55084	-0.4478799
211	0xbe29d8d4	-0.1658662
212	0xbcb6d333	-0.022317505
213	0xbedcd21b	-0.43129048
214	0xbd48e3fe	-0.049045555
215	0x3e83d3d0	0.25747538
216	0x3e1e5932	0.15463713
217	0xbe931a10	-0.28730822
218	0xbae99a6c	-0.001782251
219	0x3ec7baa8	0.39009595
220	0xbef463b4	-0.47732317
221	0x3c4ec7eb	0.012620906
222	0x3ebc74aa	0.36807758
223	0x3ef1c2ce	0.47218937
224	0xbd62324e	-0.055223756
225	0xb9b4e223	-0.0003450076
226	0xbe6a7242	-0.22895148
227	0x3e1a6aaf	0.15079759
228	0x3d91d593	0.07120814
229	0xbe5678f3	-0.20944576
230	0x3c774b4c	0.015093636
231	0xbcccfc8e	-0.025022771
232	0x3f27033f	0.6523933
233	0x3ea909ec	0.33015382
234	0xbf075495	-0.52863437
235	0xbe89c1a1	-0.2690554
236	0xbe6465b5	-0.22304423
237	0xbcd84db2	-0.026404236
238	0x3dcc0ba9	0.099631615
239	0xbe37cf2e	-0.17950127
240	0xbe180dd7	-0.1484903
241	0x3e33a122	0.17541936
242	0xbd7d0f62	-0.06178225
243	0xbe1ca28f	-0.15296386
244	0xbcc85d2a	-0.024458487
245	0x3e6d2b24	0.23160988
246	0x3d9426f0	0.07233989
247	0x3da44a38	0.080219686
248	0xbe9e4e0a	-0.30918914
249	0xbe639558	-0.22224939
250	0xbdf84016	-0.121215984
251	0xbc34b04e	-0.011028362
252	0xbd6ef85e	-0.05834233
253	0xbe9806ce	-0.29692692
254	0xbd4cb24d	-0.04997473
255	0x3e60afd0	0.21942067

l1.bias f4 [400]
0	0xbbc28b52	-0.0059370184
1	0xbe4131bd	-0.1886663
2	0xbe895eae	-0.26830047
3	0xbdf59123	-0.11990573
4	0xbc4d08c0	-0.012514293
5	0xbcbb9c58	-0.022901699
6	0xbe81069a	-0.2520035
7	0x3f0b53ee	0.5442494
8	0xbf35bb3c	-0.7098882
9	0x3e8150b5	0.25256887
10	0xbe7fa159	-0.24963893
11	0x3e914f58	0.28380847
12	0xbf250bab	-0.6447093
13	0x3e8209b6	0.25398034
14	0x3d065b38	0.032801837
15	0x3cd0843a	0.025453676
16	0x3ec3fcb3	0.38278732
17	0x3ecd0f30	0.4005065
18	0x3e59a828	0.21255553
19	0x3ed6c4ec	0.41947114
20	0xbe8b6eef	-0.27233073
21	0x3d6652b4	0.056231216
22	0xbeac3134	-0.3363129
23	0xbc818eeb	-0.015815219
24	0xbe36e067	-0.1785904
25	0xbe07da77	-0.13266931
26	0xbe964b0c	-0.2935413
27	0xbe01965f	-0.12655018
28	0xbe7c19dc	-0.2461924
29	0xbef65d1d	-0.48117915
30	0xbeca459b	-0.3950623
31	0xbec7a2b1	-0.3899131
32	0xbe3f1230	-0.18659282
33	0x3e63a894	0.22232276
34	0xbf55530d	-0.8332985
35	0x3e3387f3	0.1753233
36	0x3cfcec96	0.030874532
37	0x3efb7eed	0.49120274
38	0xbf1e1231	-0.6174651
39	0x3e7c516b	0.24640433
40	0x3c3f6b51	0.011683301
41	0xbf0ae07c	-0.54248786
42	0xbea4ee16	-0.32212895
43	0x3d321658	0.04347834
44	0xbe689eb0	-0.22716784
45	0xbe9f5bd8	-0.3112476
46	0xbf16d917	-0.58925
47	0x3d88e577	0.06684392
48	0x3cdac897	0.026706977
49	0xbaab6d90	-0.0013078917
50	0x3e765d58	0.24059045
51	0x3eec50c9	0.46155384
52	0xbf0d1105	-0.55104095
53	0x3d85b014	0.06527725
54	0xbe4ff8ae	-0.20309708
55	0xbf624b7e	-0.8839644
56	0xbea5f8ec	-0.32416475
57	0xbdc69951	-0.096972115
58	0x3ecad9cf	0.396193
59	0x3e92801e	0.2861337
60	0xbef78caa	-0.48349506
61	0xbeecef4e	-0.46276325
62	0x3ea9f91a	0.33197862
63	0xbe2f279c	-0.17104954
64	0x3e5b4cb6	0.21415982
65	0xbdda3e9a	-0.106564716
66	0x3ee7c9b8	0.45271087
67	0x3d07a6b8	0.03311798
68	0x3ed4b681	0.4154549
69	0x3ee67883	0.45013818
70	0xbe0a30d3	-0.13495187
71	0x3f0e202f	0.5551786
72	0xbe8111e3	-0.2520896
73	0x3f03fd44	0.5155833
74	0x3e2044ab	0.15651195
75	0xbe648c96	-0.22319254
76	0xbf283c96	-0.65717447
77	0xbeeb1490	-0.45914125
78	0xbe6ac20e	-0.22925588
79	0xbec2ca9f	-0.38045213
80	0xbedac88a	-0.42731124
81	0xbe817370	-0.25283384
82	0xbec15d07	-0.37766287
83	0xbe9d7b0d	-0.30757943
84	0xbe497479	-0.19673337
85	0xbeae1dbc	-0.3400706
86	0xbee14222	-0.43995768
87	0x3e6e0e37	0.2324761
88	0x3e66a8a2	0.22525266
89	0x3d3caf7e	0.0460658
90	0x3e750176	0.23926339
91	0x3dd10aac	0.102071136
92	0x3dfad912	0.12248434
93	0xbed59e05	-0.41722122
94	0xbe232935	-0.15933688
95	0x3f208ea2	0.6271764
96	0xbf3b7745	-0.73228866
97	0xbf23e926	-0.6402763
98	0xbec0e317	-0.37673256
99	0xbcd9e2bc	-0.026597373
100	0x3e3322fe	0.17493817
101	0xbe0a6626	-0.13515529
102	0x3f28822c	0.65823627
103	0xbe11bf15	-0.14233048
104	0xbe6cabcd	-0.23112412
105	0xbdd33a8e	-0.10313903
106	0xbea47c79	-0.32126215
107	0xbeabe9a8	-0.33576703
108	0xbea0057a	-0.31254178
109	0x3ee7f27a	0.45302182
110	0x3e8abe31	0.2709823
111	0x3bdf1301	0.0068076854
112	0x3dc56108	0.09637648
113	0xbeee101e	-0.4649667
114	0xbf2aeaae	-0.6676434
115	0xbe8a5497	-0.27017662
116	0x3e5d592c	0.21616048
117	0x3f0618e6	0.5238174
118	0x3e558b38	0.20853889
119	0x3e8276ce	0.25481266
120	0xbeba395e	-0.36371893
121	0xbe794854	-0.24343997
122	0x3ef43fec	0.4770502
123	0x3e5d5edd	0.21618219
124	0x3db2cd38	0.087305486
125	0x3f0a69c8	0.5406766
126	0x3e4fc098	0.20288312
127	0x3eb937d8	0.36175418
128	0x3cf2e84c	0.029651783
129	0xbf489588	-0.78353167
130	0xbedade1f	-0.4274759
131	0x3e3e3f0a	0.18578735
132	0xbe9be99e	-0.30451673
133	0xbf407bfb	-0.7518918
134	0xbcab16af	-0.02088484
135	0x3e258be6	0.16166648
136	0x3db31234	0.08743706
137	0xbf5ff994	-0.874902
138	0xbdc0890a	-0.09401138
139	0x3de8358e	0.1133834
140	0xbc4e23be	-0.012581764
141	0xbef1b58a	-0.47208816
142	0xbe44e390	-0.19227433
143	0xbd82efcb	-0.06393393
144	0xbf28f7c0	-0.66003036
145	0x3e432169	0.19055714
146	0xbe92c02b	-0.28662238
147	0xbe9960ab	-0.29956564
148	0x3e4fc431	0.20289685
149	0x3ed97795	0.42474046
150	0x3e4b740f	0.19868492
151	0xbec9efd0	-0.39440775
152	0x3e830edd	0.25597277
153	0xbd93b3b3	-0.07212009
154	0xbd8a5e48	-0.06756264
155	0x3ece57e9	0.40301445
156	0xbe49ed93	-0.19719534
157	0xbe5ec80b	-0.21755998
158	0x3e205045	0.1565562
159	0x3e5746f7	0.21023165
160	0xbe349dbe	-0.17638299
161	0xbeb80426	-0.35940665
162	0x3e8b814d	0.27247086
163	0x3ec2c50f	0.3804097
164	0xbcbbce14	-0.022925414
165	0xbe13e4ef	-0.144428
166	0xbebee810	-0.37286425
167	0xbea0cdca	-0.31407005
168	0xbed1728a	-0.409077
169	0x3a52d4c8	0.0008042571
170	0xbe0003b0	-0.12501407
171	0x3e73b1a7	0.23798238
172	0x3e944d86	0.28965396
173	0x3df12e5a	0.11776419
174	0xbf17ada5	-0.59249336
175	0x3e7a3da5	0.24437578
176	0xbed7b4f2	-0.42130238
177	0x3db8380c	0.08995065
178	0xbe65ff0f	-0.22460578
179	0x3e48e13e	0.19617173
180	0x3ea554e3	0.32291326
181	0x3ea8aa46	0.32942408
182	0x3d6caf42	0.057784326
183	0x3e01fc62	0.12693933
184	0xbee0fc32	-0.4394241
185	0xbee0da0b	-0.43916354
186	0xbe617ae6	-0.22019538
187	0xbcd545c3	-0.026034242
188	0x3e5043b4	0.20338327
189	0x3ebbaaec	0.3665384
190	0xbea77114	-0.3270346
191	0xbe5cda42	-0.21567634
192	0xbe2c592e	-0.16830894
193	0x3f11f089	0.5700765
194	0xbced46e8	-0.028964475
195	0xbf5c9dfe	-0.86178577
196	0x3caac2a9	0.020844774
197	0xbe540d34	-0.20708162
198	0x3ecbad8f	0.39780852
199	0xbe870873	-0.26373634
200	0xbf51a7e4	-0.81896806
201	0xbdfe9a53	-0.12431779
202	0x3dcffbd7	0.101554565
203	0x3e4fbbbf	0.20286463
204	0xbe9fc112	-0.31201988
205	0x3e588f5a	0.21148434
206	0xbe494138	-0.19653785
207	0x3c79aecd	0.01523943
208	0x3e9c0215	0.30470338
209	0x3e3d34c8	0.18477166
210	0xbdb2648d	-0.08710585
211	0xbf2fd60f	-0.68686
212	0xbd9a2d56	-0.075281784
213	0x3f1dfcff	0.61714166
214	0x3e1de609	0.15419783
215	0xbcf2d285	-0.0296414
216	0x3b58ff3f	0.0033111123
217	0xbe7b2f09	-0.24529661
218	0xbe830a99	-0.25594023
219	0x3dda65f3	0.106639765
220	0xbf180693	-0.5938503
221	0xbe5ad27f	-0.2136936
222	0x3f26acfe	0.65107715
223	0x3e62d520	0.22151613
224	0xbe83845e	-0.25686926
225	0x3e3d7bdc	0.1850428
226	0xbede0117	-0.43360206
227	0x3c80a154	0.015701927
228	0xbd8366cf	-0.064160936
229	0xbe03dc07	-0.12876903
230	0xbefefcef	-0.49802348
231	0x3e635d6a	0.22203603
232	0xbece59e9	-0.4030297
233	0xbf025e12	-0.5092479
234	0xbd8867ec	-0.066604465
235	0xbbf22040	-0.0073890984
236	0xbdf95717	-0.12174814
237	0xbdcf8bf9	-0.101341195
238	0x3e8ceab9	0.2752283
239	0xbeb0b494	-0.3451277
240	0xbc72f830	-0.01482968
241	0xbe48b42d	-0.19599982
242	0xbdc59485	-0.096474685
243	0xbcec6c06	-0.028860103
244	0xbe463ede	-0.1935992
245	0xbe88213e	-0.26587862
246	0xbd962fd8	-0.07333344
247	0x3f151d82	0.5824815
248	0xbef7d83a	-0.48407155
249	0xbd80649c	-0.0626919
250	0xbd3f8958	-0.04676184
251	0xbe10e602	-0.14150241
252	0x3e383d34	0.17992097
253	0x3e91aff5	0.28454557
254	0xbea12064	-0.31470025
255	0xbdbeec2a	-0.093223885

l2.weight f4 [300, 400]
0	0xbc52aae6	-0.012858128
1	0xbc82ab86	-0.01595093
2	0xbcbb7030	-0.022880644
3	0xbc0395a2	-0.008031281
4	0xbcad68d0	-0.021168143
5	0xbc38741d	-0.011258152
6	0xbdb0c213	-0.08630767
7	0xbdea6f4f	-0.11447012
8	0xbdf68c3f	-0.120384686
9	0xbc8c64a0	-0.017137825
10	0xbc909880	-0.017650843
11	0x3a1d9600	0.00060114264
12	0x3ba972f8	0.005171176
13	0xbd781540	-0.06056714
14	0xbc9dd154	-0.019264854
15	0xbd3b3ced	-0.0457124
16	0x3d8d0d4c	0.06887302
17	0xbd011a5d	-0.031519283
18	0x3bddfedd	0.006774767
19	0xbe05ad1f	-0.13054322
20	0x3b4f3120	0.0031614974
21	0xbd50be7d	-0.050962914
22	0x3a8b85ed	0.0010644771
23	0xbd7899e5	-0.06069364
24	0xbba5ae42	-0.0050561735
25	0xbd88ffc2	-0.06689407
26	0xbd1e841d	-0.03870021
27	0xbdb57ee8	-0.08862096
28	0xbe08928e	-0.13337156
29	0xbdaf6a55	-0.08565203
30	0x3cdf4440	0.027254224
31	0xbd086a2d	-0.033304382
32	0x3ce3ee1e	0.027823504
33	0x3d2c310d	0.042038966
34	0xbd84eb30	-0.06490171
35	0xbbf805b0	-0.0075690374
36	0x3cf2fa6c	0.029660426
37	0xbd84b3a5	-0.06479577
38	0xbdd9d685	-0.106366195
39	0x3cdfb985	0.027310142
40	0xbc1a5640	-0.009419978
41	0xbcc475d1	-0.02398196
42	0xbd4f1868	-0.050560385
43	0xbcb84a97	-0.022496505
44	0xbd3d1db1	-0.046170894
45	0xbda7107d	-0.08157442
46	0xbd286656	-0.04111322
47	0xbdf1039e	-0.11768268
48	0xbd614259	-0.054994915
49	0xbdc37f7c	-0.095458
50	0x3dc3cac1	0.095601566
51	0xbca2b9a3	-0.01986391
52	0xbd0d327d	-0.034471978
53	0x3cf64037	0.030059917
54	0xbd97a4a5	-0.0740445
55	0xbd9a3ea8	-0.07531482
56	0xbda92667	-0.08259278
57	0xbdf92b35	-0.12166444
58	0x3cd35744	0.025798447
59	0xbac39c01	-0.0014923812
60	0x3c6b9d05	0.014380698
61	0xbd5c37c6	-0.053764127
62	0xbd8ab162	-0.06772114
63	0xbd5546f6	-0.052069627
64	0xbd14a1c9	-0.036287103
65	0xbd87f569	-0.06638605
66	0xbdf9e893	-0.12202563
67	0xbc2d1a20	-0.010565311
68	0xbde0e7b1	-0.10981692
69	0x3df6eade	0.12056516
70	0xbc12c75f	-0.008958667
71	0x3d92c4b3	0.07166424
72	0xbc4b33b8	-0.012402467
73	0xbd5fedfa	-0.05467031
74	0x3d4e4f74	0.05036874
75	0xbd810d2e	-0.06301342
76	0xbdb15374	-0.086584955
77	0x3ce43aac	0.027860008
78	0x3cbfb965	0.023403833
79	0x3c8030c8	0.01564826
80	0x3c688b6a	0.014193395
81	0xbd1654c2	-0.036701925
82	0x3d1eb191	0.03874356
83	0xbcbbd56c	-0.022928916
84	0x3dad51d6	0.084628746
85	0xbd2c3a57	-0.042047825
86	0xbc47bbeb	-0.012190799
87	0x3bb7e9b3	0.005612576
88	0x3bd34358	0.006447237
89	0x3754e0ea	1.2688552e-05
90	0xbd53e3d7	-0.051730957
91	0x3c9e1ea2	0.019301716
92	0xbd9900bf	-0.074708454
93	0xbdc01b19	-0.093801685
94	0xbcc4414d	-0.02395692
95	0x3bbb7def	0.0057217996
96	0xbdd088e8	-0.10182363
97	0xbd1fb419	-0.038990114
98	0xbdc7242c	-0.09723696
99	0xbdaaee74	-0.083462626
100	0xbd6ed298	-0.058306307
101	0xbc24e500	-0.0100643635
102	0xbd8f63bb	-0.07001444
103	0x3d54034f	0.051760968
104	0xbd128c18	-0.035778135
105	0xbdefd631	-0.11710776
106	0xbdb43044	-0.087982684
107	0xbe006b25	-0.12540872
108	0xbca07b94	-0.019590177
109	0xbd925986	-0.071459815
110	0xbc0173d2	-0.007901149
111	0xbdf9d67c	-0.12199113
112	0xbbc75a55	-0.0060837665
113	0xbdff6a7b	-0.124714814
114	0xbddfe80f	-0.109329335
115	0xbcad127a	-0.021126974
116	0x3cd34246	0.025788438
117	0xbd6e31eb	-0.058153074
118	0xbdf04a55	-0.11732928
119	0xbbd4a993	-0.0064899414
120	0x3c6867bd	0.014184889
121	0x3cb1b622	0.021693293
122	0x3d4f3352	0.050586052
123	0xbb049389	-0.002022954
124	0x3d15c795	0.03656729
125	0xbd4cd0b4	-0.050003722
126	0xbd9279ec	-0.07152161
127	0xbc8b1e29	-0.016982155
128	0xbda14594	-0.07874599
129	0xbd4b82dc	-0.049685344
130	0xbcc6d1ca	-0.024269957
131	0x3cf21d82	0.029555086
132	0xbcc007de	-0.023441251
133	0x3c744e0d	0.014911187
134	0xbd892ea0	-0.06698346
135	0xbc5b040c	-0.013367664
136	0x3a70e980	0.00091900676
137	0x3cd78f66	0.026313495
138	0x3a5fca49	0.0008536918
139	0x3cb6d9de	0.022320684
140	0xbd31cc34	-0.043407634
141	0xbe7eb561	-0.24873878
142	0x3be5c9f0	0.007012598
143	0xbd24b98a	-0.040216006
144	0xbdaaa1b2	-0.08331622
145	0xbcb075ad	-0.021540487
146	0xbca7be58	-0.020476505
147	0xbd9b589c	-0.0758526
148	0xbda0d88f	-0.07853805
149	0x3c99ec20	0.018789351
150	0xbc26267e	-0.010141013
151	0xbc9b7409	-0.018976228
152	0x3a0aeb46	0.00052993407
153	0xbdc2703e	-0.09494065
154	0xba966300	-0.0011473596
155	0xbcccfe59	-0.025023626
156	0xbdd31590	-0.10306847
157	0x3c834650	0.016024739
158	0xbdc4685b	-0.09590217
159	0x3d3ea3f7	0.046543088
160	0x3d5e335f	0.05424821
161	0x3d23d61a	0.039999105
162	0xbd21dd74	-0.039517835
163	0x3c7ad852	0.015310364
164	0x3be3bc22	0.0069499174
165	0xbe0e806b	-0.13916175
166	0x3d0c1780	0.0342021
167	0xbde40948	-0.11134583
168	0xbcb67cff	-0.0222764
169	0x3934bba5	0.00017236041
170	0xbda7db47	-0.08196121
171	0xbd0f76a3	-0.03502525
172	0xbb4f46d0	-0.00316279
173	0xbd18bd6f	-0.037290033
174	0xbd53615e	-0.05160653
175	0xbcd2e706	-0.025744926
176	0xbc71887f	-0.014742016
177	0xbb900030	-0.0043945536
178	0xbd92b2c6	-0.071630046
179	0xbe425a00	-0.18979645
180	0x3cca3ee6	0.024688195
181	0xbdf1568f	-0.11784088
182	0xbd40e5dd	-0.047094215
183	0xbcca4f42	-0.024695996
184	0xbe10c477	-0.14137445
185	0xbd832516	-0.06403558
186	0x3c1f0b5a	0.009707296
187	0xbdf42325	-0.11920766
188	0xbdb83c60	-0.089958906
189	0x3d23b943	0.0399716
190	0xbd7f6e85	-0.06236126
191	0xbd0c897d	-0.034310807
192	0xbce5f35a	-0.02807014
193	0x3cb2c929	0.021824436
194	0xbd2813d5	-0.04103454
195	0xbcd7b8f7	-0.026333315
196	0xbd4b55b4	-0.04964228
197	0xbcb4367d	-0.021998638
198	0x3d89f59e	0.06736301
199	0x3c3de73c	0.011590775
200	0xbc95f0b7	-0.018303258
201	0xbd82ba3a	-0.06383176
202	0x3cf8efb3	0.030387735
203	0xbcc77cc3	-0.024351483
204	0x3cf97356	0.030450504
205	0xbd0cca95	-0.034372885
206	0x3d06c879	0.03290603
207	0xbc85d337	-0.016336067
208	0x3c64be59	0.013961398
209	0xbb047758	-0.0020212736
210	0xbd9b4eef	-0.07583415
211	0x3c96ea31	0.018422218
212	0xbcaad1e4	-0.020852037
213	0xbbd83649	-0.006598268
214	0x3cd80d85	0.026373634
215	0xbd8d5d12	-0.069025174
216	0x3d09238c	0.033481166
217	0x3c95ce32	0.018286798
218	0xbd6d4c71	-0.05793423
219	0xbbad899c	-0.0052959453
220	0x3cdbbfe6	0.026824903
221	0xbde3ed69	-0.11129267
222	0xbdd75a1f	-0.10515236
223	0xbd45f1b2	-0.0483262
224	0x3c397fc0	0.011321962
225	0x3cb78dce	0.022406485
226	0xbd811f01	-0.06304742
227	0xbd927bdd	-0.07152531
228	0xbc3f6158	-0.011680923
229	0xbc5c0388	-0.013428576
230	0xbce63c1e	-0.028104838
231	0xbd09f5c0	-0.03368163
232	0xbdcee8e7	-0.10103016
233	0xbdc1ad7e	-0.09456919
234	0xbc9c2f6b	-0.01906558
235	0x3d272999	0.040811155
236	0xbd8c5409	-0.06851966
237	0xbe28003f	-0.16406344
238	0xbc8182f8	-0.015809521
239	0x3d385f43	0.045012724
240	0x3cd0e4da	0.02549975
241	0xbcf6f78b	-0.030147335
242	0xbbbdb790	-0.0057897046
243	0xbd7816d8	-0.06056866
244	0x3d0d8231	0.03454799
245	0x3d0e3227	0.034715798
246	0xbd1e128e	-0.038591914
247	0xbb266335	-0.0025388722
248	0xbe26c59c	-0.1628632
249	0xbd9622e1	-0.073308714
250	0x3cdb63ee	0.026781049
251	0x3cbbcd1a	0.022924948
252	0xbddc7a06	-0.107654616
253	0xbce69dbd	-0.028151387
254	0xbdc4aae3	-0.096029066
255	0x3d3c8713	0.046027254

l2.bias f4 [300]
0	0xbd24ac3a	-0.04020331
1	0x3e377a22	0.17917684
2	0xbdd4d9fe	-0.10393141
3	0x3cbaa94e	0.022785809
4	0xbdc736cc	-0.097272485
5	0x3d079054	0.033096626
6	0xbd397e80	-0.045286655
7	0xbe0b3a2b	-0.13596408
8	0xbd9686e9	-0.07349951
9	0x3df72c11	0.12068952
10	0xbd81a87b	-0.06330963
11	0x3daf245f	0.08551859
12	0x3ca38cb9	0.019964563
13	0x3cc630bd	0.024193162
14	0xbde911f3	-0.11380377
15	0xbd6781ad	-0.056520153
16	0x3cc6ad77	0.024252636
17	0x3d16239d	0.036655057
18	0xbd2ad62d	-0.04170816
19	0xbc36dd7d	-0.011161205
20	0x3cdc2f09	0.026877897
21	0xbcfc3d58	-0.03079097
22	0x3d07dadc	0.033167705
23	0xbded41e5	-0.11584834
24	0xbe4d164a	-0.20028034
25	0x3ebfd31b	0.37465748
26	0xbce25e71	-0.027632924
27	0xbdd12eac	-0.1021398
28	0x3cafca37	0.021458728
29	0xbe91f2e2	-0.28505617
30	0xbd15af74	-0.03654428
31	0xbb919909	-0.004443292
32	0xbd5fec7f	-0.0546689
33	0xbdccfd24	-0.1000922
34	0x3ba5ba5c	0.005057616
35	0x3c0221ea	0.007942656
36	0xbd2fa489	-0.042881522
37	0x3a53e954	0.000808378
38	0x3bee5367	0.007273126
39	0x3dc909a1	0.0981629
40	0x3c5372f0	0.012905821
41	0xbd2eea76	-0.042704068
42	0xbce23e2f	-0.027617542
43	0xbc1bdd50	-0.009513214
44	0xbe5568f6	-0.2084082
45	0xbd42473f	-0.047431227
46	0xbcda4886	-0.02664591
47	0x3dc6f18b	0.097140394
48	0x3cd7fa65	0.026364515
49	0xbde882c6	-0.11353068
50	0x3e9437ab	0.2894872
51	0xbb96b70f	-0.004599459
52	0x3e461348	0.19343293
53	0x3cbaf693	0.022822654
54	0xbe5a7170	-0.21332335
55	0xbe301b7d	-0.17197986
56	0xbd0ffcf5	-0.035153348
57	0x3e52b813	0.20578031
58	0xbd4a1d09	-0.049344096
59	0xbe1e71d9	-0.15473117
60	0xbd6df40f	-0.05809408
61	0xbd529b9e	-0.05141794
62	0xbcc30cb6	-0.023809772
63	0xbd62c5bb	-0.05536435
64	0xbd0e1c33	-0.03469486
65	0x3ccedbb6	0.02525125
66	0xbcb9b1f2	-0.022667859
67	0xbd20ed58	-0.03928885
68	0xbd2be82f	-0.041969474
69	0x3e2b98c5	0.16757496
70	0xbb0ddeab	-0.0021647613
71	0xbd5a198d	-0.053247023
72	0x3cb5960e	0.022166278
73	0xbc520ce4	-0.012820456
74	0x3cdabb0c	0.026700519
75	0x3d071cce	0.032986455
76	0xbdb9f312	-0.09079565
77	0xbd64faf3	-0.055903386
78	0x3ca7d0ed	0.020485366
79	0xbe0b9c78	-0.13633907
80	0x3cafafb4	0.021446086
81	0xbcffc66d	-0.031222546
82	0x3ea98474	0.33108866
83	0xbdc2fef7	-0.09521287
84	0xbd7abd35	-0.061215598
85	0xbd0d948c	-0.034565493
86	0x3db68b77	0.089133196
87	0xbd64587d	-0.05574845
88	0xbd6c68a5	-0.057716984
89	0xbcb77c59	-0.02239816
90	0xbe1a61ea	-0.15076414
91	0x3dd8dcc7	0.10588985
92	0xbc9d3ac4	-0.01919306
93	0xbbc92136	-0.0061379923
94	0xbd89d638	-0.06730312
95	0xbd59b9a5	-0.05315556
96	0xbe1674e1	-0.14693023
97	0xbc9e283b	-0.019306293
98	0x3e3b5121	0.18292667
99	0xbd8735b9	-0.06602044
100	0x3d5f765f	0.054556247
101	0x3bf1dee8	0.007381309
102	0x3ead0c64	0.33798516
103	0xbdd02399	-0.1016304
104	0x3e34ca4c	0.17655295
105	0x3c716cc7	0.014735407
106	0x3adb2edc	0.0016722339
107	0xbd910e3a	-0.070827916
108	0xbd6d2927	-0.057900574
109	0xbd62a3cd	-0.055331994
110	0x3dd47f3f	0.10375833
111	0xbd73092b	-0.059334915
112	0x3cb1102b	0.021614155
113	0xbc857ec6	-0.016295802
114	0xba6d40b5	-0.00090504746
115	0x3edb5dac	0.42844903
116	0x3d0f8f48	0.035048753
117	0x3dfe5980	0.124194145
118	0xbcfe79ef	-0.031064002
119	0x3c225e6b	0.009910206
120	0x3d2df2e5	0.04246797
121	0xbdd8d6a3	-0.10587814
122	0x3ccda887	0.025104774
123	0x3e30b832	0.17257765
124	0xbd33ab0c	-0.043864295
125	0xbeb5396c	-0.35395372
126	0xbd5a49b5	-0.05329295
127	0x3b9c4a66	0.004769611
128	0x3bd66035	0.0065422305
129	0x3b256646	0.0025237962
130	0xbd93d4b0	-0.07218301
131	0xbd811d56	-0.063044235
132	0xbd101401	-0.035175327
133	0x3c8176d1	0.015803726
134	0xbd18d2eb	-0.037310522
135	0x3e3b13ac	0.18269223
136	0x3e5580a2	0.20849851
137	0xbd34e0be	-0.044159643
138	0x3ca90416	0.020631831
139	0xbc8c31d5	-0.017113606
140	0xbde95785	-0.11393646
141	0x3ccef5ef	0.025263755
142	0xbd538f76	-0.051650487
143	0xbe0c1ea0	-0.13683558
144	0xbd32aeac	-0.04362361
145	0x3d01b0b1	0.031662647
146	0xbe11d3aa	-0.142409
147	0x3cf095c4	0.029368289
148	0xbb0dc4a5	-0.0021632102
149	0xbdbcfcfe	-0.09227942
150	0xbc872139	-0.016495334
151	0x3e6e80f6	0.23291382
152	0x3cacc91f	0.021091996
153	0xbd0f351e	-0.034962766
154	0x3c416a08	0.011805065
155	0x3d258324	0.04040827
156	0x3b58ee7f	0.003310114
157	0xbd5e6a8a	-0.054300822
158	0x3cb8107a	0.022468794
159	0x3e5708d3	0.2099946
160	0x3cfc6cbe	0.030813571
161	0x3d1af42e	0.037830524
162	0xbcf46942	-0.029835347
163	0x3e223460	0.15840292
164	0xbb8ea38a	-0.0043529915
165	0x3a899cd5	0.001049901
166	0x3c8a15d9	0.01685612
167	0x3d52bb5e	0.05144822
168	0xbcc3f38d	-0.023919845
169	0x3cae9dd3	0.02131549
170	0xbd001f05	-0.031279583
171	0xbd180bcc	-0.037120625
172	0xbdd6df49	-0.10491807
173	0xbd70a048	-0.058746606
174	0xbdf1dbc2	-0.118094936
175	0xbc97c25f	-0.0185253
176	0xbd82478a	-0.06361301
177	0x3e860dd5	0.26182428
178	0x3d14f33c	0.03636478
179	0x3cf887c5	0.030338177
180	0x3d7e97db	0.06215654
181	0x3bf876cd	0.0075825215
182	0xbd1cfdd1	-0.038327996
183	0x3d4fe5f4	0.05075641
184	0xbd56b926	-0.052422665
185	0xbdbcd2e3	-0.09219911
186	0x3d16a6bb	0.0367801
187	0xbd5a8fb5	-0.053359706
188	0xbbcdda85	-0.006282153
189	0x3c756637	0.014977983
190	0xbd518965	-0.05115642
191	0xbe36f3ce	-0.17866442
192	0x3c3a27de	0.011362044
193	0xbd2a8461	-0.041630153
194	0x3d1194c7	0.035542276
195	0x3e715bd6	0.23570189
196	0x3e5ba751	0.21450545
197	0xbc288c94	-0.010287423
198	0xbc7871f3	-0.015163886
199	0x3e2ef7fd	0.17086788
200	0xbd86790e	-0.06566058
201	0xbc7766b2	-0.015100168
202	0x3dcc3ad7	0.0997216
203	0x3c133b8c	0.008986365
204	0x3c6cda3f	0.014456331
205	0xbd738145	-0.059449453
206	0x3dfc8e84	0.1233187
207	0xbd8735e0	-0.06602073
208	0xbd21b211	-0.039476458
209	0xbc96c9a3	-0.018406695
210	0x3d11e7e9	0.035621557
211	0x3ce7260c	0.028216384
212	0x3d85f9f2	0.06541814
213	0xbbebbfcf	-0.007194496
214	0x3e1523e7	0.14564477
215	0xbe3be49b	-0.18348925
216	0xbbf18773	-0.007370883
217	0xbd0a9912	-0.033837385
218	0xbdf76fe1	-0.12081886
219	0x3ec301b8	0.3808725
220	0x3d9b6cc2	0.07589103
221	0x3c9a5feb	0.018844565
222	0xbde408b6	-0.11134474
223	0x3cb09bc9	0.02155866
224	0xbd4664cf	-0.048435982
225	0x3ca18f4a	0.019721646
226	0xbd511138	-0.05104181
227	0xbdcca7aa	-0.09992917
228	0xbd4bb8f2	-0.049736924
229	0x3a3c7294	0.00071887043
230	0xbd228fc2	-0.03968788
231	0xbd75f878	-0.06005141
232	0xbd637294	-0.055529192
233	0x3c08a755	0.008340676
234	0x3c770716	0.015077373
235	0xba78e7fd	-0.0009495018
236	0xbc7b1559	-0.015324914
237	0x3e1f20c1	0.15539838
238	0xbe3efa26	-0.18650112
239	0x3c976d68	0.018484786
240	0xbdede385	-0.116156615
241	0xbcd78a5e	-0.026311096
242	0x3d322529	0.04349247
243	0x3d3495de	0.044088237
244	0xbd1cfb4d	-0.038325597
245	0xbc9fd056	-0.019508522
246	0x3e8ddc19	0.27706984
247	0xbdd7eb07	-0.10542875
248	0x3c785290	0.015156403
249	0xbd0e1c48	-0.03469494
250	0x3df928fa	0.12166019
251	0x3cdd42ba	0.027009357
252	0xbd507f87	-0.05090287
253	0x3d438842	0.047737367
254	0x3d6b719a	0.057481386
255	0xbe608cdd	-0.21928735

l3.weight f4 [6, 300]
0	0xbd5f0396	-0.05444678
1	0xbd252076	-0.04031416
2	0xbdce0e48	-0.10061318
3	0xbd36fc1e	-0.04467403
4	0xbd9504ca	-0.07276304
5	0xbbe8869e	-0.0070961257
6	0xbd5d2c3a	-0.053997256
7	0xbe3a56a4	-0.18197113
8	0x3e068657	0.13137184
9	0xbd3d8311	-0.046267573
10	0x3db8a0a0	0.09015012
11	0x3e15cbd6	0.14628538
12	0x3da2e6b9	0.07954163
13	0xbd4728b1	-0.04862279
14	0x3d95bedc	0.07311794
15	0x3cb449e9	0.0220079
16	0xbcb39e79	-0.021926152
17	0xbb8115f1	-0.003939383
18	0x3ca66b3d	0.020314807
19	0xbb270f90	-0.0025491454
20	0xbd229b69	-0.039698992
21	0xb8f3e80a	-0.000116303636
22	0x3cc95661	0.024577321
23	0x3d7d43de	0.0618323
24	0xbd0bb839	-0.034111235
25	0x3d0a0ad1	0.03370172
26	0x3b394064	0.002826714
27	0xbb1d8eeb	-0.0024041485
28	0xbbcd1dbd	-0.0062596486
29	0xbdda97c1	-0.10673476
30	0xbbd4f5be	-0.0064990213
31	0x3d2206f6	0.03955742
32	0x3d01ed80	0.03172064
33	0x3da7dc5e	0.081963286
34	0xbdf80207	-0.12109762
35	0x3d16323b	0.036668997
36	0x3d2d4c22	0.042308934
37	0x3c59b616	0.013288042
38	0xbd80670e	-0.06269656
39	0xbb581f26	-0.003297755
40	0x3a4505fe	0.00075158465
41	0xbca195fa	-0.019724835
42	0xba1025f1	-0.0005498818
43	0xbb7d7747	-0.0038675831
44	0xbc254824	-0.010088
45	0x3d0fdc5b	0.035122257
46	0x3d4b6cb3	0.04966421
47	0xbe36d47b	-0.17854492
48	0xbd061e28	-0.032743603
49	0x3d6d1a3d	0.05788635
50	0x3e34df06	0.17663202
51	0xbce92519	-0.028460072
52	0x3ca18d0c	0.019720577
53	0x3d0d34a6	0.034474038
54	0xbc04e3af	-0.008110925
55	0x3e013492	0.1261771
56	0xbc96470f	-0.01834443
57	0x3d960222	0.073246256
58	0xbbb677b8	-0.005568471
59	0x3d52664d	0.051367093
60	0xbcaedee9	-0.021346526
61	0x3d1a9a47	0.037744787
62	0x3c460880	0.0120869875
63	0xbd672292	-0.056429453
64	0xbd21b5f3	-0.03948016
65	0x3c0cae78	0.0085865185
66	0x3d505f14	0.050871924
67	0x3c3496a8	0.011022247
68	0xbd16df5d	-0.03683411
69	0x3e02e408	0.127823
70	0x3d3ac702	0.045599945
71	0xb836b054	-4.35564e-05
72	0x3d0166b4	0.031592086
73	0xbd2d8f0e	-0.042372756
74	0xbbf0a9f7	-0.00734448
75	0xbdf8e98c	-0.121539205
76	0xbd898d48	-0.067164004
77	0x3d2da3ad	0.04239242
78	0x3ce74045	0.028228888
79	0x3daf8816	0.08570878
80	0x39d8918f	0.0004130718
81	0x3bd9ee87	0.006650749
82	0x3d98aae8	0.07454473
83	0x3d98b4f5	0.0745639
84	0x3bfb0a5b	0.0076611466
85	0xbd05c285	-0.03265621
86	0x3cbd5f72	0.023116801
87	0xbca88e8b	-0.020575782
88	0x3dd2200b	0.10260018
89	0x3c88eb7b	0.016713848
90	0xbdc1afad	-0.094573356
91	0x3e1fc7af	0.15603517
92	0xbc246360	-0.0100334585
93	0x3da4ad78	0.08040899
94	0xbd00d73a	-0.031455256
95	0xbd06f4ac	-0.03294818
96	0x3c4fba78	0.012678735
97	0xb981f1f5	-0.0002478507
98	0x3e1974c6	0.14985952
99	0x3d8b7c71	0.06810845
100	0x3d00e261	0.03146589
101	0xbbcf03b4	-0.00631758
102	0x3e86f3c7	0.26357862
103	0x3d03126f	0.032
104	0x3d37f272	0.04490895
105	0xbd326923	-0.043557297
106	0xbbe8c2a8	-0.007103283
107	0x3d0ef66d	0.03490298
108	0xbc012533	-0.007882404
109	0xbbf78e06	-0.0075547723
110	0x3d95cf53	0.073149346
111	0x3df781b8	0.12085289
112	0x3d50772e	0.05089491
113	0x3b471559	0.0030377714
114	0xbcf700cd	-0.030151749
115	0x3e21b50c	0.1579172
116	0x3d117376	0.035510503
117	0x3cd18a00	0.025578499
118	0xbd2a7b4f	-0.041621502
119	0x3d284a78	0.041086644
120	0x3c97f769	0.018550592
121	0x3d86faa9	0.065907784
122	0xbd1db6d9	-0.038504455
123	0x3dbc3ea4	0.09191635
124	0x3d037b3b	0.032099944
125	0xbe376c05	-0.179123
126	0xbc904695	-0.017611781
127	0xbd37aad8	-0.044840664
128	0x3d2fe4a7	0.04294267
129	0xbd4850be	-0.048905127
130	0x3c07369b	0.008252765
131	0xbd82872e	-0.0637344
132	0x3d41cdfb	0.04731558
133	0x3c1738d5	0.009229858
134	0x3d178511	0.036992136
135	0xbdcab023	-0.09896877
136	0x3df8c4a7	0.121468835
137	0x3cc3bc76	0.023893576
138	0x3cf613b0	0.030038685
139	0xbc9fd66f	-0.01951143
140	0xbd73a5ba	-0.05948422
141	0xbcc0cdeb	-0.02353569
142	0x3d2395b1	0.03993768
143	0x3e2c6557	0.16835533
144	0x3c5c088c	0.013429772
145	0xbaa50f97	-0.0012593147
146	0xbd0a0c4b	-0.03370313
147	0xbd3a330a	-0.04545883
148	0x3caf783e	0.02141964
149	0xbd8afe60	-0.067867994
150	0xbd396238	-0.045259684
151	0x3e0b0b7b	0.13578598
152	0xbcb478ec	-0.022030316
153	0x3bd2b195	0.006429861
154	0x3c888390	0.016664296
155	0x3cd6710b	0.02617695
156	0x3e3b1dfd	0.18273158
157	0xbcf62114	-0.03004507
158	0xbd3f837d	-0.046756256
159	0x3e105b17	0.14097248
160	0xbc460fa3	-0.012088689
161	0xbd1ab5ac	-0.037770912
162	0xbc785f0a	-0.015159378
163	0xbcedc140	-0.029022813
164	0xbd720393	-0.05908544
165	0xbcc249cb	-0.023716828
166	0xbcbae917	-0.022816224
167	0xbe61c23c	-0.22046751
168	0xbd11e6e9	-0.035620604
169	0xbb02f6fd	-0.0019983642
170	0xbc30b914	-0.010786314
171	0xbd09fafe	-0.03368663
172	0xbbfeef3e	-0.0077799847
173	0x3ba59cf9	0.005054113
174	0xbd6b45d7	-0.05743965
175	0xbd463e4a	-0.048399247
176	0x3dd6a08e	0.10479842
177	0x3df082f5	0.11743728
178	0x3dbe7ee7	0.093015485
179	0xbd1f01ea	-0.038820185
180	0x3dd073fb	0.101783715
181	0x3c06e034	0.008232165
182	0x3b815495	0.0039468505
183	0x3de3aad7	0.111165695
184	0x3bc42d5a	0.0059868516
185	0x3de1b423	0.110206865
186	0x3cfb2444	0.030656941
187	0xbccaea03	-0.024769789
188	0xbc8134f9	-0.01577233
189	0xbb889840	-0.0041685402
190	0xbc8e48a1	-0.017368617
191	0xbd726831	-0.059181396
192	0x3e3a14d1	0.18172003
193	0x3d81b170	0.06332672
194	0xbd2c0d44	-0.04200484
195	0x3e1bf8d8	0.15231645
196	0x3e126b3b	0.14298718
197	0x3d613f95	0.054992277
198	0xbd579802	-0.0526352
199	0x3df52b21	0.11971117
200	0xbd5cf3bd	-0.053943384
201	0x3ccb4350	0.02481237
202	0x3dee3dfb	0.116329156
203	0xbba17036	-0.0049267067
204	0xbd2ef142	-0.04271055
205	0xbd47133b	-0.048602324
206	0x3dbfb551	0.09360755
207	0x3c57cae5	0.013170932
208	0xbb839d03	-0.00401652
209	0x3bad6a32	0.0052922005
210	0x3be1ce48	0.0068910457
211	0x3b960339	0.004578021
212	0xbd62f7f6	-0.055412255
213	0xbcb8ac4d	-0.022543097
214	0xbc816904	-0.015797146
215	0xbc3f9750	-0.011693791
216	0xbe8448e1	-0.25836852
217	0xbcdde823	-0.02708823
218	0x3db1acf8	0.08675569
219	0x3e26165c	0.16219467
220	0x3d4d19cb	0.050073426
221	0xbd6b6ac1	-0.057474855
222	0x3d438aa7	0.04773965
223	0x3bb3ce60	0.0054872483
224	0xbbdb4338	-0.0066913627
225	0xbc83ba22	-0.016079966
226	0x3c2a691f	0.010401039
227	0xbaf9d325	-0.0019060118
228	0xbad960b2	-0.0016584604
229	0x3b8d10d4	0.0043049846
230	0x3b25f220	0.002532132
231	0xbc72681d	-0.01479533
232	0xbcb1080d	-0.021610284
233	0xbd532863	-0.051552188
234	0xbc34b1f8	-0.011028759
235	0x3b352edc	0.0027646339
236	0xbd5551e4	-0.05208005
237	0x3d3145ab	0.04327933
238	0xbde90a1c	-0.11378881
239	0xbced14b9	-0.028940545
240	0xbc5438e5	-0.012953018
241	0x3c2a3a33	0.010389852
242	0x3dfa56d0	0.122235894
243	0xbd49b90b	-0.049248736
244	0xbd22c997	-0.039743032
245	0xbccde78c	-0.025134824
246	0x3dec69ac	0.11543593
247	0xbda976c1	-0.08274604
248	0x3c5904c8	0.013245769
249	0xbd1fd8ef	-0.039025243
250	0x3da72e4e	0.08163129
251	0xbdd999fd	-0.10625074
252	0x3af49028	0.0018658685
253	0xbc6cfc27	-0.014464415
254	0x3d5155b1	0.051107112
255	0xbddce228	-0.107853234

l3.bias f4 [6]
0	0x3e2d1f1d	0.169064
1	0xbe6c5caf	-0.23082231
2	0xbd57e7ab	-0.05271117
3	0xbd0d4559	-0.034489963
4	0x3d3acaac	0.04560344
5	0xbe2079dc	-0.15671486
