2019_test_data/single_assembly/ATD3_Peg-in-hole-single_assembly_seed_4/_actor.pth (torch_old, 510312 bytes, 6 tensors)

l1.weight f4 [400, 12]
-0.32491928 0.40002835 -0.027107483 0.22233264 -0.4853035 -0.31120887 0.40133888 0.39676258
-0.12812322 0.44385162 -0.23159197 -0.12903626 0.45052844 0.2348183 0.090870164 -0.04796759
0.12685768 -0.35094523 -0.13657206 -0.39044958 0.06986011 -0.23904826 0.22408766 -0.053346306
0.23982163 0.033489052 0.17626525 0.091145866 0.2561882 -0.119587734 0.21009722 0.17435528
-0.15234034 0.16609986 0.27732345 -0.15937631 -0.11259848 0.19748345 0.23276418 0.07615179
0.088647544 0.21381229 0.25298947 -0.18257391 -0.118742496 0.2430554 0.15591925 -0.13544905
-0.031412546 0.7180297 0.079619884 0.16048463 0.08792322 -0.32126758 0.16376978 0.03493788
0.1506671 0.1848731 -0.50538003 0.12719135 -0.6088639 0.82401633 -0.045872882 -0.058981236
0.15984723 0.7302971 -0.22410034 -0.52169335 -0.0035118945 -0.1980966 0.38409877 -0.6059211
-0.5722595 0.23644462 0.08165797 0.16797414 0.2750566 0.39035022 -0.21325707 -0.40830064
0.0470506 0.16446331 0.26417527 -0.26674744 -0.25259113 0.08896962 0.1337187 0.2898065
-0.18898499 -0.0010073344 0.25912058 0.54577345 0.25439483 0.5981874 0.0775473 0.18026768
-0.28078777 0.14136994 0.27845466 -0.21026707 -0.14532056 0.24716574 0.22546607 -0.027609736
-0.1647703 0.05292213 -0.2827398 -0.114023715 0.50473344 -0.18570179 0.033137616 -0.09573241
-0.34727994 0.05660556 0.022952719 0.5279868 0.23978136 0.25190887 0.13039322 0.44511467
-0.17145056 -0.24774243 0.071260795 0.03967349 0.31517828 -0.0429898 -0.18304887 0.31462368
0.022455698 0.31480283 0.069555506 0.3313656 -0.5307095 0.15499319 -0.03367776 0.08368636
0.18855481 0.04627913 0.61503404 0.26126048 0.3005177 0.43939123 -0.6006145 0.2357725
0.47275898 -0.06333626 0.009260187 -0.001782714 0.060114652 -0.35345867 -0.51172364 0.11132835
-0.68428093 -0.09622084 0.23215519 0.0030676269 0.17542975 0.13443157 -0.07468868 -0.25323084
0.07334989 -0.36248747 -0.38617322 -0.04442179 -0.17988381 -0.27707112 0.31794363 0.26242086
-0.09226504 -0.2843765 0.28231788 0.15627185 0.20832801 -0.05265124 -0.05948314 0.028227866
0.07065019 0.0074616373 -0.14982478 0.25785553 0.7459435 0.15812752 -0.033786636 0.0045633567
-0.39669946 -0.29394236 0.37341824 0.086146094 0.15396874 -0.17623547 -0.43041998 0.17095815
0.38400865 -0.2363326 0.004810847 0.04093669 -0.11871489 -0.004448203 0.19011289 -0.36680484
0.3016302 -0.47217986 0.070959784 0.10592048 -0.6982322 0.13208115 0.045114234 0.18161082
0.07486639 0.3300506 0.36767113 -0.32743436 -0.23662083 -0.06419186 -0.09293357 -0.4043351
-0.14279659 0.44414133 0.06714759 -0.00043382993 0.42738745 -0.057038903 -0.27228472 -0.42166457
0.10058036 -0.40427962 0.10411828 -0.3929919 0.17584899 0.4285761 -0.010865356 -0.44150287
0.09045202 0.49452358 -0.18551373 -0.17673601 0.11529462 -0.44118097 0.08996794 0.15454522
-0.13270603 0.3011212 0.01338088 0.13492046 0.091280684 0.36277702 -0.23337628 0.09134725
-0.35454503 0.20128694 -0.22540271 0.15097569 -0.51421165 0.21197401 -0.07367751 -0.5892875
00000000: d25b a6be 84d0 cc3e 8310 debc 2bab 633e
00000010: b379 f8be c556 9fbe 4a7c cd3e 7724 cb3e
00000020: bc32 03be 8540 e33e 7226 6dbe 1522 04be
00000030: aaab e63e 3574 703e 231a ba3d aa79 44bd
00000040: fbe6 013e 18af b3be 8cd9 0bbe 02e9 c7be
00000050: d112 8f3d 11c9 74be 3c77 653e a881 5abd
00000060: cd93 753e d12b 093d e17e 343e afaa ba3d
00000070: 1a2b 833e 6aea f4bd ba23 573e 318a 323e
00000080: 1bff 1bbe 1516 2a3e 57fd 8d3e 8b33 23be
00000090: 089a e6bd 1a39 4a3e bc59 6e3e 78f5 9b3d
000000a0: d88c b53d 9cf1 5a3e d687 813e a8f4 3abe
000000b0: 442f f3bd 84e3 783e 4ca9 1f3e 28b3 0abe
000000c0: 71aa 00bd cbd0 373f c00f a33d 1556 243e
000000d0: 1711 b43d 2f7d a4be 44b3 273e 061b 0f3d
000000e0: 7a48 1a3e 604f 3d3e 9660 01bf 733e 023e
000000f0: 81de 1bbf bcf2 523f 34e5 3bbd 4f96 71bd
00000100: feae 233e c0f4 3a3f 8f7a 65be b28d 05bf
00000110: d027 66bb d6d9 4abe 98a8 c43e a51d 1bbf
00000120: 997f 12bf 8a1e 723e 4b3c a73d 6a01 2c3e
00000130: 38d4 8c3e fcdb c73e 1060 5abe c80c d1be
00000140: 21b8 403d 1269 283e fb41 873e 1f93 88be
00000150: a053 81be b435 b63d 8eed 083e 8461 943e
00000160: 4885 41be 8908 84ba 74ab 843e cfb7 0b3f
00000170: 0a40 823e cf22 193f 1ed1 9e3d 1798 383e
00000180: 6ac3 8fbe 48c3 103e 9c91 8e3e 4050 57be
00000190: eace 14be 0419 7d3e 94e0 663e d02d e2bc
000001a0: 8cb9 28be e0c4 583d 45c3 90be 4485 e9bd
000001b0: 3636 013f 9c28 3ebe 4fbb 073d 5b0f c4bd
000001c0: adce b1be 3bdb 673d 5707 bc3c 252a 073f
000001d0: 3f89 753e 33fa 803e cd85 053e 12e6 e33e
000001e0: bc90 2fbe 31b0 7dbe 2ef1 913d ab80 223d
000001f0: 0c5f a13e 1316 30bd 2a71 3bbe 5b16 a13e
00000200: 03f5 b73c d62d a13e 1e73 8e3d c0a8 a93e
00000210: 94dc 07bf 89b6 1e3e b1f1 09bd c163 ab3d
00000220: 8314 413e 2f8f 3d3d df72 1d3f efc3 853e
00000230: 75dd 993e e3f7 e03e dfc1 19bf 596e 713e
00000240: 770d f23e 71b6 81bd 0ab8 173c f5a9 e9ba
00000250: c83a 763d 89f8 b4be 5200 03bf 1e00 e43d
00000260: 092d 2fbf 6f0f c5bd 17ba 6d3e 3d0a 493b
00000270: dba3 333e 6ea8 093e 61f6 98bd 79a7 81be
00000280: 7838 963d f597 b9be 7fb8 c5be 9ff3 35bd
00000290: 7633 38be 44dc 8dbe 82c9 a23e 075c 863e
000002a0: 74f5 bcbd cc99 91be f88b 903e ba05 203e
000002b0: f053 553e d4a8 57bd 98a4 73bd 203e e73c
000002c0: 0cb1 903d c080 f43b ab6b 19be a405 843e
000002d0: 27f6 3e3f 2eec 213e db63 0abd 3688 953b
000002e0: 311c cbbe 9d7f 96be ad30 bf3e 5d6d b03d
000002f0: fba9 1d3e 1277 34be 0260 dcbe a70f 2f3e
00000300: c89c c43e 2c01 72be 4fa4 9d3b 3bad 273d
00000310: cb20 f3bd 3bc2 91bb f4ac 423e d8cd bbbe
00000320: 466f 9a3e 8fc1 f1be 5d53 913d d6ec d83d
00000330: 58bf 32bf 4840 073e b4c9 383d 30f8 393e
00000340: 8d53 993d 64fc a83e 643f bc3e 7aa5 a7be
00000350: bb4c 72be 0677 83bd f553 bebd 0305 cfbe
00000360: 4539 12be 7e66 e33e ad84 893d ab73 e3b9
00000370: 87d2 da3e a0a1 69bd e768 8bbe 6be4 d7be
00000380: 13fd cd3d bdfd cebe f73b d53d 3c36 c9be
00000390: c211 343e 546e db3e 9b04 32bc aa0c e2be
000003a0: e93e b93d 3232 fd3e 50f7 3dbe 49fa 34be
000003b0: 961f ec3d 79e2 e1be 1c41 b83d 1a41 1e3e
000003c0: 17e4 07be 8f2c 9a3e 7a3b 5b3c 9728 0a3e
000003d0: 5ef1 ba3d e9bd b93e 31fa 6ebe 4414 bb3d
000003e0: ed86 b5be 2a1e 4e3e f8cf 66be 5f99 1a3e
000003f0: 60a3 03bf b70f 593e 3ce4 96bd 8cdb 16bf

l1.bias f4 [400]
0.022059772 0.10360909 0.12620158 -0.23449183 -0.37729928 -0.73590493 -0.084043786 0.18997595
0.04255593 -0.16428816 -0.29132965 0.10069115 0.58763653 0.038966037 0.26288605 -0.63592756
-0.31529266 0.17442653 -0.109657474 -0.67900544 -0.116188444 -0.34406134 -0.028101895 -0.21021526
0.15173517 -0.40655228 -0.51438224 -0.5651713 -0.40539274 0.24800952 -0.18123145 0.1382508
0.09786492 -0.1582105 -0.6264128 -0.16186388 0.055595618 0.6077988 -0.05769528 -0.1607555
0.41044074 0.023989957 -0.10602106 -0.71769446 -0.57452095 -0.12535435 0.4733398 -0.37351096
-0.4092256 -0.49217093 -0.2873107 -0.38222393 0.36466613 -0.17256398 -0.725342 -0.361139
-0.1606173 -0.6964074 0.18832405 0.17830242 -0.40901434 0.030041737 0.37096855 -0.037438538
-0.036587466 0.27637494 0.21938224 0.02819956 -0.42291796 0.23929566 0.670878 -0.46353856
0.12430393 0.45299616 -0.42403066 0.2414129 0.17241594 -0.24912064 -0.60502666 0.0511337
-0.09580255 0.17499405 -0.099103935 0.18715759 0.07743816 0.4024126 0.24673513 -0.25405493
-0.10372075 0.26328683 0.1344406 -0.33873308 -0.5668884 0.014481384 0.06659144 -0.0065975785
-0.12525666 -0.25233418 0.099961974 -0.38441017 0.18469058 0.8454791 -0.27252322 -0.15613602
-0.5754721 -0.58595115 -0.20470454 -0.5609871 0.04666407 -0.19731201 -0.13338599 0.2172521
0.29715633 0.304157 -0.5473778 0.15291882 0.22646977 -0.03459946 0.47354773 -0.07074293
0.055406865 0.024834197 -0.25490364 -0.16252099 0.31274053 -0.6052636 -0.13148542 -0.3810102
-0.07387866 -0.5769847 -0.24120069 0.59437686 -0.73715186 0.06823209 0.10581557 0.11840022
0.25328553 -0.1773715 0.43356404 -0.7106831 -0.5389817 0.1596941 -0.59024876 0.23399188
-0.40805453 -0.12742485 0.040047616 -0.2430261 0.075478375 -0.10274301 -0.6186941 -0.061450545
-0.5084208 -0.7033925 -0.072402716 -0.16705574 -0.034267236 -0.5839056 -0.5396548 0.12141321
0.26716298 -0.79004097 0.5279015 -0.31809625 -0.4098067 -0.85236746 -0.19148682 -0.09809828
0.4382401 -0.29465896 -0.18386795 -0.36249733 0.11941478 0.16196194 -0.50711393 -0.21115029
0.7036789 -0.40867564 -0.6861303 -0.424376 -0.0041596433 -0.17666833 -0.8521111 -0.21926564
-0.6100954 -0.18914422 0.25733733 0.4496689 -0.49214497 -0.21880281 -0.24313635 0.38974884
-0.7516848 0.5095047 -0.31037596 0.33253396 -0.12620938 -0.45116088 -0.11229313 -0.69844943
0.11552021 -0.20214732 -0.0021405793 -0.24493782 -0.13693668 -0.1342261 -0.038160846 -0.13413945
0.2161812 -0.27008143 -0.2539361 0.36460584 -0.60470635 0.42786926 -0.5431355 -0.037286416
0.20459476 -0.28514138 -0.28950363 -0.05682491 0.2687395 -0.22224173 -0.27153558 -0.07737408
0.015699957 -0.2825567 -0.09305765 -0.26974422 -0.768069 -0.063181706 -0.5034782 0.038592815
-0.049304917 0.028292507 -0.31556943 -0.0068233134 0.26487938 0.24606906 0.54692763 -0.51326764
-0.043679737 0.57651037 -0.10513348 -0.064424984 0.057774615 -0.30569392 -0.54872197 -0.13323486
0.04706183 0.2814471 -0.6791651 -0.26780772 -0.28313714 0.3605382 -0.35688823 0.21683209
00000000: b2b6 b43c 0131 d43d fd3a 013e a01e 70be
00000010: 5f2d c1be 4464 3cbf 261f acbd 0e89 423e
00000020: 204f 2e3d 283b 28be 2929 95be 2937 ce3d
00000030: 596f 163f da9a 1f3d 0099 863e 26cc 22bf
00000040: 0a6e a1be de9c 323e 1994 e0bd 4dd3 2dbf
00000050: 35f4 edbd cf28 b0be f235 e6bc ab42 57be
00000060: 7760 1b3e 9f27 d0be 8eae 03bf 11af 10bf
00000070: a38f cfbe 35f6 7d3e bd94 39be 9e91 0d3e
00000080: 676d c83d ef01 22be 975c 20bf a5bf 25be
00000090: 3bb8 633d b498 1b3f e351 6cbd 179d 24be
000000a0: 4a25 d23e 9686 c43c 9221 d9bd d3ba 37bf
000000b0: ce13 13bf e45c 00be 9859 f23e d43c bfbe
000000c0: 0586 d1be d4fd fbbe 631a 93be dbb2 c3be
000000d0: 85b5 ba3e 9db4 30be 03b0 39bf 36e7 b8be
000000e0: dd78 24be c147 32bf 05d8 403e e994 363e
000000f0: 546a d1be 171a f63c 97ef bd3e 2759 19bd
00000100: bddc 15bd 0481 8d3e bda5 603e c302 e73c
00000110: b488 d8be ec09 753e a9be 2b3f ed54 edbe
00000120: 0f93 fe3d 1def e73e 8c1a d9be f134 773e
00000130: ce8d 303e 7b19 7fbe 07e3 1abf 9271 513d
00000140: 2134 c4bd a431 333e 01f7 cabd 3da6 3f3e
00000150: e697 9e3d 0609 ce3e 22a8 7c3e 7d13 82be
00000160: 8b6b d4bd 88cd 863e ccaa 093e 6c6e adbe
00000170: 991f 11bf 5443 6d3c 1861 883d 8030 d8bb
00000180: 4843 00be f231 81be ddb8 cc3d 69d1 c4be
00000190: 871f 3d3e 5171 583f 2a88 8bbe 1fe2 1fbe
000001a0: 2452 13bf e500 16bf 119e 51be da9c 0fbf
000001b0: d322 3f3d 290c 4abe 5696 08be 5677 5e3e
000001c0: e024 983e 77ba 9b3e f420 0cbf c096 1c3e
000001d0: b1e7 673e 2ab8 0dbd d974 f23e abe1 90bd
000001e0: 4ff2 623d 1671 cb3c bb82 82be e76b 26be
000001f0: 871f a03e 8ef2 1abf 1da4 06be c513 c3be
00000200: b24d 97bd 45b5 13bf 50fd 76be 1529 183f
00000210: fcb5 3cbf 44bd 8b3d d5b5 d83d d17b f23d
00000220: a4ae 813e e0a0 35be 1bfc dd3e 54ef 35bf
00000230: b4fa 09bf da86 233e 8b1a 17bf 919b 6f3e
00000240: 86ec d0be a97b 02be f808 243d d5db 78be
00000250: 6894 9a3d ed6a d2bd bd62 1ebf 91b3 7bbd
00000260: de27 02bf 8811 34bf e047 94bd a910 2bbe
00000270: cd5b 0cbd d67a 15bf d126 0abf 7da7 f83d
00000280: 96c9 883e 2040 4abf 8d24 073f 83dd a2be
00000290: 2fd2 d1be c134 5abf 1f15 44be c0e7 c8bd
000002a0: 0261 e03e 8add 96be e147 3cbe 4099 b9be
000002b0: bc8f f43d 5ad9 253e 38d2 01bf c837 58be
000002c0: 4d24 343f ef3d d1be 3ca6 2fbf d047 d9be
000002d0: 9e4d 88bb 8be8 34be f423 5abf 2c87 60be
000002e0: 362f 1cbf 06af 41be b8c1 833e 013b e63e
000002f0: 6dfa fbbe d80d 60be bcf8 78be 298d c73e
00000300: 6a6e 40bf e66e 023f 99e9 9ebe e441 aa3e
00000310: 083d 01be 8ffe e6be f1f9 e5bd 95cd 32bf
00000320: dc95 ec3d b5ff 4ebe f648 0cbb fbd0 7abe
00000330: 2139 0cbe 9172 09be 8c4e 1cbd da5b 09be
00000340: 9b5e 5d3e 1d48 8abe ea03 82be 9ead ba3e
00000350: 09ce 1abf ae11 db3e ee0a 0bbf a4b9 18bd
00000360: 4a81 513e 0dfe 91be d239 94be 3dc1 68bd
00000370: 3998 893e 5693 63be b606 8bbe 4d76 9ebd
00000380: 329d 803c 46ab 90be 0295 bebd ea1b 8abe
00000390: 2ca0 44bf 6965 81bd f3e3 00bf 8013 1e3d
000003a0: f4f3 49bd b0c5 e73c 5192 a1be 1a96 dfbb
000003b0: 459e 873e 87f9 7b3e 7303 0c3f 8265 03bf
000003c0: 86e9 32bd 2f96 133f 3950 d7bd 3ff1 83bd
000003d0: 13a5 6c3d ea83 9cbe 0b79 0cbf b86e 08be
000003e0: e8c3 403d d619 903e c4dd 2dbf 181e 89be
000003f0: 5af7 90be 7798 b83e 0eba b6be 3b09 5e3e

l2.weight f4 [300, 400]
-0.13801117 0.03254196 0.02668498 -0.013615448 0.022832416 -0.17005987 -0.033072542 0.02230839
0.047142837 0.20535165 -0.038450345 -0.17889152 0.118467964 -0.0009505685 0.03521842 -0.16096245
-0.21801239 -0.1569392 -0.015047588 -0.20357043 -0.08484545 -0.23168948 0.0074419267 0.04950336
-0.24653047 -0.047059722 -0.048125654 -0.16952032 -0.03892098 -0.026753634 -0.04715169 0.11460626
-0.065743715 -0.090501696 -0.40625605 -0.030778218 0.03536291 0.0642265 0.020444874 -0.007838417
-0.03490116 0.17254047 0.2755803 -0.0913487 0.0029683164 -0.021555424 0.11187473 -0.05939885
-0.0017984054 0.036782645 0.014898393 -0.1997333 -0.011781548 -0.062508956 -0.18727896 0.0043583824
0.025283296 -0.18437578 -0.016659029 -0.26639676 0.0086293155 0.009494733 0.08194108 -0.013664124
0.031128649 -0.028872002 0.03891615 -0.18009365 0.08916173 -0.048273113 0.13496995 0.07309637
-0.030036831 0.07764062 -0.024319788 -0.16074306 -0.049817074 -0.02725231 0.13424805 0.27486652
-0.045452293 0.045507472 -0.008865988 0.046569265 -0.19298606 0.29184598 -0.0040776692 0.010295533
-0.2831762 -0.19852513 -0.10900023 0.123517014 0.02886799 -0.021694291 0.06122185 -0.011332594
0.013306126 -0.024384141 0.027322028 0.072245225 -0.03888779 0.11800161 0.031612314 -0.120816834
-0.1523216 -0.06377024 -0.15323259 0.024121357 -0.022444278 0.0005853772 0.062234316 0.011349879
-0.03012287 0.060883403 -0.05691177 0.046616264 0.057773314 -0.04821041 0.03973581 0.0066621676
0.055756442 -0.022979587 0.005168479 -0.038317703 0.02044215 -0.14927277 -0.029990355 -0.027144369
-0.09267307 -0.12708017 0.04850672 0.033750795 -0.051028397 -0.17477012 0.0067001395 -0.085212655
-0.27691907 0.016629498 0.3397971 -0.05247227 0.030088639 0.035937328 -0.16224472 -0.062573984
-0.011477005 0.01985002 0.03976759 0.020055998 -0.0734021 -0.09726803 0.15426978 -0.058588468
-0.21305738 -0.028599398 -0.06708438 0.089505196 0.09413769 -0.02720323 0.023894738 0.017928377
-0.03970351 -0.14959781 0.15322876 0.015205306 -0.16487151 -0.0033892556 -0.11788894 0.03560308
-0.15737231 -0.021863813 -0.003629677 -0.07910476 0.007285051 -0.034240827 -0.24532829 -0.047362592
0.032119475 -0.0051868767 0.022100616 0.0052790875 -0.030035382 -0.0811679 -0.14422725 -0.23768277
-0.12954439 -0.0344655 0.0065766387 0.0616172 -0.09360989 0.021082494 -0.0071470924 0.04098398
-0.14154036 0.15100308 -0.1453872 0.011086607 -0.0030557923 -0.07406765 -0.024920834 -0.105212666
-0.04484278 -0.021083528 0.047902096 0.020093616 -0.077123284 0.042018812 0.05391002 -0.006967178
0.008908027 -0.023362381 -0.04369247 0.08654208 -0.08812075 -0.09778055 -0.069217354 0.12175443
-0.015276584 -0.009141153 -0.018241417 -0.037857074 0.03354008 0.0026977472 -0.027837057 -0.063758686
-0.06253764 -0.049909588 0.03707897 0.13236737 -0.089985095 -0.08886172 0.025241401 -0.11321508
0.0020086654 -0.03310736 -0.09485308 -0.055305377 -0.06323539 -0.03762544 0.09223352 -0.19438839
-0.15233812 0.042012356 -0.023820048 -0.079351425 -0.028885227 -0.008399136 -0.07108925 -0.018537484
-0.048779007 0.002800215 -0.052141745 -0.018580725 0.16872813 -0.028617868 -0.092475355 -0.04338301
00000000: cd52 0dbe b84a 053d 769a da3c 5413 5fbc
00000010: 0c0b bb3c 2d24 2ebe 1377 07bd 16c0 b63c
00000020: d918 413d b447 523e 1c7e 1dbd 572f 37be
00000030: 559f f23d 922f 79ba 3141 103d 57d3 24be
00000040: a43e 5fbe abb4 20be 298a 76bc c474 50be
00000050: 74c3 adbd 0240 6dbe 68db f33b 09c4 4a3d
00000060: 7c72 7cbe b2c1 40bd 681f 45bd bc96 2dbe
00000070: 9b6b 1fbd 702a dbbc 2122 41bd b0b6 ea3d
00000080: a4a4 86bd f458 b9bd cb00 d0be 9a22 fcbc
00000090: b3d8 103d 2f89 833d 027c a73c b46c 00bc
000000a0: 85f4 0ebd 73ae 303e dc18 8d3e 0715 bbbd
000000b0: 1688 423b 0095 b0bc 941e e53d 354c 73bd
000000c0: 79b8 ebba 66a9 163d 6418 743c e386 4cbe
000000d0: 6507 41bc b204 80bd 0ec6 3fbe c3d0 8e3b
000000e0: ea1e cf3c 01cd 3cbe 8478 88bc 2865 88be
000000f0: f961 0d3c cc8f 1b3c bad0 a73d 7ddf 5fbc
00000100: 8201 ff3c fa84 ecbc 8a66 1f3d 786a 38be
00000110: 6d9a b63d 07ba 45bd 9035 0a3e 8db3 953d
00000120: cd0f f6bc 0c02 9f3d 4b3a c7bc d499 24be
00000130: fd0c 4cbd 3d40 dfbc 5278 093e 4ebb 8c3e
00000140: 2f2c 3abd 0b66 3a3d a642 11bc 6abf 3e3d
00000150: 239e 45be d66c 953e f89d 85bb 98ae 283c
00000160: 79fc 90be 2c4a 4bbe 833b dfbd 7df6 fc3d
00000170: 907c ec3c 3ab8 b1bc c3c3 7a3d 58ac 39bc
00000180: f001 5a3c 40c1 c7bc 72d2 df3c 4ef5 933d
00000190: ce48 1fbd d4aa f13d ea7b 013d d16e f7bd
000001a0: 32fa 1bbe f999 82bd 01e9 1cbe 279a c53c
000001b0: 10dd b7bc 0074 193a 69e9 7e3d d8f4 393c
000001c0: 3dc4 f6bc e060 793d 511c 69bd b2f0 3e3d
000001d0: b6a3 6c3d 4778 45bd 04c2 223d 504e da3b
000001e0: de60 643d b03f bcbc 585c a93b 06f3 1cbd
000001f0: 4c76 a73c f6da 18be 55ae f5bc de5d debc
00000200: 61cb bdbd 4e21 02be fcae 463d 463e 0a3d
00000210: 2703 51bd f0f6 32be d88c db3b f983 aebd
00000220: 56c8 8dbe 963a 883c e3f9 ad3e 2aed 56bd
00000230: 737c f63c 0533 133d 7b23 26be ca26 80bd
00000240: 0c0a 3cbc 829c a23c 57e3 223d 7a4c a43c
00000250: d753 96bd 7634 c7bd e6f8 1d3e 76fa 6fbd
00000260: b72b 5abe 4949 eabc 8963 89bd 804e b73d
00000270: 43cb c03d 4fd9 debc e6be c33c 88de 923c
00000280: 26a0 22bd 2b30 19be 00e8 1c3e ad1f 793c
00000290: 14d4 28be 461e 5ebb c26f f1bd 89d4 113d
000002a0: 3526 21be bd1b b3bc e0df 6dbb ad01 a2bd
000002b0: 70b7 ee3b 1c40 0cbd 5737 7bbe 47ff 41bd
000002c0: b68f 033d adf6 a9bb 5a0c b53c 32fc ac3b
000002d0: c30c f6bc 5b3b a6bd 4fb0 13be 1d63 73be
000002e0: 49a7 04be b22b 0dbd d880 d73b 5162 7c3d
000002f0: 8bb6 bfbd 32b5 ac3c 2832 eabb d1de 273d
00000300: f5ef 10be 8da0 1a3e 62e0 14be 9aa4 353c
00000310: b043 48bb c8b0 97bd c726 ccbc bd79 d7bd
00000320: 10ad 37bd 5db7 acbc fd34 443d 5e9b a43c
00000330: d0f2 9dbd eb1b 2c3d c1d0 5c3d ed4c e4bb
00000340: f9f2 113c 7762 bfbc e0f6 32bd f93c b13d
00000350: a778 b4bd 2b41 c8bd d4c1 8dbd 635a f93d
00000360: a34a 7abc c6c4 15bc 066f 95bc 0510 1bbd
00000370: 5361 093d b0cc 303b 8a0a e4bc ea93 82bd
00000380: bc13 80bd ff6d 4cbd 1ee0 173d 508b 073e
00000390: 1b4a b8bd 22fd b5bd 0ec7 ce3c 4fdd e7bd
000003a0: d0a3 033b 959b 07bd 5542 c2bd e487 62bd
000003b0: 8e81 81bd 221d 1abd ede4 bc3d c00d 47be
000003c0: 86fe 1bbe 2615 2c3d 4322 c3bc 0083 a2bd
000003d0: b6a0 ecbc 889c 09bc 3e97 91bd ecdb 97bc
000003e0: 7fcc 47bd d083 373b 9592 55bd 9b36 98bc
000003f0: 11c7 2c3e 0570 eabc b863 bdbd 62b2 31bd

l2.bias f4 [300]
0.034783766 0.016787786 -0.027224839 -0.07675097 -0.25686702 -0.13102818 0.18737938 -0.0012678615
-0.041176204 -0.08736367 0.032513104 0.016800126 -0.24421914 -0.042799108 -0.02618245 0.09987731
0.004984881 -0.010897266 0.010719829 -0.04659943 0.035957977 -0.12524447 -0.056083184 0.34123766
-0.30965203 -0.050147414 -0.4005973 0.012580336 -0.07960455 0.36581692 -0.017733881 -0.112653375
-0.08081216 -0.033368167 -0.03131054 0.009547095 0.021638785 -0.21332054 -0.16798164 0.049506173
0.18118168 -0.08608145 0.046188746 0.09989593 -0.13589437 -0.07441767 -0.32452124 0.029483983
-0.03695599 -0.157021 0.14606471 -0.18528396 -0.048565663 -0.09460053 -0.004332138 -0.037599847
0.17276604 -0.2810571 -0.026119772 -0.21677308 -0.29401043 0.111605994 -0.0065995064 0.10478242
-0.021121372 -0.020371035 0.010050883 0.005006989 -0.018033491 0.0030087186 -0.08409474 -0.27545136
0.02420344 0.19529927 0.04280076 -0.36757776 -0.120714225 -0.019644288 -0.016049925 -0.004707343
-0.1370002 0.014972515 0.068948835 -0.056349713 0.08271441 -0.32465637 0.029067246 -0.011802696
-0.053565957 -0.0126192765 0.03315997 -0.018490601 -0.034810133 -0.11427701 -0.02475374 -0.04431543
0.023211375 -0.029874543 -0.03494254 -0.22165795 -0.32852656 -0.052380994 0.0034109093 0.009676573
-0.053264413 -0.026531536 0.0034919963 0.035415385 -0.3118054 -0.045915898 0.10864126 -0.383911
-0.032632213 -0.29833773 0.042096674 -0.0884346 -0.0753764 -0.037938897 0.15567346 -0.24842091
-0.16817224 -0.009848194 0.040356282 -0.04968774 -0.010007362 -0.019162398 0.09283414 -0.029702459
-0.050661083 -0.12922697 0.13747545 -0.042564303 0.054654695 0.034967434 -0.087928474 -0.0018216241
0.026370648 -0.26132855 0.01605901 -0.059614718 -0.0013486922 -0.03141107 -0.072486706 -0.18358508
-0.022628956 -0.42846707 -0.170313 0.02554606 -0.039942063 0.03250998 -0.26366162 0.017730547
0.08607019 -0.0040433942 -0.04596784 -0.06929278 0.06129961 0.022182522 -0.048866432 0.035449393
0.000886443 0.17961392 -0.04561156 -0.058867354 -0.051072475 -0.03519504 -0.009098779 -0.048268765
-0.17705375 -0.19174008 0.009577748 -0.12942603 0.025250113 -0.24566902 -0.008649806 0.022037763
-0.18359275 0.09813976 0.01231366 0.031025939 -0.3316268 -0.011846355 0.02745143 -0.071613416
0.22601067 -0.16711974 -0.0066653076 -0.05243827 -0.025569633 -0.053467017 -0.026558358 0.15327983
0.020957803 0.01802909 0.32548624 0.016725074 -0.17592856 -0.03274222 0.17425165 0.008044887
-0.054459408 0.048374876 -0.04947729 -0.030101763 -0.06263163 -0.15684414 -0.2131605 -0.004316861
-0.028385494 -0.028464032 -0.054011658 -0.009787602 -0.028146641 -0.033216547 -0.048293512 0.001468475
-0.14469144 0.04762224 -0.13117671 -0.15676208 0.025779728 -0.06713233 0.012922904 -0.26975772
-0.188543 -0.018434282 -0.1535449 0.0178977 -0.12052288 -0.030288475 -0.015587252 0.0053841583
-0.060168665 0.2935141 -0.039267678 -0.25604075 -0.0390299 -0.24531114 -0.18601407 -0.19856471
0.002998006 0.0336002 -0.029846402 0.04307641 -0.033670083 -0.034085244 -0.29680985 -0.12959765
-0.037924796 -0.11695701 -0.010783385 -0.051796958 -0.032184836 0.01564416 -0.17837228 -0.22019619
00000000: 6c79 0e3d 8a86 893c a006 dfbc 9d2f 9dbd
00000010: 1384 83be 402c 06be 61e0 3f3e 5f2e a6ba
00000020: 61a8 28bd b9eb b2bd 762c 053d 6ba0 893c
00000030: 9514 7abe 1e4e 2fbd 947c d6bc 7a8c cc3d
00000040: 3658 a33b 728a 32bc 39a2 2f3c 0bdf 3ebd
00000050: ac48 133d 1640 00be 7bb7 65bd b4b6 ae3e
00000060: b68a 9ebe 6067 4dbd 171b cdbe c11d 4e3c
00000070: b607 a3bd 5b4c bb3e a546 91bc d0b6 e6bd
00000080: d980 a5bd 0fad 08bd 7b3f 00bd 6b6b 1c3c
00000090: d243 b13c b370 5abe 6103 2cbe fcc6 4a3d
000000a0: b187 393e 794b b0bd 6930 3d3d 3d96 cc3d
000000b0: e527 0bbe 4b68 98bd a627 a6be 6588 f13c
000000c0: 2a5f 17bd 1dca 20be fd91 153e 14bb 3dbe
000000d0: caec 46bd ecbd c1bd 9cf4 8dbb 4c02 1abd
000000e0: 95e9 303e b7e6 8fbe 22f9 d5bc c3f9 5dbe
000000f0: 8988 96be af91 e43d ac40 d8bb 2a98 d63d
00000100: ba06 adbc 28e1 a6bc 75ac 243c ab11 a43b
00000110: f9ba 93bc ec2d 453b dd39 acbd f607 8dbe
00000120: 4b46 c63c 88fc 473e da4f 2f3d 2733 bcbe
00000130: 0539 f7bd 0fed a0bc 227b 83bc 0e40 9abb
00000140: c849 0cbe 484f 753c 0c35 8d3d f5ce 66bd
00000150: 2c66 a93d 5c39 a6be 6f1e ee3c 1860 41bc
00000160: fa67 5bbd 15c1 4ebc c0d2 073d 9a79 97bc
00000170: 1295 0ebd 110a eabd 5bc8 cabc 1984 35bd
00000180: c825 be3c 75bb f4bc e91f 0fbd 4dfa 62be
00000190: a234 a8be 748d 56bd 9089 5f3b 7d8a 1e3c
000001a0: c92b 5abd aa58 d9bc fad9 643b b90f 113d
000001b0: f5a4 9fbe 4f12 3cbd 4f7f de3d fc8f c4be
000001c0: 5ba9 05bd b9bf 98be 906d 2c3d 331d b5bd
000001d0: f15e 9abd d165 1bbd dd68 1f3e 0d62 7ebe
000001e0: 5835 2cbe 525a 21bc a14c 253d 5f85 4bbd
000001f0: ebf5 23bc 76fa 9cbc d31f be3d 9252 f3bc
00000200: ff81 4fbd 1354 04be 5dc6 0c3e e857 2ebd
00000210: 9add 5f3d 033a 0f3d d813 b4bd 90c3 eeba
00000220: 4207 d83c dbcc 85be 2f8e 833c 902e 74bd
00000230: 9ac6 b0ba e5a8 00bd e973 94bd bafd 3bbe
00000240: 5c60 b9bc 0960 dbbe 8866 2ebe f945 d13c
00000250: 4a9a 23bd 2f29 053d a8fe 86be a73f 913c
00000260: 9145 b03d 737e 84bb c648 3cbd 5fe9 8dbd
00000270: 4d15 7b3d 1fb8 b53c 2b28 48bd 6233 113d
00000280: 2f60 683a b6ec 373e 30d3 3abd e51e 71bd
00000290: 5f31 51bd ad28 10bd 0c13 15bc 78b5 45bd
000002a0: 944d 35be 8357 44be fdeb 1c3c 4288 04be
000002b0: 53d9 ce3c a990 7bbe eab7 0dbc 8a88 b43c
000002c0: bdff 3bbe 80fd c83d 3cbf 493c 1c2a fe3c
000002d0: fdca a9be 3717 42bc d2e1 e03c 0eaa 92bd
000002e0: 576f 673e 7021 2bbe a768 dabb 83c9 56bd
000002f0: 6877 d1bc 3b00 5bbd ea90 d9bc 63f5 1c3e
00000300: b3af ab3c beb1 933c 22a6 a63e 0603 893c
00000310: 9e26 34be b51c 06bd 066f 323e b4ce 033c
00000320: d410 5fbd bc24 463d b3a8 4abd f997 f6bc
00000330: 0345 80bd c09b 20be bf46 5abe 7474 8dbb
00000340: b288 e8bc 672d e9bc 543b 5dbd 2e5c 20bc
00000350: c993 e6bc 130e 08bd 6bcf 45bd d879 c03a
00000360: fe29 14be 8a0f 433d 3053 06be 3d86 20be
00000370: 0230 d33c ad7c 89bd 97ba 533c af1d 8abe
00000380: 6b11 41be 7e03 97bc e03a 1dbe 339e 923c
00000390: b3d4 f6bd 891f f8bc ac61 7fbc 986d b03b
000003a0: 6b73 76bd 7b47 963e 25d7 20bd c617 83be
000003b0: d1dd 1fbd d832 7bbe 797a 3ebe 8c54 4bbe
000003c0: 327a 443b 5da0 093d 7180 f4bc e470 303d
000003d0: a4e9 09bd f89c 0bbd 76f7 97be 3fb5 04be
000003e0: 0857 1bbd 2887 efbd cbac 30bc 0c29 54bd
000003f0: 3fd4 03bd 2e28 803c 39a7 36be 1c7b 61be

l3.weight f4 [6, 300]
0.14216281 -0.0111954715 0.10019266 -0.050476376 -0.28241053 -0.19229725 0.08025009 0.020712577
-0.047106776 -0.031116532 0.029718453 -0.012602208 -0.19373156 -0.02191649 -0.044290304 -0.19292283
-0.019636326 -0.008084886 0.050736673 -0.052364036 -0.10798479 -0.1280827 -0.018810341 0.0010819824
-0.20265399 -0.031995706 -0.18078884 0.012793217 -0.045671012 0.19953495 -0.011529556 0.008918831
-0.020653976 0.0044499803 -0.006099958 0.042620495 0.041082565 -0.053216353 -0.12988749 0.05983619
0.031877395 0.02439607 -0.008889017 0.11815192 0.016533434 -0.023600554 -0.18890913 -0.038125698
0.008563059 -0.056500476 -0.045076128 -0.07929694 0.03580482 -0.05504725 -0.049420483 -0.05716729
-0.032099 -0.013828466 0.006771214 0.03630214 -0.018741883 -0.020675676 0.021635225 -0.1655544
0.013386791 -0.044352517 0.025519475 0.0025865384 -0.04602144 -0.013752548 -0.04715368 0.025193421
-0.058990687 0.12359168 -0.045488477 -0.04270299 0.0035539328 -0.03940635 -0.119492106 -0.038598888
-0.01940561 0.033555634 0.012447396 -0.059274364 0.10758438 0.027278146 -0.0091272835 -0.04172972
-0.038544994 0.016060058 -0.17458342 -0.0014009734 0.026999399 0.0008780029 0.043782406 0.011168611
0.048420954 0.053829618 -0.01598371 0.07544273 -0.021508737 -0.0674136 -0.0024160696 -0.06336397
0.05750314 -0.0013742051 -0.119122356 -0.009647663 -0.101897195 -0.00884498 0.07445624 -0.17871295
0.024665732 -0.021268023 -0.1062448 0.023534378 -0.0087004015 0.036835402 0.10636688 -0.077831075
0.00873987 -0.026550896 0.0047683576 -0.028115673 -0.04140265 -0.04021342 -0.065685764 -0.04133328
-0.018622514 -0.042139035 0.0150854355 0.020444302 0.018631417 0.01468727 0.015272547 -0.010628524
-0.0038408488 -0.03919651 -0.025983704 0.020577937 -0.0104820775 -0.041125443 0.007044868 0.011543371
0.01223827 -0.008898325 -0.03248895 0.014635511 -0.012031645 -0.2243352 0.07956641 -0.027404241
0.12175662 0.024929905 0.041813865 -0.21685047 -0.04640039 0.0074329632 0.003404627 0.026276495
-0.053870253 -0.1716061 -0.18931523 0.028613439 -0.0155359525 -0.027283126 -0.05267573 -0.01691938
0.020419683 -0.055910442 0.018202217 -0.06993118 -0.034171287 -0.22172372 0.018412499 -0.038582187
-0.17660972 -0.068026654 0.034489326 0.045669295 -0.19375113 -0.01942703 -0.024779223 -0.016550258
-0.131434 0.015454232 0.014089837 -0.043928284 0.02442067 -0.019372722 0.04763233 0.03612236
0.0022906535 -0.028639851 0.16268736 -0.04711116 -0.044374604 -0.009364854 0.051519513 0.010034654
-0.0010046351 0.1717549 0.01151064 0.023515021 0.030854702 -0.05099214 -0.2211659 -0.016484523
-0.04623699 0.013853809 0.007832093 -0.05741882 0.034568906 0.010308505 -0.003574714 0.008247706
-0.057376213 -0.12302646 -0.048134364 -0.124562845 -0.084004045 0.029464437 -0.024759116 -0.043218836
-0.017352367 -0.05289971 0.018868005 -0.054676227 -0.0801069 0.03441806 0.021485914 -0.05367703
-0.22838718 0.17995328 0.0046192603 -0.0451068 -0.016837757 -0.072065264 -0.01552027 -0.013211444
0.003597755 -0.019244108 -0.03717068 0.012276518 0.0006428126 -0.29125926 -0.10381469 -0.039763607
-0.048758052 0.20025975 -0.01538465 -0.038013253 0.054122925 -0.020350572 -0.031015802 -0.0067333174
00000000: 2193 113e 366d 37bc cf31 cd3d 51c0 4ebd
00000010: 1d98 90be 92e9 44be 295a a43d 6cad a93c
00000020: 09f3 40bd 19e8 febc 1d74 f33c 7e79 4ebc
00000030: 9161 46be 368a b3bc c069 35bd 908d 45be
00000040: 5cdc a0bc 7876 04bc 42d1 4f3d ac7b 56bd
00000050: 2127 ddbd 1c28 03be 2518 9abc 4ed1 8d3a
00000060: 8784 4fbe ee0d 03bd b620 39be a49a 513c
00000070: 8711 3bbd e452 4c3e 76e6 3cbc 4a20 123c
00000080: 8732 a9bc 24d1 913b 28e2 c7bb d492 2e3d
00000090: 3146 283d 64f9 59bd 3a01 05be cb16 753d
000000a0: df91 023d 44da c73c 3da3 11bc a2f9 f13d
000000b0: 2071 873c f355 c1bc 6571 41be b129 1cbd
000000c0: 134c 0c3c 0b6d 67bd bfa1 38bd 6f66 a2bd
000000d0: 13a8 123d 3a79 61bd 226d 4abd 4028 6abd
000000e0: 3e7a 03bd ca90 62bc 0fe1 dd3b 8eb1 143d
000000f0: 9488 99bc 0960 a9bc 5b3c b13c 1887 29be
00000100: 4554 5b3c fcaa 35bd 380e d13c ea82 293b
00000110: fa80 3cbd 5e52 61bc 3824 41bd 6f62 ce3c
00000120: 38a0 71bd a21d fd3d 2052 3abd 55e9 2ebd
00000130: 19e9 683b 8e68 21bd 47b8 f4bd de19 1ebd
00000140: 84f8 9ebc a271 093d 2af0 4b3c adc9 72bd
00000150: 3355 dc3d 6b76 df3c 9a8a 15bc c8ec 2abd
00000160: 5be1 1dbd 6290 833c ffc5 32be dea0 b7ba
00000170: d82d dd3c c729 663a 2e55 333d 8dfc 363c
00000180: 0d55 463d 727c 5c3d 45f0 82bc b881 9a3d
00000190: 1733 b0bc 2410 8abd ec56 1ebb f8c4 81bd
000001a0: 6a88 6b3d ac1e b4ba 6cf6 f3bd 3b11 1ebc
000001b0: 7aaf d0bd 89ea 10bc 837c 983d 8700 37be
000001c0: ca0f ca3c 473a aebc e096 d9bd 2bcb c03c
000001d0: 218c 0ebc b8e0 163d e1d6 d93d e665 9fbd
000001e0: ac31 0f3c 4481 d9bc e23f 9c3b d752 e6bc
000001f0: d395 29bd d4b6 24bd 4286 86bd 164d 29bd
00000200: 3e8e 98bc fb99 2cbd e728 773c cf7a a73c
00000210: eaa0 983c e0a2 703c b439 7a3c 4323 2ebc
00000220: c0b6 7bbb 858c 20bd c7db d4bc 1093 a83c
00000230: 05bd 2bbc 2773 28bd a3d8 e63b 6820 3d3c
00000240: 0683 483c 48ca 11bc 2213 05bd c8c9 6f3c
00000250: 6020 45bc 20b8 65be b7f3 a23d dc7e e0bc
00000260: 895b f93d cd39 cc3c 0445 2b3d 0d0e 5ebe
00000270: 560e 3ebd 3790 f33b 2a20 5f3b ce41 d73c
00000280: 0ea7 5cbd 82b9 2fbe dadb 41be bb66 ea3c
00000290: 828a 7ebc dd80 dfbc 82c2 57bd 839a 8abc
000002a0: 2e47 a73c 5902 65bd d11c 953c 1438 8fbd
000002b0: 31f7 0bbd 8b0b 63be cfd5 963c 5b08 1ebd
000002c0: 2ed9 34be 8f51 8bbd ae44 0d3d ba0f 3b3d
000002d0: b266 46be 6f25 9fbc ccfd cabc 6894 87bc
000002e0: a296 06be bf33 7d3c 0fd9 663c 25ee 33bd
000002f0: db0d c83c 8bb3 9ebc 1e1a 433d 0af5 133d
00000300: ca1e 163b 1f9e eabc 8497 263e a2f7 40bd
00000310: 25c2 35bd 0b6f 19bc 2006 533d 6468 243c
00000320: f6ad 83ba 84e0 2f3e 2097 3c3c 93a2 c03c
00000330: 00c3 fc3c 22dd 50bd 5079 62be 8d0a 87bc
00000340: ff62 3dbd 16fb 623c 2e52 003c ff2f 6bbd
00000350: 2098 0d3d 01e5 283c c045 6abb 6321 073c
00000360: 5203 6bbd 4cf5 fbbd 8a28 45bd ce1a ffbd
00000370: 500a acbd 675f f13c a1d3 cabc 3c06 31bd
00000380: 8d26 8ebc 5ead 58bd 1391 9a3c 2ef4 5fbd
00000390: 160f a4bd f4f9 0c3d 3a03 b03c 72dc 5bbd
000003a0: 54de 69be ac45 383e 2a5d 973b e8c1 38bd
000003b0: 56ef 89bc f496 93bd bb48 7ebc d074 58bc
000003c0: 50c8 6b3b d2a5 9dbc 4840 18bd 7323 493c
000003d0: 6c82 283a ef1f 95be cc9c d4bd 2adf 22bd
000003e0: 86b6 47bd e410 4d3e e60f 7cbc c9b3 1bbd
000003f0: 00b0 5d3d 3eb6 a6bc da14 febc 29a3 dcbb

l3.bias f4 [6]
0.22044016 -0.065745324 0.12001116 -0.106485374 0.0137779 0.11623549
00000000: 11bb 613e 7ca5 86bd 69c8 f53d 0115 dabd
00000010: b3bc 613c df0c ee3d
