2019_test_data/single_assembly/TD3_Peg-in-hole-single_assembly_seed_7/_actor.pth (torch_old, 510312 bytes, 6 tensors)

l1.weight f4 [400, 12]
0.14152181 -0.023011442 -0.01071356 -0.28598356 0.1580058 0.018025417 -0.30888575 -0.34204367
-0.025209961 -0.18221104 0.32098526 0.17065786 -0.063479185 0.23604876 0.019265264 0.119707346
0.1221658 -0.17029858 -0.110976666 0.27762407 -0.28275076 -0.019606322 -0.022877425 0.20475999
-0.33214113 0.54488057 -0.012197626 -0.02083715 -0.85632837 -0.2895561 -0.7394346 0.005339776
-0.076362595 0.52349055 0.38813248 0.114211716 0.10462633 -0.48231825 -0.03686088 0.07794568
0.30987832 -0.13084748 0.13203695 0.16755596 0.07491676 0.05572893 0.032687865 -0.19812688
0.030572295 0.022043586 0.15403637 0.19391659 0.20731077 0.16731772 -0.07038173 -0.012851149
-0.058665246 0.16793153 0.03205973 0.2671795 0.1533058 -0.22027026 0.05762471 0.26423192
0.23043516 0.0052582864 -0.2936347 -0.38802427 -0.08965161 0.035769656 0.12477211 0.12071819
-0.56258327 0.19769116 -0.013285143 0.18222426 -0.25984135 -0.46899578 -0.09331886 -0.08766865
0.06562266 0.20203833 -0.39438695 -0.113516584 0.07323633 -0.27314967 -0.0041189743 0.057615623
0.06009245 -0.025939917 -0.26037934 -0.22861315 -0.023600254 0.071383886 0.38199177 0.29607296
-0.49953493 -0.03778425 -0.072524756 0.21664704 -0.3314858 -0.23293541 -0.2936741 0.3296842
0.028052036 0.40113083 0.050555643 -0.06141799 -0.28497297 0.043605864 0.26777834 -0.20920764
-0.12853396 -0.015202135 -0.17958 -0.05441001 -0.042657703 0.2572012 -0.018151551 0.15654042
0.4772603 0.058092326 -0.04689645 0.15969978 0.256868 -0.2655824 -0.05393897 0.25362507
-0.38386446 -0.18121642 -0.121065296 0.37915665 -0.11788581 -0.2574522 0.11189917 0.14601856
0.10812682 -0.24732897 0.28108817 -0.02178064 -0.27475384 -0.043457493 0.1885494 0.1329433
-0.14171681 0.38149226 -0.10481513 0.32679695 0.21140611 -0.1488827 0.08263595 0.06723159
-0.39162946 0.10372851 -0.17455949 -0.26015264 -0.22344165 0.0010280363 0.30358994 0.10351721
-0.19204432 0.19910699 0.041634414 -0.24566443 -0.021196574 0.196789 -0.17338668 -0.010202222
0.031219985 0.061155543 -0.06939993 -0.015312745 0.24297346 0.1920709 -0.7039725 -0.07388713
-0.34090474 -0.07753778 0.60214466 0.2693433 -0.26757815 0.07100104 0.12833929 0.0065866862
-0.20067467 -0.08317489 -0.18175086 -0.2354171 0.116168246 0.10711526 0.11241139 -0.3778682
0.7140372 -0.19888481 -0.054268837 -0.4043837 0.36467832 -0.23853156 0.2775799 0.17946954
-0.118595585 -0.22192515 -0.112658076 0.123175316 0.14966932 0.4201345 0.16666454 -0.20936105
-0.36084092 -0.12528725 -0.7936444 -0.13508356 0.0071996837 -0.071063146 0.09709225 0.3781977
-0.016017353 -0.5726233 0.0054786373 0.36804384 0.82135737 0.09341872 0.3989382 0.28746277
0.10309642 -0.23765865 -0.20278077 0.48808464 0.2538795 0.4031353 0.005173495 -0.1366074
-0.39792028 -0.12310209 -0.21776015 -0.23953556 -0.025422987 -0.16747968 -0.009478712 -0.13621847
0.2623066 -0.22879158 -0.095010936 -0.49412176 0.45873207 0.062415108 0.18181048 0.20446512
-0.31843096 -0.014042043 -0.13697122 0.41607004 0.29388037 -0.67514396 -0.10002306 0.106999926
00000000: 18eb 103e 7e82 bcbc ed87 2fbc 706c 92be
00000010: 46cc 213e 0aaa 933c 4626 9ebe 5920 afbe
00000020: 1f85 cebc 8895 3abe 2e58 a43e efc0 2e3e
00000030: 6001 82bd c4b6 713e 30d2 9d3c 2029 f53d
00000040: 1032 fa3d c062 2ebe bc47 e3bd be24 8e3e
00000050: b5c4 90be 709d a0bc 7069 bbbc 9aac 513e
00000060: 670e aabe 4b7d 0b3f 8dd8 47bc acb2 aabc
00000070: 5638 5bbf b240 94be 964b 3dbf 4af9 ae3b
00000080: fe63 9cbd 7a03 063f 4db9 c63e d5e7 e93d
00000090: 5446 d63d 6bf2 f6be 6ffb 16bd fca1 9f3d
000000a0: 5fa8 9e3e e2fc 05be b234 073e ca93 2b3e
000000b0: f56d 993d 0544 643d b6e3 053d c6e1 4abe
000000c0: c072 fa3c c094 b43c b6bb 1d3e 1292 463e
000000d0: 4649 543e 5655 2b3e 4c24 90bd a08d 52bc
000000e0: f84a 70bd 3ef6 2b3e 1051 033d c0cb 883e
000000f0: 32fc 1c3e 878e 61be e307 6c3d 6849 873e
00000100: 32f7 6b3e b44d ac3b 4a57 96be 1eab c6be
00000110: 439b b7bd 3483 123d 8588 ff3d 193b f73d
00000120: 7505 10bf 8d6f 4a3e eea9 59bc ff98 3a3e
00000130: ed09 85be 3720 f0be f51d bfbd 9f8b b3bd
00000140: 2c65 863d 23e3 4e3e 16ed c9be 627b e8bd
00000150: eefc 953d 46da 8bbe 76f8 86bb 5cfe 6b3d
00000160: 8023 763d f37f d4bc 7150 85be 9119 6abe
00000170: 5255 c1bc b731 923d 6d94 c33e e096 973e
00000180: 0bc3 ffbe a8c3 1abd dc87 94bd b9d8 5d3e
00000190: 82b8 a9be 9f86 6ebe 745c 96be 5ecc a83e
000001a0: 62cd e53c 0561 cd3e 6f13 4f3d 6e91 7bbd
000001b0: fae7 91be 109c 323d 3e1a 893e 873a 56be
000001c0: 689e 03be 6012 79bc d2e3 37be 08dd 5ebd
000001d0: d8b9 2ebd e0af 833e 90b2 94bc 224c 203e
000001e0: 765b f43e 38f2 6d3d 7e16 40bd 5788 233e
000001f0: 3484 833e 6bfa 87be 1cef 5cbd 25db 813e
00000200: e289 c4be cc90 39be 15f1 f7bd d220 c23e
00000210: 1e6e f1bd c6d0 83be 642b e53d e485 153e
00000220: 9871 dd3d ce43 7dbe caea 8f3e 506d b2bc
00000230: 89ac 8cbe 7c00 32bd 1813 413e 4a22 083e
00000240: 361e 11be f452 c33e 51a9 d6bd ee51 a73e
00000250: d87a 583e b574 18be 093d a93d b7b0 893d
00000260: a883 c8be 9d6f d43d b9bf 32be ba32 85be
00000270: e3cd 64be 2dbf 863a 2470 9b3e d500 d43d
00000280: 44a7 44be b4e2 4b3e d988 2a3d 758f 7bbe
00000290: 70a4 adbc 0e83 493e 478c 31be 3827 27bc
000002a0: 0ec1 ff3c 3c7e 7a3d 8d21 8ebd 4fe2 7abc
000002b0: 09ce 783e 3cae 443e 8b37 34bf 2352 97bd
000002c0: 118b aebe 21cc 9ebd 2726 1a3f 5de7 893e
000002d0: 0100 89be fe68 913d 606b 033e 21d5 d73b
000002e0: a97d 4dbe 9957 aabd e61c 3abe 2e11 71be
000002f0: 9ee9 ed3d 3f5f db3d f137 e63d f177 c1be
00000300: 24cb 363f 76a8 4bbe 0049 5ebd 610b cfbe
00000310: 1eb7 ba3e 9e41 74be f41e 8e3e ddc6 373e
00000320: 3ee2 f2bd 5940 63be 47b9 e6bd 5743 fc3d
00000330: ea42 193e df1b d73e 1caa 2a3e be62 56be
00000340: 24c0 b8be 4d4b 00be 482c 4bbf 5853 0abe
00000350: 53eb eb3b 8e89 91bd 4dd8 c63d 21a3 c13e
00000360: d336 83bc 7197 12bf 2486 b33b 3e70 bc3e
00000370: 7a44 523f 5052 bf3d a141 cc3e 522e 933e
00000380: 3724 d33d ca5c 73be c3a5 4fbe 3be6 f93e
00000390: 7efc 813e c067 ce3e 6c86 a93b cfe2 0bbe
000003a0: 35bc cbbe f31c fcbd 84fc 5ebe cf48 75be
000003b0: de43 d0bc cb7f 2bbe 9a4c 1bbc db7c 0bbe
000003c0: 0d4d 863e 5748 6abe 1895 c2bd 87fd fcbe
000003d0: eede ea3e fca6 7f3d 872c 3a3e 4e5f 513e
000003e0: 6209 a3be 9910 66bc 2f42 0cbe 2207 d53e
000003f0: 7d77 963e 3cd6 2cbf e4d8 ccbd c722 db3d

l1.bias f4 [400]
0.31380314 -0.18443517 -0.5472634 0.1673239 -0.012514293 0.02818978 -0.5966205 0.47080395
-0.7815286 0.1574089 0.27997783 0.19078967 -0.5842521 0.03196223 -0.3809321 -0.041276086
0.8434807 0.0864064 0.6362525 -0.24649447 0.59951377 0.6889973 0.20623857 -0.5001541
0.2351432 -0.08163579 0.33522803 0.056494202 -0.24753644 -0.49978858 -0.016074797 0.26436266
-0.18419287 0.22232276 -1.0073683 0.11173496 -0.62478614 -0.08592525 -0.7066501 0.19918148
-0.15559147 -0.8279817 -0.44043717 0.04347834 -0.29992458 -0.36802006 -0.573968 -0.33208498
-0.12476951 -0.24802674 -0.3186467 0.69487786 0.27781183 0.44496417 -0.098291114 -0.80442107
-0.1336997 -0.22811238 -0.12767722 0.82339287 -0.66015035 -0.5895695 0.8497747 0.3586286
0.5748998 -0.3075589 -0.13061175 0.03311798 0.78823996 0.41929156 -0.5921822 0.68537676
-0.24912648 -0.3181038 0.49457744 0.3121607 -0.34792507 -0.69260746 -0.28314433 -0.045940027
-0.6745247 -0.23396409 -0.8092806 -0.19101332 -0.48689404 -0.13996965 -0.26752728 -0.39020985
0.9240988 -0.7114825 0.5763676 0.102071136 -0.33147058 -0.68428564 -0.15933688 0.07076005
-0.7525691 -0.28487635 -0.23016976 -0.3542938 0.19412258 -0.220247 0.95246524 -0.09525468
-0.26986322 0.36536348 -0.25920978 -0.18404682 -0.7663608 0.92570406 -0.111734785 -0.073962875
0.21373081 -0.18786857 -0.7984135 -0.27017662 0.21616048 -0.15479568 0.10953123 0.25640076
-0.73322517 -0.24343997 -0.14353895 0.41194975 0.087305516 0.8368332 0.6941816 -0.042585354
-0.008121699 -0.81733227 -0.18861042 0.2154324 -0.44647714 -0.79833233 0.5714804 0.16166648
0.08743706 -0.81165093 -0.16150302 0.126795 0.18390803 -0.21224117 -0.19227433 0.32616577
-0.7215358 0.16536726 -0.4788584 -0.080627 -0.47018367 0.42651397 -0.15913685 -0.49005526
0.052148554 -0.44082358 -0.06756264 0.71076477 0.37770286 -0.17561784 -0.36376646 0.17348322
-0.059808414 0.46614623 0.7592506 0.16691118 0.47164622 -0.25718755 0.32791623 -0.2318092
0.25418472 0.013435145 -0.3287722 0.24416162 -0.5329948 0.18593462 -0.70626825 0.49777624
-0.27602825 0.08995065 -0.29453573 0.05385716 0.68899506 0.10440019 0.15311827 -0.50264806
-0.6164136 -0.6543036 0.38895965 0.20401648 0.7722995 0.7330435 0.21786451 -0.21567634
-0.16830894 -0.19155963 -0.04262384 -0.8822168 -0.15080786 -0.20708162 -0.05070363 0.101451926
-0.7752859 -0.1788136 0.25236207 0.27116594 -0.22342132 0.31984603 -0.19653785 -0.025198827
0.8009381 -0.27082086 -0.37391207 -0.8912229 -0.017818727 -0.20722362 -0.5195468 0.38830847
0.66220444 -0.24529661 0.1440335 0.013243282 -0.037218828 0.3150197 0.2522984 0.7778356
-0.16740349 0.17345321 -0.60590076 0.17017657 -0.024594707 -0.12876903 -0.770395 0.2217996
-0.5829327 -0.636216 0.33344626 -0.0073890984 -0.09219377 0.38561514 0.25074753 -0.4678606
0.60031694 -0.2157678 -0.21926938 0.03515955 -0.1935992 -0.26587862 -0.07333344 0.08038342
-0.34707162 -0.025316676 -0.13965017 -0.13746458 -0.30188537 0.2845449 -0.05325548 -0.093223885
00000000: ceaa a03e 93dc 3cbe 7419 0cbf f556 2b3e
00000010: c008 4dbc 41ee e63c 1fbc 18bf 370d f13e
00000020: 4212 48bf cc2f 213e 4159 8f3e 5e5e 433e
00000030: 8c91 15bf d4ea 023d 8809 c3be 1d11 29bd
00000040: 5aee 573f d7f5 b03d 72e1 223f 0c69 7cbe
00000050: bc79 193f 2162 303f 3430 533e 190a 00bf
00000060: 61c9 703e aa30 a7bd 02a3 ab3e 7766 673d
00000070: 317a 7dbe 4ae4 ffbe 4baf 83bc 8b5a 873e
00000080: 0e9d 3cbe 94a8 633e 72f1 80bf 4cd5 e43d
00000090: fcf1 1fbf 94f9 afbd 05e7 34bf 3bf6 4b3e
000000a0: 5f53 1fbe 9cf6 53bf fb80 e1be 5816 323d
000000b0: b78f 99be 206d bcbe 91ef 12bf 0b07 aabe
000000c0: 2887 ffbd b9fa 7dbe a925 a3be 84e3 313f
000000d0: 5a3d 8e3e 58d2 e33e da4c c9bd 8aee 4dbf
000000e0: 93e8 08be 4b96 69be d1bd 02be e0c9 523f
000000f0: 9dff 28bf 07ee 16bf d68a 593f 2b9e b73e
00000100: a22c 133f 5c78 9dbe 16bf 05be b8a6 073d
00000110: 18ca 493f 62ad d63e 4199 17bf da74 2f3f
00000120: 031b 7fbe 80de a2be 4139 fd3e 87d3 9f3e
00000130: 3c23 b2be b94e 31bf 4bf8 90be 9c2b 3cbd
00000140: a7ad 2cbf 4894 6fbe 032d 4fbf ff98 43be
00000150: 2d4a f9be 3454 0fbe 56f9 88be 96c9 c7be
00000160: bd91 6c3f b823 36bf d48c 133f ac0a d13d
00000170: 83b6 a9be 582d 2fbf 3529 23be a5ea 903d
00000180: 5ea8 40bf 50db 91be 9fb1 6bbe ff65 b5be
00000190: 12c8 463e 6e88 61be c3d4 733f e314 c3bd
000001a0: 832b 8abe ec10 bb3e 25b7 84be c576 3cbe
000001b0: 3930 44bf f1fa 6c3f 35d5 e4bd d979 97bd
000001c0: 40dc 5a3e 9e60 40be d464 4cbf 9754 8abe
000001d0: 2c59 5d3e c282 1ebe e951 e03d f646 833e
000001e0: a5b4 3bbf 5448 79be e0fb 12be 14eb d23e
000001f0: 3ccd b23d b33a 563f e3b5 313f fb6d 2ebd
00000200: e010 05bc b03c 51bf 1723 41be 509a 5c3e
00000210: a798 e4be 825f 4cbf 8a4c 123f e68b 253e
00000220: 3412 b33d 5bc8 4fbf 0c61 25be 8cd6 013e
00000230: 6352 3c3e c055 59be 90e3 44be 33ff a63e
00000240: 92b6 38bf 0956 293e ee2c f5be c51f a5bd
00000250: eabb f0be 0a60 da3e c5f4 22be 86e8 fabe
00000260: b999 553d a1b3 e1be 485e 8abd aef4 353f
00000270: 4562 c13e 2ad5 33be 993f babe 96a5 313e
00000280: abf9 74bd b8aa ee3e 3f5e 423f c4ea 2a3e
00000290: 9d7b f13e 16ae 83be a3e4 a73e 645f 6dbe
000002a0: 8024 823e 151f 5c3c d454 a8be 8105 7a3e
000002b0: 5972 08bf a565 3e3e ffcd 34bf 87dc fe3e
000002c0: 9353 8dbe 0c38 b83d 63cd 96be 5399 5c3d
000002d0: fb61 303f c4cf d53d 09cb 1c3e 8bad 00bf
000002e0: 48cd 1dbf 7180 27bf b825 c73e b2e9 503e
000002f0: 6cb5 453f bda8 3b3f e017 5f3e 42da 5cbe
00000300: 2e59 2cbe 3528 44be 5696 2ebd f6d8 61bf
00000310: 606d 1abe 340d 54be 9cae 4fbd 07c6 cf3d
00000320: 2379 46bf ea1a 37be 9a35 813e 43d6 8a3e
00000330: 8fc8 64be dcc2 a33e 3841 49be c56d cebc
00000340: 480a 4d3f 08a9 8abe 6771 bfbe 2f27 64bf
00000350: 94f8 91bc 6e32 54be 0501 05bf 5ed0 c63e
00000360: 3b86 293f 092f 7bbe 857d 133e 5afa 583c
00000370: c572 18bd 434a a13e 422d 813e 3c20 473f
00000380: d26b 2bbe b89d 313e 501c 1bbf c442 2e3e
00000390: d77a c9bc 07dc 03be 9b38 45bf 6f1f 633e
000003a0: 143b 15bf 0ddf 22bf 78b9 aa3e 4020 f2bb
000003b0: 16d0 bcbd 596f c53e fb61 803e 6d8b efbe
000003c0: 5fae 193f 3cf2 5cbe 2788 60be 7603 103d
000003d0: de3e 46be 3e21 88be d82f 96bd 10a0 a43d
000003e0: 5fb3 b1be eb64 cfbc 7400 0fbe 84c3 0cbe
000003f0: b890 9abe deaf 913e 6b22 5abd 2aec bebd

l2.weight f4 [300, 400]
-0.018074784 -0.01595093 0.24970135 -0.07171225 -0.021168143 -0.15523897 -0.07380254 -0.08659978
-0.031591684 -0.03703615 0.014342135 0.00060114264 -0.010069002 -0.0031032222 0.12666883 -0.17152894
0.059155952 0.18436703 0.0002810128 0.022182781 -0.06102288 -0.14066312 -0.088303596 -0.036695186
-0.06306213 -0.008711476 -0.100267775 0.019221732 -0.047563303 -0.15692765 -0.018740771 -0.057562962
0.027823504 0.042038966 -0.06740459 -0.0075690374 0.015331462 0.0101822205 -0.08755272 0.022902146
0.048614234 -0.09798726 -0.10386174 -0.022496505 0.0065247603 -0.098777294 -0.039514013 0.20693095
-0.03957797 -0.06282228 0.03405105 0.010419636 -0.07936638 -0.08123258 0.08700901 -0.029523835
0.08253066 0.08541475 0.32781243 -0.09869038 0.031459183 -0.018114408 -0.07081265 -0.06865906
-0.08737459 0.03762312 -0.007502462 -0.010565311 -0.08756673 0.05359518 0.22375429 -0.015798563
-0.012402467 0.0749239 0.008122717 -0.04303607 -0.11689021 -0.033726104 0.024565691 0.0010081345
-0.013199455 -0.04125731 0.08248282 0.15179108 0.013559339 -0.0707612 -0.025621483 0.12445717
-0.017976783 -0.016735105 -0.027870096 0.019301716 -0.058952924 -0.023605 -0.02395692 0.22457576
-0.07557338 -0.10298472 -0.12551484 0.045803435 -0.04504488 -0.073004976 0.16525272 -0.015526329
0.13477996 0.022917008 -0.06833543 0.11147074 -0.07135353 -0.004219852 -0.05545218 0.02589706
-0.22072884 -0.14177485 -0.08996876 -0.021126974 0.025788438 0.026862433 -0.0010429831 -0.006489955
0.037042007 0.021693293 0.05705861 -0.20668806 0.03656729 0.10550434 -0.065314606 -0.007985234
-0.10458849 0.0016984193 -0.0637676 0.029555086 -0.11072141 0.012572257 0.061215207 -0.013367664
0.00091900676 0.06572965 -0.015943456 0.022320684 -0.099681474 0.22257711 0.007012598 -0.009599181
-0.076288044 -0.1513635 0.03738813 -0.10208728 0.11715171 -0.16187489 0.025350863 -0.058897216
-0.015121559 -0.074253306 -0.0011473596 -0.039465833 -0.22487633 0.016024683 0.24661234 0.04680254
-0.0042875432 -0.03399293 -0.09517479 0.028188776 -0.021834405 0.0054767504 -0.009699054 -0.16660424
-0.07503388 -0.0518202 -0.16501589 -0.03502525 0.10959117 -0.22710553 -0.106552616 0.0569146
-0.061977703 -0.0043945536 -0.10809837 -0.030666018 -0.05553445 0.0056221187 -0.28797752 0.029263655
-0.006637705 0.03911887 -0.0093367845 0.005085483 -0.27149755 -0.038813874 -0.094535805 -0.034310807
-0.02807014 0.07630721 -0.04103454 -0.018381009 0.010529134 -0.021998638 0.042710725 -0.0644476
-0.07175832 0.11451043 -0.16244651 -0.016323825 0.030450504 0.04815602 0.03290603 -0.2515659
0.009319051 -0.043859374 0.06977904 -0.020502098 -0.039018203 0.2245229 0.0038514438 0.04706153
0.011847556 0.018286798 -0.17123272 -0.047812697 -0.008779781 -0.3395558 -0.043649293 -0.14950596
-0.032210294 0.028096361 -0.07958028 -0.025346482 -0.17540704 -0.013428576 -0.04404001 -0.03368166
0.1820279 -0.12813284 -0.1814742 0.040811155 -0.025662798 -0.02722144 -0.012675358 -0.022359848
-0.0608696 -0.2309495 0.09323138 -0.07224069 0.03454799 0.034715798 -0.038591914 0.007216449
0.04127778 0.12910262 0.026781049 -0.006990226 -0.1332385 -0.028151387 0.042460576 0.046027254
00000000: 9211 94bc 86ab 82bc b6b1 7f3e dfdd 92bd
00000010: d068 adbc f7f6 1ebe c925 97bd 3a5b b1bd
00000020: 4866 01bd 38b3 17bd 46fb 6a3c 0096 1d3a
00000030: 75f8 24bc 6e5f 4bbb 79b5 013e 48a5 2fbe
00000040: 834d 723d b6ca 3c3e e654 9339 aab8 b53c
00000050: 21f3 79bd fe09 10be 84d8 b4bd b14d 16bd
00000060: b826 81bd 94ba 0ebc 3159 cdbd e576 9d3c
00000070: bdd1 42bd a4b1 20be 3f86 99bc 24c7 6bbd
00000080: 1eee e33c 0d31 2c3d 6b0b 8abd b005 f8bb
00000090: d030 7b3c 54d3 263c d74e b3bd 489d bb3c
000000a0: b81f 473d 8bad c8bd 77b5 d4bd 974a b8bc
000000b0: a8cd d53b c04b cabd 72d9 21bd b5e5 533e
000000c0: 821c 22bd f8a8 80bd 1d79 0b3d 1fb7 2a3c
000000d0: d78a a2bd 445d a6bd c831 b23d f8db f1bc
000000e0: d605 a93d eeed ae3d 08d7 a73e 2f1e cabd
000000f0: 58db 003d ab64 94bc 3906 91bd 1f9d 8cbd
00000100: 73f1 b2bd b31a 1a3d 36d7 f5bb 201a 2dbc
00000110: 3056 b3bd 9f86 5b3d d81f 653e fd6b 81bc
00000120: b833 4bbc b471 993d 2515 053c 9746 30bd
00000130: 2264 efbd 6224 0abd fd3d c93c 6123 843a
00000140: 8742 58bc 6dfd 28bd c1ec a83d 1f6f 1b3e
00000150: fd27 5e3c 3feb 90bd 25e4 d1bc 67e3 fe3d
00000160: 0c44 93bc 0f18 89bc d44f e4bc a21e 9e3c
00000170: 9f78 71bd 465f c1bc 4d41 c4bc 30f7 653e
00000180: 37c6 9abd a7e9 d2bd f686 00be 629c 3b3d
00000190: fb80 38bd a283 95bd 0238 293e 2562 7ebc
000001a0: c203 0a3e 73bc bb3c 72f3 8bbd c54a e43d
000001b0: cd21 92bd af46 8abb d321 63bd 1226 d43c
000001c0: be06 62be 6d2d 11be 8b41 b8bd 7a12 adbc
000001d0: 4642 d33c 9b0e dc3c b5b4 88ba b0a9 d4bb
000001e0: 5cb9 173d 22b6 b13c 4ab6 693d 09a6 53be
000001f0: 95c7 153d a912 d83d aac3 85bd 80d4 02bc
00000200: 7e32 d6bd 7f9d de3a 9698 82bd 821d f23c
00000210: e8c1 e2bd defb 4d3c ccbc 7a3d 0c04 5bbc
00000220: 80e9 703a 449d 863d da9b 82bc ded9 b63c
00000230: cd25 ccbd 41eb 633e f0c9 e53b e245 1dbc
00000240: e83c 9cbd 09ff 1abe 4c24 193d 2313 d1bd
00000250: 3ced ef3d 88c2 25be 9dac cf3c 353e 71bd
00000260: 6ac0 77bc 1e12 98bd 0063 96ba eda6 21bd
00000270: fb45 66be 3246 833c f287 7c3e 05b4 3f3d
00000280: 857e 8cbb 2c3c 0bbd 00eb c2bd 26ec e63c
00000290: 11de b2bc 5076 b33b c8e8 1ebc 4d9a 2abe
000002a0: 5dab 99bd 6b41 54bd edf9 28be a376 0fbd
000002b0: 5671 e03d 5a8e 68be 4238 dabd 491f 693d
000002c0: 55dc 7dbd 3000 90bb ae62 ddbd 4d37 fbbc
000002d0: 1778 63bd c039 b83b ca71 93be 55ba ef3c
000002e0: 1b81 d9bb 1c3b 203d 50f9 18bc 20a4 a63b
000002f0: ba01 8bbe 4cfb 1ebd fd9b c1bd 7d89 0cbd
00000300: 5af3 e5bc f446 9c3d d513 28bd c593 96bc
00000310: 6482 2c3c 7d36 b4bc 71f1 2e3d 1afd 83bd
00000320: 07f6 92bd 7284 ea3d 6158 26be 8bb9 85bc
00000330: 5673 f93c 3f3f 453d 79c8 063d 3fcd 80be
00000340: efae 183c e3a5 33bd 50e8 8e3d 04f4 a7bc
00000350: 8dd1 1fbd 55e9 653e 8168 7c3b 97c3 403d
00000360: 401c 423c 32ce 953c a157 2fbe 3fd7 43bd
00000370: 12d9 0fbc 42da adbe 9ac9 32bd 1718 19be
00000380: f1ee 03bd 572a e63c fcfa a2bd 6da3 cfbc
00000390: e79d 33be 8803 5cbc 4c63 34bd c8f5 09bd
000003a0: 8665 3a3e 4135 03be 5fd4 39be 9929 273d
000003b0: ca3a d2bc 7fff debc 4eac 4fbc 002c b7bc
000003c0: 6752 79bd 077e 6cbe 18f0 be3d edf2 93bd
000003d0: 3182 0d3d 2732 0e3d 8e12 1ebd f677 ec3b
000003e0: e412 293d 7a33 043e ee63 db3c 440e e5bb
000003f0: ac6f 08be bd9d e6bc 24eb 2d3d 1387 3c3d

l2.bias f4 [300]
-0.009281701 -0.02576046 -0.37087312 0.022791889 -0.03262161 0.015915541 -0.026094535 -0.035680488
0.48414877 0.442746 -0.056266326 0.36824396 0.41124582 0.025070116 0.3877384 0.329477
-0.3450416 -0.1982553 -0.044840187 -0.014885058 0.01733363 0.16831519 0.47172946 -0.05083992
-0.009810512 -0.14982705 0.12543252 0.0017582906 0.032120258 0.001965632 -0.018255891 -0.027930615
0.0020079408 0.40164527 0.025335519 0.00715405 -0.06577761 0.049927387 0.00034410827 0.13128273
0.1352132 -0.063934825 0.19632676 -0.009711786 -0.050594095 0.17638926 -0.017989166 -0.25944102
0.029248541 0.006603598 0.21797305 -0.0003517692 -0.3859704 0.02524007 -0.006847466 -0.0040448653
-0.033448607 -0.033429634 -0.05921813 -0.024917983 -0.044519287 -0.10552466 -0.17892879 -0.031205358
-0.4514049 0.37873197 -0.022275697 0.018915163 0.006744597 0.013618301 0.21076953 -0.117575966
0.015523011 -0.0065066693 0.039458815 0.034598555 -0.028027525 -0.32562184 0.0042191898 0.49982518
0.19768326 0.2737096 -0.21462607 -0.039779574 -0.05406907 -0.042792737 0.024309272 -0.05519912
0.02780842 -0.3311768 -0.037510876 0.10629462 -0.4061602 0.00079587044 -0.049902607 -0.05337276
-0.025231792 0.3307979 0.38637197 -0.06692723 -0.03369588 -0.3857655 0.023152359 -0.037196588
0.023236703 0.029353166 0.021852411 0.036484793 -0.07914779 -0.10457942 0.0019072368 0.3037973
0.44554025 0.024840577 0.0116823055 -0.031049374 0.02020791 0.016255135 -0.3581958 0.17945197
0.028674219 -0.0070541864 0.024893694 -0.28290015 -0.46469888 -0.42434633 -0.053160384 -0.36506426
-0.0075746565 0.0025789926 0.16369362 0.48502162 -0.05310724 0.1980534 -0.026665203 -0.0020763585
0.22401208 -0.044069577 -0.028939886 -0.022788756 -0.36722845 0.020428536 -0.022627518 0.49974352
-0.030647494 -0.21959522 -0.078948714 0.026021209 -0.0059087384 -0.07995953 -0.014915962 0.033020765
0.07621321 -0.03493541 0.011805065 -0.15536635 0.4964988 -0.3726786 0.12822844 -0.00013263636
0.07997403 0.012423314 -0.08704216 -0.029431148 -0.002383522 -0.21773738 0.045761596 0.060141858
-0.00481901 0.019527288 0.038098972 -0.036880534 -0.013917628 -0.31779543 -0.029705647 -0.018937651
0.4849409 -0.027626187 -0.10400157 0.041002207 -0.040319018 -0.14624949 -0.019035736 -0.089525074
-0.2876174 0.01981163 -0.2377529 -0.06948148 0.003763749 -0.065389164 -0.04130929 0.017090824
0.37507644 -0.044789337 0.03218018 -0.007912638 0.010301834 -0.011742671 -0.00711565 -0.02366346
-0.079245545 -0.40841833 0.032383043 0.023432964 0.073362656 -0.22589548 -0.053778373 -0.25979286
-0.036396895 -0.0044041467 0.3711583 0.03947409 0.03171729 -0.32851452 0.14874521 0.005835323
-0.50646394 -0.032733943 -0.12861761 0.3652174 0.29881993 -0.007276489 -0.011776047 0.030925814
-0.084387355 0.012997666 -0.051098756 0.015826961 -0.0674544 -0.29448968 -0.06536587 -0.35822886
-0.05925741 0.055050444 0.0038272964 -0.0021619683 -0.0056274277 -0.04643014 0.005800912 -0.46291423
-0.017616952 -0.008421455 0.0162951 -0.0063980706 -0.037187587 -0.038332567 0.0036935555 0.038369607
-0.25144577 0.03489415 0.44141173 -0.046736065 -0.011377733 -0.3278853 0.013212071 0.028352348
00000000: 4712 18bc 9a07 d3bc 15e3 bdbe 0eb6 ba3c
00000010: 3d9e 05bd 4f61 823c 35c4 d5bc b425 12bd
00000020: 59e2 f73e 9baf e23e 8577 66bd 798a bc3e
00000030: d08e d23e d85f cd3c a685 c63e 36b1 a83e
00000040: 4ba9 b0be 7003 4bbe 58aa 37bd 75e0 73bc
00000050: 42ff 8d3c d15a 2c3e 8686 f13e 853d 50bd
00000060: 45bc 20bc 436c 19be 6271 003e 7176 e63a
00000070: 8890 033d d5d1 003b 618d 95bc bfce e4bc
00000080: a897 033b 73a4 cd3e 6f8c cf3c 856c ea3b
00000090: 69b6 86bd a980 4c3d 6e69 b439 fb6e 063e
000000a0: 5475 0a3e 43f0 82bd e209 493e 2f1e 1fbc
000000b0: c13b 4fbd 639f 343e 045e 93bc 74d5 84be
000000c0: a39a ef3c ff62 d83b 5434 5f3e aa6d b8b9
000000d0: ea9d c5be 43c4 ce3c b560 e0bb ca8a 84bb
000000e0: 6801 09bd 83ed 08bd b68e 72bd cc20 ccbc
000000f0: db59 36bd 501d d8bd 1c39 37be 61a2 ffbc
00000100: 8b1e e7be 28e9 c13e 867b b6bc f9f3 9a3c
00000110: c801 dd3b 4b1f 5f3c f8d3 573e abcb f0bd
00000120: 3a54 7e3c e635 d5bb 919f 213d 37b7 0d3d
00000130: fb99 e5bc e8b7 a6be 2141 8a3b 16e9 ff3e
00000140: 7b6d 4a3e aa23 8c3e f0c6 5bbe e8ef 22bd
00000150: 8777 5dbd 7047 2fbd 3d24 c73c 7918 62bd
00000160: 7cce e33c 0190 a9be 01a5 19bd feb0 d93d
00000170: 3bf4 cfbe f6a1 503a ad66 4cbd 659d 5abd
00000180: e7b2 cebc 585e a93e 8cd2 c53e 2511 89bd
00000190: b104 0abd 0e83 c5be 04aa bd3c 735b 18bd
000001a0: e65a be3c 0d76 f03c d403 b33c 1471 153d
000001b0: 3d18 a2bd bc2d d6bd 3ffc f93a 528b 9b3e
000001c0: da1d e43e 777e cb3c 2467 3f3c 425b febc
000001d0: 0f8b a53c 7d29 853c 7165 b7be 42c2 373e
000001e0: 32e6 ea3c ce26 e7bb dced cb3c 4ad8 90be
000001f0: 03ed edbe ec43 d9be b4be 59bd b4e9 babe
00000200: d334 f8bb 5104 293b 4d9f 273e c154 f83e
00000210: fa86 59bd 83ce 4a3e fc70 dabc 8413 08bb
00000220: 6c63 653e 4d82 34bd 5713 edbc 7caf babc
00000230: 5e05 bcbe bf59 a73c 585d b9bc 62de ff3e
00000240: 7410 fbbc 92dd 60be ddaf a1bd 6e2a d53c
00000250: 179e c1bb d2c1 a3bd 1462 74bc c840 073d
00000260: ac15 9c3d 6f18 0fbd 086a 413c 5b18 1fbe
00000270: 1735 fe3e bbcf bebe 514e 033e 4d14 0bb9
00000280: 6dc9 a33d 288b 4b3c 2943 b2bd 9719 f1bc
00000290: dd34 1cbb 8cf6 5ebe 8370 3b3d 4f57 763d
000002a0: c9e8 9dbb b1f7 9f3c ab0d 1c3d 0b10 17bd
000002b0: c306 64bc 15b6 a2be 4259 f3bc 2223 9bbc
000002c0: 2c4a f83e 5050 e2bc c6fe d4bd eef1 273d
000002d0: 8e25 25bd 6dc2 15be d5f0 9bbc ec58 b7bd
000002e0: 9642 93be 004c a23c 7f75 73be 4e4c 8ebd
000002f0: 3ba9 763b c1ea 85bd ee33 29bd 0e02 8c3c
00000300: 050a c03e 0675 37bd 5dcf 033d 02a4 01bc
00000310: 06c9 283c 5564 40bc 662a e9bb dfd9 c1bc
00000320: 7d4b a2bd 351c d1be 15a4 043d 7df6 bf3c
00000330: 293f 963d 2551 67be b646 5cbd 9203 85be
00000340: e914 15bd a950 90bb 7608 be3e 95af 213d
00000350: fde9 013d 0e33 a8be aa50 183e 3d36 bf3b
00000360: 9fa7 01bf 0714 06bd 56b4 03be c6fd ba3e
00000370: edfe 983e 9d6f eebb 52f0 40bc 2258 fd3c
00000380: 47d3 acbd 2af4 543c ee4c 51bd 8ba7 813c
00000390: 8825 8abd 5ac7 96be 8bde 85bd c669 b7be
000003a0: e6b7 72bd 937c 613d 61d3 7a3b cfaf 0dbb
000003b0: 4966 b8bb 882d 3ebd 9415 be3b 1803 edbe
000003c0: 6d51 90bc 24fa 09bc 4d7d 853c e8a6 d1bb
000003d0: 0352 18bd 9c02 1dbd 940f 723b 7329 1d3d
000003e0: 80bd 80be 2bed 0e3d b800 e23e 516e 3fbd
000003f0: ac69 3abc 95e0 a7be 7177 583c 2f43 e83c

l3.weight f4 [6, 300]
0.028481608 -0.04830061 -0.087836705 -0.04467405 -0.031937923 -0.16698706 -0.3200806 -0.02778572
0.06702031 0.09864676 0.053296037 0.02040509 0.052071735 -0.048928596 0.060199328 0.07301403
-0.14234078 -0.054492574 -0.0067708786 -0.0025491454 -0.016899314 -0.010497742 0.0741759 0.02830575
-0.043957755 -0.07487103 0.022149622 0.00063434895 -0.006356401 -0.04043962 0.08508413 0.039557636
0.09788863 0.11606838 0.019149141 0.051852178 0.041364003 -0.07963877 0.00238217 0.032357976
0.016793434 0.00970393 0.06815243 -0.01565135 -0.042392287 0.028605472 -0.008284981 -0.28225294
-0.032742515 0.02446853 0.05572305 -0.031115923 -0.06926397 -0.019374423 -0.016804714 -0.05304482
-0.008431584 0.018012956 -0.024407059 -0.016595013 -0.01952349 0.032899015 -0.1537634 -0.028360674
-0.08679857 0.07576974 0.050871924 -0.002049034 -0.024377333 -0.0045640348 0.03628028 -0.008799319
0.031592086 -0.0415231 0.037668724 -0.044312317 -0.022943735 -0.03495892 -0.03933939 0.1531709
0.028734459 0.044276785 -0.16390383 0.05132137 -0.014797267 -0.019699397 -0.03305732 -0.0033258013
0.018581973 -0.019548181 -0.030135328 0.0418724 -0.21266963 -0.0055465656 -0.005969435 -0.033252917
-0.022040019 0.07170699 0.077866316 0.04124101 -0.0007880611 -0.056555707 0.0084334295 0.01878176
0.030922284 -0.07638502 -0.27271992 0.014926167 -0.002157615 -0.13853078 -0.027950117 0.022367
0.14453506 -0.0039886874 -0.008299422 0.04369268 0.010577875 0.0075458162 -0.07185935 -0.17861259
0.0006482601 0.0043221624 -0.03854088 -0.04231365 -0.20288002 -0.19015124 0.0048584808 -0.0927334
0.019640265 -0.04888145 -0.03176855 0.037726823 0.031496238 0.043494795 0.008439549 -0.037040584
0.013841478 0.023905413 0.044374023 -0.019975828 -0.07188485 -0.02398292 0.0067984294 0.09359771
0.02083877 -0.123972625 -0.0148864 -0.048330136 0.030160777 -0.036065094 -0.04430759 0.054338686
0.08167976 0.006429455 0.016664296 -0.047896553 0.12193524 -0.12882273 -0.09546102 0.058444746
-0.04248062 -0.043788802 -0.032348238 0.001634267 -0.053302154 -0.024694864 -0.022816248 -0.00975586
-0.035620604 -0.013842818 0.022308981 -0.03229174 -0.02066281 -0.20467553 -0.038897015 -0.04879828
0.108889446 0.028466322 -0.026306888 -0.02444961 0.093556 -0.013337417 0.024257876 -0.00071335706
-0.008629629 -0.0142372735 -0.05435193 -0.018720366 -0.034905028 -0.03164235 -0.026225802 -0.040155604
0.08833731 0.03032481 -0.026691986 0.057681907 0.047471434 0.014285566 -0.05254627 0.01854349
-0.018101327 -0.0754551 -0.0024194343 0.019598922 -0.13154036 -0.24400279 -0.020990878 -0.12719448
-0.0023352292 -0.011584346 0.05976394 0.11020804 -0.04608692 -0.07888407 0.011004456 -0.019758958
-0.15079376 -0.026920948 -0.083082065 0.0786078 0.041098554 -0.047467165 -0.023566272 -0.014617697
0.028367208 2.1290552e-05 0.004120626 -0.0007580339 -0.04839187 -0.078643546 -0.02368809 -0.14013562
-0.02160969 -0.0845432 0.0012139189 0.010781623 -0.019099457 -0.0065957042 -0.02171129 -0.20339403
0.038175154 0.025568074 0.015753808 -0.036372785 -0.041933496 -0.025130775 0.050191883 -0.04582031
-0.059795983 -0.04076521 0.08801072 0.02838172 -0.27571636 -0.1315171 0.0038904871 -0.034468114
00000000: 4352 e93c dcd6 45bd bbe3 b3bd 23fc 36bd
00000010: 57d1 02bd a8fe 2abe 9be1 a3be e19e e3bc
00000020: f241 893d 5007 ca3d f24c 5a3d 9328 a73c
00000030: 2c49 553d 5a69 48bd 9293 763d 6188 953d
00000040: c8c1 11be 9b33 5fbd 3fde ddbb 900f 27bb
00000050: 6e70 8abc b9fe 2bbc 89e9 973d 76e1 e73c
00000060: 0c0d 34bd fc55 99bd 2073 b53c 704a 263a
00000070: 5b49 d0bb 04a4 25bd 9740 ae3d 3007 223d
00000080: d679 c83d 42b5 ed3d a9de 9c3c f362 543d
00000090: 4d6d 293d a719 a3bd 2e1e 1c3b cc89 043d
000000a0: 6292 893c 3bfd 1e3c 8093 8b3d 4337 80bc
000000b0: 89a3 2dbd 0656 ea3c bbbd 07bc 7583 90be
000000c0: 041d 06bd 3a72 c83c da3d 643d d2e6 febc
000000d0: 45da 8dbd 1cb7 9ebc 0aaa 89bc 8645 59bd
000000e0: a024 0abc e88f 933c 50f1 c7bc 44f2 87bc
000000f0: baef 9fbc 1ec1 063d 2774 1dbe a554 e8bc
00000100: 73c3 b1bd 2a2d 9b3d 145f 503d 1649 06bb
00000110: f9b2 c7bc e68d 95bb a29a 143d 052b 10bc
00000120: b466 013d 2014 2abd 854a 1a3d d580 35bd
00000130: 80f4 bbbc 1631 0fbd 5722 21bd d5d8 1c3e
00000140: 8764 eb3c 935b 353d 68d6 27be 5b36 523d
00000150: 3c70 72bc a160 a1bc 1d67 07bd b0f5 59bb
00000160: 3939 983c 8223 a0bc 5dde f6bc 6582 2b3d
00000170: 11c6 59be f7bf b5bb 409b c3bb 3634 08bd
00000180: 458d b4bc 1ddb 923d 6078 9f3d 55ec 283d
00000190: e395 4eba f5a6 67bd 5e2c 0a3c 35dc 993c
000001a0: bb50 fd3c c06f 9cbd f2a1 8bbe e28c 743c
000001b0: c666 0dbb 03db 0dbe a5f7 e4bc 003b b73c
000001c0: 0001 143e 89b3 82bb 4dfa 07bc 18f7 323d
000001d0: d34e 2d3c e542 f73b ff2a 93bd 38e6 36be
000001e0: 00f0 293a eda0 8d3b 0bdd 1dbd 1451 2dbd
000001f0: c8bf 4fbe 02b7 42be e433 9f3b 02eb bdbd
00000200: 9fe4 a03c ea37 48bd bd1f 02bd 7187 1a3d
00000210: 3302 013d 9927 323d 0946 0a3c deb7 17bd
00000220: 5ec7 623c 49d5 c33c 89c1 353d 59a4 a3bc
00000230: 5d38 93bd d477 c4bc 5cc5 de3b 28b0 bf3d
00000240: 11b6 aa3c 5ce5 fdbd 16e6 73bc d2f5 45bd
00000250: bc13 f73c feb8 13bd e07b 35bd 3e92 5e3d
00000260: b847 a73d 2dae d23b 9083 883c 2d2f 44bd
00000270: 2fb9 f93d 1bea 03be 1181 c3bd c263 6f3d
00000280: 2900 2ebd e35b 33bd 967f 04bd e734 d63a
00000290: 5c53 5abd e24c cabc 24e9 babc 0bd7 1fbc
000002a0: e9e6 11bd fdcc 62bc 53c1 b63c 5844 04bd
000002b0: 0e45 a9bc 7696 51be 7a52 1fbd b5e0 47bd
000002c0: 6e01 df3d 3432 e93c 8b81 d7bc 8c4a c8bc
000002d0: 4a9a bf3d 2e85 5abc 74b8 c63c 9500 3bba
000002e0: 4a63 0dbc 7443 69bc 21a0 5ebd 745b 99bc
000002f0: 93f8 0ebd 699b 01bd 7ed7 d6bc 347a 24bd
00000300: 31ea b43d bc6b f83c 27a9 dabc dd43 6c3d
00000310: 6871 423d 020e 6a3c c23a 57bd 84e8 973c
00000320: 3c49 94bc 3488 9abd 5f8f 1ebb eb8d a03c
00000330: 84b2 06be dedb 79be 10f5 abbc 453f 02be
00000340: a50a 19bb 45cc 3dbc 08cb 743d c1b4 e13d
00000350: a3c5 3cbd f98d a1bd 094c 343c 8add a1bc
00000360: ae69 1abe 5289 dcbc ee26 aabd 20fd a03d
00000370: f556 283d ee6c 42bd 0e0e c1bc 117f 6fbc
00000380: 5962 e83c 1d99 b237 5106 873b cbb6 46ba
00000390: 8e36 46bd de0f a1bd 860d c2bc b67f 0fbe
000003a0: ce06 b1bc fc24 adbd 5c1c 9f3a 68a5 303c
000003b0: 7776 9cbc c720 d8bb e0db b1bc 8646 50be
000003c0: 8d5d 1c3d 2374 d13c 210e 813c a1fb 14bd
000003d0: 75c2 2bbd 0edf cdbc 0196 4d3d 14ae 3bbd
000003e0: a2ec 74bd 6cf9 26bd f73e b43d c880 e83c
000003f0: b22a 8dbe 6bac 06be 8bf7 7e3b 702e 0dbd

l3.bias f4 [6]
0.40972048 0.038103737 -0.021104567 -0.033535507 0.0036859142 0.011626981
00000000: e2c6 d13e aa12 1c3d 7ce3 acbc 875c 09bd
00000010: 618f 713b 187f 3e3c
