2019_test_data/triple_assembly/TD3_Peg-in-hole-single_assembly_seed_4/_actor.pth (torch_old, 510312 bytes, 6 tensors)

l1.weight f4 [400, 12]
-0.75996715 0.008123586 0.024480326 -0.012882287 -0.14601834 -0.6342768 0.9322754 0.31856424
0.058324326 0.7796843 -0.27847108 -0.79833394 0.71326685 -0.17983554 0.0804493 0.22690181
0.66014785 0.45386428 0.09627167 -0.43752348 -0.6187033 0.17311384 -0.051190794 -0.27899295
-0.104982585 -0.02328068 0.11120213 -0.066721156 0.20899814 0.42381287 0.7677835 0.17401616
-0.13286604 -0.2538597 0.084204435 -0.4728482 0.05443322 0.4384135 0.1793184 -0.09986703
0.05825546 0.27570334 0.250189 -0.29830694 -0.07167927 0.11927038 0.15939216 -0.21797782
0.21098484 0.67359716 -0.016501045 -0.05525712 -1.1820803 0.05408714 -0.8927223 -0.242495
-0.027012352 0.52326167 0.35530102 -0.13248502 -1.0524672 0.46746275 0.06529869 0.21943498
0.19919461 -0.114295 0.091757044 -0.35801715 -0.11589756 0.31354532 0.12156322 -1.0588803
-0.5945902 -0.42394692 -0.004568781 0.33245152 0.10925557 -0.00036197176 -0.10968608 -0.73589647
0.020537565 1.5992311 -0.052239664 -1.206494 -0.4888725 0.17044793 0.53741497 0.10520567
-0.08407043 -0.48523256 0.10104957 0.038990173 0.05618349 0.3465792 0.07399183 -0.3570068
-0.28078777 0.14136994 0.27845466 -0.21026707 -0.14532056 0.24716574 0.22546607 -0.027609736
-0.1647703 0.05292213 -0.2827398 -0.114023715 -0.034013297 -0.041158266 0.16957626 0.004205209
-0.22926658 -0.024312738 0.061972603 0.13337034 -0.03695159 -0.10548722 0.09704805 0.17926753
0.2174638 -0.7415175 0.03684995 0.3206143 0.15130444 0.36135343 0.06526367 0.19831291
0.026453095 0.48645258 -0.9612122 0.82168764 -0.030190801 -0.039180484 0.17047068 -0.014637488
0.23102824 -0.041723773 0.13835233 -0.061255723 -0.034415685 0.073427126 -0.24379823 0.03442487
0.8779028 -0.1891133 0.096817836 0.16089687 -1.0596869 -0.0028426782 -0.16244091 0.81482416
0.12469807 0.37335694 0.0677602 0.23217843 -1.0164378 0.71479654 0.1975653 -0.329042
0.69444704 0.83229667 -0.35326862 -0.0068544215 -0.24730349 0.15860973 0.23116966 -0.22323619
-0.30503383 -1.0891403 0.41764984 0.963117 0.562515 -0.33299845 -0.037643835 0.1401986
0.22150838 0.31239223 -0.78968024 0.26994032 0.1738957 0.0617036 0.08459853 0.23314814
-0.30902818 0.015804347 0.60094887 0.027362263 -0.17085643 0.1084184 -0.7491707 -0.10266719
0.27899405 -0.5685598 -0.060897674 0.27766347 0.6196562 -0.49501476 0.85435796 -0.48304984
0.0402336 0.29418266 -0.71601194 0.6123379 -0.81705964 0.46215427 0.07857344 -0.06196464
-0.21747893 0.23904146 0.43706283 0.02159745 -0.121559754 0.5585024 -0.012877009 -0.5623611
0.07383794 0.272873 0.08419061 0.071759865 1.1877359 -1.2258313 0.168791 -0.09839657
-0.50250804 -0.005552934 -0.451458 -0.26010182 -0.250726 0.85808533 0.017829554 -0.23665595
-0.22390407 0.66028994 0.45045328 -0.35328376 -0.00066062785 -0.89614624 -0.6618099 -0.43466777
-0.98930204 0.12183524 0.041842055 0.3673694 0.59013486 0.7663362 -0.6373737 0.34095725
-0.24087787 0.20319931 -0.019263394 0.33684734 -0.2960253 -0.3519424 0.12050126 0.20406772
00000000: 358d 42bf ca18 053c f78a c83c 3a10 53bc
00000010: d585 15be f75f 22bf 9aa9 6e3f da1a a33e
00000020: 7de5 6e3d 6499 473f c393 8ebe 9d5f 4cbf
00000030: a898 363f cf26 38be 9ac2 a43d f358 683e
00000040: 73ff 283f e660 e83e 152a c53d 1403 e0be
00000050: 5763 1ebf c144 313e 70ad 51bd 2ad8 8ebe
00000060: 1c01 d7bd 20b7 bebc f1bd e33d 1aa5 88bd
00000070: 9c03 563e 00fe d83e 768d 443f 4b31 323e
00000080: 090e 08be e6f9 81be 6073 ac3d 2919 f2be
00000090: 5ef5 5e3d bc77 e03e 3e9f 373e 1687 ccbd
000000a0: 479d 6e3d fd28 8d3e c618 803e b0bb 98be
000000b0: 95cc 92bd 0744 f43d b337 233e 9435 5fbe
000000c0: 690c 583e dd70 2c3f 332d 87bc 4a55 62bd
000000d0: 684e 97bf 7a8a 5d3d 7389 64bf 9c50 78be
000000e0: 0249 ddbc 7af4 053f 04ea b53e 27aa 07be
000000f0: 3fb7 86bf 4757 ef3e 52bb 853d 90b3 603e
00000100: acf9 4b3e 7f13 eabd 1eeb bb3d 064e b7be
00000110: b35b edbd 0389 a03e 23f6 f83d 6489 87bf
00000120: 1037 18bf 920f d9be b6b5 95bb 1637 aa3e
00000130: 62c1 df3d 07c7 bdb9 18a3 e0bd b663 3cbf
00000140: 653e a83c 9bb3 cc3f 42f9 55bd 656e 9abf
00000150: 7f4d fabe e789 2e3e 0794 093f 1276 d73d
00000160: 1e2d acbd 6770 f8be 14f3 ce3d 29b4 1f3d
00000170: a920 663d d472 b13e 0789 973d 98c9 b6be
00000180: 6ac3 8fbe 48c3 103e 9c91 8e3e 4050 57be
00000190: eace 14be 0419 7d3e 94e0 663e d02d e2bc
000001a0: 8cb9 28be e0c4 583d 45c3 90be 4485 e9bd
000001b0: 8751 0bbd 9295 28bd 66a5 2d3e dacb 893b
000001c0: dcc4 6abe 822b c7bc fcd6 7d3d 3c92 083e
000001d0: 8d5a 17bd af09 d8bd 21c1 c63d e891 373e
000001e0: d5ae 5e3e 17d4 3dbf f9ef 163d 8f27 a43e
000001f0: 8def 1a3e 5103 b93e f6a8 853d 8a12 4b3e
00000200: 29b4 d83c 5010 f93e 0112 76bf 1f5a 523f
00000210: b352 f7bc b77b 20bd de8f 2e3e 13d2 6fbc
00000220: ab92 6c3e 8ce6 2abd 3cac 0d3e 48e7 7abd
00000230: 76f7 0cbd f660 963d 3ea6 79be 1801 0d3d
00000240: 3dbe 603f eba6 41be 6e48 c63d 26c2 243e
00000250: d2a3 87bf 3a4c 3abb e956 26be 5198 503f
00000260: b461 ff3d a428 bf3e dcc5 8a3d 2fc0 6d3e
00000270: a21a 82bf e8fc 363f 8f4e 4a3e 3178 a8be
00000280: 48c7 313f 6511 553f a0df b4be 0e9b e0bb
00000290: 203d 7dbe 976a 223e bdb7 6c3e 0798 64be
000002a0: 652d 9cbe f368 8bbf 33d6 d53e d68e 763f
000002b0: fc00 103f c67e aabe 6c30 1abd 3990 0f3e
000002c0: 18d3 623e e0f1 9f3e 7c28 4abf 9e35 8a3e
000002d0: b711 323e eabc 7c3d fe41 ad3d 63be 6e3e
000002e0: f138 9ebe 1e78 813c c9d7 193f d326 e03c
000002f0: fdf4 2ebe 770a de3d a7c9 3fbf 2d43 d2bd
00000300: 4fd8 8e3e 238d 11bf d76f 79bd e829 8e3e
00000310: caa1 1e3f 9372 fdbe 34b7 5a3f 4f52 f7be
00000320: fdcb 243d 1c9f 963e 8f4c 37bf 2dc2 1c3f
00000330: d22a 51bf 7c9f ec3e 1deb a03d a2ce 7dbd
00000340: ccb2 5ebe 49c7 743e b3c6 df3e 23ed b03c
00000350: 52f4 f8bd 03fa 0e3f 17fa 52bc e6f6 0fbf
00000360: 5938 973d 03b6 8b3e 206c ac3d d6f6 923d
00000370: bb07 983f 0ae8 9cbf 8cd7 2c3e 2484 c9bd
00000380: 5ea4 00bf 63f5 b5bb 8125 e7be 112c 85be
00000390: 295f 80be 7bab 5b3f 490f 923c f055 72be
000003a0: 1c47 65be c308 293f d0a1 e63e 9ce1 b4be
000003b0: fc2d 2dba d769 65bf 606c 29bf c68c debe
000003c0: e642 7dbf c184 f93d 9362 2b3d d817 bc3e
000003d0: 1413 173f 9c2e 443f ec2a 23bf f391 ae3e
000003e0: b0a8 76be 7b13 503e 44ce 9dbc 4177 ac3e
000003f0: a190 97be cb31 b4be 5dc9 f63d 21f7 503e

l1.bias f4 [400]
-0.06913432 0.8221345 0.19140887 -0.12929241 -0.057894286 -0.95453525 0.35606125 -0.15585548
0.04255593 0.04476152 0.20444223 0.19611116 -0.021488769 -0.071258835 0.15929173 -0.6917192
0.33087724 -0.85963446 -0.09928486 -0.89267504 -0.16322893 -0.46554545 0.11457458 -0.06390649
-0.91553104 0.2893548 -0.30466893 -0.4621458 -0.28724468 0.21200112 -0.8131862 0.0052358485
0.36077878 -0.20817877 -0.3889788 0.08602161 -0.16616957 0.64873105 -0.074308515 -0.54772955
0.5588676 -0.16646901 -0.38987502 -0.95129997 -0.59649235 -0.12535435 0.5981285 -0.078598045
-0.120628744 -0.24386719 -0.28948587 0.48080525 0.22390878 -0.5501889 -0.73561645 -0.74647623
-0.32142332 -0.43172878 0.38621745 -0.7731632 -0.1148648 0.031734783 0.038814634 -0.39919826
-0.052921858 0.16220875 -0.22070915 0.028739937 -0.36802658 0.10290922 1.0082762 -0.3417585
0.59607786 -0.46652097 -0.19576998 -0.47336686 0.14189726 -0.54302055 0.086988606 -0.4334183
0.016790997 0.17499405 -0.840089 0.17642745 -0.4240945 -0.13620228 -0.30801633 -0.28330937
-0.17594424 -0.43479973 -0.5546931 0.36820352 -0.45302784 0.24722406 -0.41970766 -0.1989331
-0.3817813 0.0067784707 -0.1459908 -0.41709274 0.17911376 0.4472252 0.12415647 0.22924694
-0.41458607 -0.6232698 -0.025190959 -0.37406296 0.3432326 -0.19731201 -0.6914591 0.18596521
0.09898166 0.40794763 -0.49324107 -0.18487418 -0.41156563 0.71321625 -0.36787182 0.22972816
-0.05320301 0.24025464 0.017493626 -0.12818311 0.07550111 -0.474303 -1.2274197 -0.272794
-0.36233252 -0.111961976 0.047852814 0.099399105 -0.3237625 -0.9643611 0.49255913 0.70349276
0.029670566 -0.1773715 0.6295398 -0.36339226 -0.40487224 0.1596941 -0.5504347 -0.736583
-0.38987148 -0.5183916 0.028832722 -0.2430261 0.6858345 -0.6673846 -0.28966653 -0.2560843
-0.78965425 -0.41912612 -0.5538211 -0.13104056 -0.4706176 -0.62811255 -0.13613155 0.36101258
0.26716298 -0.43008977 -0.06438869 -0.37108874 -0.82117546 -0.5291013 -0.09915391 -0.1414641
0.11426759 0.23945229 -0.18717708 0.35432503 0.11941478 0.21618915 -0.685833 -0.366047
0.85179746 -0.12480152 -0.3430677 0.32182756 -0.08876567 -0.41809642 -0.6711164 -1.3133712
-0.34526175 -0.34817466 0.23841524 -0.35907143 -0.46693778 -0.23149738 0.12041363 -0.19628642
-0.6426114 -0.18776 -0.39627212 0.18266837 -0.12620938 -0.49358177 0.054905716 -0.11406855
0.09038783 0.16293861 0.13565107 -0.24493782 -0.0576645 -0.49315065 0.04607579 -0.10309333
-0.031518716 -0.271672 -0.2539361 -0.13402247 -0.59822786 -0.015172675 -0.7003162 -0.6001032
0.18424773 -0.30653492 0.37061483 -0.26689166 -0.85533184 -0.55561984 0.42615438 0.1810565
-0.16418259 -0.32116434 0.2931538 -0.6812124 -0.51276016 0.49539375 -0.1620716 0.03492478
-0.049304917 0.0015262432 -0.45451668 -0.5982339 0.74116755 0.6344096 0.7342958 -0.7574766
0.45814717 0.22527047 -0.47741547 0.2320823 0.16938354 -0.37944496 -0.51654464 -0.5560648
0.033613484 0.2624446 -0.43139777 0.18439382 -0.83707345 1.0251474 -0.27021977 0.3166137
00000000: 4b96 8dbd 6877 523f b000 443e 3b65 04be
00000010: 8f22 6dbd 6c5c 74bf a94d b63e 9498 1fbe
00000020: 204f 2e3d db57 373d 4e59 513e 5dd1 483e
00000030: 3709 b0bc 27f0 91bd 5f1d 233e 8214 31bf
00000040: be68 a93e 0111 5cbf dc55 cbbd 5a86 64bf
00000050: 7c25 27be f95b eebe 14a6 ea3d 68e1 82bd
00000060: 3e60 6abf 5026 943e 91fd 9bbe 609e ecbe
00000070: bc11 93be d216 593e f92c 50bf 7b91 ab3b
00000080: ffb7 b83e d12c 55be 3b28 c7be 192c b03d
00000090: 5b28 2abe 3d13 263f 102f 98bd 0138 0cbf
000000a0: f211 0f3f da76 2abe b39d c7be 6588 73bf
000000b0: b9b3 18bf e45c 00be f31e 193f 03f8 a0bd
000000c0: 340c f7bd 52b8 79be 7e37 94be 1b2c f63e
000000d0: 5848 653e 2ed9 0cbf 5c51 3cbf 1119 3fbf
000000e0: 9991 a4be 8e0b ddbe 4bbe c53e 06ee 45bf
000000f0: 3c3e ebbd 55fc 013d 18fc 1e3d b763 ccbe
00000100: 97c4 58bd 0d1a 263e 9401 62be 0470 eb3c
00000110: fb6d bcbe 12c2 d23d 320f 813f f8fa aebe
00000120: 8f98 183f d6db eebe ed77 48be 245d f2be
00000130: 844d 113e 6503 0bbf 1527 b23d 01e9 ddbe
00000140: 468d 893c a431 333e 1310 57bf 66a9 343e
00000150: ea22 d9be 9c78 0bbe 51b4 9dbe ed0d 91be
00000160: ba2a 34be 129e debe 5e00 0ebf 2c85 bc3e
00000170: 44f3 e7be 4e28 7d3e ece3 d6be 1eb5 4bbe
00000180: d778 c3be ef1d de3b 9d7e 15be 2e8d d5be
00000190: 9969 373e b4fa e43e bf45 fe3d b6bf 6a3e
000001a0: a044 d4be 9c8e 1fbf 455d cebc 2e85 bfbe
000001b0: 2fbc af3e 290c 4abe 7703 31bf aa6d 3e3e
000001c0: e6b6 ca3d 83de d03e 188a fcbe a84f 3dbe
000001d0: bbb8 d2be 5795 363f b259 bcbe dc3d 6b3e
000001e0: 66eb 59bd 5005 763e cb4e 8f3c 6f42 03be
000001f0: 53a0 9a3d d8d7 f2be 171c 9dbf a8ab 8bbe
00000200: a683 b9be 524c e5bd 5001 443d c291 cb3d
00000210: 33c4 a5be 5ee0 76bf b630 fc3e 1a18 343f
00000220: b00f f33c e0a0 35be 8529 213f 8d0e babe
00000230: 6a4b cfbe da86 233e 4ae9 0cbf b490 3cbf
00000240: 3c9d c7be 50b5 04bf 9a32 ec3c d5db 78be
00000250: da92 2f3f b8d9 2abf 2c4f 94be 7b1d 83be
00000260: c826 4abf b397 d6be 38c7 0dbf 7f2f 06be
00000270: caf4 f0be fccb 20bf 1266 0bbe a4d6 b83e
00000280: 96c9 883e ba34 dcbe 38de 83bd 58ff bdbe
00000290: 8e38 52bf 2f73 07bf 3511 cbbd f7db 10be
000002a0: 2005 ea3d fb32 753e 59ab 3fbe 176a b53e
000002b0: bc8f f43d b060 5d3e c092 2fbf 836a bbbe
000002c0: 660f 5a3f f097 ffbd 92a6 afbe 95c6 a43e
000002d0: c7ca b5bd bc10 d6be 49ce 2bbf 8c1c a8bf
000002e0: 26c6 b0be f343 b2be 2023 743e 36d8 b7be
000002f0: 7812 efbe a60d 6dbe 6c9b f63d 4fff 48be
00000300: 2e82 24bf 2844 40be 2ee4 cabe 6b0d 3b3e
00000310: 083d 01be c0b6 fcbe d1e4 603d c69c e9bd
00000320: 411d b93d 61d9 263e 1de8 0a3e fbd0 7abe
00000330: 9c31 6cbd 3e7e fcbe f8b9 3c3d 9922 d3bd
00000340: c519 01bd 9818 8bbe ea03 82be 303d 09be
00000350: 7625 19bf d096 78bc ec47 33bf 5da0 19bf
00000360: 70ab 3c3e 25f2 9cbe 3ac1 bd3e 06a6 88be
00000370: 07f7 5abf 1a3d 0ebf e830 da3e e066 393e
00000380: 7b1f 28be a76f a4be 4118 963e f063 2ebf
00000390: 4044 03bf 40a4 fd3e 19f6 25be 490d 0f3d
000003a0: f4f3 49bd 390c c83a 69b6 e8be db25 19bf
000003b0: 28bd 3d3f ab68 223f cffa 3b3f fde9 41bf
000003c0: 4492 ea3e 4dad 663e cd6f f4be fca6 6d3e
000003d0: e172 2d3e 9c46 c2be 453c 04bf 435a 0ebf
000003e0: 4bae 093d 235f 863e 2be0 dcbe bcd1 3c3e
000003f0: 724a 56bf 0838 833f 3f5a 8abe 311b a23e

l2.weight f4 [300, 400]
-0.016530218 0.025049921 0.01979037 -0.013615448 0.006625808 0.03773277 -0.032405034 -0.018475693
0.047142837 0.04801621 -0.014946634 0.004707776 -0.021807048 0.017774198 0.03521842 -0.059345275
-0.022603 -0.0118775815 0.005382505 0.010048829 -0.050660487 -0.0651068 0.0074419267 0.03773916
-0.0022021239 -0.018781537 -0.039591897 -0.049400896 -0.04725581 -0.026753634 -0.047613315 0.028078202
0.029914927 0.00012422094 -0.012438647 -0.030778218 0.018863097 0.012356777 0.020444874 -0.007838417
-0.045508537 -0.01755684 0.013840456 0.020395866 -0.0472894 -0.021555424 -0.056558933 0.0424552
0.04268026 -0.036310993 0.014898393 -0.017786518 -0.016924124 -0.04473012 0.010482434 0.011681564
0.025283296 -0.037170958 -0.016659029 -0.038361225 0.023339208 0.021746289 0.007873904 -0.018354768
0.031128649 -0.028872002 -0.029464506 -0.05381773 0.0008155118 -0.048273113 0.03775248 0.0069748834
-0.030036831 0.010438411 -0.045793615 0.0007784107 -0.049817074 -0.020648856 -0.027851341 -0.0013827102
0.018775944 0.045507472 -0.0078033498 -0.03858633 -0.02755762 0.049725328 -0.01143144 0.006041744
-0.026934985 0.0048987786 0.03538787 0.025634307 0.042061504 -0.021694291 -0.009421735 -0.011332594
0.007211864 -0.024384141 0.027322028 0.0020401091 -0.03888779 -0.010199182 0.044441704 -0.0184794
-0.0025524674 -0.031172091 -0.025973786 -0.049626876 -0.022444278 0.0005853772 0.025225464 0.011349879
-0.03012287 -0.030595208 -0.03488663 0.0092705 0.030801918 -0.031437628 -0.001012899 0.024241839
0.019161554 -0.0019481465 0.005168479 -0.038317703 0.006314601 -0.008160054 -0.044554394 0.027951308
-0.01771119 -0.05344727 0.043075923 -0.043376658 -0.003871653 0.027102508 0.0045731226 -0.038486537
-0.009202872 0.016629498 0.01755298 -0.022168024 -0.025775565 0.035937328 -0.025544496 -0.0037432378
0.018783879 0.01985002 0.03976759 0.020055998 0.011179108 -0.019274835 -0.021084968 0.017534805
-0.028849363 -0.037738025 -0.0272662 0.043171514 -0.0335686 0.02071469 -0.017958917 0.0062693586
-0.03970351 -0.030738484 -0.042105 0.003083156 -0.0026826668 0.014072745 0.012629332 0.03560308
-0.04175224 -0.036549956 -0.003629677 0.004726806 0.007285051 -0.034240827 0.0023630795 -0.047362592
0.020583276 0.010091763 -0.033365387 0.008984275 -0.030034717 -0.051461905 0.00037878362 -0.011210695
-0.030585824 -0.0344655 0.0065766387 0.019759297 -0.04973745 0.021082494 -0.0071470924 -0.03756538
-0.023387874 0.033080105 0.01000374 -0.027209548 -0.0030557923 0.010648396 -0.024920834 -0.059556298
-0.04484278 -0.021083528 0.047902096 0.020093616 0.0072482475 0.002509974 0.031136725 -0.01325668
-0.038116492 -0.031963605 -0.04369247 0.025886165 -0.00011742115 -0.04578019 -0.032770984 0.00925489
0.017551769 -0.016750116 -0.018241417 -0.040721375 -0.0049811965 0.0026977472 -0.027837057 -0.03116686
0.027502578 0.027676975 0.0025267045 0.028969929 -0.040282045 -0.016113173 0.04685313 -0.012499327
0.0020086654 -0.03310736 -0.049639717 -0.02766719 -0.049172677 -0.03762544 0.047355764 -0.009925673
-0.01902746 0.008886598 -0.014243953 -0.034591783 -0.0595668 -0.008399136 0.010445062 -0.008158367
-0.048779007 0.002800215 -0.0030619192 -0.03432837 -0.050094448 0.024413984 -0.04248286 -0.045987677
00000000: 616a 87bc 7e35 cd3c 6a1f a23c 5413 5fbc
00000010: 4e1d d93b ad8d 1a3d 24bb 04bd 565a 97bc
00000020: d918 413d a5ac 443d bae2 74bc b043 9a3b
00000030: b2a4 b2bc 329b 913c 3141 103d 0814 73bd
00000040: ed29 b9bc 309a 42bc b95f b03b d8a3 243c
00000050: 5f81 4fbd b756 85bd 68db f33b 6194 1a3d
00000060: 8251 10bb bddb 99bc 1d2b 22bd 9858 4abd
00000070: 4f8f 41bd 702a dbbc 2e06 43bd 4204 e63c
00000080: 2610 f53c 4e41 0239 78cb 4bbc 9a22 fcbc
00000090: c886 9a3c 1474 4a3c 027c a73c b46c 00bc
000000a0: 2967 3abd 5dd3 8fbc 14c3 623c 3b15 a73c
000000b0: 88b2 41bd 0095 b0bc 57aa 67bd 81e5 2d3d
000000c0: 7fd1 2e3d d6ba 14bd 6418 743c 08b5 91bc
000000d0: 76a4 8abc ee36 37bd 84be 2b3c 0864 3f3c
000000e0: ea1e cf3c 9340 18bd 8478 88bc a920 1dbd
000000f0: de31 bf3c 4625 b23c 8c01 013c bd5c 96bc
00000100: 8201 ff3c fa84 ecbc 8c5f f1bc fb6f 5cbd
00000110: 12c8 553a 07ba 45bd 58a2 1a3d 908d e43b
00000120: cd0f f6bc de05 2b3c 1692 3bbd 420e 4c3a
00000130: fd0c 4cbd ca27 a9bc 7f28 e4bc 0e3c b5ba
00000140: 02d0 993c 0b66 3a3d 3eb3 ffbb b30c 1ebd
00000150: 85c0 e1bc c9ac 4b3d ef4a 3bbc d2f9 c53b
00000160: c2a6 dcbc ef85 a03b dff2 103d 0aff d13c
00000170: af48 2c3d 3ab8 b1bc 9f5d 1abc 58ac 39bc
00000180: 8051 ec3b 40c1 c7bc 72d2 df3c 5ab3 053b
00000190: ce48 1fbd 781a 27bc 8108 363d 1c62 97bc
000001a0: 4c47 27bb 9d5c ffbc fac6 d4bc 8d45 4bbd
000001b0: 10dd b7bc 0074 193a a2a5 ce3c d8f4 393c
000001c0: 3dc4 f6bc cda2 fabc 48e5 0ebd 4ce3 173c
000001d0: 4e54 fc3c bec4 00bd 40c3 84ba d296 c63c
000001e0: b1f8 9c3c f358 ffba 585c a93b 06f3 1cbd
000001f0: b6ea ce3b bfb1 05bc ab7e 36bd 24fa e43c
00000200: 0f17 91bc 86eb 5abd 6170 303d b9ab 31bd
00000210: 8fbb 7dbb 1406 de3c 22da 953b 0fa4 1dbd
00000220: a5c7 16bc 963a 883c 44cb 8f3c b799 b5bc
00000230: 4727 d3bc 0533 133d b142 d1bc 1c51 75bb
00000240: a6e0 993c 829c a23c 57e3 223d 7a4c a43c
00000250: 9428 373c 42e6 9dbc 62ba acbc 27a5 8f3c
00000260: 8055 ecbc 3093 1abd 5e5d dfbc 9dd4 303d
00000270: 3a7f 09bd dbb1 a93c 941e 93bc 316f cd3b
00000280: 26a0 22bd 46cf fbbc 4b76 2cbd c60e 4a3b
00000290: aecf 2fbb 5f91 663c 42eb 4e3c 89d4 113d
000002a0: 6604 2bbd 68b5 15bd e0df 6dbb 53e3 9a3b
000002b0: 70b7 ee3b 1c40 0cbd e5dd 1a3b 47ff 41bd
000002c0: 429e a83c ec57 253c 25aa 08bd c832 133c
000002d0: 5e0b f6bc b8c9 52bd 7a97 c639 10ad 37bc
000002e0: 1f8f fabc b22b 0dbd d880 d73b 40de a13c
000002f0: 7fb9 4bbd 32b5 ac3c 2832 eabb 28de 19bd
00000300: ed97 bfbc 017f 073d bae6 233c 8fe6 debc
00000310: b043 48bb 9c76 2e3c c726 ccbc 4ef1 73bd
00000320: 10ad 37bd 5db7 acbc fd34 443d 5e9b a43c
00000330: b582 ed3b 607e 243b 7212 ff3c 8c32 59bc
00000340: 0a20 1cbd 45ec 02bd e0f6 32bd 390f d43c
00000350: 0040 f6b8 0284 3bbd de3a 06bd d2a1 173c
00000360: bac8 8f3c 8a37 89bc 066f 95bc 75cb 26bd
00000370: 4e39 a3bb b0cc 303b 8a0a e4bc a551 ffbc
00000380: 164d e13c d3ba e23c 1197 253b 5852 ed3c
00000390: c9fe 24bd c6ff 83bc 11e9 3f3d fac9 4cbc
000003a0: d0a3 033b 959b 07bd 0453 4bbd 4ea6 e2bc
000003b0: 4a69 49bd 221d 1abd 1ef8 413d 4a9f 22bc
000003c0: 7adf 9bbc 1899 113c 785f 69bc 1db0 0dbd
000003d0: 51fc 73bd 889c 09bc c421 2b3c acaa 05bc
000003e0: 7fcc 47bd d083 373b 7baa 48bb e89b 0cbd
000003f0: d62f 4dbd d6ff c73c 8202 2ebd 935d 3cbd

l2.bias f4 [300]
0.030577272 0.010096863 -0.044244185 -0.0037661153 -0.108238935 -0.049584415 0.014902498 -0.046369184
0.3274662 0.15404621 0.33230793 0.32312897 -0.07955397 -0.13510944 -0.39584452 -0.05465702
0.3227864 -0.1728532 0.5498884 0.11568166 -0.44074246 -0.033349566 -0.05762161 -0.082882516
-0.05026036 -0.43310797 0.2709251 -0.006265009 -0.057831585 -0.018295469 -0.33801514 -0.29447046
-0.06510363 -0.03906161 -0.16229714 -0.027578464 -0.053896192 -0.27363348 -0.053792465 -0.06659541
-0.023053989 0.297889 -0.015274583 -0.29458636 0.025542174 -0.019254198 -0.118559636 -0.022149853
0.3076429 -0.59359705 -0.02922131 -0.4404286 -0.048642572 -0.48667058 -0.09877085 -0.17601527
-0.049784463 -0.2173759 -0.022832721 0.10148474 -0.3026431 -0.018242067 -0.02010507 0.060488015
-0.0751303 -0.0410469 0.27037936 -0.18776809 -0.011770976 0.20069252 -0.07415396 -0.46301594
-0.32208896 -0.04719717 0.021017954 -0.084327415 -0.04716739 -0.023816636 -0.15470618 -0.28952545
0.008959609 -0.52880025 0.09759822 -0.19678795 -0.12700512 -0.039835602 -0.08542274 0.3749109
-0.15990208 -0.42778754 0.07695084 -0.0073811538 -0.037500024 0.07659726 0.38278228 -0.10795318
0.012453716 -0.034053724 -0.07915976 -0.21223931 -0.07122829 -0.06441176 0.013031682 0.038692564
0.13896483 0.45766714 -0.13043764 -0.019892652 -0.37282655 -0.0023843227 -0.079592586 -0.029545719
-0.20622124 -0.20944132 0.036378853 0.30722728 0.074261375 -0.060637154 -0.056865178 -0.04805907
-0.50186026 -0.086038195 -0.123180844 -0.089160286 -0.041848205 0.10786278 0.36568317 0.27420023
-0.09550029 -0.06951976 -0.033057023 -0.02022355 -0.043995984 0.2456144 0.5736877 -0.08241865
-0.10066428 0.024398759 0.008095817 0.116340436 -0.3966659 -0.007920734 -0.038963106 -0.03354049
-0.018991502 -0.09025687 -0.48694536 0.009218054 -0.049719393 0.42896098 -0.0071779126 -0.041729216
-0.030700156 -0.06936629 -0.06097983 -0.0018672382 -0.3374067 -0.3093237 0.2138174 -0.19656646
-0.015684633 -0.09327564 0.18096319 -0.15040238 -0.10334415 0.279633 0.015390739 0.3908776
-0.043614693 -0.073089585 0.0054188627 0.04765532 -0.0066414434 0.0018331271 -0.0180349 0.03247956
0.35372576 -0.1926445 0.39821076 0.23110336 -0.08193612 -0.023308694 0.03002921 -0.20396163
-0.2772889 -0.0824 -0.105702884 -0.06663502 -0.07139632 -0.05356931 -0.045508176 0.23810528
-0.0031026893 0.20717813 -0.0049157883 -0.007035495 -0.03241082 0.007333286 -0.04204213 -0.04289639
-0.04795393 -0.076940015 -0.0411289 -0.038648374 -0.05416498 -0.02451146 -0.13879406 -0.04286389
-0.022068795 -0.26720485 -0.053740475 -0.015083011 -0.04110848 -0.060616326 -0.028982665 0.028890586
0.0068205106 -0.03268342 -0.11079912 -0.045192514 -0.07987012 -0.054044995 0.000974318 0.14490168
-0.08592026 0.0069183223 -0.5513293 -0.13618241 -0.05958451 0.3769502 0.074598804 0.22289662
-0.4562833 -0.06674694 -0.025580192 -0.50939196 -0.06062614 0.054491285 0.003819243 -0.32317835
-0.03647635 0.17717181 -0.07110866 0.012215548 0.010370398 0.1222599 -0.1767333 -0.05254565
-0.03669037 0.15507548 -0.103611395 -0.05576898 0.083552815 0.0062007518 -0.06585947 -0.052568037
00000000: 307d fa3c 506d 253c 6439 35bd eed0 76bb
00000010: 60ac ddbd 0719 4bbd 9b29 743c 9ded 3dbd
00000020: a6a9 a73e 4abe 1d3e 4424 aa3e 2971 a53e
00000030: 31ed a2bd 215a 0abe 22ac cabe 0ae0 5fbd
00000040: 4244 a53e 6e00 31be 7cc5 0c3f 82ea ec3d
00000050: ffa8 e1be 8e99 08bd a304 6cbd 4fbe a9bd
00000060: cfdd 4dbd 54c0 ddbe b2b6 8a3e b44a cdbb
00000070: d0e0 6cbd 61e0 95bc 5210 adbe d5c4 96be
00000080: 0d55 85bd 11ff 1fbd 3931 26be 3bec e1bc
00000090: 41c2 5cbd b019 8cbe 7d55 5cbd 2d63 88bd
000000a0: b8db bcbc e884 983e 3f42 7abc 06d4 96be
000000b0: d23d d13c fbba 9dbc 65cf f2bd 9c73 b5bc
000000c0: 5f83 9d3e faf5 17bf 8761 efbc dc7f e1be
000000d0: 6f3d 47bd e32c f9be 5f48 cabd 593d 34be
000000e0: cbea 4bbd ca97 5ebe b00b bbbc 3bd7 cf3d
000000f0: 09f4 9abe 6370 95bc 63b3 a4bc 48c2 773d
00000100: eadd 99bd cb20 28bd 2a6f 8a3e 4746 40be
00000110: 0ddb 40bc 5782 4d3e 08de 97bd 6d10 edbe
00000120: d8e8 a4be d251 41bd d82d ac3c dab3 acbd
00000130: 9832 41bd 1b1b c3bc 4c6b 1ebe ae3c 94be
00000140: 53cb 123c 745f 07bf 93e1 c73d c882 49be
00000150: a10d 02be a82a 23bd 1ef2 aebd 52f4 bf3e
00000160: 5fbd 23be f806 dbbe 6798 9d3d 9bdd f1bb
00000170: a099 19bd 06df 9c3d 0afc c33e 8f16 ddbd
00000180: ac0a 4c3c eb7b 0bbd 831e a2bd 4355 59be
00000190: 23e0 91bd 50ea 83bd d682 553c 187c 1e3d
000001a0: cc4c 0e3e 5953 ea3e 7291 05be eaf5 a2bc
000001b0: 1fe3 bebe 4c42 1cbb 7001 a3bd dd09 f2bc
000001c0: a92b 53be c977 56be fe01 153d e54c 9d3e
000001d0: 5916 983d aa5e 78bd 76eb 68bd 96d9 44bd
000001e0: ea79 00bf cb34 b0bd 3d46 fcbd ab99 b6bd
000001f0: 0669 2bbd 29e7 dc3d d33a bb3e f963 8c3e
00000200: a895 c3bd 6060 8ebd cd66 07bd dcab a5bc
00000210: 2235 34bd 5782 7b3e 32dd 123f 1ccb a8bd
00000220: 1329 cebd e8df c73c 51a4 043c e543 ee3d
00000230: cb17 cbbe f7c5 01bc c797 1fbd c161 09bd
00000240: 1194 9bbc 98d8 b8bd e750 f9be 5207 173c
00000250: 90a6 4bbd c6a0 db3e b234 ebbb 41ec 2abd
00000260: e57e fbbc ea0f 8ebd fcc5 79bd 1ebe f4ba
00000270: 92c0 acbe ad5f 9ebe f3f2 5a3e b848 49be
00000280: 0f7d 80bc 4c07 bfbd 6a4e 393e 1503 1abe
00000290: 19a6 d3bd 0e2c 8f3e 7029 7c3c 1c21 c83e
000002a0: 52a5 32bd feaf 95bd b790 b13b 3a32 433d
000002b0: 77a0 d9bb 8a45 f03a edbd 93bc 4909 053d
000002c0: 8b1b b53e 9a44 45be 48e2 cb3e 5ca6 6c3e
000002d0: 20ce a7bd e0f1 bebc d1ff f53c 51db 50be
000002e0: d0f8 8dbe 55c1 a8bd c17a d8bd f177 88bd
000002f0: 3c38 92bd 7e6b 5bbd c866 3abd dfd1 733e
00000300: 7d56 4bbb 8126 543e 9f14 a1bb 028a e6bb
00000310: 35c1 04bd 104c f03b 5e34 2cbd 20b4 2fbd
00000320: 576b 44bd ba92 9dbd c776 28bd c24d 1ebd
00000330: 19dc 5dbd 42cc c8bc 0820 0ebe 0c92 2fbd
00000340: 9ec9 b4bc 13cf 88be f91e 5cbd bc1e 77bc
00000350: 5e61 28bd d348 78bd 0e6d edbc f3ab ec3c
00000360: 977e df3b 0ddf 05bd a6ea e2bd c91b 39bd
00000370: f292 a3bd 495e 5dbd 6069 7f3a 1b61 143e
00000380: f6f6 afbd 18b3 e23b eb23 0dbf 6773 0bbe
00000390: e30e 74bd 9eff c03e 42c7 983d 033f 643e
000003a0: f79d e9be 9fb2 88bd 8d8d d1bc 8367 02bf
000003b0: 1e53 78bd 4132 5f3d 444c 7a3b a277 a5be
000003c0: 3a68 15bd 876c 353e 6ba1 91bd b923 483c
000003d0: 9ae8 293c 6663 fa3d 93f9 34be 1c3a 57bd
000003e0: a448 16bd 1bcc 1e3e 3632 d4bd 046e 64bd
000003f0: bd1d ab3d ad2f cb3b 54e1 86bd 9551 57bd

l3.weight f4 [6, 300]
0.01473434 -0.011189021 0.083230264 -0.040246893 -0.12589799 -0.045804463 0.030096948 0.026078857
0.47370592 0.10408003 0.33060166 0.21649912 0.009128624 0.013136273 -0.22250444 0.4701556
0.5507652 -0.04760874 0.89039737 -0.21160764 -0.004948058 0.03670381 -0.017220996 0.059572425
-0.010700241 -0.086336195 -0.16814187 0.00736709 -0.019771332 -0.00024997265 0.05678274 0.11423489
-0.006672236 0.0044499217 0.12755075 0.03319553 -0.054972135 -0.34379953 0.04894062 0.051193077
0.03851086 -0.25606686 -0.040708132 -0.02423509 0.036871772 0.0027619845 -0.08860014 -0.03278651
0.03554828 -0.22341745 -0.002052698 -0.14150313 0.035804752 -0.09097228 -0.04377927 -0.17436832
-0.022199674 -0.13959418 -0.0024183395 0.25659007 0.06801093 -0.045624867 0.024378387 -0.19649784
0.029862275 -0.02983454 0.071941674 0.034218952 -0.034175508 0.19897932 0.004846873 -0.022091106
-0.2538273 -0.018052613 -0.045488477 0.005413701 -0.23328604 -0.03940635 -0.54140264 -0.33888078
0.02776973 -0.26656958 0.412177 -0.26461944 0.00869577 0.047380563 -0.015968451 0.18349156
0.24619837 0.04483302 0.16793618 -0.0026614058 0.026998792 0.17015961 0.2593272 0.02365604
0.050227836 0.053829618 -0.22438371 0.1802415 0.037198916 -0.02182004 0.026561998 0.046547648
0.1333335 0.91525674 0.005932875 -0.20058896 -0.28310376 -0.015214434 -0.009846198 -0.0030132518
0.48352262 -0.26411197 -0.29484612 0.11463341 0.1252944 0.037338853 0.015887327 -0.03007931
-0.09009301 -0.23167935 -0.020580556 0.08201407 -0.015968807 -0.42275783 0.11483423 0.17723627
-0.20927253 -0.28099287 -0.19527413 0.012162794 -0.031369586 0.3815206 0.11203156 -0.020915262
0.029287802 0.006491775 -0.024508767 -0.37248316 -0.16045202 -0.052710705 0.18869753 0.043765277
0.029971907 0.015184576 0.060142398 -0.0056501846 -0.012031645 0.3450258 0.05877105 0.16047478
0.005648057 0.02098518 0.041813865 -0.020744732 0.10855593 -0.10007885 0.31402662 0.08914677
-0.0332972 0.007289261 0.035197627 -0.35537893 0.30351916 0.00083386176 0.019055564 0.16669899
-0.06531612 -0.077939734 0.020176325 0.1327377 -0.012968824 -0.059555765 0.01613789 -0.23336895
0.3052698 -0.32892704 0.40435433 -0.6848984 -0.037022855 -0.022588704 0.024106538 -0.5322176
0.06019269 0.039187588 -0.12407288 -0.060031813 0.030373175 -0.01889449 0.04763233 0.024694454
0.022564758 0.034720045 0.02591872 -0.00367288 -0.048936464 0.0208721 0.015979081 -0.07252899
-0.0003788144 0.037755936 -0.010308467 0.017249344 0.0019486598 -0.027343636 0.21086542 0.17385906
-0.05728276 0.42675132 0.008493509 -0.05741654 0.024061702 0.010313451 -0.003574714 0.1583413
-0.33185962 0.038086414 -0.1658425 0.38999292 -0.23023711 0.029832257 -0.024757762 0.39958844
0.010237284 0.004243412 -0.014146081 -0.41426316 -0.04492178 0.24702473 0.1867555 0.18046196
-0.019529754 -0.01109999 0.006270211 0.0044612708 -0.016837757 -0.007924983 -0.029425021 -0.30281973
0.033688135 -0.016446376 -0.002777393 0.0008322714 0.45743868 0.20228444 0.04786238 -0.03397513
-0.02537521 0.137338 -0.18455368 0.053609367 -0.41043073 0.022553232 0.012054794 0.017213976
00000000: 4d68 713c 2852 37bc a174 aa3d edd9 24bd
00000010: 67eb 00be 769d 3bbd e08d f63c 54a3 d53c
00000020: 9589 f23e e927 d53d 9f44 a93e f2b1 5d3e
00000030: 3990 153c 8639 573c 34d8 63be 3cb8 f03e
00000040: f3fe 0c3f 6201 43bd 15f1 633f acaf 58be
00000050: 5223 a2bb bc56 163d 0c13 8dbc 3702 743d
00000060: 1050 2fbc 08d1 b0bd 622d 2cbe a167 f13b
00000070: 7df7 a1bc c30e 83b9 0595 683d fbf3 e93d
00000080: c6a2 dabb a6d0 913b aa9c 023e 09f8 073d
00000090: 762a 61bd 7e06 b0be f675 483d d5af 513d
000000a0: 90bd 1d3d 321b 83be 92bd 26bd ab88 c6bc
000000b0: db06 173d 6902 353b fd73 b5bd 264b 06bd
000000c0: 139b 113d 8bc7 64be 8f86 06bb 32e6 10be
000000d0: 01a8 123d ad4f babd e451 33bd 9c8d 32be
000000e0: 17dc b5bc c7f1 0ebe 017d 1ebb c65f 833e
000000f0: 5149 8b3d 24e1 3abd 2fb5 c73c bb36 49be
00000100: bba1 f43c 9167 f4bc 2856 933d 2c29 0c3d
00000110: 9efb 0bbd 3cc1 4b3e 85d2 9e3b 68f8 b4bc
00000120: a7f5 81be 13e3 93bc 2052 3abd 6a65 b13b
00000130: 89e2 6ebe 8e68 21bd 5d99 0abf c881 adbe
00000140: 587d e33c cf7b 88be dd08 d33e 337c 87be
00000150: b478 0e3c 1f12 423d 45d0 82bc 36e5 3b3e
00000160: 6d1b 7c3e d4a2 373d 76f7 2b3e fb6a 2ebb
00000170: 922c dd3c 523e 2e3e 89c6 843e 50ca c13c
00000180: b4bb 4d3d 727c 5c3d d8c4 65be 3a91 383e
00000190: e45d 183d f1bf b2bc 8c98 d93c bfa8 3e3d
000001a0: 9488 083e 444e 6a3f 9068 c23b 3167 4dbe
000001b0: faf2 90be f645 79bc f351 21bc fa79 45bb
000001c0: 4790 f73e af39 87be 12f6 96be ecc4 ea3d
000001d0: 2d4d 003e a0f0 183d 2426 823c e368 f6bc
000001e0: af82 b8bd 5a3d 6dbe 8e98 a8bc fef6 a73d
000001f0: 04d1 82bc b773 d8be 352e eb3d 6d7d 353e
00000200: 8a4b 56be 4cde 8fbe f1f5 47be 7546 473c
00000210: 657d 00bd ab56 c33e cd70 e53d 7c56 abbc
00000220: f9ec ef3c f5b8 d43b 9cc6 c8bc 1db6 bebe
00000230: 894d 24be 2ee7 57bd ed39 413e 3843 333d
00000240: a587 f53c bac8 783c e057 763d 2f25 b9bb
00000250: 6020 45bc 39a7 b03e eab9 703d 8053 243e
00000260: 5613 b93b 1de9 ab3c 0445 2b3d dbf0 a9bc
00000270: 9252 de3d 24f6 ccbd 19c8 a03e 9592 b63d
00000280: a562 08bd c1da ee3b 632b 103d 3af4 b5be
00000290: dd66 9b3e 8497 5a3a 6a1a 9c3c 24b3 2a3e
000002a0: 75c4 85bd de9e 9fbd d248 a53c 64ec 073e
000002b0: 317b 54bc bff0 73bd 9c33 843c 45f8 6ebe
000002c0: 534c 9c3e 2069 a8be 8807 cf3e 8055 2fbf
000002d0: 47a5 17bd f20b b9bc 137b c53c 6a3f 08bf
000002e0: 9c8c 763d 2a83 203d ec19 febd ebe3 75bd
000002f0: 2ad1 f83c 9ec8 9abc 1e1a 433d 064c ca3c
00000300: bad9 b83c 9b36 0e3d 7f53 d43c b3b4 70bb
00000310: 9a71 48bd f7fb aa3c 90e6 823c 148a 94bd
00000320: 9c9b c6b9 f8a5 1a3d d8e4 28bc 7f4e 8d3c
00000330: 2c6a ff3a c3ff dfbc 1bed 573e 1c08 323e
00000340: 54a1 6abd 267f da3e 5c28 0b3c 9b2d 6bbd
00000350: 0c1d c53c c0f9 283c c045 6abb 3924 223e
00000360: 81e9 a9be 8000 1c3d 9ed2 29be 27ad c73e
00000370: 47c3 6bbe c762 f43c cad0 cabc db96 cc3e
00000380: 48ba 273c 520c 8b3b f7c4 67bc 4d1a d4be
00000390: e6ff 37bd 0df4 7c3e d53c 3f3e 05cb 383e
000003a0: ddfc 9fbc bcdc 35bc 5876 cd3b da2f 923b
000003b0: 56ef 89bc cad7 01bc be0c f1bc 300b 9bbe
000003c0: 92fc 093d 8dba 86bc ec04 36bb ca2c 5a3a
000003d0: 6735 ea3e a723 4f3e 580b 443d 8229 0bbd
000003e0: acdf cfbc 55a2 0c3e a4fb 3cbe 7f95 5b3d
000003f0: fa23 d2be 8ec1 b83c 7881 453c 5304 8d3c

l3.bias f4 [6]
0.38582754 0.04579705 -0.23884523 0.08997193 0.06297764 0.31363368
00000000: 308b c53e b095 3b3d d893 74be 3443 b83d
00000010: 6cfa 803d 9894 a03e
