2019_test_data/triple_assembly/TD3_Peg-in-hole-single_assembly_seed_2/_actor.pth (torch_old, 510312 bytes, 6 tensors)

l1.weight f4 [400, 12]
0	0xbacade6f	-0.0015477667
1	0xbdbde862	-0.09272839
2	0xbbeb514e	-0.007181323
3	0xbd21054e	-0.0393117
4	0x3ddc7b05	0.107656516
5	0x3db1c3e4	0.08679941
6	0x3d0d4719	0.034491632
7	0xbeb89ac8	-0.3605559
8	0x3de8f2a0	0.11374402
9	0xbe83af2a	-0.25719577
10	0x3e2fe0d5	0.1717561
11	0xbb9a05c1	-0.004700393
12	0xbd8aed70	-0.06783569
13	0x3e746804	0.23867804
14	0x3d27cde7	0.04096785
15	0x3df52910	0.11970723
16	0x3dfa3683	0.122174285
17	0xbe2e5d9d	-0.17027898
18	0xbddaa7f5	-0.106765665
19	0x3e88ca4e	0.26716846
20	0xbe937c56	-0.28805798
21	0xbca61823	-0.020275181
22	0xbcc18b14	-0.023625888
23	0x3e51113c	0.2041673
24	0xbba68e4b	-0.0050828806
25	0x3d912695	0.07087437
26	0xbcfb4a0d	-0.030674959
27	0xbe20ca0f	-0.15702079
28	0xbe3110da	-0.17291585
29	0xbdf86bff	-0.121299736
30	0xbe7a39e8	-0.24436152
31	0xbe44d687	-0.1922246
32	0x3d848aaa	0.064717606
33	0x3e2cb331	0.16865231
34	0x3c9bd769	0.019023614
35	0xbdf19350	-0.11795676
36	0x3e35a671	0.17739274
37	0xbdf79df8	-0.12090677
38	0xbd816451	-0.06317962
39	0xbe07069d	-0.13186117
40	0xbdad3931	-0.08458174
41	0xbe75057c	-0.23927873
42	0x3e184693	0.14870672
43	0x3e380c97	0.17973553
44	0x3d90368c	0.07041654
45	0x3e2ad63e	0.1668329
46	0x3d9fcc80	0.07802677
47	0xbc529caa	-0.012854734
48	0x3cfa72c0	0.030572295
49	0x3cb494c0	0.022043586
50	0x3e1dbbb6	0.15403637
51	0x3e469212	0.19391659
52	0x3e544946	0.20731077
53	0x3e2b5556	0.16731772
54	0xbd90244c	-0.07038173
55	0xbc528da0	-0.012851149
56	0xbd704af8	-0.058665246
57	0x3e2bf63e	0.16793153
58	0x3d035110	0.03205973
59	0x3e88cbc0	0.2671795
60	0x3e15d22e	0.14630958
61	0xbe7cb4f4	-0.24678403
62	0x3daf708c	0.085663885
63	0x3e8e04d0	0.27738047
64	0x3e8348b0	0.25641394
65	0xbb94a657	-0.004536431
66	0x3dc3ac4b	0.09554347
67	0xbe8a559c	-0.2701844
68	0xbdbd831a	-0.09253521
69	0x3e10294a	0.1407825
70	0xbe86a4f3	-0.2629772
71	0x3e80c4f9	0.25150278
72	0xbe37afe1	-0.17938186
73	0x3d8fce19	0.07021732
74	0xbd267e16	-0.04064759
75	0x3d8954d8	0.06705636
76	0x3acd3fe2	0.0015659297
77	0xbe769c74	-0.2408312
78	0xbd0e3869	-0.034721766
79	0xbe63804f	-0.22216915
80	0x3e64a4fa	0.22328559
81	0xbc41ed78	-0.011836402
82	0xbe84100a	-0.25793487
83	0x3d9478a3	0.07249572
84	0x3d4470f8	0.047959298
85	0xbda21c3a	-0.0791554
86	0xbc420f2e	-0.011844439
87	0x3dd7f2fc	0.105443925
88	0xbe3a677a	-0.18203536
89	0xbe16f907	-0.14743434
90	0xbd0f3177	-0.034959283
91	0xbe965524	-0.29361832
92	0x3e166cfe	0.14690015
93	0x3b617715	0.0034403254
94	0x3e4c791b	0.19968073
95	0x3ddd3cfe	0.10802649
96	0xbe855f78	-0.260494
97	0xbe27a56c	-0.16371697
98	0xbe4851ae	-0.19562408
99	0xbdd4d7d9	-0.10392732
100	0xbde5761c	-0.11204168
101	0xbd11f519	-0.035634134
102	0xbe8ad1de	-0.2711324
103	0x3d9bcea3	0.07607772
104	0x3e37737a	0.17915145
105	0x3db86ef2	0.09005536
106	0x3e5edb6d	0.21763392
107	0x3e56fcd4	0.20994884
108	0xbe91e7fa	-0.28497297
109	0x3d329c10	0.043605864
110	0x3e891a3e	0.26777834
111	0xbe563a87	-0.20920764
112	0xbe039e68	-0.12853396
113	0xbc791260	-0.015202135
114	0xbe37e3d2	-0.17958
115	0xbd5edd08	-0.05441001
116	0xbd2eb9d8	-0.042657703
117	0x3e83afe0	0.2572012
118	0xbc94b290	-0.018151551
119	0x3e204c22	0.15654042
120	0x3e35ea0b	0.17765062
121	0x3e10c982	0.14139369
122	0xbe7a04f8	-0.24415958
123	0x3e476bf3	0.19474773
124	0x3e543165	0.20721968
125	0xbe64c635	-0.22341235
126	0xbe43aed3	-0.19109659
127	0x3e1e9944	0.15488154
128	0xbeb1e079	-0.34741572
129	0xbe8757bf	-0.26434132
130	0xbe768ca6	-0.2407709
131	0x3e6d3559	0.23164882
132	0xbdf16e1e	-0.11788581
133	0xbe83d0c6	-0.2574522
134	0x3de52b64	0.11189917
135	0x3e1585e4	0.14601856
136	0x3ddd7198	0.10812682
137	0xbe7d43ce	-0.24732897
138	0x3e8feaca	0.28108817
139	0xbcb26d50	-0.02178064
140	0xbe8cac89	-0.27475384
141	0xbd32007c	-0.043457493
142	0x3e411318	0.1885494
143	0x3e08224a	0.1329433
144	0xbd257fd3	-0.040405106
145	0x3e671f5c	0.22570556
146	0xbe868e72	-0.26280552
147	0x3e2f3254	0.17109042
148	0x3e959595	0.29215685
149	0xbe4f1597	-0.2022308
150	0xbcad703d	-0.021171683
151	0xbdc3af1b	-0.09554883
152	0xbea01420	-0.31265354
153	0xbd1d72cb	-0.038439553
154	0xbdcb64af	-0.09931313
155	0xbe30df1b	-0.17272608
156	0xbe5765a0	-0.2103486
157	0x3bce66c0	0.00629887
158	0x3e89059e	0.26762098
159	0x3dd3abc8	0.10335499
160	0xbe44ad00	-0.1920662
161	0x3e4be44a	0.19911304
162	0x3cc21d40	0.023695588
163	0xbe906c68	-0.28207707
164	0x3c605a40	0.013693392
165	0x3e3dc294	0.18531257
166	0xbe2dd0f8	-0.16974247
167	0xbc599e60	-0.013282388
168	0xbe4442ae	-0.19166061
169	0xbe65ff0e	-0.22460577
170	0xbe2aaee3	-0.16668276
171	0x3c8ff556	0.01757304
172	0x3e443e3e	0.19164369
173	0xbd9d49e8	-0.07680112
174	0xbeb4cc02	-0.35311896
175	0xbd91cb61	-0.071188696
176	0xbe8bd645	-0.27311912
177	0xbd8848b9	-0.06654496
178	0x3e71c1a2	0.23609021
179	0x3e203a17	0.1564716
180	0xbe8d6de9	-0.27622917
181	0xbc9c053f	-0.01904547
182	0x3dc393b4	0.095496565
183	0x3d6dad68	0.0580267
184	0xbe9275c6	-0.2860548
185	0xbe2b50f7	-0.16730104
186	0xbda181a8	-0.07886058
187	0xbbb7789f	-0.005599096
188	0x3e8e5e57	0.2780635
189	0x3ddfa532	0.109201804
190	0x3e3e7834	0.18600541
191	0xbe6d971b	-0.23202173
192	0x3e65567f	0.22396277
193	0x3db821d8	0.0899083
194	0xbdb96870	-0.09053123
195	0xbdf773cb	-0.12082633
196	0x3da60995	0.081072964
197	0xbe1edc4b	-0.15513723
198	0x3e065207	0.13117228
199	0x3e8d7f16	0.2763602
200	0xbe300652	-0.17189911
201	0xbe2c2ea7	-0.16814671
202	0xbe57c0b3	-0.21069603
203	0xbe869a16	-0.26289433
204	0xbd09e7d2	-0.033668347
205	0x3e3f9d96	0.18712458
206	0x3e017754	0.12643176
207	0xbdbe9261	-0.09305263
208	0xbd134c17	-0.035961237
209	0xbe008fb3	-0.12554817
210	0xbe5c4ef8	-0.21514499
211	0xbdb74942	-0.0894952
212	0x3b3a5c06	0.0028436198
213	0xbe1393f4	-0.14411908
214	0xbe61f7d6	-0.22067198
215	0x3da43d18	0.08019465
216	0x3db8cd57	0.090235405
217	0xbdfcee4d	-0.1235014
218	0x3d3b4d99	0.0457283
219	0x3e94bb24	0.29049027
220	0x3c84512f	0.016151993
221	0xbe35ec3f	-0.17765902
222	0x3e984057	0.29736587
223	0x3e8a641e	0.27029508
224	0x3c910e13	0.017706906
225	0xbde37e5a	-0.11108084
226	0xbe349f48	-0.17638886
227	0x3e5d99d0	0.21640706
228	0x3e70ee9f	0.23528527
229	0xbe55ebcc	-0.2089073
230	0xbd8ffbe2	-0.07030465
231	0x3d9a74ec	0.07541832
232	0x3daa855b	0.08326217
233	0xbc394100	-0.011307001
234	0xbe5fc71b	-0.21853296
235	0x3d10728f	0.0352655
236	0xbc184f5b	-0.009296264
237	0xbe1559d9	-0.14585055
238	0xbdd28d57	-0.10280865
239	0xbdad9456	-0.084755585
240	0xbd9de7ea	-0.0771025
241	0x3df8b58d	0.12144003
242	0xbe6eb04f	-0.23309444
243	0xbe89dc48	-0.26925874
244	0x3e841c31	0.25802758
245	0x3ddcb522	0.10776736
246	0x3e041887	0.12899981
247	0x3e4a38dc	0.19748253
248	0xbe04f9ad	-0.12985869
249	0xbe2220a9	-0.15832771
250	0xbe8d8a9d	-0.27644816
251	0xbcd1cff7	-0.02561186
252	0x3e1fb834	0.15597612
253	0xbe9497b5	-0.29021993
254	0xbe5f2d5f	-0.21794651
255	0x3e4fcffd	0.20294185

l1.bias f4 [400]
0	0x3e2e5156	0.17023215
1	0xbe3f6508	-0.18690884
2	0xbd7e84e9	-0.06213847
3	0xbd88d487	-0.066811614
4	0xbc4d08c0	-0.012514293
5	0xbd2d2b47	-0.0422776
6	0xbbb38aea	-0.0054792063
7	0x3e6d3424	0.23164421
8	0xbe59ea9f	-0.21280907
9	0x3e212fcc	0.1574089
10	0x3bd61ba5	0.006534057
11	0x3e435e5e	0.19078967
12	0xbe2d964d	-0.16951866
13	0x3d3c5cf8	0.0459871
14	0xbe3ee1c7	-0.18640815
15	0x3d654ad0	0.05597955
16	0x3e8fba40	0.28071785
17	0x3d8a9abf	0.06767797
18	0x3dcf1a67	0.10112458
19	0x3dfb76bf	0.122785084
20	0x3e1b5408	0.15168774
21	0x3e70b5f9	0.23506917
22	0x3c3bc87c	0.011461373
23	0xbdb1c1e5	-0.086795606
24	0x3e2341ee	0.15943119
25	0xbd90e5d6	-0.07075088
26	0xbbb0e6ed	-0.0053986222
27	0x3ce05cb1	0.027387949
28	0xbdeb598d	-0.1149169
29	0xbe424e7a	-0.18975249
30	0xbe0c7f78	-0.137205
31	0x3dfcd9c8	0.12346226
32	0xbe4144a0	-0.18873835
33	0x3e63a894	0.22232276
34	0xbe79d60d	-0.2439806
35	0x3de4d54c	0.11173496
36	0xbe7f6fd4	-0.24945003
37	0xbdaff994	-0.08592525
38	0xbdb54297	-0.08850592
39	0x3dbf6858	0.09346074
40	0xbe6dfc42	-0.2324076
41	0xbe6ed3b6	-0.23322949
42	0x3d15ee72	0.036604352
43	0x3d321658	0.04347834
44	0xbe8aaf38	-0.27086806
45	0x3deb8547	0.1150003
46	0xbd4c75d0	-0.049917042
47	0x3c054e6f	0.008136376
48	0x3e6e33b4	0.2326191
49	0xbd44c2a1	-0.048037175
50	0x3d8a0af3	0.0674037
51	0x3e7f5dff	0.249382
52	0xbcdc1bab	-0.026868662
53	0x3da15afa	0.078786805
54	0x3dd29e49	0.10284097
55	0xbe18ac39	-0.14909448
56	0xbea33d2d	-0.3188261
57	0xbd9ccf7b	-0.07656761
58	0x3e489642	0.19588569
59	0x3e69730c	0.22797793
60	0xbe3a1453	-0.18171816
61	0x3d5b5a34	0.05355282
62	0x3e487f16	0.1957973
63	0x3e9800cf	0.29688117
64	0x3df06449	0.11737878
65	0xbe0249b0	-0.12723422
66	0xbe02d5c7	-0.12776862
67	0x3d07a6b8	0.03311798
68	0x3e18141c	0.14851421
69	0x3e8c7927	0.27436182
70	0xbdf192ec	-0.11795601
71	0x3e49a366	0.19691238
72	0xbe7f1b03	-0.24912648
73	0x3e04d421	0.12971546
74	0x3dfff813	0.12498488
75	0xbdaf906a	-0.08572467
76	0xbe18eaad	-0.14933272
77	0xbda86787	-0.08222871
78	0x3e4fe0ca	0.20300594
79	0x3b9c1e41	0.0047643487
80	0xbdd55942	-0.10417415
81	0xbe685aa0	-0.2269082
82	0xbe8f0e1c	-0.27940452
83	0xbcbc5619	-0.022990273
84	0xbd8d97e9	-0.0691374
85	0x3e285008	0.1643678
86	0x3d0b9130	0.03407401
87	0x3d48988f	0.048973616
88	0x3ea286c0	0.3174343
89	0xbe897a48	-0.26851106
90	0x3e8911c7	0.26771376
91	0x3dd10aac	0.102071136
92	0xbdcf3ffd	-0.10119627
93	0xbe54521c	-0.20734447
94	0xbe232935	-0.15933688
95	0x3e76313c	0.24042219
96	0xbe381ed3	-0.17980509
97	0xbd9b38a2	-0.07579161
98	0xbd27ef24	-0.040999547
99	0x3ccd0552	0.025026951
100	0x3da0da0e	0.07854091
101	0xbe034b45	-0.12821682
102	0x3e9f3428	0.3109448
103	0x3e5424bd	0.2071714
104	0xbe33acc5	-0.17546375
105	0xbe4f0cf2	-0.20219782
106	0xbe68e961	-0.22745277
107	0x3a368de8	0.00069638947
108	0xbe710e8b	-0.23540704
109	0x3e8f5798	0.27996516
110	0x3da3106b	0.07962116
111	0x3db54ffa	0.08853145
112	0x3d919d7a	0.071101144
113	0xba0a824f	-0.00052837
114	0xbe4f0919	-0.20218314
115	0xbe8a5497	-0.27017662
116	0x3e5d592c	0.21616048
117	0x3e846e29	0.25865296
118	0x3e6f1dd2	0.2335122
119	0x3e8346f6	0.25640076
120	0xbe807bce	-0.25094455
121	0xbe794854	-0.24343997
122	0x3e292d65	0.16521223
123	0x3e827fba	0.25488073
124	0x3db2cd3c	0.087305516
125	0x3e2a25c2	0.16615966
126	0x3dfe1dca	0.124080256
127	0x3dc635fa	0.09678264
128	0xbd1de612	-0.03854949
129	0xbe0a59bc	-0.13510793
130	0xbcca6d27	-0.024710251
131	0x3e6ba8a8	0.23013556
132	0x3c757012	0.014980333
133	0xbe6a9e1d	-0.22911878
134	0x3be1467c	0.0068748575
135	0x3e258be6	0.16166648
136	0x3db31234	0.08743706
137	0xbe87b352	-0.26503998
138	0xbe0dbf80	-0.13842583
139	0x3e01d68c	0.126795
140	0x3de23b22	0.11046435
141	0xbe51008f	-0.2041037
142	0xbe44e390	-0.19227433
143	0x3d1f80ad	0.038941074
144	0xbe835edb	-0.25658306
145	0x3e1e6669	0.15468754
146	0x3d12d35b	0.035846096
147	0x3e383ac1	0.17991163
148	0x3c2dcf08	0.010608442
149	0x3e63e59d	0.2225556
150	0x3de35e33	0.111019515
151	0xbde1e6fe	-0.110303864
152	0x3e36a7a9	0.17837395
153	0xbe3fd747	-0.18734466
154	0xbd8a5e48	-0.06756264
155	0x3e6c8ca7	0.2310053
156	0x3da5ad15	0.080896534
157	0xbe30fa59	-0.17283
158	0xbcea8992	-0.028630052
159	0x3e4aefec	0.19818085
160	0x3e57e33d	0.21082778
161	0x3d739d03	0.05947591
162	0x3e9643c6	0.29348582
163	0x3e2aeac4	0.16691118
164	0xbcb2500f	-0.02176669
165	0xbe6c76c7	-0.23092185
166	0xbd829d6b	-0.06377681
167	0x3d24d3b4	0.04024096
168	0xbe92a10d	-0.28638497
169	0x3e5ab17b	0.21356766
170	0xbe83e4e1	-0.25760558
171	0x3e7eb9fc	0.24875635
172	0xbe0936e4	-0.13399845
173	0x3d60ab2b	0.05485074
174	0xbe8b396d	-0.2719225
175	0x3dcf8e55	0.101345696
176	0x3e0aa25c	0.13538498
177	0x3db8380c	0.08995065
178	0x3e09c9e7	0.13455926
179	0x3dc1ce11	0.09463132
180	0x3e80a531	0.2512603
181	0x3df98968	0.12184411
182	0x3ddf9136	0.10916369
183	0xbdd21826	-0.10258512
184	0xbe51eda1	-0.20500804
185	0xbe60b899	-0.21945418
186	0x3d5805c1	0.052739862
187	0x3e73d8f4	0.2381323
188	0x3e64dc15	0.2234958
189	0x3e8e112d	0.2774748
190	0x3e41068a	0.1885015
191	0xbe5cda42	-0.21567634
192	0xbe2c592e	-0.16830894
193	0x3e5701cc	0.20996779
194	0xbcb5a4c0	-0.022173285
195	0xbe6f30bf	-0.23358439
196	0x3d2f9ddc	0.042875156
197	0xbe540d34	-0.20708162
198	0x3e6d6b95	0.2318557
199	0xbbb90b2d	-0.005647084
200	0xbe85d2cf	-0.26137397
201	0x3dda78ac	0.106675476
202	0x3d95a5e2	0.0730703
203	0x3e3da174	0.1851862
204	0xbe57be34	-0.2106865
205	0x3e1d185b	0.15341322
206	0xbe494138	-0.19653785
207	0x3b7796d1	0.0037779103
208	0x3e563ec2	0.20922378
209	0x3d7e2be5	0.06205358
210	0xbe6c126e	-0.23053905
211	0xbe880673	-0.2656742
212	0x3e80ea7a	0.2517889
213	0x3e8e59eb	0.27802977
214	0xbd9844e3	-0.07435014
215	0x3d8cd8ab	0.06877264
216	0x3e279834	0.16366655
217	0xbe7b2f09	-0.24529661
218	0x3dadc47b	0.08484741
219	0xbe2f3885	-0.17111404
220	0xbe4ea402	-0.20179752
221	0x3db6c2b5	0.08923856
222	0x3e7fe946	0.2499133
223	0x3e0b1a02	0.1358414
224	0xbcb3b390	-0.021936208
225	0x3e871dca	0.26389915
226	0xbd2e2a78	-0.04252097
227	0x3ddb3a05	0.10704426
228	0xbd22e171	-0.03976578
229	0xbe03dc07	-0.12876903
230	0xbe94ebd0	-0.2908616
231	0x3e7e1cbc	0.24815649
232	0xbd97ccc8	-0.07412106
233	0xbe015508	-0.12630093
234	0x3d54b1c2	0.051927336
235	0xbbf22040	-0.0073890984
236	0xbdbcd016	-0.09219377
237	0x3dca1b44	0.09868482
238	0x3e4a5882	0.19760326
239	0xbe70daaf	-0.23520921
240	0x3e19fb09	0.15037169
241	0xbe146133	-0.14490204
242	0xbd9e4814	-0.077285916
243	0x3e012abb	0.12613957
244	0xbe463ede	-0.1935992
245	0xbe88213e	-0.26587862
246	0xbd962fd8	-0.07333344
247	0x3e4c8e8d	0.19976254
248	0xbe871afc	-0.26387775
249	0x3d5d49c6	0.054025434
250	0xbe0f0074	-0.13965017
251	0xbdfec252	-0.124394074
252	0x3e07a471	0.13246323
253	0x3e91afde	0.2845449
254	0xbe7130b3	-0.23553734
255	0xbdbeec2a	-0.093223885

l2.weight f4 [300, 400]
0	0x3d17b849	0.037040982
1	0xbc82ab86	-0.01595093
2	0x3d415b7f	0.047206398
3	0xb9a65900	-0.00031728297
4	0xbcad68d0	-0.021168143
5	0xbd3cd662	-0.04610289
6	0xbcdb708a	-0.026787061
7	0xbd450d75	-0.048108537
8	0xbd127df8	-0.035764664
9	0xbd17b338	-0.03703615
10	0x3c10e294	0.008843083
11	0x3a1d9600	0.00060114264
12	0x39b04e80	0.00033627823
13	0x3ba5d640	0.005060941
14	0x3cd57a22	0.026059214
15	0x3c977d46	0.018492352
16	0x3d252b33	0.0403244
17	0xbc8507fa	-0.016239155
18	0x3d4329f7	0.047647443
19	0x3c776b14	0.015101213
20	0xbc4eab48	-0.012614079
21	0xbd447b42	-0.04796911
22	0xbc5d8f94	-0.013523001
23	0xbbae75e8	-0.005324114
24	0x3cd25946	0.025677335
25	0xbc0eba94	-0.008711476
26	0xbd494ac5	-0.04914357
27	0x3c920cae	0.017828312
28	0xbd15f982	-0.036614902
29	0xbd3b2c1a	-0.045696355
30	0x3cd6d302	0.026223663
31	0x3c7f96e4	0.01559994
32	0x3ce3ee1e	0.027823504
33	0x3d2c310d	0.042038966
34	0xbd42a257	-0.0475181
35	0xbbf805b0	-0.0075690374
36	0x3ce66c36	0.02812777
37	0x3c26d354	0.0101822205
38	0xbd4afa20	-0.049554944
39	0x3d288241	0.041139845
40	0x3c1194c0	0.008885562
41	0x3c045768	0.00807748
42	0xbc8d0ac4	-0.017217048
43	0xbcb84a97	-0.022496505
44	0x3bd5cda8	0.0065247603
45	0xbd30ec05	-0.043193836
46	0xbcb07807	-0.021541608
47	0xbc2c0938	-0.010500245
48	0xbc01d480	-0.007924199
49	0xbd3e6deb	-0.046491545
50	0x3cd6aa86	0.026204359
51	0xbc656f74	-0.014003623
52	0xbceff3e3	-0.029291099
53	0x3cf64032	0.030059908
54	0x3d0ae83b	0.03391288
55	0xbcaad93d	-0.02085554
56	0xbd40e203	-0.04709054
57	0xbd057dd8	-0.032590717
58	0x3d1828ef	0.037148412
59	0xbbbf1a28	-0.0058319755
60	0x3d275141	0.040848974
61	0xbd04b6dd	-0.032400955
62	0xbd27d326	-0.04097285
63	0xbada1060	-0.001663696
64	0xbd158b7e	-0.036509983
65	0xbd17c9a6	-0.03705754
66	0xbbc5f1d0	-0.006040789
67	0xbc2d1a20	-0.010565311
68	0xbcb97f17	-0.022643609
69	0x3d42ab47	0.047526624
70	0x3cd4443a	0.02591144
71	0x3c3ea94c	0.011637043
72	0xbc4b33b8	-0.012402467
73	0xbca88060	-0.020569026
74	0x3d1f4741	0.038886312
75	0x3c5116cc	0.012761783
76	0xbcd42a37	-0.025899036
77	0x3cc4e262	0.024033729
78	0x3d049eeb	0.03237812
79	0x3d00c5f5	0.031438787
80	0xb97f5a00	-0.00024352223
81	0xbd1654c2	-0.036701925
82	0x3d447239	0.047960494
83	0x3d4352e9	0.04768649
84	0xbc974454	-0.018465199
85	0xbd2063b8	-0.0391576
86	0xbcb9fbaa	-0.02270301
87	0x3d365919	0.044518564
88	0x3bd34358	0.006447237
89	0x3ca7b9be	0.020474311
90	0xbb084820	-0.0020794943
91	0x3c9e1ea2	0.019301716
92	0xbd429e7f	-0.047514435
93	0xbcf06cb0	-0.029348701
94	0xbcc4414d	-0.02395692
95	0x3c0b9dcc	0.008521508
96	0xbd41e19d	-0.047334302
97	0x3d094a85	0.033518333
98	0xbcc2de4d	-0.023787642
99	0xbcadbc40	-0.021207929
100	0xbcf6b0c7	-0.03011359
101	0xbcdb4e87	-0.026770843
102	0xbc481640	-0.012212336
103	0x3d11dd05	0.03561117
104	0x3c9cacba	0.019125331
105	0x3cde4c12	0.027135883
106	0xbc8e628a	-0.017380971
107	0xbc4b7898	-0.0124188885
108	0xbcd79d8a	-0.026320238
109	0xbc939074	-0.018013217
110	0xbd2b26a3	-0.041784894
111	0xbd1edfe3	-0.038787734
112	0x3d02638f	0.031833228
113	0xbcdeb8c3	-0.02718771
114	0xbd4c5b88	-0.04989198
115	0xbcad127a	-0.021126974
116	0x3cd34246	0.025788438
117	0xbc78abb4	-0.015177656
118	0xbcf00f6d	-0.02930423
119	0xbbd4a9b0	-0.006489955
120	0x3c6d7c64	0.014494989
121	0x3cb1b622	0.021693293
122	0x3d329e35	0.04360791
123	0xbb049050	-0.0020227619
124	0x3d15c795	0.03656729
125	0x3cd5fe3e	0.026122209
126	0xbd17d7a6	-0.037070893
127	0x3c206ab8	0.009791069
128	0xbd380d38	-0.04493448
129	0xbc9649c6	-0.018345725
130	0x3b8d5640	0.0043132603
131	0x3cf21d82	0.029555086
132	0xbd449ff5	-0.04800411
133	0x3d2d68e3	0.042336356
134	0xbb99f018	-0.004697811
135	0xbc5b040c	-0.013367664
136	0x3a70e980	0.00091900676
137	0x3d00e4a5	0.031468052
138	0xbc829bda	-0.015943456
139	0x3cb6d9de	0.022320684
140	0xbc6d1578	-0.014470451
141	0xbd3a8dcb	-0.04554538
142	0x3be5c9f0	0.007012598
143	0xbd0c0b06	-0.0341902
144	0xbd0ef783	-0.034904014
145	0xbc2b5af4	-0.010458697
146	0x3d41e8a5	0.047341008
147	0xbd358c1a	-0.044323064
148	0xbcf22bca	-0.029561896
149	0x3c797674	0.015225995
150	0x3d3090a7	0.0431067
151	0xbcc0f90d	-0.023556257
152	0x3cba6bf2	0.02275655
153	0xbd42e108	-0.047577888
154	0xba966300	-0.0011473596
155	0xbcab04cd	-0.020876313
156	0xbc1112c8	-0.008854575
157	0x3c834632	0.016024683
158	0x3bf8ca30	0.007592462
159	0x3d3e4c01	0.0464592
160	0x3d4ab091	0.049484793
161	0x3d4433c3	0.047900926
162	0xbd479a4a	-0.048731126
163	0x3ce6ec26	0.028188776
164	0x3d09fbab	0.033687275
165	0x3bb37650	0.0054767504
166	0x3c9b16da	0.018931795
167	0xbd44bf5f	-0.04803407
168	0x3c1acf58	0.009448849
169	0x3c4dee7c	0.012569066
170	0xbd2c9953	-0.04213841
171	0xbd0f76a3	-0.03502525
172	0x3d0a12a1	0.033709172
173	0x3d04c58d	0.03241496
174	0xbc7f95e0	-0.015599698
175	0xbcb47b3d	-0.02203142
176	0xbbdbfc70	-0.0067134425
177	0xbb900030	-0.0043945536
178	0xbcc89480	-0.024484873
179	0xbcfb374d	-0.030666018
180	0x3c44ab00	0.01200366
181	0x3bb839c0	0.0056221187
182	0x3c905b3a	0.017621625
183	0x3c260c54	0.010134775
184	0xbd38b52f	-0.045094665
185	0x3cb269ce	0.021778967
186	0xbb9cbe28	-0.0047834106
187	0xbc4c8120	-0.012481958
188	0x3c8fac96	0.01753835
189	0x3d06a2df	0.03287017
190	0xbc80441c	-0.015657477
191	0xbd0c897d	-0.034310807
192	0xbce5f35a	-0.02807014
193	0x3c9edf16	0.019393485
194	0xbd2813d5	-0.04103454
195	0x3b97cef0	0.004632823
196	0xbcb6d670	-0.022319049
197	0xbcb4367d	-0.021998638
198	0x3d10af71	0.035323564
199	0x3aaad9c0	0.0013034865
200	0x3891b600	6.948039e-05
201	0x3c98657e	0.018603083
202	0x3ccf1692	0.025279317
203	0x3cb0a102	0.02156115
204	0x3cf97356	0.030450504
205	0x3c90abee	0.017660107
206	0x3d06c879	0.03290603
207	0x3d2ed391	0.042682234
208	0x3d19d31b	0.03755484
209	0x3c8a6352	0.016893063
210	0xbd38c22b	-0.045107048
211	0x3d0051ed	0.03132813
212	0x3b9a7230	0.0047133192
213	0x3d2b336d	0.04179709
214	0xbba60fc0	-0.0050677955
215	0xbc272f34	-0.010204125
216	0x3d0a693f	0.033791777
217	0x3c95ce32	0.018286798
218	0xbc8441cc	-0.016144656
219	0x3bab9f40	0.00523749
220	0x3cb81efe	0.022475716
221	0xbd391977	-0.0451903
222	0xbd32c99a	-0.043649293
223	0xbcfdabe3	-0.030965751
224	0xbbbafa90	-0.005706139
225	0x3d140da1	0.03614581
226	0xbc417fe8	-0.01181028
227	0xbb5b1d30	-0.0033434145
228	0xbc3f6158	-0.011680923
229	0xbc5c0388	-0.013428576
230	0xbd343c38	-0.04400274
231	0xbd09f5c8	-0.03368166
232	0xbcb5451a	-0.022127677
233	0xbd14dab8	-0.0363414
234	0x3cb28626	0.021792483
235	0x3d272999	0.040811155
236	0xbcd23aca	-0.025662798
237	0xbd3fa44b	-0.04678754
238	0xbba81718	-0.005129706
239	0x3c9afc42	0.018919114
240	0x3c0bfc60	0.008544058
241	0x3d0f8e39	0.035047743
242	0xbbbdb790	-0.0057897046
243	0xbc6a5f58	-0.014304958
244	0x3d0d8231	0.03454799
245	0x3d0e3227	0.034715798
246	0xbd1e128e	-0.038591914
247	0x3d08d6c9	0.03340796
248	0xbc3a29f4	-0.0113625415
249	0x3aa3e7c0	0.001250498
250	0x3cdb63ee	0.026781049
251	0x3b7d0980	0.0038610399
252	0xbd385692	-0.045004435
253	0xbce69dbd	-0.028151387
254	0x3c542064	0.012947176
255	0x3d3c8713	0.046027254

l2.bias f4 [300]
0	0xbd108bc6	-0.03528955
1	0xbd4b566c	-0.049642965
2	0x3d11c34f	0.03558665
3	0x3cbaa950	0.022785813
4	0xbcb2ba11	-0.021817239
5	0x3d06ce82	0.032911785
6	0xbd05ff7c	-0.032714352
7	0xbd0c9789	-0.034324203
8	0x3d190f90	0.037368357
9	0xbd2ff5ac	-0.0429589
10	0xbd8980e6	-0.067140386
11	0x3d11c5e3	0.03558911
12	0x3d6e1e30	0.058134258
13	0x3cc50332	0.024049375
14	0xbc6f5d2b	-0.014609615
15	0xbc3388d0	-0.010957912
16	0x3d93d1a3	0.072177194
17	0x3d17e7c7	0.037086274
18	0xbcca2b53	-0.024678862
19	0xbcae420c	-0.021271728
20	0x3cae61e3	0.02128691
21	0x3c00856a	0.007844308
22	0x3d0c8153	0.03430302
23	0xbcbb6f44	-0.022880204
24	0x3af5f141	0.0018763916
25	0x3d03153d	0.032002676
26	0xbcddc7ab	-0.027072748
27	0xbac97210	-0.0015369076
28	0x3d05cde1	0.032667045
29	0x3ca3a958	0.01997821
30	0xbd17ad3c	-0.037030444
31	0x3c1ac2e0	0.009445876
32	0x3d4143e2	0.04718388
33	0xbc102ce0	-0.0087997615
34	0x3cece9c2	0.028920058
35	0x3cc40b49	0.023931162
36	0xbd2b9558	-0.041890472
37	0x3bb6214f	0.00555817
38	0x3ca3d85c	0.02000063
39	0x3ce20c5c	0.027593784
40	0x3c1a9bd6	0.009436568
41	0xbd1cd873	-0.03829236
42	0xbcb73f83	-0.022369152
43	0x3c18f9b4	0.009336878
44	0xbd4a1405	-0.0493355
45	0xbd31b1f8	-0.043382615
46	0xbc4e2e23	-0.012584242
47	0x3d057a6e	0.03258746
48	0x3d0dde08	0.034635574
49	0x3c4a5eca	0.012351701
50	0x3cbc5096	0.022987645
51	0xbb088081	-0.0020828547
52	0x3cc453c7	0.02396573
53	0x3ceba3e2	0.028764669
54	0xbc9fd898	-0.01951246
55	0x3c134618	0.00898888
56	0xbd090385	-0.033450622
57	0xbbb47619	-0.0055072424
58	0xbd385d35	-0.045010764
59	0xbcb82958	-0.022480652
60	0xbd1b393a	-0.037896372
61	0xbcdfd43a	-0.027322877
62	0xbcc2fa59	-0.023801016
63	0xbd31b5f6	-0.043386422
64	0xbc70cf24	-0.014697824
65	0x3cd7e7d4	0.026355661
66	0xbd07e8b6	-0.033180915
67	0xbced1ce0	-0.028944433
68	0xbd0645a1	-0.032781247
69	0x3d09954f	0.033589657
70	0xbc821897	-0.015880866
71	0x3ca917c0	0.020641208
72	0x3d52be8b	0.051451247
73	0xbc2d16eb	-0.010564546
74	0x3d4a290d	0.049355555
75	0x3d07f2fe	0.03319072
76	0xbca594d1	-0.020212563
77	0x3d15d29f	0.036577817
78	0x3d64e5d2	0.055883236
79	0xbc88acb7	-0.01668392
80	0x3ca74953	0.020420706
81	0xbcab55e6	-0.020914983
82	0xbc3c01dd	-0.011475054
83	0xbc9aa684	-0.018878229
84	0xbd4baaf4	-0.04972358
85	0xbcee5df0	-0.029097527
86	0x3d2c7ead	0.042112995
87	0xbcfc4240	-0.03079331
88	0x3d34863b	0.044073325
89	0xbcb76ab6	-0.02238975
90	0xbc506d8c	-0.0127214305
91	0x3d6bfd7c	0.05761479
92	0xbd066df2	-0.032819696
93	0x3c1afaed	0.009459239
94	0xbd2b5483	-0.041828644
95	0xbd5985d1	-0.053106133
96	0xbcaced0c	-0.021109127
97	0x3c2c8eb0	0.010532066
98	0x3c7ca286	0.015419608
99	0xbd645821	-0.05574811
100	0xbc3e73cc	-0.011624288
101	0x3c7b1353	0.0153244315
102	0x3cc52535	0.024065593
103	0xbcf47535	-0.029841045
104	0x3d19b72c	0.037528202
105	0x3bccf951	0.006255307
106	0x3c9eeff5	0.01940153
107	0xbc98b4de	-0.018640932
108	0xbd676de1	-0.056501273
109	0xbd5e9bda	-0.05434785
110	0x3b9a2cd8	0.004705053
111	0xbbd1fe7f	-0.006408512
112	0xbc29caba	-0.010363275
113	0x3d05a648	0.03262928
114	0x3c7d1263	0.015446278
115	0xbd0b8326	-0.03406062
116	0x3d4a73c5	0.049426813
117	0x3d23c794	0.039985254
118	0xbcfc69b1	-0.030812116
119	0x3d06150b	0.032734912
120	0x3ceae632	0.028674219
121	0x3c5418d0	0.012945369
122	0x3ccc10fd	0.024910444
123	0xbd36e5ad	-0.04465263
124	0xbb7ac535	-0.0038264517
125	0xbbc4de30	-0.006007932
126	0xbd593a2d	-0.053033996
127	0x3ba05465	0.004892873
128	0x3cc7197e	0.024304148
129	0x3bab8a25	0.005234974
130	0xbd3b9979	-0.04580066
131	0x3cf94322	0.03042752
132	0xbcf5d11b	-0.030006936
133	0x3d674bc1	0.05646873
134	0x3c2f4861	0.010698409
135	0xbbe45314	-0.0069679115
136	0xbc07d4a1	-0.008290441
137	0xbd33ba68	-0.043878943
138	0xbb2bad64	-0.0026195878
139	0xbc8e7d60	-0.017393768
140	0xbc746641	-0.014916957
141	0x3ccca936	0.02498303
142	0xbc4bd585	-0.012441044
143	0xbc864d1f	-0.016394196
144	0xbc90ae12	-0.017661128
145	0x3d01b893	0.031670164
146	0xbd46aeec	-0.048506662
147	0x3cf71282	0.030160192
148	0x3b93007e	0.0044861427
149	0xbcc0442f	-0.023470012
150	0xbbe709df	-0.0070507373
151	0x3d5d9409	0.054096255
152	0x3d555c69	0.052090082
153	0xbd0f1fd5	-0.034942467
154	0x3c416a08	0.011805065
155	0x3d39efa8	0.04539457
156	0x3930e08d	0.0001686832
157	0x3c2345e2	0.009965392
158	0x3cc02136	0.023453336
159	0x3c97b3da	0.018518377
160	0x3d85d4e8	0.06534749
161	0x3d06fabc	0.032953963
162	0xbce298dc	-0.02766078
163	0xbd165625	-0.036703248
164	0x3d01ee65	0.03172149
165	0x3b713b51	0.0036809037
166	0x3d3b7083	0.045761596
167	0x3cfebfdb	0.031097343
168	0xbb6c89d0	-0.0036092885
169	0x3cb151dc	0.021645479
170	0x3d5a69af	0.053323444
171	0xbd122559	-0.03568015
172	0xbbfeeffd	-0.0077800737
173	0xbd19198d	-0.037377883
174	0xbcd80ff8	-0.026374802
175	0xbc98b979	-0.018643128
176	0x3cac219a	0.021012116
177	0xbbae5958	-0.005320709
178	0x3cc81534	0.024424173
179	0x3d3bc14a	0.04583863
180	0xbcac988a	-0.02106883
181	0x3cd4c96d	0.025974954
182	0xbc81a2f6	-0.015824776
183	0xbd161d94	-0.0366493
184	0xbd2262ad	-0.039644886
185	0x3c0f8387	0.008759386
186	0x3d171ebd	0.03689455
187	0xbd5a8fb5	-0.053359706
188	0x3c348ad4	0.011019427
189	0x3c7565ea	0.0149779115
190	0xbd1f7797	-0.03893241
191	0x3ca5a208	0.020218864
192	0x3c8e4735	0.017367939
193	0xbc6d58b8	-0.014486484
194	0x3d885183	0.06656172
195	0x3c615fed	0.013755781
196	0x3d12c03a	0.035827853
197	0xb78a5aea	-1.6493217e-05
198	0xbceeb634	-0.029139616
199	0x3b85ebc2	0.0040869424
200	0xbd2a5bd0	-0.041591465
201	0xbc602caa	-0.013682524
202	0x3d1a0d75	0.03761049
203	0x3c6616c4	0.014043514
204	0x3c82f515	0.015986005
205	0xbd770aad	-0.060312916
206	0xbd4bb8e4	-0.049736872
207	0xbd2d314c	-0.04228334
208	0xbd21b20e	-0.039476447
209	0x3d568c53	0.052379917
210	0x3d12324f	0.03569251
211	0x3ce170ff	0.027519701
212	0x3d17c839	0.03705618
213	0xbbe77e56	-0.007064621
214	0x3d31f2a8	0.043444306
215	0x3bc105eb	0.005890598
216	0xbd018f50	-0.031630814
217	0xbcd4e565	-0.02598829
218	0xbd12610d	-0.035737086
219	0xbaa9a24d	-0.0012942046
220	0xbc92d7a6	-0.017925095
221	0xbbdfd10e	-0.006830341
222	0xbc0bf013	-0.008541125
223	0x3d043025	0.032272477
224	0xbd43c9db	-0.047799926
225	0x3ca18f4a	0.019721646
226	0xbd511058	-0.051040977
227	0x3cfa9652	0.030589256
228	0xbd1d32af	-0.038378414
229	0x3a53211a	0.0008053944
230	0xbd228fc2	-0.03968788
231	0x3c3f021f	0.011658221
232	0xbce7f1fd	-0.028313631
233	0x3c0ff799	0.008787059
234	0x3c78870c	0.015168916
235	0x3871c000	5.763769e-05
236	0x3986a000	0.0002567768
237	0x3c449618	0.011998676
238	0x3d2abc08	0.041683227
239	0x3c962c4e	0.018331673
240	0xbcb7e695	-0.022448817
241	0x3d41d04d	0.04731779
242	0xbcffbee6	-0.031218957
243	0x3d24d3dc	0.040241107
244	0xbd20268b	-0.039099257
245	0x3bf97814	0.0076131914
246	0x3b9bcb40	0.004754454
247	0x3d2d76e5	0.042349715
248	0xbd498192	-0.049195834
249	0x3d0363b5	0.03207751
250	0xbc556324	-0.013024125
251	0xbd2d4142	-0.042298563
252	0xbc04c29d	-0.00810304
253	0x3d967afc	0.07347676
254	0x3d8274c6	0.06369929
255	0x3cf11250	0.029427677

l3.weight f4 [6, 300]
0	0xbb8be738	-0.004269507
1	0xbd3af1d8	-0.045640796
2	0x3e181282	0.1485081
3	0xbd36fc21	-0.044674043
4	0xbd002614	-0.031286314
5	0xbbde87fe	-0.006791114
6	0xbd5d2c3a	-0.053997256
7	0xbce1da2e	-0.027569856
8	0x3d914e81	0.070950516
9	0x3d4b60f6	0.049653016
10	0x3cea9eff	0.028640268
11	0x3d2eb321	0.0426513
12	0x3daae786	0.08344941
13	0xbd46dcc3	-0.04855038
14	0x3d91b51b	0.07114621
15	0x3d826661	0.063671835
16	0xbd02e331	-0.031954948
17	0xbb8115fc	-0.0039393883
18	0x3ca688e8	0.020328954
19	0x3c2f1d68	0.010688163
20	0xbce0e0dc	-0.027450971
21	0xbc611d7b	-0.013739939
22	0x3ccb30ae	0.024803486
23	0x3d56bc77	0.052425828
24	0xbd4c3b9c	-0.049861535
25	0xbd1fcedc	-0.039015636
26	0x3cb655aa	0.022257645
27	0xbc43a67a	-0.011941547
28	0xbbcaac37	-0.0061850804
29	0xbcbc9a0f	-0.02302268
30	0xbbd4ce43	-0.006494315
31	0x3db6598f	0.08903801
32	0xbcead4b2	-0.028665874
33	0x3d7b0625	0.061285157
34	0x3caf1c18	0.0213757
35	0x3d569704	0.052390113
36	0x3d2d4c22	0.042308934
37	0xbaa2f523	-0.0012432676
38	0xbd8fcd26	-0.07021551
39	0xbd2d95b5	-0.0423791
40	0x3a44b1eb	0.00075033185
41	0xbca195fa	-0.019724835
42	0x3b09847e	0.0020983513
43	0xbd556e5f	-0.05210721
44	0xbd46670e	-0.048438124
45	0x3d34aaaf	0.04410809
46	0xbaaf4b83	-0.0013373945
47	0xbda26407	-0.07929235
48	0xbd191124	-0.037369862
49	0x3c26fb30	0.010191724
50	0x3d0e338e	0.034717135
51	0xbcfba1b3	-0.030716753
52	0xbcf82f1b	-0.0302959
53	0x3d03589b	0.032066923
54	0x3cb49c10	0.022047073
55	0xbc797d7c	-0.015227672
56	0xbc0a2369	-0.008431294
57	0x3ce4ea9f	0.027943907
58	0xbbc12e28	-0.005895395
59	0xbba5d83a	-0.0050611766
60	0xbd252d18	-0.040326208
61	0x3b722990	0.0036951043
62	0x3c460881	0.012086988
63	0xbce854a5	-0.028360674
64	0xbd256d36	-0.040387355
65	0x3cf1044e	0.029420998
66	0x3d077778	0.03307292
67	0x3c593693	0.01325764
68	0xbd1e23ef	-0.038608488
69	0x3cbb46b0	0.022860855
70	0x3d32e4bf	0.04367518
71	0x3c9bd820	0.019023955
72	0x3c843a1e	0.016140994
73	0xbd2d8f19	-0.042372797
74	0x3d41fca8	0.047360092
75	0xbd32de54	-0.04366906
76	0xbcd64e28	-0.026160315
77	0x3c85cc30	0.016332716
78	0x3d4a8eef	0.04945272
79	0x3d322926	0.043496273
80	0x39e5432e	0.00043728336
81	0x3bdda090	0.0067635253
82	0x3d857839	0.06517071
83	0x3db2bf57	0.087279014
84	0xbc893ed5	-0.016753593
85	0xbd088142	-0.033326395
86	0xbd07671d	-0.03305732
87	0xbcb73dc9	-0.022368329
88	0x3d06c858	0.032905906
89	0x3c88eb85	0.016713867
90	0xbcf6de5d	-0.030135328
91	0x3db0fbfc	0.08641812
92	0xbd2fb31a	-0.042895414
93	0xbbf9ccb8	-0.0076232813
94	0xbc235d71	-0.009971009
95	0xbd06e3c1	-0.032932047
96	0xbc8ce858	-0.017200634
97	0xbc309c6f	-0.010779484
98	0x3d9a4ac3	0.07533791
99	0x3d178952	0.036996193
100	0x3cc68ba0	0.0242365
101	0xbbbee5bb	-0.005825726
102	0x3c9d6500	0.0192132
103	0x3be59245	0.007005962
104	0x3ce7113f	0.028206466
105	0xbd392113	-0.045197558
106	0xbbe83095	-0.0070858696
107	0x3d290ac8	0.041270047
108	0xbc0b4bbb	-0.008501942
109	0xbbf4951e	-0.007464065
110	0xbce4f7a5	-0.027950117
111	0x3d5bf449	0.053699765
112	0x3d71ee05	0.059064884
113	0x3ca980a5	0.020691225
114	0xbc9b6cbe	-0.01897275
115	0x3d1b98c0	0.03798747
116	0x3d117376	0.035510503
117	0x3cae9fa7	0.021316363
118	0xbd2a7c12	-0.04162223
119	0xbcd371a1	-0.025811018
120	0x3a29f000	0.0006482601
121	0x3c3ad05c	0.011402216
122	0xbd1d1229	-0.038347397
123	0x3cdd6021	0.027023377
124	0xbd595da8	-0.053067833
125	0xbb52a3f0	-0.0032141171
126	0x3a33fab2	0.00068656646
127	0xbd37812c	-0.044800922
128	0x3da98739	0.08277745
129	0xbd612cf9	-0.05497453
130	0x3cd5798a	0.02605893
131	0xbc70ce6e	-0.014697654
132	0x3d46af67	0.04850712
133	0x3cc1d0d3	0.023659145
134	0x3d22cb22	0.039744504
135	0xbd9984e9	-0.07496054
136	0x3d2145af	0.039373096
137	0x3cc3f8bf	0.023922322
138	0x3d94f7a6	0.07273798
139	0xbc9f19c9	-0.019421475
140	0xbd528282	-0.051393993
141	0xbcc06371	-0.023484917
142	0x3be90ae9	0.0071118963
143	0x3d65f0b9	0.056137774
144	0x3d349ff1	0.044097845
145	0xbaa50f5c	-0.0012593078
146	0xbc90fde7	-0.017699195
147	0xbd43e0d1	-0.047821824
148	0x3cf713bc	0.030160777
149	0x3d253ea6	0.04034295
150	0xbce87407	-0.028375639
151	0x3d966e3a	0.07345243
152	0x3bec0777	0.0072030383
153	0x3bd2b284	0.006429972
154	0x3c888390	0.016664296
155	0x3cdec84c	0.027195118
156	0x3d33b451	0.043873135
157	0xbce9cc0c	-0.02853968
158	0xbd41397f	-0.047173973
159	0x3d9ba095	0.07598988
160	0xbcadbde8	-0.021208718
161	0xbd2346d9	-0.039862487
162	0x3bd2547d	0.006418763
163	0x3b5fb14e	0.0034132781
164	0xbd87692f	-0.06611859
165	0xbcc905e3	-0.02453894
166	0xbcbae924	-0.022816248
167	0xbd015db5	-0.031583507
168	0xbd11e6e9	-0.035620604
169	0xbade69d1	-0.0016968792
170	0x3cfada95	0.030621806
171	0xbd074bbf	-0.03303122
172	0xbca9450e	-0.02066281
173	0x3d582ab2	0.052775092
174	0xbd131b1c	-0.035914525
175	0xbd4637df	-0.048393127
176	0x3d9d7e3c	0.07690093
177	0x3d38fc52	0.045162506
178	0x3cf55da3	0.029951876
179	0xbd1eb158	-0.038743347
180	0x3d441755	0.047873814
181	0x3cbccc38	0.023046598
182	0x3cc6b874	0.024257876
183	0x3d2f2286	0.042757533
184	0x3c396e02	0.011317732
185	0xbd19ab64	-0.037516966
186	0x3cfb2442	0.030656938
187	0xbccaea05	-0.024769792
188	0xbcf9e7b5	-0.030505994
189	0xbb889834	-0.0041685347
190	0xbcdf3968	-0.027249053
191	0xbd13c602	-0.036077507
192	0x3d53ec6a	0.051739134
193	0x3d6a1210	0.057146132
194	0xbd417e3d	-0.04723953
195	0x3da668e9	0.08125479
196	0x3d9747ad	0.07386718
197	0x3d74aca3	0.05973495
198	0xbd107424	-0.03526701
199	0x3d4b491c	0.04963027
200	0xbc64c5f5	-0.013963212
201	0x3ccb47e5	0.024814555
202	0xbb5eff42	-0.0034026657
203	0x3c697de0	0.014251202
204	0xbd332ee6	-0.043745898
205	0xbd454928	-0.04816547
206	0xbc20caf7	-0.009814016
207	0xbc71a758	-0.0147493705
208	0xbb839d00	-0.0040165186
209	0xbb974690	-0.004616566
210	0x3bdf9831	0.0068235626
211	0x3b943aa0	0.00452359
212	0xbd33e99b	-0.043923955
213	0xbcb92fae	-0.022605743
214	0xbb5b5111	-0.0033465067
215	0xbca1dd7f	-0.019758938
216	0xbc45afb2	-0.012065815
217	0xbcdc8952	-0.026920948
218	0x3cf3b2e2	0.029748384
219	0x3d453464	0.048145667
220	0xbca28ee1	-0.01984352
221	0xbd3738c6	-0.044731878
222	0xbc83ac7b	-0.016073456
223	0x3bb3ce60	0.0054872483
224	0xbc04ac28	-0.008097686
225	0xbc83ba22	-0.016079966
226	0x3c2a7da0	0.010405928
227	0xbced18b8	-0.02894245
228	0xbd45744b	-0.04820661
229	0x3b8d10bc	0.0043049734
230	0x3b25f220	0.002532132
231	0xbd58ece0	-0.052960277
232	0xbbde7287	-0.006788555
233	0xbd532861	-0.05155218
234	0xbc34b1f8	-0.011028759
235	0x3c30a568	0.010781623
236	0xbc7bc1d8	-0.01536604
237	0x3ccaf126	0.024773192
238	0xbd3cf99f	-0.046136495
239	0xbced12a4	-0.028939553
240	0xbc803b08	-0.015653148
241	0x3cde2ca4	0.027120896
242	0x3ca1de79	0.019759404
243	0xbd34381d	-0.043998826
244	0xbd14901b	-0.036270242
245	0xbd17bb46	-0.037043832
246	0x3d0dd3ae	0.0346257
247	0xbd2efb9f	-0.042720433
248	0xbcbb3b6c	-0.022855483
249	0xbd250c91	-0.040295187
250	0x3d9d0489	0.07666881
251	0x3ce8809c	0.028381638
252	0xbbddaaca	-0.0067647444
253	0xbc98700d	-0.018608117
254	0x3e8a4af8	0.27010322
255	0xbcfe5f9b	-0.031051448

l3.bias f4 [6]
0	0xbcb16a97	-0.021657271
1	0x3d03fd54	0.032224014
2	0xbc7a1270	-0.015263185
3	0xbc936c20	-0.017995894
4	0x3d36e73e	0.044654123
5	0xbc958b7f	-0.018254993
