2019_test_data/triple_assembly/Average_TD3_Peg-in-hole-single_assembly_seed_2/_actor.pth (torch_old, 510312 bytes, 6 tensors)

l1.weight f4 [400, 12]
0.062516116 -0.16142796 0.07140252 0.045413002 0.17123182 -0.032619532 -0.21244965 -0.27445158
0.040471297 -0.25379363 0.12284333 0.1622449 -0.063646756 0.21779631 0.06881241 0.11894809
0.12059256 -0.17688727 -0.08448459 0.25125837 -0.27325282 -0.03772207 -0.052883547 0.22339854
0.09495162 -0.041037712 -0.028366245 -0.054578383 -0.3494764 -0.69549614 -0.42439616 -0.2854582
0.1443637 0.107122935 0.14653227 0.12595111 0.048404127 -0.009685528 0.009123715 -0.20830525
-0.027926905 0.027887205 0.14100793 0.10940869 0.035193928 0.15636216 0.01703782 -0.28509083
0.030572295 0.022043586 0.15403637 0.19391659 0.20731077 0.16731772 -0.07038173 -0.012851149
-0.058665246 0.16793153 0.03205973 0.2671795 0.104920946 -0.21647985 0.12998912 0.25262064
0.28789142 0.05969262 0.18312395 -0.3308296 -0.051444717 0.052821156 -0.31849515 0.22699243
-0.14215519 0.07655925 -0.058608178 0.07635003 -0.13400371 -0.71937853 -0.16645241 -0.18661924
0.27552167 -0.054301996 -0.04762838 0.37594375 0.08114031 -0.108359896 -0.005690734 0.16698138
-0.29988822 -0.640905 -0.19211288 -0.2826276 0.23570466 -0.06859539 0.33462593 0.40005097
-0.28913787 -0.19604248 -0.15737978 -0.022839475 -0.26227167 -0.53511447 -0.35857606 0.052236095
0.1942834 0.0434362 0.3904815 0.3048248 -0.28497297 0.043605864 0.26777834 -0.20920764
-0.12853396 -0.015202135 -0.17958 -0.05441001 -0.042657703 0.2572012 -0.018151551 0.15654042
0.16128305 0.16958152 -0.20852114 0.16215393 0.29821908 0.2547692 -0.0101101715 0.20270035
-0.29992524 -0.21851923 -0.389839 -0.14804049 -0.09885857 -0.2963829 0.11642768 0.16068602
0.13112938 -0.20665114 0.39247334 0.046904672 -0.13299972 0.002380292 0.16491172 0.1047015
-0.087317616 0.28572425 -0.17595457 0.11960616 0.35202816 0.15260498 0.06597744 -0.034186337
-0.31499788 0.040531743 -0.28691456 -0.3935366 -0.2103486 0.00629887 0.26762098 0.10335499
-0.1920662 0.19911304 0.023695588 -0.28207707 0.013693392 0.18531257 -0.16974247 -0.013282388
-0.2625749 -0.29488072 -0.045501485 0.10199453 0.30872726 0.2622389 -0.19807635 0.12202924
-0.25759158 0.1457454 0.119705275 -0.21373151 -0.16834752 -0.060098656 0.07768884 0.01474151
-0.30135992 -0.38193563 -0.003328117 0.07500191 0.33854815 0.05689109 0.3058368 -0.0040538013
0.23812939 0.018661505 -0.058723345 -0.07786165 0.193897 0.39716896 0.1989766 0.323982
-0.24692345 -0.072105706 -0.30915907 -0.6175775 0.049463544 0.06044604 -0.026752314 0.018131336
-0.21081991 -0.60540426 -0.4606521 -0.23469633 0.17069326 -0.2939946 -0.011484909 0.41108736
0.13652079 -0.18401414 0.009840755 0.26895836 0.1906345 0.38325226 0.40580156 0.23850563
-0.084524475 -0.12328034 -0.39067027 0.00023114399 0.19561395 -0.19190922 -0.031194521 0.0752507
-0.064923875 -0.5051633 -0.40359095 -0.2631863 0.027377315 -0.33890867 0.06375498 0.0135241775
-0.11011341 0.13484201 -0.18441468 -0.30716884 0.37527892 0.6263602 0.2321111 0.16927181
-0.19586979 -0.11362685 -0.4509728 -0.33287635 0.059990305 -0.1961533 -0.15592869 0.099470146
00000000: 7308 803d 5f4d 25be 7c3b 923d fc02 3a3d
00000010: 6557 2f3e 0f9c 05bd 678c 59be eb84 8cbe
00000020: 3bc5 253d 3df1 81be 4995 fb3d 8723 263e
00000030: 3b59 82bd ff05 5f3e 85ed 8c3d 0e9b f33d
00000040: 3bf9 f63d f021 35be 4206 adbd f0a4 803e
00000050: cbe7 8bbe 7582 1abd 6b9c 58bd 96c2 643e
00000060: ff75 c23d 2917 28bd 5460 e8bc 958d 5fbd
00000070: 92ee b2be 090c 32bf 744a d9be 9427 92be
00000080: 14d4 133e 4563 db3d 8e0c 163e 54f9 003e
00000090: 6843 463d 0db0 1ebc a27b 153c f94d 55be
000000a0: f7c6 e4bc b573 e43c 6264 103e aa11 e03d
000000b0: 8227 103d 671d 203e e692 8b3c 6df7 91be
000000c0: c072 fa3c c094 b43c b6bb 1d3e 1292 463e
000000d0: 4649 543e 5655 2b3e 4c24 90bd a08d 52bc
000000e0: f84a 70bd 3ef6 2b3e 1051 033d c0cb 883e
000000f0: cbe0 d63d e5ac 5dbe de1b 053e 7e57 813e
00000100: 8166 933e 4080 743d d884 3b3e 7f62 a9be
00000110: b2b7 52bd ff5a 583d cc11 a3be b470 683e
00000120: 2191 11be 19cb 9c3d 210f 70bd 685d 9c3d
00000130: 4538 09be 3129 38bf 8072 2abe 1d19 3fbe
00000140: 2d11 8d3e c56b 5ebd fa15 43bd b37b c03e
00000150: e42c a63d cbeb ddbd 5679 babb 2bfd 2a3e
00000160: f38a 99be 5a12 24bf 3db9 44be 91b4 90be
00000170: 905c 713e bd7b 8cbd 1754 ab3e 7bd3 cc3e
00000180: e109 94be 5cbf 48be 2a28 21be da19 bbbc
00000190: 7948 86be 43fd 08bf 4897 b7be 84f5 553d
000001a0: 3af2 463e 28ea 313d 31ed c73e ff11 9c3e
000001b0: fae7 91be 109c 323d 3e1a 893e 873a 56be
000001c0: 689e 03be 6012 79bc d2e3 37be 08dd 5ebd
000001d0: d8b9 2ebd e0af 833e 90b2 94bc 224c 203e
000001e0: 6227 253e c7a6 2d3e 9186 55be ae0b 263e
000001f0: 2cb0 983e 1c71 823e 22a5 25bc ae90 4f3e
00000200: cd8f 99be 81c3 5fbe fa98 c7be ed97 17be
00000210: 5d76 cabd 80bf 97be a371 ee3d e08a 243e
00000220: c846 063e 5b9c 53be 44f2 c83e 1d1f 403d
00000230: 1431 08be acfe 1b3b 9ede 283e bd6d d63d
00000240: 94d3 b2bd 734a 923e 6f2d 34be 13f4 f43d
00000250: 093d b43e 7b44 1c3e 2e1f 873d f906 0cbd
00000260: 6747 a1be 9d04 263d 77e6 92be a17d c9be
00000270: a065 57be c066 ce3b 9e05 893e c8ab d33d
00000280: 00ad 44be 4ae4 4b3e 401d c23c 686c 90be
00000290: 405a 603c 94c2 3d3e f8d0 2dbe 609e 59bc
000002a0: 3870 86be 9bfa 96be c45f 3abd 82e2 d03d
000002b0: 8011 9e3e 2d44 863e 87d4 4abe 77ea f93d
000002c0: 0be3 83be 483e 153e 0a28 f53d 6fdc 5abe
000002d0: 4b63 2cbe 022a 76bd 541b 9f3d 6086 713c
000002e0: d94b 9abe 118d c3be 8a1c 5abb 9a9a 993d
000002f0: 2f56 ad3e a206 693d a496 9c3e c0d5 84bb
00000300: 31d8 733e 03e0 983c e487 70bd ee75 9fbd
00000310: ef8c 463e bb59 cb3e 86c0 4b3e f8e0 a53e
00000320: 80d9 7cbe 28ac 93bd 194a 9ebe 8f19 1ebf
00000330: 499a 4a3d 4496 773d ab27 dbbc 2b88 943c
00000340: 2de1 57be c6fb 1abf 98da ebbe 3c54 70be
00000350: 37ca 2e3e 7686 96be 332b 3cbc 0b7a d23e
00000360: 1bcc 0b3e 346e 3cbe 1e3b 213c e9b4 893e
00000370: b135 433e a439 c43e 39c5 cf3e d23a 743e
00000380: 2b1b adbd 677a fcbd ef05 c8be 3e5f 7239
00000390: 064f 483e da83 44be a78b ffbc 0a1d 9a3d
000003a0: cff6 84bd 6252 01bf 79a3 cebe 5bc0 86be
000003b0: 6446 e03c 7085 adbe f991 823d 8394 5d3c
000003c0: 2483 e1bd 0614 0a3e 34d7 3cbe 3c45 9dbe
000003d0: 8f24 c03e 2459 203f 88ae 6d3e 9755 2d3e
000003e0: 1792 48be 32b5 e8bd e8e5 e6be c56e aabe
000003f0: 65b8 753d 69dc 48be c5ab 1fbe 01b7 cb3d

l1.bias f4 [400]
0.08656886 -0.24646361 -0.3356624 -0.015381128 -0.012514293 -0.080686875 -0.2538528 -0.022679238
-0.49187857 0.1574089 0.23891403 0.22430399 -0.050118443 0.0459871 -0.15041594 -0.018557418
0.5235937 -0.027683416 0.42034888 -0.15513928 0.37226483 0.391022 -0.20723657 -0.37952393
-0.14737731 -0.07075088 0.23782422 -0.20581537 -0.24556799 -0.20465745 0.030866724 0.22253025
0.06671024 0.22232276 -0.52549696 0.19836737 -0.5466086 -0.008156652 -0.38019645 0.27309737
0.035978384 -0.5420537 -0.23061627 0.04347834 0.018494856 -0.11951795 -0.36007705 -0.15829958
-0.014803037 -0.10654593 0.14255987 0.481122 -0.0065975594 0.10394304 -0.13381884 -0.48500764
-0.36054644 -0.03134634 0.45405582 0.50953734 -0.463662 -0.22080055 0.46667707 0.075519346
0.44475684 -0.24289353 -0.12776862 0.03311798 0.34883735 0.47959772 -0.34656125 0.53560233
-0.24912648 0.42465213 0.3693587 -0.38365635 -0.43193293 -0.37245363 -0.08319349 -0.19156231
-0.24368474 -0.24303463 -0.42154542 -0.2769449 0.15108721 -0.10692208 0.15876213 0.29802427
0.620609 -0.51235735 0.23885584 0.102071136 -0.37890568 -0.41507232 -0.15933688 0.17095573
-0.46060452 -0.37891388 -0.22844218 -0.21598317 -0.100531675 0.048635483 0.44794494 0.110832624
-0.009361267 -0.38780177 -0.31023148 -0.25630942 -0.19991234 0.5513846 0.28065494 -0.037024647
0.045648225 -0.22360776 -0.48841208 -0.27017662 0.21616048 0.022884293 0.09682778 0.25640076
-0.4291589 -0.24343997 0.3876144 0.2889095 0.087305516 0.040722966 0.35389942 -0.1567536
-0.06746287 -0.42437476 0.11465486 0.18563858 -0.19609094 -0.5546953 0.11959877 0.16166648
0.08743706 -0.19367753 -0.14153148 0.10272126 0.16037686 -0.23934856 -0.19227433 0.27962375
-0.38494676 0.23941614 -0.20673871 -0.07183366 -0.11262573 0.41528684 -0.011204913 -0.037247714
0.2602524 -0.29889727 -0.06756264 0.5643974 -0.18092935 -0.17649296 0.15601441 0.45751798
0.23551963 -0.12673628 0.5102201 0.16691118 0.3223118 -0.23825112 0.11874903 -0.24624565
-0.118708424 -0.03342599 -0.35780373 0.40703937 0.15797073 0.035661947 -0.5696514 0.42896944
-0.10366163 0.08995065 -0.17101914 0.044644825 0.5130976 0.40777642 0.062374137 0.06704611
-0.35953104 -0.4706927 0.2901746 0.30434608 0.07466066 0.40411627 -0.07927574 -0.21567634
-0.16830894 0.4029626 -0.022173285 -0.5159409 -0.003970244 -0.20708162 0.42751655 0.17367922
-0.5332548 -0.13157946 0.121111795 0.32426137 -0.2106865 0.16763924 -0.19653785 -0.07582987
0.48463127 -0.24180093 -0.28423405 -0.5232689 -0.020607444 0.044151317 -0.3281764 0.282059
0.3904581 -0.24529661 -0.18826894 -0.30241936 -0.02442687 -0.15189728 0.20762354 0.36403883
0.14105166 0.0018011134 -0.30030385 0.07934538 0.035827648 -0.12876903 -0.37050626 0.24769536
-0.37195104 -0.4024626 -0.11644928 -0.0073890984 -0.09219377 -0.10303619 0.20658433 -0.33707297
-0.10234228 -0.18956056 -0.07391288 0.10011905 -0.1935992 -0.26587862 -0.07333344 0.044829592
-0.48220953 0.006220498 0.0037231192 -0.047867496 0.011034978 0.2845449 -0.29106334 -0.093223885
00000000: 044b b13d f560 7cbe f1db abbe 2001 7cbc
00000010: c008 4dbc 293f a5bd fff8 81be cfc9 b9bc
00000020: 82d7 fbbe cc2f 213e e1a5 743e f2af 653e
00000030: ff48 4dbd f85c 3c3d a306 1abe ba05 98bc
00000040: 3d0a 063f 55c8 e2bc f837 d73e d5dc 1ebe
00000050: 7f99 be3e 0934 c83e d335 54be f650 c2be
00000060: 14ea 16be d6e5 90bd 3188 733e 44c1 52be
00000070: 2d76 7bbe b991 51be 36dc fc3c f8de 633e
00000080: 619f 883d 94a8 633e f886 06bf d120 4b3e
00000090: 8bee 0bbf 7aa3 05bc 1ca9 c2be 6bd3 8b3e
000000a0: 125e 133d 08c4 0abf ac26 6cbe 5816 323d
000000b0: 8682 973c d4c5 f4bd 055c b8be 4919 22be
000000c0: 7088 72bc c134 dabd 37fb 113e 9f55 f63e
000000d0: 5730 d8bb 17e0 d43d ce07 09be ec52 f8be
000000e0: 8b99 b8be 0565 00bd 017a e83e 0a71 023f
000000f0: 1b65 edbe 8a19 62be 4cf0 ee3e e3a9 9a3d
00000100: 2bb7 e33e 15b9 78be c7d5 02be b8a6 073d
00000110: cf9a b23e d58d f53e 7a70 b1be 3c1d 093f
00000120: 031b 7fbe 016c d93e 951c bd3e 9b6e c4be
00000130: 5026 ddbe 3eb2 bebe 5961 aabd e928 44be
00000140: 7e88 79be 12de 78be cdd4 d7be b9cb 8dbe
00000150: 9bb6 1a3e f7f9 dabd 8a92 223e a396 983e
00000160: 3be0 1e3f da29 03bf a096 743e ac0a d13d
00000170: edff c1be 5c84 d4be 3529 23be 050f 2f3e
00000180: 5bd4 ebbe 0001 c2be bfec 69be b12a 5dbe
00000190: 8de3 cdbd 0036 473d 0a59 e53e 37fc e23d
000001a0: 0060 19bc f48d c6be a9d6 9ebe fd3a 83be
000001b0: d2b5 4cbe 8b27 0d3f 01b2 8f3e 28a7 17bd
000001c0: a2f9 3a3d 6ff9 64be 2611 fabe 9754 8abe
000001d0: 2c59 5d3e d777 bb3c a54d c63d f646 833e
000001e0: b7ba dbbe 5448 79be 6575 c63e f2eb 933e
000001f0: 3ccd b23d 20cd 263d 4e32 b53e 0484 20be
00000200: f929 8abd a647 d9be 2bd0 ea3d 0a18 3e3e
00000210: 10cc 48be 8300 0ebf 33f0 f43d e68b 253e
00000220: 3412 b33d 6753 46be a1ed 10be 865f d23d
00000230: d539 243e ca17 75be 90e3 44be d82a 8f3e
00000240: be17 c5be 8129 753e 50b3 53be 871d 93bd
00000250: 52a8 e6bd 7aa0 d43e d094 37bc 0f91 18bd
00000260: cd3f 853e 1009 99be 485e 8abd 597c 103f
00000270: 8b45 39be 92ba 34be 3ec2 1f3e cc3f ea3e
00000280: 0f2c 713e 28c7 01be c99d 023f c4ea 2a3e
00000290: 0d06 a53e 1af8 73be b132 f33d d227 7cbe
000002a0: 671d f3bd b1e9 08bd 0d32 b7be 7767 d03e
000002b0: 14c3 213e 4312 123d add4 11bf e2a1 db3e
000002c0: 8c4c d4bd 0c38 b83d a41f 2fbe 7edd 363d
000002d0: 5d5a 033f 12c8 d03e 067c 7f3d 794f 893d
000002e0: 7414 b8be a2fe f0be c491 943e 40d3 9b3e
000002f0: b0e7 983d 54e8 ce3e 525b a2bd 42da 5cbe
00000300: 2e59 2cbe 1d51 ce3e c0a4 b5bc b414 04bf
00000310: d218 82bb 340d 54be 73e3 da3e f7d8 313e
00000320: 6383 08bf c4bc 06be 7609 f83d 9605 a63e
00000330: 34be 57be 9fa9 2b3e 3841 49be b14c 9bbd
00000340: 9721 f83e aa9a 77be 2087 91be f3f4 05bf
00000350: f1d0 a8bc 03d8 343d bd06 a8be 0a6a 903e
00000360: 20ea c73e 092f 7bbe 93c9 40be b6d6 9abe
00000370: dc1a c8bc f68a 1bbe 449b 543e 4c63 ba3e
00000380: d96f 103e 5613 ec3a 6dc1 99be d57f a23d
00000390: 03c0 123d 07dc 03be ffb2 bdbe daa3 7d3e
000003a0: 5e70 bebe 940f cebe f67c eebd 4020 f2bb
000003b0: 16d0 bcbd a304 d3bd d88a 533e d494 acbe
000003c0: d498 d1bd 2a1c 42be a35f 97bd 370b cd3d
000003d0: de3e 46be 3e21 88be d82f 96bd 3c9f 373d
000003e0: 2be4 f6be 52d5 cb3b 93ff 733b b510 44bd
000003f0: 0dcc 343c deaf 913e 4106 95be 2aec bebd

l2.weight f4 [300, 400]
0.037040982 -0.01595093 0.035318878 -0.012537576 -0.021168143 -0.04610289 -0.026787061 -0.059490517
-0.054972023 -0.03703615 -0.015864605 0.0006014111 -0.022756929 0.005060941 0.0066971383 0.018492352
0.01768185 -0.026853137 0.030135449 -0.004955622 -0.03591042 -0.07219216 -0.027599849 -0.016487341
0.0031558739 -0.008711476 -0.07031394 0.0003255309 -0.036614902 -0.04568864 0.0021668235 -0.0024793572
0.011737816 0.042038966 -0.06799594 -0.007568732 0.0062291957 0.0101822205 -0.06737087 0.017520143
-0.0027373806 -0.012782832 -0.03233336 -0.022496505 -0.013691168 -0.05475751 -0.041791078 -0.010500245
-0.025799869 -0.046491545 0.019291071 -0.03593929 -0.05304835 0.030060016 0.03391292 -0.041816372
-0.04709054 -0.032590717 0.017265398 -0.028686704 0.020900115 -0.051162783 -0.05928122 -0.02297175
-0.057604488 -0.03705754 -0.006040789 -0.010565311 -0.037680227 0.035497535 0.025911452 -0.0067513906
-0.012402467 -0.022559373 0.023454657 -0.002674896 -0.041645955 0.0033948123 0.009807345 0.013541856
-0.00023305774 -0.036701925 0.0271688 0.04768649 -0.032707695 -0.06017486 -0.04643913 0.036669143
-0.016548917 0.0034133315 -0.0020794943 0.019301716 -0.070101224 -0.038361207 -0.02395692 0.008521508
-0.06479755 0.013677054 -0.033360206 -0.021207772 -0.03011359 -0.044341136 -0.03089586 0.027550306
0.019125331 0.012727351 -0.017380971 -0.025788661 -0.026317118 -0.037609998 -0.05220884 -0.038787734
0.031833228 -0.04660814 -0.059551533 -0.021126974 0.025788438 -0.033192027 -0.02930423 -0.006489955
0.014494989 0.021693293 0.03782795 -0.0020227619 0.03656729 0.003109653 -0.047591068 -0.008249735
-0.04493448 -0.0400152 -0.018039722 0.029555086 -0.04876541 0.023686485 -0.01386244 -0.013367664
0.00091900676 0.007784213 -0.015943456 0.022320684 -0.014470451 -0.04554538 0.007012598 -0.05554692
-0.055272218 -0.010455671 0.047341008 -0.06422544 -0.04472647 0.0066469433 0.0431067 -0.04336679
0.02275655 -0.047577888 -0.0011473596 -0.03501564 -0.011168389 0.016024683 0.007592462 0.036719285
0.03477046 0.02540445 -0.07301766 0.028188776 0.013325841 0.0054767504 -0.0049352385 -0.06249823
-0.011696606 -0.001764402 -0.04213841 -0.035025176 0.016886303 0.03241496 -0.029915836 -0.04002103
-0.006935056 -0.0043945536 -0.043181904 -0.030666018 -0.007194733 -0.013180727 0.017621625 -0.008722035
-0.045094665 0.0060100495 -0.028718794 -0.012478738 0.01753835 0.013444011 -0.030770535 -0.034310807
-0.02807014 0.0194051 -0.04103454 -0.014940775 -0.022319049 -0.021998638 0.024713194 -0.019025056
-0.021267409 0.012752693 0.025279317 0.021563213 0.030450504 0.017660107 0.03290603 0.042682234
0.015336953 -0.0013526111 -0.045107048 0.00913356 -0.01757559 0.028530644 -0.021234618 -0.02535477
0.009834047 0.018286798 -0.030402783 0.00523749 -0.002742349 -0.05395357 -0.05363821 -0.050252218
-0.029357903 0.016464321 -0.025309188 -0.003340732 -0.011680923 -0.013428576 -0.06587345 -0.03368166
-0.022127677 -0.0579672 0.021792483 0.040811155 -0.025662798 -0.05630874 -0.005129706 0.0060070776
-0.008379756 0.035047743 -0.0057897046 -0.031199528 0.03454799 0.034715798 -0.038591914 0.03340796
-0.013072266 0.001250498 0.026781049 0.0038610399 -0.045004435 -0.028151387 0.012947176 0.046027254
00000000: 49b8 173d 86ab 82bc 87aa 103d 686a 4dbc
00000010: d068 adbc 62d6 3cbd 8a70 dbbc 54ac 73bd
00000020: 582a 61bd 38b3 17bd 7df6 81bc 04a8 1d3a
00000030: bd6c babc 40d6 a53b ab73 db3b 467d 973c
00000040: 87d9 903c 1cfb dbbc 9ede f63c c562 a2bb
00000050: ce16 13bd 7cd9 93bd 1419 e2bc 7610 87bc
00000060: c7d2 4e3b 94ba 0ebc c100 90bd 05ac aa39
00000070: 82f9 15bd 0324 3bbd 4401 0e3b b67c 22bb
00000080: f84f 403c 0d31 2c3d 7541 8bbd 2003 f8bb
00000090: 481e cc3b 54d3 263c bdf9 89bd 6786 8f3c
000000a0: a065 33bb 156f 51bc fc6f 04bd 974a b8bc
000000b0: ec50 60bc 6949 60bd 1f2d 2bbd 3809 2cbc
000000c0: 3f5a d3bc eb6d 3ebd 4f08 9e3c 1435 13bd
000000d0: 3a49 59bd 6c40 f63c 46e8 0a3d a547 2bbd
000000e0: 03e2 40bd d87d 05bd 2a70 8d3c 6100 ebbc
000000f0: b836 ab3c 1190 51bd ddd0 72bd 402f bcbc
00000100: aff2 6bbd a6c9 17bd d0f1 c5bb 201a 2dbc
00000110: 9556 1abd dd65 113d 4144 d43c c53a ddbb
00000120: b833 4bbc 6fce b8bc fb23 c03c 4f4d 2fbb
00000130: f394 2abd 807b 5e3b fdae 203c a9de 5d3c
00000140: f660 74b9 c254 16bd 1a91 de3c e952 433d
00000150: 81f8 05bd ea79 76bd f536 3ebd 6232 163d
00000160: 9891 87bc 33b2 5f3b 2048 08bb a21e 9e3c
00000170: 3b91 8fbd a420 1dbd 4d41 c4bc cc9d 0b3c
00000180: 94b4 84bd b915 603c b6a4 08bd ecbb adbc
00000190: c7b0 f6bc 0d9f 35bd 5119 fdbc 2eb1 e13c
000001a0: baac 9c3c 6186 503c 8a62 8ebc be42 d3bc
000001b0: ff96 d7bc f10c 1abd f0d8 55bd e3df 1ebd
000001c0: 8f63 023d 2de8 3ebd 4fec 73bd 7a12 adbc
000001d0: 4642 d33c 5df4 07bd 6d0f f0bc b0a9 d4bb
000001e0: 647c 6d3c 22b6 b13c 7bf1 1a3d 5090 04bb
000001f0: 95c7 153d 52cb 4b3b daee 42bd e629 07bc
00000200: 380d 38bd fae6 23bd 0ac8 93bc 821d f23c
00000210: 3dbe 47bd 290a c23c 4a1f 63bc 0c04 5bbc
00000220: 80e9 703a b612 ff3b da9b 82bc ded9 b63c
00000230: 7815 6dbc cb8d 3abd f0c9 e53b 2b85 63bd
00000240: 1f65 62bd 434e 2bbc a5e8 413d a188 83bd
00000250: 1a33 37bd 9ace d93b a790 303d 60a1 31bd
00000260: f26b ba3c 08e1 42bd 0063 96ba 8f6c 0fbd
00000270: 9efb 36bc 3246 833c 30ca f83b f666 163d
00000280: 786b 0e3d fe1c d03c 488a 95bd 26ec e63c
00000290: a154 5a3c 5076 b33b c8b7 a1bb 25fe 7fbd
000002a0: 1fa3 3fbc 8243 e7ba 5399 2cbd 8f76 0fbd
000002b0: 2555 8a3c 8dc5 043d 0e12 f5bc 17ed 23bd
000002c0: 773f e3bb 3000 90bb 82df 30bd 4d37 fbbc
000002d0: cbc1 ebbb faf3 57bc 3a5b 903c dee6 0ebc
000002e0: 2fb5 38bd f3ef c43b ad43 ebbc 9f73 4cbc
000002f0: 96ac 8f3c 4544 5c3c 7d12 fcbc 7d89 0cbd
00000300: 5af3 e5bc 72f7 9e3c d513 28bd 27ca 74bc
00000310: 70d6 b6bc 7d36 b4bc 5373 ca3c 6fda 9bbc
00000320: fd38 aebc acf0 503c 9216 cf3c 56a5 b03c
00000330: 5673 f93c eeab 903c 79c8 063d 91d3 2e3d
00000340: d847 7b3c 194a b1ba 2bc2 38bd eda4 153c
00000350: affa 8fbc 19b9 e93c 39f4 adbc ceb4 cfbc
00000360: fc1e 213c 32ce 953c 420f f9bc 409f ab3b
00000370: fbb8 33bb 6bfe 5cbd bdb3 5bbd 45d5 4dbd
00000380: fc7f f0bc 2fe0 863c 3755 cfbc 2ff0 5abb
00000390: 5861 3fbc 8803 5cbc a9e8 86bd c8f5 09bd
000003a0: 1a45 b5bc 046f 6dbd 2686 b23c 9929 273d
000003b0: ca3a d2bc fea3 66bd 1817 a8bb 05d7 c43b
000003c0: 3e4b 09bc 398e 0f3d 90b7 bdbb 2796 ffbc
000003d0: 3182 0d3d 2732 0e3d 8e12 1ebd c9d6 083d
000003e0: 0f2d 56bc c0e7 a33a ee63 db3c 8009 7d3b
000003f0: 9256 38bd bd9d e6bc 6420 543c 1387 3c3d

l2.bias f4 [300]
-0.05330087 -0.024665542 -0.011085278 0.022785801 -0.022228248 0.03298335 -0.032714352 -0.03429145
-0.103262104 -0.05128457 -0.05326022 -0.17187798 -0.07935246 0.024144022 -0.18587029 -0.033097915
0.33350065 0.037080776 -0.0490334 -0.016732525 0.027931312 -0.23586433 0.033955485 0.07410707
-0.010361427 0.0007595822 -0.027072733 0.008781353 0.032494187 0.0135907745 -0.19947332 0.005007764
-0.19196773 -0.24271779 0.027494898 0.024417333 -0.041890472 0.0055502784 0.0039553414 0.033228137
0.009484834 -0.05533352 -0.025782062 0.0093551595 -0.049396 0.17424715 -0.14248314 -0.20020394
0.0818538 0.0076708924 0.022987645 -0.0021663734 0.2811012 0.31861928 -0.057371702 0.0005705314
-0.033450607 -0.19029374 0.019714234 -0.021325791 -0.051792428 0.09595275 -0.02380101 -0.025447905
-0.02168564 0.02633316 -0.03802975 -0.2382707 -0.03269867 0.032604247 -0.15921986 -0.1973603
-0.2091902 -0.010564559 0.04855909 0.03680425 -0.19520481 -0.18757218 0.18302073 -0.23374051
0.020034615 -0.02077153 -0.031998396 0.15095946 -0.27184436 -0.029097527 0.0153559875 -0.30448335
-0.08704916 -0.02238975 -0.012807837 0.2132918 -0.25424254 0.0064925533 -0.16176218 -0.054846704
-0.023028895 -0.22988664 -0.21264496 -0.2136206 -0.017023869 0.01818101 0.023191316 -0.253876
0.022023974 -0.12454443 0.020646356 0.14792751 -0.056611314 -0.054258008 -0.15550926 0.11779092
0.10648716 0.094472945 0.0141309565 -0.03550277 0.04942052 -0.14976892 -0.030678792 -0.22474107
0.028674219 -0.006043033 0.025042104 -0.045385912 -0.18613759 0.000489873 -0.0530337 0.004424388
0.19241452 0.0054260534 -0.2359766 0.030403728 -0.20976058 -0.075825185 -0.17793082 -0.062595166
0.18647482 -0.04387892 -0.1682114 -0.017253546 0.21999994 0.025101298 -0.0127339205 -0.025180489
-0.028707933 0.031670164 -0.14412749 0.032564834 -0.0025926991 -0.25333035 -0.014860921 0.19779733
0.18407585 -0.03494238 0.011805065 0.019100307 -0.00011523344 0.119119115 0.023207976 -0.10377314
0.3035621 -0.21850902 -0.03911589 -0.04279663 0.011136691 -0.0034744386 0.045761596 0.031192051
-0.03145555 -0.061201453 -0.077949986 -0.035680138 -0.004531765 -0.050871905 0.094373405 -0.018618938
0.18822287 -0.030896533 -0.17695221 0.019930534 0.091744654 0.025974749 -0.01846886 -0.16586263
0.084554665 0.024726141 0.03689455 -0.053359672 -0.12486705 0.014978148 -0.051566344 0.026244018
0.017059084 -0.039997574 -0.16288105 -0.14613289 0.0044298535 0.2503405 -0.006483661 -0.20518957
0.07395643 -0.028817415 0.027612202 0.014043514 0.015983872 0.044087622 0.06687127 -0.057699088
-0.039476443 0.260272 0.035692513 0.027555984 0.037192937 -0.007064621 0.047303397 0.0058906176
-0.031644568 -0.24037439 -0.19947241 -0.21319126 -0.1955616 -0.0048285928 -0.009931801 0.032271955
-0.12168692 0.019721646 -0.05104099 0.03058598 -0.042939615 0.0008053486 -0.039702285 -0.0010350712
-0.045682255 0.008787064 0.015168916 -0.1704162 0.0002567768 -0.17034794 -0.18150106 0.026077686
0.04291886 0.22811155 -0.03155983 0.03852732 -0.039974146 0.2561387 -0.23227109 -0.098183475
-0.049084213 0.028400937 -0.17063537 -0.051430684 -0.04308357 0.035158988 0.032150306 0.043145373
00000000: 0352 5abd 640f cabc 079f 35bc 4aa9 ba3c
00000010: 0418 b6bc 8d19 073d 7cff 05bd 3175 0cbd
00000020: 157b d3bd c50f 52bd 6327 5abd c800 30be
00000030: 8b83 a2bd afc9 c53c c854 3ebe ae91 07bd
00000040: 99c0 aa3e 03e2 173d 3fd7 48bd a612 89bc
00000050: 35d0 e43c 6b86 71be e814 0b3d 73c5 973d
00000060: fac2 29bc b31e 473a a3c7 ddbc aadf 0f3c
00000070: a018 053d d7ab 5e3c bc42 4cbe 2b18 a43b
00000080: 3093 44be 038b 78be fb3c e13c dc06 c83c
00000090: 5895 2bbd 1cdf b53b cf9b 813b 3a1a 083d
000000a0: 4766 1b3c 67a5 62bd e734 d3bc 6246 193c
000000b0: 7653 4abd d86d 323e 1ae7 11be 4302 4dbe
000000c0: f7a2 a73d 1c5c fb3b 9650 bc3c b7f9 0dbb
000000d0: 7fec 8f3e 1122 a33e 97fe 6abd b78f 153a
000000e0: 8103 09bd 5ddc 42be bf7f a13c 6db3 aebc
000000f0: 4c24 54bd e082 c43d 56fa c2bc 2078 d0bc
00000100: 15a6 b1bc a4b8 d73c 15c5 1bbd 3cfd 73be
00000110: 0aef 05bd 088c 053d 880a 23be d218 4abe
00000120: f535 56be f916 2dbc e5e5 463d 0ec0 163d
00000130: c5e3 47be ec12 40be c969 3b3e ac59 6fbe
00000140: a21f a43c 0e29 aabc c010 03bd 1e95 1a3e
00000150: 2f2f 8bbe f05d eebc ae97 7b3c 3ee5 9bbe
00000160: d446 b2bd b66a b7bc f6d7 51bc 2a69 5a3e
00000170: 142c 82be 7cbf d43b fca4 25be f0a6 60bd
00000180: 18a7 bcbc 6767 6bbe 9abf 59be 5cbf 5abe
00000190: a475 8bbc 57f0 943c b7fb bd3c 09fc 81be
000001a0: 9f6b b43c 2611 ffbd 8c22 a93c 4f7a 173e
000001b0: 44e1 67bd a53d 5ebd d23d 1fbe 5e3c f13d
000001c0: f115 da3d 087b c13d 8785 673c 5a6b 11bd
000001d0: 2c6d 4a3d 065d 19be 1752 fbbc 8622 66be
000001e0: 32e6 ea3c a304 c6bb 1925 cd3c 94e6 39bd
000001f0: da9a 3ebe d26a 003a dd39 59bd 75fa 903b
00000200: 5008 453e 09cd b13b daa3 71be 3d11 f93c
00000210: 7acb 56be 3c4a 9bbd 7f33 36be e531 80bd
00000220: 41f3 3e3e 62ba 33bd 9c3f 2cbe 4f57 8dbc
00000230: aa47 613e 3da1 cd3c efa1 50bc 5047 cebc
00000240: e62c ebbc 93b8 013d 2896 13be b462 053d
00000250: 46ea 29bb 84b4 81be 387b 73bc 628b 4a3e
00000260: 617e 3c3e be1f 0fbd 086a 413c 3f78 9c3c
00000270: 7ba9 f1b8 b9f4 f33d a71e be3c 0387 d4bd
00000280: 7e6c 9b3e d4c0 5fbe fc37 20bd 854b 2fbd
00000290: ab76 363c 68b3 63bb 8370 3b3d 7986 ff3c
000002a0: 89d7 00bd 60ae 7abd 3ea4 9fbd 5625 12bd
000002b0: 337f 94bb 0f5f 50bd d846 c13d be86 98bc
000002c0: 7fbd 403e ba1a fdbc f632 35be 5c45 a33c
000002d0: 9fe4 bb3d ffc8 d43c 024c 97bc e5d7 29be
000002e0: ff2a ad3d 7a8e ca3c bd1e 173d ac8f 5abd
000002f0: 4cba ffbd e866 753c 3b37 53bd b2fd d63c
00000300: 7ebf 8b3c 7fd4 23bd 4aca 26be dca3 15be
00000310: 4e28 913b a12c 803e e474 d4bb 371d 52be
00000320: 7876 973d 8012 ecbc fc32 e23c c416 663c
00000330: 9cf0 823c 3995 343d cef3 883d e155 6cbd
00000340: 0db2 21bd 5f42 853e 5032 123d 16bd e13c
00000350: 9f57 183d 567e e7bb 35c1 413d 1506 c13b
00000360: bc9d 01bd b424 76be 7f42 4cbe cf4e 5abe
00000370: 4d41 48be 2c39 9ebb feb8 22bc 992f 043d
00000380: fe36 f9bd 4a8f a13c 5b10 51bd 738f fa3c
00000390: 73e1 2fbd 081e 533a dd9e 22bd 3aab 87ba
000003a0: 511d 3bbd 9ef7 0f3c 0c87 783c 9681 2ebe
000003b0: 00a0 8639 b16f 2ebe 6adb 39be dfa0 d53c
000003c0: b0cb 2f3d 1396 693e e144 01bd d3ce 1d3d
000003d0: eebb 23bd 9d24 833e 79d8 6dbe 6b14 c9bd
000003e0: 870c 49bd 15a9 e83c 0abb 2ebe fba8 52bd
000003f0: 6678 30bd df02 103d 0ab0 033d 34b9 303d

l3.weight f4 [6, 300]
-0.004268797 -0.048300624 -0.050718717 -0.04467403 -0.031103928 -0.0069147437 -0.053997256 -0.02750696
0.061589036 0.04986261 0.053296037 0.03486424 0.06712899 -0.048607204 0.060005166 0.020900458
-0.01468309 -0.003939387 0.020331964 -0.0025491454 -0.039714776 0.025683163 0.024684345 0.038046982
-0.033524655 -0.035244383 0.022257645 0.0006343648 -0.006157977 -0.04043223 -0.0063674203 0.03955742
0.015382727 0.052482903 0.021631375 0.052390125 0.042308934 -0.0011828451 -0.030611115 -0.010532442
0.00091613026 -0.019710705 0.03666385 -0.05210721 -0.048438124 0.03534155 -0.0061939633 -0.05020349
-0.031900354 0.02444125 0.034717135 -0.030596072 0.058085915 0.06528407 0.042324238 -0.015044818
-0.008431291 0.019474145 -0.0008515524 -0.013773949 -0.021182735 0.021233495 0.012086988 -0.028360674
-0.040387355 0.029420866 0.050871924 0.04397869 -0.03859983 0.022866149 0.034173742 0.065956295
0.03801057 -0.04237277 0.047363672 -0.041638374 -0.028236672 0.008370718 0.011961315 0.029158542
0.0005806604 0.006903938 0.035964735 0.055564325 -0.002031963 -0.033326395 -0.03305545 0.0019990916
0.02182188 0.01671387 -0.030135328 0.059723787 -0.01202202 -0.0074348715 0.002502033 -0.032840222
-0.020992512 0.030835347 0.056438126 0.063629195 0.0242365 -0.022699364 0.0192132 0.032745115
0.030922242 -0.038158607 -0.0071008145 0.028977847 -0.008352488 -0.0075514293 0.008747219 0.04160237
0.049210884 0.007580477 -0.030151749 0.04370039 0.035510503 0.009174447 -0.041490845 -0.029695373
0.0006482601 0.005473983 -0.038462915 0.02702338 0.025955161 -0.0023140316 0.000686575 -0.044865
0.053076416 -0.05497453 0.06789312 0.0034961775 0.034732394 0.015284898 0.02826729 -0.03409182
0.03945845 0.023922326 0.059528362 -0.019468473 -0.035573203 -0.023558069 0.0069805733 0.04650402
0.044095863 -0.0012593075 -0.02340152 -0.045843154 0.030160777 0.016495004 -0.04430759 0.05757151
0.06423976 0.006429978 0.016664296 0.027196074 0.04378189 -0.03567918 -0.047007795 0.06026905
0.07698968 -0.04430097 0.0064181536 0.021877805 -0.053886868 -0.039846923 -0.022816248 -0.031587992
-0.035406165 -0.011312793 0.02357203 -0.033031218 -0.02066281 0.021934144 -0.038156357 -0.048283163
0.06698721 0.029612571 0.019163884 -0.038820185 0.036962043 0.023046594 0.024293145 0.03208461
0.0060483115 -0.0142372735 0.03065694 -0.024769792 -0.034058984 -0.004168534 -0.02806777 -0.039081506
0.051739145 0.05715767 -0.010673616 0.06074561 0.064847216 0.12182729 -0.05254627 0.027005246
-0.019047257 0.02481237 -0.002390818 0.014251202 -0.043675434 -0.04843646 -0.018122852 -0.016145274
-0.0040165186 0.08564742 0.0068235663 0.004599851 -0.043725874 -0.022605738 -0.013500556 -0.019758938
-0.012065808 -0.021111125 0.021614991 0.043725446 0.049793866 -0.045168575 -0.020715246 0.0054872483
-0.0044004447 -0.016079966 0.010405987 -0.02894245 -0.04839187 0.004304975 0.002532132 -0.05295959
-0.02097843 -0.051552176 -0.011028759 0.026699178 -0.01536604 0.014298328 -0.0424053 -0.028939553
-0.019342093 0.10037556 0.020880286 -0.044924546 -0.040510725 0.05344273 0.059782356 -0.045082834
-0.025544941 -0.040119663 0.060205325 0.02838172 -0.006014161 -0.028025735 0.029413603 -0.033699792
00000000: 44e1 8bbb e0d6 45bd 6ebe 4fbd 1efc 36bd
00000010: aacd febc 1395 e2bb 3a2c 5dbd 4756 e1bc
00000020: c944 7c3d bc3c 4c3d f24c 5a3d cecd 0e3d
00000030: ed7a 893d 5918 47bd fac7 753d 7037 ab3c
00000040: 5891 70bc f915 81bb 388f a63c 900f 27bb
00000050: f6ab 22bd 7f65 d23c d336 ca3c 27d7 1b3d
00000060: 2651 09bd 6a5c 10bd aa55 b63c 804b 263a
00000070: dbc8 c9bb 449c 25bd cba5 d0bb f606 223d
00000080: d507 7c3c 50f8 563d 4834 b13c 0797 563d
00000090: 224c 2d3d b209 9bba 29c4 fabc 4390 2cbc
000000a0: 7628 703a 5878 a1bc d52c 163d 5f6e 55bd
000000b0: 0e67 46bd 4dc2 103d bbf6 cabb 2da2 4dbd
000000c0: f2a9 02bd 0439 c83c 8e33 0e3d 9da4 fabc
000000d0: 7feb 6d3d a8b3 853d 2e5c 2d3d 8a7e 76bc
000000e0: 6623 0abc 3e88 9f3c b73a 5fba 21ac 61bc
000000f0: 6a87 adbc def1 ad3c 8108 463c a554 e8bc
00000100: 366d 25bd 0704 f13c 145f 503d 0023 343d
00000110: db1a 1ebd ca51 bb3c c4f9 0b3d 1814 873d
00000120: f9b0 1b3d 128f 2dbd 6900 423d 008d 2abd
00000130: 9850 e7bc 5625 093c 64f9 433c e5dd ee3c
00000140: 7637 183a 6e3a e23b c24f 133d 6b97 633d
00000150: af2a 05bb 4281 08bd 2765 07bd 3103 033b
00000160: cdc3 b23c 87eb 883c 5dde f6bc eea0 743d
00000170: 02f8 44bc 39a0 f3bb 26f9 233b 7883 06bd
00000180: 7df8 abbc 699a fc3c aa2b 673d 0650 823d
00000190: a08b c63c 04f4 b9bc 0065 9d3c be1f 063d
000001a0: a450 fd3c 334c 1cbd f3ad e8bb f362 ed3c
000001b0: e0d8 08bc fb71 f7bb 7f50 0f3c 3f67 2a3d
000001c0: 5a91 493d a665 f83b cd00 f7bc 2eff 323d
000001d0: 7673 113d 6b50 163c 4ef2 29bd b643 f3bc
000001e0: 00f0 293a 195f b33b 4a8b 1dbd 2360 dd3c
000001f0: eb9f d43c 02a7 17bb 45fb 333a 5dc4 37bd
00000200: a866 593d f92c 61bd 8c0b 8b3d 2020 653b
00000210: 8e43 0e3d 826d 7a3c ce90 e73c dda3 0bbd
00000220: 2f9f 213d c1f8 c33c 03d4 733d 597c 9fbc
00000230: 35b5 11bd dafc c0bc 4bbd e43b 007b 3e3d
00000240: dd9d 343d 590f a5ba 8bb4 bfbc 08c6 3bbd
00000250: bc13 f73c 8820 873c e07b 35bd 1bd0 6b3d
00000260: 2390 833d 91b2 d23b 9083 883c 4dca de3c
00000270: a454 333d 5524 12bd 3f8b 40bd aedc 763d
00000280: c4ac 9d3d ef74 35bd 604f d23b 1539 b33c
00000290: 7ab8 5cbd 8736 23bd 24e9 babc 6962 01bd
000002a0: 0e06 11bd 4b59 39bc 211a c13c be4b 07bd
000002b0: 0e45 a9bc 3caf b33c d749 1cbd 91c4 45bd
000002c0: 9730 893d 1096 f23c 94fd 9c3c ea01 1fbd
000002d0: 8365 173d 36cc bc3c 6b02 c73c 276b 033d
000002e0: ea30 c63b 7443 69bc 4324 fb3c 05ea cabc
000002f0: 6f81 0bbd 3398 88bb 61ee e5bc ee13 20bd
00000300: 6dec 533d 291e 6a3d 64e0 2ebc 64d0 783d
00000310: 9ece 843d 9680 f93d c23a 57bd 1b3a dd3c
00000320: fe08 9cbc 5043 cb3c 45af 1cbb e07d 693c
00000330: 03e5 32bd 4f65 46bd 6076 94bc 1843 84bc
00000340: 009d 83bb ea67 af3d 3998 df3b 59ba 963b
00000350: e719 33bd ab2f b9bc 7031 5dbc 7fdd a1bc
00000360: abaf 45bc 3df1 acbc ec11 b13c 7419 333d
00000370: a7f4 4b3d af02 39bd 05b3 a9bc 60ce b33b
00000380: 9b31 90bb 22ba 83bc df7d 2a3c b818 edbc
00000390: 8e36 46bd bf10 8d3b 20f2 253b 28ec 58bd
000003a0: f5da abbc 6028 53bd f8b1 34bc 3cb8 da3c
000003b0: d8c1 7bbc 8943 6a3c 2eb1 2dbd a412 edbc
000003c0: 4f73 9ebc b491 cd3d 220d ab3c cd02 38bd
000003d0: 93ee 25bd c4e6 5a3d 58de 743d c7a8 38bd
000003e0: a043 d1bc 8454 24bd dc99 763d c880 e83c
000003f0: 7012 c5bb 3a96 e5bc ccf4 f03c cb08 0abd

l3.bias f4 [6]
-0.031946708 0.034488052 -0.26012263 -0.03635913 0.0440951 -0.013052207
00000000: 8dda 02bd 5843 0d3d cb2e 85be 50ed 14bd
00000010: 109d 343d edd8 55bc
