2019_test_data/triple_assembly/Average_TD3_Peg-in-hole-single_assembly_seed_3/_actor.pth (torch_old, 510312 bytes, 6 tensors)

l1.weight f4 [400, 12]
0	0xbf14b1da	-0.5808388
1	0xbeb716b8	-0.3575952
2	0x3e3742c8	0.17896569
3	0xbe157b14	-0.14597732
4	0xbed37d6e	-0.41306633
5	0xbeb52ee4	-0.35387337
6	0xbe90f718	-0.28313518
7	0x3e8f9688	0.28044534
8	0xbc0eb787	-0.0087107485
9	0x3f31a83f	0.6939735
10	0xbf6b3b15	-0.9188703
11	0x3f2d3e45	0.6767314
12	0xbf4afd2e	-0.7929257
13	0x3eaf7402	0.34268194
14	0x3e473941	0.19455434
15	0xbe055c79	-0.13023557
16	0xbd88e85a	-0.066849425
17	0x3c799ac4	0.015234653
18	0xbeab400b	-0.33447298
19	0x3e323503	0.17403035
20	0x3c66fb6b	0.014098029
21	0x3c953b2b	0.01821669
22	0x3c225666	0.009908294
23	0xbf292ce0	-0.660841
24	0xbf56b24a	-0.838658
25	0xbf0f6b4c	-0.560231
26	0x3d16f50b	0.036854785
27	0x3d27267b	0.040808182
28	0x3e8fcd17	0.2808616
29	0xbf5841c4	-0.8447535
30	0xbdd111ce	-0.10208474
31	0x3f55fa5e	0.83585155
32	0xbe98857e	-0.29789346
33	0x3ed14b09	0.4087756
34	0xbeee6e36	-0.4656846
35	0x3ea8311c	0.32849967
36	0x3ebdd147	0.37073728
37	0xbf771953	-0.96523017
38	0x3dba9a5e	0.091114745
39	0x3f577f2a	0.8417841
40	0xbeb77da3	-0.3583804
41	0xbfacd77b	-1.350326
42	0xbe0c15fb	-0.1368026
43	0x3e2d0f14	0.16900283
44	0x3d355fcf	0.044280823
45	0x3efd8fc6	0.49523753
46	0xbec4ab6e	-0.3841204
47	0xbe13deeb	-0.14440505
48	0xbd25d9c6	-0.040490888
49	0x3e883959	0.26606253
50	0x3e1b07e1	0.15139724
51	0xbdeeb5fc	-0.116558045
52	0xbd27c048	-0.040954858
53	0x3e829ade	0.2550878
54	0x3e3cef5b	0.18450682
55	0x3d946572	0.07245912
56	0xbdd705b4	-0.10499135
57	0x3e7610f5	0.24029906
58	0x3dfd61d1	0.123721726
59	0xbe037dbf	-0.12840937
60	0x3f3d2f91	0.73900706
61	0x3f32be4c	0.6982162
62	0xbd37d5d9	-0.044881675
63	0xbed384d3	-0.41312274
64	0xbf72792d	-0.9471615
65	0x3f969d9d	1.176685
66	0xbda08c97	-0.078393154
67	0x3e14e801	0.14541627
68	0xbc8b6558	-0.017016098
69	0x3f278536	0.6543764
70	0x3fac03e3	1.3438686
71	0xbdac11ea	-0.08401854
72	0xbe061774	-0.13094884
73	0x3b8d0f40	0.0043047965
74	0x3e35a3c4	0.17738253
75	0x3dcc5bb0	0.099784255
76	0x3d0f4278	0.0349755
77	0x3e772e9c	0.24138874
78	0x3d86bd3c	0.06579062
79	0x3e46e422	0.19422963
80	0xbe7ec06e	-0.24878094
81	0xbe7eb97c	-0.24875444
82	0xbe8567aa	-0.26055652
83	0x3c85de00	0.01634121
84	0x3e87b81d	0.26507655
85	0xbed027bf	-0.40655324
86	0x3e2d7021	0.16937305
87	0xbebf02de	-0.37306875
88	0xbf087a26	-0.53311384
89	0x3a9a2a76	0.0011761922
90	0x3db31724	0.08744648
91	0x3d1dac26	0.03849425
92	0xbebabdb5	-0.3647286
93	0x3e03e67a	0.12880889
94	0xbe3e586d	-0.1858842
95	0xbe9d29bb	-0.306959
96	0xbf0505bd	-0.5196188
97	0x3f554bdb	0.8331887
98	0x3e5afe36	0.21386036
99	0xbec184de	-0.37796682
100	0x3d0f5c42	0.035000093
101	0xbe7f8305	-0.24952324
102	0xbeb4f000	-0.35339355
103	0xbee79bbd	-0.45236006
104	0x3d574cdf	0.052563544
105	0xbdfe6e56	-0.12423389
106	0x3e99170e	0.29900402
107	0xbe39a4e2	-0.18129304
108	0xbe8cc17e	-0.27491373
109	0xbf039196	-0.5139402
110	0x3e063a06	0.13108072
111	0x3f70058f	0.9375848
112	0x3f665d96	0.8998655
113	0xbfb76610	-1.4328022
114	0xbf351b19	-0.7074447
115	0xbe87b7ed	-0.26507512
116	0x3d1f0fb7	0.038833346
117	0xbebba7de	-0.3665151
118	0x3f5b7492	0.8572475
119	0x3d69c689	0.057074104
120	0xbc7a7465	-0.01528654
121	0xbe989a10	-0.2980504
122	0xbd39d788	-0.045371562
123	0x3e4f194f	0.20224498
124	0xbf6064eb	-0.8765399
125	0xbfe0690c	-1.7532058
126	0xbf4c5195	-0.79811984
127	0x3e4207df	0.18948315
128	0xbe379ad5	-0.17930157
129	0x3ed03bdd	0.40670672
130	0xbc234c30	-0.009966895
131	0xbe60a0fd	-0.21936412
132	0x3e246410	0.16053796
133	0x3e3a73fc	0.18208307
134	0x3e80cd07	0.25156423
135	0x3c14c063	0.009079072
136	0x3e1ef2f9	0.15522374
137	0xbdc69a11	-0.096973546
138	0xbf552ce7	-0.8327164
139	0xbea1aa0c	-0.31575048
140	0x3c2d252d	0.010567945
141	0xbeafce0c	-0.3433689
142	0xbecfdad4	-0.4059664
143	0x3e9618ee	0.29315895
144	0x3ed63e25	0.41844288
145	0xbdc622a1	-0.09674574
146	0x3e5f3de9	0.2180096
147	0x3e59143f	0.2119913
148	0x3f015e67	0.5053467
149	0x3e16090c	0.14651889
150	0xbf40069a	-0.75010073
151	0xbdf35e55	-0.11883227
152	0xbdb4d8b0	-0.08830392
153	0xbe84698d	-0.2586178
154	0x3f16edbb	0.589565
155	0xbea784fc	-0.32718647
156	0x3e4a4d13	0.19755964
157	0x3ce6593c	0.028118722
158	0x3dba265b	0.09089347
159	0xbdd756f9	-0.105146356
160	0xbe6c58dd	-0.23080774
161	0x3ce7f1d7	0.02831356
162	0x3d80dd3b	0.06292196
163	0x3e1cf09e	0.15326163
164	0xbe669e69	-0.22521366
165	0xbe8f9816	-0.2804572
166	0x3e0edf5e	0.13952395
167	0xbd76e801	-0.06027985
168	0xbf7ae558	-0.980062
169	0xbcd1749c	-0.025568299
170	0x3d7dadfe	0.06193351
171	0xbedf80d3	-0.43652973
172	0x3a4db340	0.000784684
173	0x3d8c1367	0.06839638
174	0x3e8e2931	0.27765802
175	0x3e955295	0.29164568
176	0xbf29abca	-0.66277754
177	0x3ed78c7a	0.42099363
178	0x3ebfc98b	0.37458453
179	0x3e96a089	0.29419354
180	0x3e8169a2	0.25275904
181	0x3d182ce0	0.03715217
182	0x3e827cd0	0.2548585
183	0x3e8659f2	0.26240498
184	0x3d3970c8	0.045273572
185	0x3d3f3658	0.046682686
186	0x3db928e4	0.090410024
187	0x3e3dd696	0.1853889
188	0xbe86f69b	-0.2636002
189	0x3aedf400	0.0018154383
190	0x3e8d3332	0.2757812
191	0xbe50b760	-0.20382452
192	0xbf0ef8ed	-0.5584858
193	0x3ecdfdf4	0.40232813
194	0x3c8f2de4	0.017477937
195	0x3d7c1ecb	0.061552804
196	0xbec19f00	-0.3781662
197	0x3ee4c361	0.44680312
198	0xbed3014e	-0.41211933
199	0x3f1adf4b	0.6049697
200	0xbd19045c	-0.037357673
201	0x3ec05f36	0.3757264
202	0x3f861355	1.047465
203	0x3f81a3f5	1.0128161
204	0xbd776070	-0.060394704
205	0x3dd7375d	0.105086066
206	0x3ef93adb	0.48677716
207	0xbe385292	-0.18000248
208	0x3dab6ae5	0.08369998
209	0xbf2e91b0	-0.6819105
210	0xbece8c1a	-0.40341264
211	0xbeea684e	-0.45782703
212	0x3e644e99	0.22295608
213	0x3e3fcb49	0.18729891
214	0x3e4cbb10	0.19993234
215	0xbde76e87	-0.11300378
216	0xbe47652c	-0.19472188
217	0xbe605221	-0.2190633
218	0xbbeb64da	-0.0071836533
219	0x3e964e45	0.2935659
220	0x3f1e5cf5	0.6186059
221	0xbe99eb5a	-0.30062371
222	0xbde214e2	-0.11039139
223	0x3f29800b	0.66211003
224	0x3d27b778	0.040946454
225	0x3e747458	0.23872507
226	0xbf3f57ad	-0.7474316
227	0x3facde28	1.3505297
228	0xbf9221b9	-1.1416541
229	0x3c8fb519	0.017542409
230	0xbd0e46cb	-0.034735482
231	0xbf0b56f1	-0.5442954
232	0xbeb1ed65	-0.3475143
233	0x3f1708e1	0.58997923
234	0x3f22e7e9	0.63635117
235	0x3f1bf5bf	0.60921854
236	0xbf5c132a	-0.8596674
237	0x3e52db3b	0.20591442
238	0x3f5843a0	0.8447819
239	0x3f850c46	1.039437
240	0x3f8c5db3	1.0966095
241	0x3f151932	0.5824157
242	0xbcf8a00f	-0.03034976
243	0xbdb1d81c	-0.08683798
244	0xbebd09fd	-0.36921683
245	0x3f151b31	0.58244616
246	0x3e048e0a	0.12944809
247	0x3e2e140a	0.16999832
248	0x3d0a726a	0.03380052
249	0xbf481390	-0.7815485
250	0xbf6205ba	-0.8828999
251	0xbe36a043	-0.17834572
252	0xbee1f971	-0.4413562
253	0x3dc1ea7d	0.09468553
254	0x3d346828	0.044044644
255	0xbf74e442	-0.95660794

l1.bias f4 [400]
0	0xbf750d9a	-0.9572388
1	0xbf21e78f	-0.63243955
2	0xbd1bac06	-0.03800585
3	0xbec98087	-0.3935587
4	0xbcebf233	-0.028802013
5	0xbe4f99f8	-0.20273578
6	0xbcca5890	-0.024700433
7	0xbe214d7d	-0.15752216
8	0xbf206bdb	-0.62664574
9	0x3d5cebe8	0.053935915
10	0xbf97def8	-1.186492
11	0xbe0876fb	-0.13326637
12	0x3ef8cc21	0.48593238
13	0xbddb2b70	-0.107016444
14	0x3f0f1b11	0.55900675
15	0x3e1d594e	0.15366098
16	0x3f1d5d8a	0.61470854
17	0xbed162bc	-0.4089564
18	0x3f24c3b0	0.64361095
19	0x3f300284	0.6875384
20	0xbf7009e5	-0.937651
21	0x3f15580b	0.5833747
22	0x3d769651	0.060201947
23	0x3dc8b456	0.09800021
24	0x3f58cbe5	0.8468612
25	0xbf0ef398	-0.55840445
26	0xbf928b6c	-1.1448798
27	0x3f3a425f	0.72757524
28	0xbd7ef98e	-0.062249713
29	0xbe5cf463	-0.21577601
30	0xbedf43c0	-0.43606377
31	0xbea2f1e6	-0.3182518
32	0xbe21bf8e	-0.15795729
33	0xbee688c2	-0.45026213
34	0xbd90cbcd	-0.07070122
35	0xbe13a273	-0.14417438
36	0xbdd81d66	-0.10552482
37	0xbe9c6c4b	-0.3055137
38	0xbf3d5df5	-0.7397149
39	0xbec388e0	-0.38190365
40	0x3f08588a	0.532601
41	0xbc1e7444	-0.009671275
42	0x3e60b3b4	0.21943551
43	0xbeab9ba4	-0.33517182
44	0xbf3d770b	-0.7400977
45	0x3c76a807	0.015054709
46	0xbf02c09f	-0.51075166
47	0x3c8ef581	0.01745105
48	0xbde6a25c	-0.11261436
49	0xbd4be93a	-0.04978297
50	0xbec8400c	-0.39111364
51	0xbe93560d	-0.2877659
52	0xbf8d4919	-1.1037933
53	0x3d4188d8	0.047249645
54	0x3e7833e7	0.24238549
55	0x3e13e6e8	0.14443552
56	0xbf4468d1	-0.7672244
57	0xbee22842	-0.4417134
58	0xbf1a64c8	-0.6031003
59	0x3eb9184a	0.36151344
60	0xbdc717c5	-0.097213306
61	0x3ddb6468	0.1071251
62	0xbd0bd78a	-0.0341411
63	0xbedcd23f	-0.43129155
64	0x3f0bdc58	0.5463309
65	0xbf507f59	-0.8144432
66	0x3e872874	0.2639805
67	0xbd843f41	-0.06457377
68	0x3ef12a62	0.47102648
69	0xbe2025db	-0.1563944
70	0x3e48e0b8	0.19616973
71	0x3e2bff8b	0.167967
72	0xbebbbdca	-0.36668235
73	0xbf66cb9b	-0.9015443
74	0xbdc36c8d	-0.09542189
75	0x3ce0cfac	0.027442776
76	0x3f2bc347	0.67094845
77	0x3eb641d2	0.35597092
78	0xbea6d359	-0.3258312
79	0x3da3797f	0.07982158
80	0xbd1e6238	-0.038667887
81	0xbe56eaa3	-0.20987944
82	0xbd2c295a	-0.042031623
83	0xbbcd5180	-0.006265819
84	0xbe865ac7	-0.26241133
85	0x3e06285f	0.13101338
86	0xbe17c692	-0.14821842
87	0x3e9b5f7e	0.30346292
88	0xbdb1b4ed	-0.08677087
89	0xbea1ad88	-0.31577706
90	0xbe9a767b	-0.30168518
91	0xbea5c120	-0.32373905
92	0x3b00066c	0.0019535078
93	0xbf1acfde	-0.6047343
94	0xbf163741	-0.5867806
95	0x3f60b0e1	0.87769896
96	0x3f060eb7	0.52366203
97	0xbe3d0fdb	-0.1846308
98	0x3e209438	0.15681541
99	0x3e5cbe88	0.21557057
100	0x3dadbd80	0.0848341
101	0x3e08363c	0.13301939
102	0xbe0a1d42	-0.13487723
103	0xbf7f0978	-0.99623823
104	0x3e7ef8cf	0.248996
105	0x3d4819d9	0.048852775
106	0xbf6dac9c	-0.92841506
107	0xbf358fc1	-0.70922476
108	0xbd0f07b0	-0.03491944
109	0xbe38fb07	-0.1806451
110	0x3e769a5e	0.24082324
111	0xbf0971b5	-0.5368913
112	0x3ed2ef99	0.41198424
113	0x3f12aa6d	0.572913
114	0x3dc86f0c	0.097868055
115	0x3da426c7	0.08015209
116	0xbead7be5	-0.33883587
117	0xbe12d80e	-0.14340231
118	0xbefd22cc	-0.4944061
119	0xbe4f698e	-0.2025511
120	0x3e925e57	0.285876
121	0xbeeb0d42	-0.45908552
122	0xbc656450	-0.014000967
123	0xbf0934d1	-0.53596216
124	0xbdfc088e	-0.12306319
125	0xbf2a872e	-0.6661252
126	0xbeaa955f	-0.33317086
127	0xbf22dec7	-0.6362118
128	0xbf07829d	-0.52933675
129	0xbea18295	-0.3154494
130	0x3dd454b2	0.10367717
131	0xbeaad42a	-0.33364993
132	0xbdf57da4	-0.11986855
133	0xbf254ba3	-0.6456854
134	0x3d9cd955	0.0765864
135	0x3daa9398	0.083289325
136	0x3e3195d4	0.17342311
137	0x3cbcba4d	0.023038054
138	0x3dab158e	0.083537206
139	0x3f466f14	0.7751324
140	0x3cf8664c	0.030322216
141	0x3e1d2d99	0.15349425
142	0x3e4d7366	0.20063552
143	0xbe7b9b96	-0.2457107
144	0x3d7876a2	0.060660012
145	0xbed4b659	-0.4154537
146	0xbe8d4446	-0.2759115
147	0x3d0ccdd1	0.03437597
148	0x3ed84806	0.4224245
149	0xbe88e03d	-0.2673358
150	0xbeb89c61	-0.36056808
151	0x3e5207ca	0.20510784
152	0xbe86712e	-0.26258224
153	0xbee9d6f8	-0.4567182
154	0xbd1435c0	-0.036184072
155	0xbe499c56	-0.19688544
156	0xbe3270b7	-0.1742581
157	0x3f17272f	0.59044164
158	0xbf2f6211	-0.6850901
159	0xbe7f5a46	-0.2493678
160	0x3e85b5a0	0.2611513
161	0xbeb1f2b7	-0.3475549
162	0xbdf3a1e4	-0.118961126
163	0xbec6b892	-0.3881269
164	0xbee90f34	-0.45519412
165	0x3d95ce95	0.07314793
166	0xbe261f63	-0.1622291
167	0xbe42ba10	-0.1901629
168	0xbc4beeb9	-0.012447053
169	0xbdea6149	-0.11444337
170	0xbf032789	-0.512322
171	0x3ecc0fa1	0.39855674
172	0xbe526306	-0.20545587
173	0x3dab4f22	0.08364703
174	0x3f209da1	0.6274052
175	0xbf884306	-1.0645454
176	0xbf2f7c42	-0.6854898
177	0xbf02c6c2	-0.5108453
178	0xbe51b0c1	-0.20477583
179	0xbdbf2186	-0.09332566
180	0x3f0be139	0.5464054
181	0x3cb8b25a	0.022545982
182	0xbefd346d	-0.4945406
183	0x3e938c10	0.28817797
184	0xbc79aa9d	-0.015238431
185	0xbf0aa190	-0.54152775
186	0x3f0961d8	0.5366492
187	0xbee271b9	-0.44227389
188	0x3f12f892	0.5741054
189	0x3ce1bbc6	0.027555358
190	0xbd7d4b58	-0.06183943
191	0x3cfcc0f6	0.03085373
192	0xbe46877e	-0.19387624
193	0x3b0d9800	0.0021605492
194	0xbec9885f	-0.39361855
195	0xbefa4efe	-0.4888839
196	0xbd5e831c	-0.054324254
197	0xbe970cc0	-0.29501915
198	0x3ecb1420	0.39663792
199	0xbdaac0cd	-0.08337555
200	0xbcc5e65d	-0.024157697
201	0xbf76c992	-0.9640132
202	0xbf41d8a1	-0.75721174
203	0x3f2db26d	0.6785038
204	0x3d910e70	0.07082832
205	0xbf021358	-0.50810766
206	0xbe988a2c	-0.29792917
207	0xbe5f7559	-0.21822108
208	0x3e9e35a6	0.30900306
209	0x3eeed135	0.46643987
210	0x3dab22f0	0.08356273
211	0x3e76441e	0.24049422
212	0xbceaa9f5	-0.028645495
213	0x3cbe04bc	0.023195617
214	0x3e2b923e	0.16755006
215	0xbc9c4e91	-0.019080432
216	0xbec04fd5	-0.37560907
217	0xbd12d6be	-0.035849325
218	0xbe088f48	-0.13335907
219	0xbde50da4	-0.11184242
220	0x3ecf82db	0.40529522
221	0x3e97d17a	0.29652005
222	0xbeb83b31	-0.3598266
223	0xbf7ccbe2	-0.987486
224	0xbe92c18f	-0.28663298
225	0x3eb20cba	0.34775335
226	0x3e79ed98	0.24407041
227	0x3e20f4b2	0.15718344
228	0x3dd436e2	0.103620306
229	0xbeca9cf6	-0.39572877
230	0x3f2a2b41	0.6647225
231	0xbe9d61a4	-0.30738556
232	0xbf0cc049	-0.54980904
233	0xbf6d753f	-0.9275703
234	0xbe471ebd	-0.1944532
235	0xbda58946	-0.080828235
236	0xbdc04cf3	-0.09389677
237	0x3ebec509	0.372597
238	0x3f3291d6	0.6975378
239	0xbe88e917	-0.26740333
240	0x3ee6751b	0.4501122
241	0xbf055956	-0.5208944
242	0x3f5924b7	0.8482165
243	0x3edd592e	0.432321
244	0x3ef27a62	0.47358996
245	0x3d92c7fe	0.07167052
246	0x3e2fff5f	0.1718726
247	0xbf445c2b	-0.7670314
248	0xbf3fa767	-0.7486481
249	0xbf87bcb8	-1.0604467
250	0x3e9ee761	0.31035903
251	0x3e210ba7	0.15727101
252	0xbebe6a76	-0.37190598
253	0x3ddd6130	0.10809553
254	0xbe926f41	-0.28600505
255	0xbe890800	-0.26763916

l2.weight f4 [300, 400]
0	0xbe35bae7	-0.17747079
1	0x3cf7f63e	0.030268785
2	0xbe62d99e	-0.22153327
3	0xbece83b0	-0.40334845
4	0x3c8a93c6	0.016916167
5	0x3dd5dbd1	0.10442317
6	0xbd49f133	-0.04930229
7	0x3e83d036	0.2574479
8	0xbdfe0248	-0.12402779
9	0xbddc385b	-0.107529365
10	0xbea8f2cd	-0.32997742
11	0x3b99b103	0.004690291
12	0xbe61f7dd	-0.22067209
13	0xbcec45c7	-0.028841866
14	0xbc20361a	-0.009778524
15	0xbcd6b9b3	-0.026211595
16	0xbeab7c92	-0.33493477
17	0x3cb4e59f	0.022082148
18	0xbe9d1c1d	-0.3068551
19	0xbc73384c	-0.014844965
20	0xbeae11b6	-0.33997887
21	0x3ef4e750	0.47832727
22	0xbebb001b	-0.36523518
23	0xbe29b4d5	-0.16572888
24	0x3eb31616	0.34977788
25	0xbcdd1d2e	-0.026991453
26	0x3b92e44e	0.0044827824
27	0x3efd6e3e	0.4949817
28	0xbe35ff94	-0.17773277
29	0x3ded80c1	0.115968235
30	0x3e2d489b	0.16922228
31	0x3dd66c32	0.10469855
32	0x3df3de2b	0.119076096
33	0x3d465411	0.048420016
34	0xbe2850a4	-0.16437012
35	0x3d390fd8	0.045181125
36	0xbc42136c	-0.011845451
37	0xbdb91b3f	-0.090384
38	0xbd76b217	-0.060228433
39	0xbda0e9da	-0.07857104
40	0x3c092344	0.008370224
41	0xbc5e5ade	-0.013571469
42	0x3d14cac9	0.036326203
43	0x3e030af3	0.12797146
44	0xbe0a09ba	-0.13480273
45	0x3c5866e5	0.013208126
46	0xbe792b90	-0.24333024
47	0xbe1a161a	-0.15047494
48	0x3ea7e2d1	0.32790235
49	0xbd8a8cee	-0.067651615
50	0x3e611c5a	0.21983472
51	0xbdee3366	-0.11630897
52	0xbe04a187	-0.12952243
53	0x3d1b1f65	0.037871737
54	0x3ea4a5ff	0.32157895
55	0x3ba89062	0.005144165
56	0xbdf1b39a	-0.118018344
57	0xbe7ce070	-0.24694991
58	0xbf10ee38	-0.5661349
59	0xbd4ef548	-0.050526887
60	0xbd96d2f7	-0.07364457
61	0x3d2d1751	0.042258564
62	0x3de98211	0.11401761
63	0xbe83ce8d	-0.25743523
64	0xbe56a352	-0.2096074
65	0xbd72435f	-0.05914628
66	0x3c9543be	0.018220779
67	0x3e00dc74	0.12584096
68	0x3e853206	0.26014727
69	0xbe9ef349	-0.31044987
70	0x3d1a139b	0.037616353
71	0x3c9bac23	0.01900298
72	0xbe1f5ba3	-0.155623
73	0xbe6eb6d7	-0.23311935
74	0xbeaec3e6	-0.34133834
75	0x3db53c2a	0.08849366
76	0x3eabed73	0.33579597
77	0x3de5a2a5	0.112126626
78	0x3e15358a	0.14571205
79	0xbd463050	-0.04838592
80	0xbe3f6be8	-0.18693507
81	0xbe23d266	-0.1599823
82	0xbe8b1e15	-0.27171388
83	0xbd22a606	-0.039709114
84	0xbc8121d2	-0.015763197
85	0xbe72bd5d	-0.23705049
86	0xbd1fc653	-0.039007496
87	0xbe033745	-0.12814052
88	0xbdb00171	-0.08594025
89	0x3d7afbd5	0.061275322
90	0xbdee79f6	-0.11644356
91	0xbddb8c98	-0.107201755
92	0xbce3bc55	-0.027799765
93	0x3e738439	0.23780908
94	0x3d2788b4	0.040901855
95	0x3e01e717	0.1268581
96	0x3cd90f92	0.026496682
97	0x3d754d35	0.059888083
98	0x3cdbe50d	0.026842618
99	0x3b9d56e3	0.0048016175
100	0x3c14b0b8	0.009075336
101	0xbccf5877	-0.025310738
102	0xbd068327	-0.03283992
103	0xbcb126a4	-0.02162487
104	0x3c6f9d63	0.014624926
105	0xbdddf91a	-0.10838528
106	0xbdae1b76	-0.085013315
107	0xbdfa8035	-0.12231485
108	0x3d3b28a1	0.045693044
109	0x3d389f59	0.04507384
110	0xbd54f348	-0.051989824
111	0xbd29b708	-0.041434318
112	0xbdfdb160	-0.12387347
113	0x3f0dd378	0.554008
114	0xbe09b7d6	-0.13449034
115	0xbedc2a93	-0.43001232
116	0xbe85c6c8	-0.2612822
117	0xbedca9da	-0.43098336
118	0xbe14cbeb	-0.14530914
119	0x3daf6f0f	0.085661046
120	0x3ca44461	0.020052137
121	0x3dc8eebd	0.09811161
122	0x3c01cba0	0.007922083
123	0xbdc90326	-0.09815054
124	0xbd43f9f0	-0.04784578
125	0xbe2305c0	-0.15920162
126	0x3e469685	0.19393356
127	0xbdb0eba5	-0.086386956
128	0xbdc70e36	-0.097195074
129	0xbe30edb4	-0.17278177
130	0x3e4e2097	0.2012962
131	0xbddf2d57	-0.1089732
132	0xbbf538d0	-0.007483579
133	0x3dc63c84	0.09679511
134	0xbf6210cd	-0.88306886
135	0x3cd1ebf2	0.025625203
136	0x3d46e4d1	0.04855806
137	0xbede7f1d	-0.43456355
138	0x3d0b3088	0.03398183
139	0x3c9bf7e6	0.019039106
140	0xbe79dd3e	-0.24400803
141	0xbf0ad655	-0.54233295
142	0x3e5bf520	0.21480227
143	0x3e59171e	0.21200225
144	0x3e319854	0.17343265
145	0xbe7f7b44	-0.24949366
146	0x3cd1a9c2	0.025593642
147	0x3d42985f	0.047508594
148	0xbe0ca787	-0.13735782
149	0xbd00c609	-0.03143886
150	0xbe049e9c	-0.1295113
151	0xbe9447cc	-0.28961027
152	0xbd202715	-0.03909977
153	0x3c9717a1	0.018443884
154	0xbda32707	-0.07966428
155	0xbcef3309	-0.02919914
156	0x3d386529	0.04501835
157	0xbdaab7ae	-0.08335815
158	0xbe134ede	-0.14385554
159	0x3cc8acbe	0.024496432
160	0x3d3a74e9	0.04552165
161	0xbda93acf	-0.0826317
162	0xbdc73dac	-0.0972856
163	0xbda150d8	-0.07876748
164	0xbcb62073	-0.02223227
165	0xbdfbd8c9	-0.12297208
166	0x3e390fec	0.1807248
167	0xbc837e80	-0.01605153
168	0xbdc4d2eb	-0.09610542
169	0xbdc1cacc	-0.094625086
170	0xbcfdf97c	-0.031002752
171	0xbd699961	-0.05703104
172	0xbe161c2f	-0.14659189
173	0x3dcd97fc	0.10038754
174	0x3f0cc785	0.5499194
175	0xbe6e8222	-0.23291829
176	0xbe1993d8	-0.14997804
177	0xbda8c53e	-0.08240746
178	0xbdfb38d0	-0.122666955
179	0xbd8ad8f4	-0.06779662
180	0x3e496e4b	0.1967098
181	0x3ccd489a	0.025059033
182	0xbebd9075	-0.37024274
183	0xbd42c205	-0.047548313
184	0x3dfd850a	0.12378891
185	0x3d78bcfb	0.0607271
186	0xbd9ee70e	-0.07758914
187	0xbdc4388c	-0.09581098
188	0x3ec91396	0.39272755
189	0x3e15f3f8	0.14643848
190	0xbd13e1c8	-0.036103994
191	0x3c4267dd	0.011865583
192	0xbf30fdc3	-0.6913721
193	0x3b2b5b60	0.0026146993
194	0xbea18a22	-0.315507
195	0xbe81220f	-0.25221297
196	0xbb12dea0	-0.0022410527
197	0xbe5fb30e	-0.21845648
198	0x3e8474c4	0.25870335
199	0x3e9170eb	0.28406462
200	0x3c9ac5f2	0.018893216
201	0xbd9de8b3	-0.077103995
202	0xbd393966	-0.045220755
203	0xbe1b29bc	-0.15152639
204	0x3dce6744	0.1007829
205	0xbe0f8b30	-0.1401794
206	0x3dc4a41d	0.096016146
207	0xbe732a1b	-0.2374653
208	0x3d8be27a	0.06830306
209	0x3daa6187	0.08319383
210	0xbc80f670	-0.01574251
211	0xbd0fad36	-0.035077296
212	0xbe11ee00	-0.14250946
213	0xbe4ece0d	-0.2019579
214	0xbeb5940a	-0.35464507
215	0x3e7cfa00	0.24704742
216	0xbe56a416	-0.20961031
217	0xbea6e125	-0.32593647
218	0x3d37ba69	0.04485551
219	0x3c9c6e4a	0.019095559
220	0x3e806db8	0.2508371
221	0xbdd116de	-0.1020944
222	0x3d76f2b7	0.060290065
223	0xbdfb4d90	-0.12270653
224	0xbd104a03	-0.035226833
225	0x3ef29c8b	0.47385058
226	0x3c5a3334	0.013317872
227	0x3d6cdde2	0.05782879
228	0x3f00661e	0.5015582
229	0xbf1d637c	-0.61479926
230	0xbe272772	-0.16323641
231	0xbe05c538	-0.13063514
232	0x3e0042ed	0.1252553
233	0xbf167cdd	-0.58784276
234	0x3e4501b2	0.19238928
235	0x3d2f6dd9	0.04282937
236	0xbdc091d9	-0.09402818
237	0x3e3c7038	0.18402183
238	0xbebc2fcc	-0.36755216
239	0xbc8edb24	-0.017438479
240	0xbe2a1b2e	-0.1661193
241	0xbe97e60e	-0.29667705
242	0x3e9ee11b	0.31031117
243	0x3e3a6183	0.1820126
244	0xbedaeca4	-0.42758667
245	0xbe127b68	-0.14304888
246	0x3e12e262	0.1434417
247	0xbe11b1d6	-0.14227995
248	0xbf35333e	-0.70781314
249	0xbeabc3d0	-0.3354783
250	0xbce4cf21	-0.027930798
251	0x3d379d55	0.044827778
252	0x3d3424b7	0.043980327
253	0xbe24ff3f	-0.16112994
254	0xbc02bd00	-0.007979631
255	0xbe312c6e	-0.17302105

l2.bias f4 [300]
0	0xbe11670b	-0.14199464
1	0x3e74e2e3	0.23914675
2	0xbd74d172	-0.059770055
3	0xbd126332	-0.03573913
4	0x3cbafb66	0.022824954
5	0xbcf39355	-0.02973334
6	0xbdf8b391	-0.121436246
7	0xbd876922	-0.06611849
8	0x3cc002cc	0.023438834
9	0xbd37e9d7	-0.04490074
10	0x3e126581	0.14296533
11	0xbd95da64	-0.07317045
12	0xbd83211c	-0.064027995
13	0xbe40ad8f	-0.18816207
14	0xbc281479	-0.010258787
15	0xbe2deb36	-0.16984257
16	0xbd8a0bac	-0.067405075
17	0xbcfe2d6a	-0.031027514
18	0xbdb302ba	-0.087407544
19	0x3e13fb09	0.14451231
20	0xbdd3942c	-0.10330996
21	0x3e2e931f	0.1704831
22	0x3a0af026	0.0005300067
23	0x3e5c9039	0.21539392
24	0xbea6e0f3	-0.32593498
25	0xbd9e3f89	-0.07726962
26	0xbec9b8f1	-0.39398912
27	0xbe2164b5	-0.15761073
28	0x3e23bde0	0.159904
29	0xbe110be4	-0.14164692
30	0xbdb915b3	-0.09037342
31	0xbd9056ab	-0.070477806
32	0xbd99d58e	-0.075114354
33	0xbce05dfc	-0.027388565
34	0xbd09da37	-0.03365537
35	0x3e44f8fe	0.19235608
36	0xbe55291b	-0.20816462
37	0x3e0b7cad	0.13621779
38	0xbda4b1cf	-0.08041727
39	0xbcdbd01f	-0.026832638
40	0xbe6907e7	-0.22756921
41	0x3df610e2	0.12014939
42	0x3c47413e	0.012161551
43	0xbbaecabc	-0.0053342264
44	0xbc179a50	-0.0092531
45	0xbd2312bc	-0.03981279
46	0xbd6fbdf6	-0.05853077
47	0xbd39ff13	-0.045409273
48	0x3c439798	0.011937998
49	0xbd794d45	-0.060864706
50	0x3a830635	0.0009996357
51	0x3da2bf91	0.07946695
52	0xbdbee2ef	-0.09320628
53	0xbd17e0f2	-0.03707976
54	0xbe3e0c7f	-0.18559454
55	0xbd39f392	-0.045398302
56	0xbcf31ea5	-0.029677698
57	0xbde31c78	-0.11089414
58	0xbe18bcbc	-0.14915746
59	0x3d61202c	0.054962322
60	0x3e7895ea	0.24275938
61	0xbd9cf231	-0.07663382
62	0xbe8c10e4	-0.27356637
63	0xbd2c3c1c	-0.042049512
64	0xbd74fbfe	-0.05981063
65	0xbe4228b1	-0.18960835
66	0xbc649318	-0.0139510855
67	0x3e16e518	0.1473583
68	0xbe9bd6e6	-0.30437392
69	0xbd65e608	-0.056127578
70	0xbcadc03f	-0.021209834
71	0xbd6e1830	-0.058128536
72	0x3da5b3ef	0.0809096
73	0x3d77934d	0.06044321
74	0xbecbb307	-0.39785025
75	0x3da193a9	0.07889492
76	0xbd89d11b	-0.06729337
77	0xbde12dac	-0.10995039
78	0xbcecc84a	-0.028904099
79	0x3e8e9375	0.27846876
80	0x3e4256ff	0.18978499
81	0xbd994f27	-0.074858
82	0x3d5aa239	0.053377364
83	0xbde4898a	-0.11159046
84	0xbd4235c2	-0.04741455
85	0xbdb127fd	-0.08650205
86	0xbd0b3a3c	-0.033991084
87	0xbe10a475	-0.14125235
88	0x3bba3e5c	0.0056837033
89	0x3c59fdfa	0.013305182
90	0x3e175ece	0.14782259
91	0x3bf621cf	0.0075113545
92	0xbbaba6ce	-0.0052383905
93	0x3e25cfcc	0.1619255
94	0x3ead9595	0.33903185
95	0xbe1972e1	-0.14985229
96	0xbd3267ff	-0.04355621
97	0xbe7327bd	-0.23745628
98	0xbced13bf	-0.02894008
99	0xbd4088be	-0.047005408
100	0xbd99d215	-0.07510773
101	0xbea9945f	-0.3312101
102	0xbd1b4693	-0.0379091
103	0x3b184f06	0.002324046
104	0x3b371ffb	0.0027942646
105	0xbcf9d37b	-0.03049635
106	0xbe774d0a	-0.24150482
107	0xbe464269	-0.19361271
108	0xbe56c446	-0.2097331
109	0x3e950f27	0.29113123
110	0xbe0f54ec	-0.13997239
111	0xbab55467	-0.0013834358
112	0xbd41be7a	-0.047300793
113	0xbd8f66ef	-0.07002055
114	0x3d7df3b9	0.06200001
115	0xbe4068f3	-0.18790035
116	0x3e9a288f	0.3010907
117	0xbdc5a8c2	-0.096513286
118	0x3dd90bec	0.10597977
119	0xbdf099cf	-0.11748087
120	0x3cc7ed3b	0.024405112
121	0x3c0fcbf7	0.008776656
122	0xbe598cfe	-0.2124519
123	0xbd27edd3	-0.04099829
124	0x3d24a2ef	0.040194448
125	0xbe0e9fd3	-0.13928156
126	0xbcf38725	-0.029727528
127	0xbcfb36f2	-0.030665848
128	0xbd971351	-0.07376731
129	0xbbb66b09	-0.005566959
130	0x3e6444d0	0.22291875
131	0xbd31ae2d	-0.043378998
132	0xbec239be	-0.3793468
133	0xbd69610c	-0.056977317
134	0xbc6464c3	-0.013940039
135	0x3cc0fa15	0.023556748
136	0x3da30ff7	0.079620294
137	0xbd3b4bad	-0.045726467
138	0xbe2499d1	-0.16074301
139	0xbdae2255	-0.08502642
140	0x3e0b70bb	0.13617222
141	0x3dfe9126	0.124300286
142	0xbe421a7f	-0.1895542
143	0xbe959b97	-0.29220268
144	0xbd2ed028	-0.042678982
145	0x3c943617	0.018092198
146	0xbce153dc	-0.027505808
147	0xbdabf0a0	-0.08395505
148	0xbc46173f	-0.012090503
149	0xbe7cd147	-0.24689208
150	0x3de45554	0.111490875
151	0xbe43e0ce	-0.19128725
152	0xbd04be80	-0.032408237
153	0xbcb5bc88	-0.022184625
154	0xbd9f09fd	-0.07765577
155	0xbcadec06	-0.021230709
156	0xbc681d04	-0.014167074
157	0xbd5fcdb1	-0.054639522
158	0xbe87aabb	-0.26497445
159	0xbcbebaec	-0.02328249
160	0xbe1b858b	-0.15187661
161	0xbd84f5c7	-0.06492191
162	0xbc811770	-0.015758246
163	0xbd5c7a94	-0.053827837
164	0xbda5dad4	-0.08098379
165	0x3e77a3bf	0.24183558
166	0xbd979868	-0.07402116
167	0xbd2fd7a3	-0.042930257
168	0xbd5a955d	-0.0533651
169	0xbddbb23f	-0.10727357
170	0x3ec0b0b7	0.37634823
171	0x3e6183e5	0.2202297
172	0x3e003a14	0.12522155
173	0xbc05ada9	-0.00815908
174	0xbdd1ed7e	-0.10250376
175	0x3c48139b	0.012211706
176	0xbd4917f9	-0.049095128
177	0xbd49ecea	-0.049298204
178	0xbd598bba	-0.05311177
179	0xbd8d52e9	-0.069005795
180	0xbd0c9f4c	-0.034331605
181	0x3e9455cc	0.28971708
182	0xbec283c3	-0.3799115
183	0xbddcfe8e	-0.1079074
184	0xbf2781a4	-0.6543219
185	0x3cbf8fb8	0.02338396
186	0x3c363c9b	0.011122848
187	0xbc848f29	-0.016181545
188	0x3c055402	0.008137705
189	0xbda502d0	-0.08057177
190	0xbd88d9cb	-0.06682166
191	0xbda5f97d	-0.08104227
192	0xbceac88e	-0.028660085
193	0x3dbf9e9e	0.09356426
194	0xbcfeefa1	-0.031120123
195	0xbcfd4d02	-0.03092051
196	0xbd8c9b98	-0.06865615
197	0x3ec3365e	0.38127416
198	0xbe1ae48d	-0.15126248
199	0x3e81d085	0.253544
200	0x3e3bc5a2	0.1833711
201	0xbb08ab7c	-0.0020854166
202	0x3e503651	0.2033322
203	0xbd19aafc	-0.03751658
204	0xbdd17213	-0.10226836
205	0x3d850b5c	0.06496307
206	0x3eba4e11	0.36387685
207	0xbd23df8c	-0.040008113
208	0x3e210f54	0.15728503
209	0xbd63dc6d	-0.055630136
210	0xbda239c0	-0.07921171
211	0xbe17548a	-0.14778343
212	0x3cd2bfce	0.025726225
213	0xbe2b9fbd	-0.16760154
214	0xbdb66392	-0.0890571
215	0x3dbf3e6b	0.09338077
216	0xbd2c92a0	-0.04213202
217	0x38de2e3d	0.000105943975
218	0xb9831fa6	-0.00025009847
219	0x3c91ff5f	0.017821966
220	0xbc1ed089	-0.009693273
221	0x3c31856b	0.010835032
222	0xbd649038	-0.0558016
223	0xbe1865fe	-0.14882657
224	0x3e099b1d	0.13438077
225	0xbccc0c40	-0.024908185
226	0x3e15f7e7	0.14645348
227	0xbe1170cc	-0.14203185
228	0x3c677076	0.014125934
229	0x3e8beaa0	0.27327442
230	0xbd334ea5	-0.043776173
231	0xbc1a1997	-0.009405515
232	0x3d17d3ab	0.037067097
233	0xbd4c716c	-0.049912855
234	0x3de96fb3	0.11398258
235	0xbd7486fd	-0.059699047
236	0xbe258f25	-0.16167887
237	0xbea020d7	-0.31275055
238	0xbdbfe3bb	-0.09369608
239	0x3ddcf097	0.10788076
240	0xbcdbdfdc	-0.026840143
241	0x3dfc296f	0.1231259
242	0xbdaaa394	-0.08331981
243	0x3ec3ec83	0.38266382
244	0xbd9de08a	-0.07708843
245	0xbda61052	-0.081085816
246	0x3d7743ab	0.060367268
247	0xbd45d968	-0.048303038
248	0x3c8ae0bb	0.016952863
249	0xbe12412f	-0.14282678
250	0xbea2d49d	-0.31802836
251	0xbd8ffdbc	-0.07030818
252	0xbdf5b009	-0.11996467
253	0xbdc4e32a	-0.096136406
254	0xbc3ef820	-0.011655837
255	0x3a686308	0.00088648545

l3.weight f4 [6, 300]
0	0xbe908d4d	-0.28232804
1	0x3dc8a9d3	0.097980164
2	0xbd0cb376	-0.034350835
3	0x3d2842da	0.04107938
4	0xbbcee28f	-0.006313629
5	0x3cb76d49	0.022390978
6	0x3de9f564	0.11423758
7	0xbacafa47	-0.0015485965
8	0x3ee828b8	0.45343566
9	0x3e2f20b0	0.17102313
10	0x3f17f2b7	0.5935473
11	0xbd09c3a5	-0.033633847
12	0xbcca6590	-0.024706632
13	0xbf0430b0	-0.5163679
14	0x3aaf5c01	0.001337886
15	0x3e8b250c	0.27176702
16	0xbd01b0c4	-0.031662717
17	0xbe7d73cd	-0.24751206
18	0x3d080c6a	0.033214964
19	0x3ed4f3af	0.41592166
20	0xbdee0a8d	-0.11623106
21	0x3f1af862	0.6053525
22	0x3dcf6713	0.10127082
23	0x3efe54b0	0.49673986
24	0xbea373bc	-0.31924236
25	0xbe1d8ae6	-0.15385017
26	0xbdf1f949	-0.118151255
27	0x3d0f5d96	0.03500136
28	0x3e897bdb	0.26852307
29	0x3da5257a	0.08063789
30	0xbd0abf25	-0.033873696
31	0xbd3c0cf0	-0.045910776
32	0x3c9c721a	0.019097377
33	0x3d212e54	0.039350823
34	0x3be9cd05	0.007135036
35	0x3df2cd43	0.11855557
36	0xbc6d1471	-0.014470206
37	0xbd932979	-0.07185645
38	0x3c2d7062	0.010585876
39	0xbc545a4a	-0.01296098
40	0xbd035d2c	-0.032071277
41	0x3ee1a7ce	0.44073337
42	0xbe1146ba	-0.14187136
43	0xbd58fae2	-0.052973635
44	0x3d3a6ad5	0.04551204
45	0x3bf84150	0.007576145
46	0xbc270d58	-0.0101960525
47	0x3c25ae36	0.010112336
48	0xbd4e36f0	-0.05034536
49	0x3d2d259c	0.042272195
50	0xbbf0b34d	-0.007345593
51	0x3e59a1f5	0.21253188
52	0xbdef9da3	-0.11699989
53	0xbcbf3038	-0.023338422
54	0x3ee35f9e	0.44408888
55	0xbd6709b0	-0.056405723
56	0x3d010e30	0.03150767
57	0xbd021ae4	-0.031763926
58	0xbc9fd7ca	-0.019512076
59	0x3eb8505d	0.35998812
60	0xbe1ee6ab	-0.1551768
61	0xbcccb873	-0.024990296
62	0xbdf4d84e	-0.11955319
63	0xbd13ec35	-0.036113936
64	0x3cf90818	0.030399367
65	0x3e1ee1e8	0.15515864
66	0xbc5bb003	-0.013408664
67	0x3eafa521	0.3430567
68	0xbeabbd6c	-0.33542955
69	0xbe4948a3	-0.19656615
70	0x3c62dcaa	0.013846556
71	0xbce77a4a	-0.028256554
72	0x3e4fcebc	0.20293707
73	0x3e01e35a	0.12684384
74	0xbe3a1d22	-0.18175176
75	0x3d920e42	0.07131626
76	0x3d2faecc	0.04289131
77	0xbc0c705e	-0.008571712
78	0x3bfc56c0	0.007700771
79	0xbd3dd962	-0.04634989
80	0x3e0560f4	0.13025266
81	0x3d4a4d98	0.049390405
82	0xbf077d46	-0.5292553
83	0x3ccb9c7d	0.024854893
84	0xbbe44288	-0.006965939
85	0xbcc9d182	-0.024636034
86	0xbd1f7597	-0.0389305
87	0xbe81fbfd	-0.25387564
88	0x3e94077b	0.28911957
89	0xbdd374e7	-0.10325032
90	0x3e52636c	0.20545739
91	0xbd1ef99d	-0.03881227
92	0x3c4974c1	0.012295903
93	0x3e3b8c57	0.18315254
94	0x3ea2fb7e	0.31832498
95	0xbc7db199	-0.015484237
96	0xbc835546	-0.016031872
97	0x3da4d682	0.080487266
98	0xbd2fc64d	-0.042913724
99	0x3c3d4165	0.011551236
100	0xbd2e10f4	-0.042496637
101	0x3de44086	0.11145119
102	0x3d87d88c	0.066331
103	0xbcaaa4b1	-0.020830484
104	0x3f0ee4b1	0.55817705
105	0x3d155f3f	0.036467787
106	0xbe141601	-0.14461519
107	0x3d82798f	0.06370842
108	0xbd5ddf45	-0.054168005
109	0x3eeee96c	0.46662462
110	0x3d820a4c	0.0634962
111	0x3d36c8a0	0.044624925
112	0x3e1cd760	0.15316534
113	0x3c8391f8	0.016060814
114	0x3e67d17b	0.22638504
115	0xbd00e23c	-0.031465754
116	0x3da5c314	0.08093849
117	0x3d9c67e7	0.07637005
118	0xbce4cde7	-0.027930213
119	0x3d9a4624	0.075329095
120	0x3e379e31	0.17931439
121	0xbf197d70	-0.5995703
122	0x3e3e4be6	0.1858364
123	0x3c8e0ef7	0.01734112
124	0xbeef53e7	-0.467437
125	0xbe8b27fb	-0.2717894
126	0xbd943f28	-0.072386086
127	0x3d1c44e5	0.03815164
128	0xbc559b3d	-0.0130375
129	0x3db9ec80	0.09078312
130	0x3ced30eb	0.02895399
131	0xbd122400	-0.035678864
132	0xbe1d4529	-0.15358414
133	0xbd844994	-0.064593464
134	0x3be75f25	0.0070609027
135	0x37fd3dc6	3.0188716e-05
136	0x3eb5fa92	0.35542732
137	0x3d0ed24a	0.034868516
138	0xbe183490	-0.14863801
139	0xbde86104	-0.11346629
140	0x3eb40b7e	0.35165018
141	0x3e00da3e	0.12583253
142	0xbeb5c9b3	-0.35505447
143	0xbe1c8773	-0.15286045
144	0x3d5f03dc	0.05444704
145	0x3c251da2	0.010077866
146	0x3c08e858	0.008356176
147	0x3c5d3209	0.013500699
148	0x3d2ad9da	0.041711666
149	0xbe0dc7dd	-0.13845773
150	0x3e854851	0.26031736
151	0x3e930520	0.28714848
152	0x3e1b2980	0.1515255
153	0x3ca5f9ec	0.020260774
154	0xbc98331f	-0.018579064
155	0x3e27507d	0.16339298
156	0x3db476e1	0.08811737
157	0x3e263500	0.16231155
158	0xbe8e416e	-0.27784294
159	0x3d3baa64	0.045816794
160	0xbec907e8	-0.39263844
161	0xbd7a9d8a	-0.061185397
162	0xbb876736	-0.0041321767
163	0x3d83a47e	0.06427859
164	0xbba10e59	-0.0049150405
165	0xbd9140a4	-0.07092407
166	0x3d0fe0b3	0.0351264
167	0x3d4ac432	0.049503513
168	0xbccd1610	-0.025034934
169	0x3e8273b0	0.25478888
170	0x3ee8d626	0.45475882
171	0x3de43578	0.11143011
172	0x3d19c486	0.037540935
173	0x3bb33a0e	0.005469567
174	0xbc6c09d7	-0.014406643
175	0xbcc6cdb2	-0.024268005
176	0x3d28e11e	0.041230313
177	0x3cc70a79	0.024296986
178	0x3c5289d6	0.012850245
179	0xbcac2015	-0.021011392
180	0x3c7dbd38	0.015487008
181	0x3dbc51db	0.091953
182	0xbda0a096	-0.07843129
183	0xbf308742	-0.6895639
184	0xbec874aa	-0.39151508
185	0xbdb1df05	-0.08685116
186	0xbd99c9b2	-0.075091735
187	0x3c65b374	0.014019836
188	0xbcea2507	-0.02858211
189	0xbcdb6cd1	-0.026785286
190	0xbd2f4836	-0.042793475
191	0xbbf31ec1	-0.0074194376
192	0x3c1fc0b6	0.009750536
193	0x3e77eed0	0.24212193
194	0xbcc790ee	-0.0243611
195	0x3b922418	0.004459869
196	0xbbf1a2b0	-0.00737413
197	0x3e16856f	0.14699338
198	0x3e18f0de	0.14935634
199	0xbeb67da1	-0.35642722
200	0x3df3baa3	0.119008325
201	0x3d6a33fb	0.05717848
202	0x3d872645	0.06599096
203	0xbb0da3cf	-0.002161253
204	0xbd78297b	-0.060586434
205	0x3de23924	0.11046055
206	0x3ec130f2	0.37732655
207	0xbbad0c68	-0.00528102
208	0x3d42291a	0.04740248
209	0x3dbd5529	0.09244759
210	0xbcef9955	-0.02924792
211	0xbeb7ee78	-0.35924125
212	0xbdb5d777	-0.08878987
213	0x3e35b0af	0.1774318
214	0xbcbd335d	-0.023095781
215	0xbdeea2a2	-0.116521135
216	0xbd0bcac4	-0.03412892
217	0x3c9a74b2	0.018854473
218	0x3c9492f8	0.018136486
219	0x3e88dafe	0.26729578
220	0x3e368de1	0.1782756
221	0xbc88f4fe	-0.016718384
222	0xbbc97373	-0.006147796
223	0x3e9d5bd8	0.30734134
224	0x3b3e01aa	0.002899269
225	0xb9838aba	-0.00025089626
226	0x3e9161bc	0.28394878
227	0x3e32eb1a	0.17472497
228	0xbe299564	-0.16560894
229	0x3ab231cc	0.0013595163
230	0xbc890e12	-0.016730342
231	0x3ce5a947	0.02803482
232	0x3f20811c	0.62697005
233	0xbb244b26	-0.0025069206
234	0xbe365052	-0.17804077
235	0xbe38779d	-0.18014379
236	0xbd336f9a	-0.043807603
237	0xbdba7360	-0.09104037
238	0xbc138ca3	-0.009005698
239	0x3d9b35fc	0.07578656
240	0x39d633f6	0.00040855975
241	0x3d304b74	0.043040708
242	0x3d875fce	0.0661007
243	0x3e0c8c23	0.13725333
244	0xbd5d2dc9	-0.053998742
245	0x3ca39fbe	0.019973632
246	0x3e4e1796	0.20126185
247	0xbbe78c32	-0.007066273
248	0xbcfdf05d	-0.030998403
249	0x3e034d91	0.12822558
250	0xbd9b1c70	-0.075737834
251	0xbdc31f74	-0.095274836
252	0x3dbd3de9	0.09240324
253	0xbb66879b	-0.0035176042
254	0x3d618b14	0.055064276
255	0xbd52516d	-0.051347185

l3.bias f4 [6]
0	0x3ee3f7ff	0.44525144
1	0xbc4cf31a	-0.012509132
2	0x3d174b23	0.03693689
3	0xbc8ccdd6	-0.017187994
4	0x3dee13b1	0.116248496
5	0xb975db3f	-0.00023446696
