2019_test_data/single_assembly/TD3_Peg-in-hole-single_assembly_seed_6/_actor.pth (torch_old, 510312 bytes, 6 tensors)

l1.weight f4 [400, 12]
0.48381945 -0.4252898 0.0012853759 -0.34718543 -0.2328222 0.56814754 -0.020711718 0.16117221
-0.109161355 0.038868245 0.2369629 0.43071613 0.36281657 -0.1358615 0.027414039 -0.6021376
-0.18683003 0.57538587 0.4317015 0.04053539 -0.21415363 -0.18096747 -0.036007714 0.12906927
0.3629878 -0.0750529 0.0021167675 0.71376204 -0.7652124 0.38825816 0.17604955 0.7678377
0.21176587 0.23930071 -0.52285457 -0.08388837 0.25348902 -0.04808432 0.123541236 -0.13415062
0.28325325 -0.12213799 0.2164846 0.003418386 -0.15207909 0.14838329 -0.15323457 0.08490071
-0.18308392 0.09963197 -0.12293717 0.2029975 0.110536166 -0.4156506 0.07971221 -0.017399166
0.040889982 -0.5151366 0.3372797 -0.28409174 -0.1866053 0.18750736 0.17525518 0.25602454
-0.16181962 -0.047517657 -0.0055921674 0.042163163 -0.21908084 -0.20485033 0.1570406 -0.067692
0.12562995 0.038659208 0.12504253 0.063249364 0.10444698 0.143704 -0.23802695 0.12469475
-0.23123325 -0.2224488 0.0050767516 -0.04586627 0.41983697 0.25755084 0.09223202 -0.42575797
-0.26682645 0.47639 0.10077517 -0.3831382 -0.07451369 -0.096241005 -0.29945633 -0.069450416
0.08892368 0.2808036 0.041015565 -0.49562106 -0.08721671 0.47207803 0.31086564 0.36282
-0.35346785 -0.021510337 0.30273253 0.5896953 0.6476406 -0.08138228 0.110810764 0.4192538
0.05056013 -0.06971271 0.16360882 0.58904034 0.30897236 0.5285125 -0.4493004 -0.014810393
-0.27802423 -0.14876969 0.21766955 -0.22452061 0.3582481 -0.5817428 -0.43878916 0.101940826
0.3297394 0.34871584 0.026699333 -0.06749575 0.22411893 0.2197158 0.1915037 0.21067312
0.1729873 0.081314586 -0.18425044 -0.22561735 -0.14832279 -0.0009870381 -0.20829555 0.13520329
-0.15449695 -0.08580961 0.15886734 0.45603728 0.30669898 -0.08318083 0.24570344 0.521805
0.0416945 0.29316768 -0.7979855 -0.48320782 -0.16864502 -0.12347297 0.20523924 -0.09433356
-0.21572149 0.11106771 0.09242499 0.18697217 -0.14938134 0.06258911 -0.10509236 -0.064858004
-0.68061125 0.23503998 0.06602521 0.34639555 -0.005344995 -0.069236286 0.20165016 0.1909126
0.3811988 -0.038707517 -0.22611737 0.031732876 0.06987984 -0.24589506 0.004000628 0.24442838
0.12926045 -0.31240022 -0.7520863 -0.0687769 -0.13964312 -0.033691004 0.5316806 -0.12640402
0.08223537 -0.0037486008 -0.022681175 -0.38750806 0.14470373 0.1206936 0.31029695 -0.41963127
0.2857855 -0.5572747 0.24595486 -0.142592 0.115931675 -0.4737204 0.07918048 0.22563353
0.27943236 0.32215124 0.079847105 -0.12511286 -0.7620341 -0.024280429 0.30385473 0.08109015
0.011645013 0.042370766 0.1270791 -0.13576703 -0.020186767 -0.14816089 -0.43149173 -0.4616384
0.2926861 -0.43880388 0.2372819 0.070036285 -0.085325204 0.4729314 0.035206143 0.056620922
0.11691696 0.11418417 -0.46589097 0.56652004 -0.2237459 0.6794745 0.51346576 0.1751708
-0.21658964 -0.013545886 0.15724751 -0.0083817225 -0.14702077 0.006738457 -0.23692328 -0.18682551
-0.22517373 0.24012184 0.24578513 -0.09907432 0.20814966 0.05545205 -0.03569067 0.36428338
00000000: 2fb7 f73e 96bf d9be 0f7a a83a 4ac2 b1be
00000010: f168 6ebe 1e72 113f 9fab a9bc 540a 253e
00000020: fd8f dfbd 4f34 1f3d 67a6 723e d386 dc3e
00000030: 18c3 b93e 471f 0bbe 6893 e03c b125 1abf
00000040: 5f50 3fbe 7d4c 133f fb07 dd3e 7008 263d
00000050: 174b 5bbe 894f 39be d37c 13bd bc2a 043e
00000060: 89d9 b93e 56b5 99bd 77b9 0a3b 1cb9 363f
00000070: f6e4 43bf c6c9 c63e 5546 343e 0391 443f
00000080: 27d9 583e 3f0b 753e ccd9 05bf aacd abbd
00000090: 50c9 813e 10f4 44bd 3003 fd3d c85e 09be
000000a0: 9206 913e 7c23 fabd 24ae 5d3e 0007 603b
000000b0: 9fba 1bbe caf1 173e 86e9 1cbe 6ce0 ad3d
000000c0: 5a7a 3bbe d90b cc3d 7cc6 fbbd 94de 4f3e
000000d0: c960 e23d 28d0 d4be 2840 a33d b288 8ebc
000000e0: 417c 273d fedf 03bf edaf ac3e 7974 91be
000000f0: 7615 3fbe ee01 403e 1876 333e a615 833e
00000100: 0bb4 25be e0a1 42bd 803e b7bb 48b3 2c3d
00000110: ba56 60be 49c4 51be 40cf 203e 1aa2 8abd
00000120: 23a5 003e 1e59 1e3d 260b 003e e288 813d
00000130: 4ce8 d53d 2427 133e 56bd 73be f65f ff3d
00000140: 69c8 6cbe 9ec9 63be e15a a63b 45de 3bbd
00000150: dff4 d63e b4dd 833e 24e4 bc3d f3fc d9be
00000160: 7a9d 88be 64e9 f33e 3663 ce3d b12a c4be
00000170: a29a 98bd 011a c5bd 5752 99be 053c 8ebd
00000180: 9e1d b63d 7dc5 8f3e f0ff 273d 0bc2 fdbe
00000190: ad9e b2bd 36b4 f13e c829 9f3e 8bc3 b93e
000001a0: bdf9 b4be 7236 b0bc c2ff 9a3e 45f6 163f
000001b0: c6cb 253f c1ab a6bd c1f0 e23d 6fa8 d63e
000001c0: 2418 4f3d 8ac5 8ebd 1289 273e 59cb 163f
000001d0: a031 9e3e 984c 073f b40a e6be 4aa7 72bc
000001e0: 3159 8ebe 1557 18be c4e4 5e3e bbe8 65be
000001f0: 4c6c b73e 19ed 14bf f9a8 e0be 5ac6 d03d
00000200: 9ad3 a83e e28a b23e 8fb8 da3c 363b 8abd
00000210: 6f7f 653e 2efd 603e 8c19 443e b2ba 573e
00000220: 9523 313e 4388 a63d 26ac 3cbe 3c08 67be
00000230: eee1 17be 815f 81ba 6e4b 55be bb72 0a3e
00000240: 7334 1ebe f3bc afbd 1fae 223e b87d e93e
00000250: a607 9d3e b65a aabd af99 7b3e 0395 053f
00000260: dac7 2a3d 131a 963e c748 4cbf 0467 f7be
00000270: 48b1 2cbe 66df fcbd 3c2a 523e f431 c1bd
00000280: 18e6 5cbe 7877 e33d 5049 bd3d a275 3f3e
00000290: 6cf7 18be b82e 803d aa3a d7bd 46d4 84bd
000002a0: 8a3c 2ebf 52ae 703e 3a38 873d c25a b13e
000002b0: 1125 afbb c1cb 8dbd 617d 4e3e 987e 433e
000002c0: 7d2c c33e c68b 1ebd 508b 67be 55fa 013d
000002d0: 291d 8f3d eacb 7bbe b317 833b 6f4b 7a3e
000002e0: da5c 043e ecf2 9fbe ba88 40bf e7da 8cbd
000002f0: 9bfe 0ebe 94ff 09bd 381c 083f 0e70 01be
00000300: 056b a83d 16ab 75bb dfcd b9bc 7567 c6be
00000310: 372d 143e 352e f73d 3edf 9e3e e9d9 d6be
00000320: 7a52 923e 8ea9 0ebf 97db 7b3e a303 12be
00000330: 966d ed3d 7b8b f2be 6029 a23d 7a0c 673e
00000340: c211 8f3e 02f1 a43e e186 a33d 961d 00be
00000350: ab14 43bf c0e7 c6bc d992 9b3e 9812 a63d
00000360: b9ca 3e3c f88c 2d3d 0621 023e 8306 0bbe
00000370: b85e a5bc 7db7 17be 7cec dcbe de5b ecbe
00000380: f4da 953e e7aa e0be 07fa 723e 2f6f 8f3d
00000390: fbbe aebd 1124 f23e 5134 103d 57eb 673d
000003a0: 2972 ef3d 64d9 e93d 4389 eebe 7507 113f
000003b0: a51d 65be 0af2 2d3f 7e72 033f f95f 333e
000003c0: adc9 5dbe 90ef 5dbc 7e05 213e 7e53 09bc
000003d0: 9d8c 16be 46ce dc3b 049c 72be 304f 3fbe
000003e0: f193 66be 80e2 753e 19af 7b3e 7ae7 cabd
000003f0: 2f25 553e b021 633d 6130 12bd 5a83 ba3e

l1.bias f4 [400]
1.0510421 0.84508634 -0.07871815 -0.15741737 -1.1249716 0.09471321 -0.012617215 0.3275641
0.81622237 0.072217375 0.30081716 -0.21615809 -0.36287898 0.03729418 -0.9154826 -0.5545524
0.31502464 0.22087353 -0.048187546 -0.62130123 0.13717085 -0.7327502 0.5430986 -0.21973112
-0.27275926 -0.5242063 -0.21596855 -0.6415675 -0.048124157 0.15622841 0.13834403 0.19307676
-0.0626107 0.1923598 0.5420195 -0.037217204 -0.24704452 -0.5629813 -0.03878666 0.8125623
-0.062242504 -0.085849024 -0.32554403 0.47614488 -0.53574127 -0.18694125 -0.29946402 -0.79805696
0.73974735 -0.20148762 0.08128375 0.58784026 -0.36510926 -0.25403765 0.08889448 0.5072841
-0.4254437 -0.2520023 0.062960714 0.5828578 0.03780309 0.14082137 -0.19473048 0.8604769
-0.15748309 -0.91152865 -0.18411401 0.5943694 0.85142404 0.005647275 -0.7421397 -0.30660787
-0.8220737 -0.8425675 -0.1798447 0.6407788 -0.21231736 0.30009815 0.05651358 0.06906262
0.22823693 -0.14003737 -0.7612679 -0.05725538 -0.2146733 0.65128803 -0.0082087815 -0.295369
0.094867624 -0.11478324 -0.15456033 0.7193458 0.12970535 -0.7470065 0.034461275 0.03623408
0.019812653 -0.32538584 -0.56258184 0.4736146 -0.06151019 0.30158433 -0.029435037 0.802864
-0.2508846 0.32609543 0.37750983 -0.36833176 -0.41205963 -0.05090745 0.44618502 0.253704
0.5078645 -0.6118157 -0.955618 -0.96509814 -0.2371636 -0.05502838 0.43959576 0.22179073
0.02506122 0.78912985 -0.43130988 -0.3375431 0.27909356 -0.81180763 0.08913422 0.52545
0.26772845 -0.34381363 -0.5221016 -0.83363265 -0.22521149 0.0069941077 0.104288295 0.62595683
-0.9126696 -1.0909628 -0.72804207 -1.176599 -0.009032464 0.16578643 0.6103341 0.3664134
-0.7076608 -0.29581887 -0.7758585 0.026789013 -0.32890245 -0.90079737 0.71343076 0.082669824
0.0038002897 0.7177705 -0.13222149 -0.3860208 -0.6831528 -0.4155932 -1.164319 -0.71035165
0.54056066 0.03403779 0.7679968 0.25899705 -0.6374533 0.17607366 0.30653244 -0.98476285
-0.0054951278 -0.0646302 -0.22624332 0.043269157 -0.21953195 -0.18853462 -1.0591612 0.40998644
0.39033535 -0.78231984 -0.21841072 -0.90087533 0.034272324 0.0035783653 0.3314058 0.024516184
-0.017906977 -0.36550358 -0.5141329 0.16296831 0.041650582 0.47402272 -0.6268909 0.033248086
-0.088025555 -0.62850547 -0.87671155 -0.71232647 0.23991454 -0.5840243 0.24154393 0.6591811
0.13326608 -0.032084174 -0.022195326 0.10578033 -0.8765701 0.20670795 0.5641966 -0.3113412
0.16613409 -0.014670736 0.6961386 -0.31451368 -0.23005846 0.09470639 0.1028927 0.33345947
0.41629368 1.031028 0.8162958 0.03372565 0.5143394 -0.51957095 -0.56960505 -0.62894595
0.8511304 -0.44013298 -0.10677695 0.26796344 -0.66555107 0.14394343 -0.65372914 -0.08836735
0.43324053 0.76003087 -0.43891662 -0.052994527 0.158521 0.5092807 0.14005107 -0.48541597
0.24790528 0.72658026 -0.40043363 0.0018529416 -0.9757686 0.034429163 -1.1246254 -0.24801762
-0.27633345 0.13291407 0.18394443 0.13146041 -0.39127308 -0.53216183 -0.8020715 0.5273746
00000000: 8c88 863f 9457 583f fb36 a1bd 0532 21be
00000010: 12ff 8fbf 00f9 c13d 6fb8 4ebc 7bb6 a73e
00000020: f3f3 503f b4e6 933d b504 9a3e 8c58 5dbe
00000030: 46cb b9be c8c1 183d 115d 6abf 25f7 0dbf
00000040: e94a a13e ac2c 623e 4e60 45bd 990d 1fbf
00000050: 8476 0c3e 8495 3bbf 8308 0b3f 3201 61be
00000060: 1aa7 8bbe 6232 06bf dc26 5dbe c53d 24bf
00000070: d61d 45bd 57fa 1f3e 0faa 0d3e eab5 453e
00000080: 0a3a 80bd f8f9 443e cac1 0a3f 1171 18bd
00000090: 3df9 7cbe 8b1f 10bf c3de 1ebd 1504 503f
000000a0: fff1 7ebd 9dd1 afbd b5ad a6be 43c9 f33e
000000b0: 5726 09bf 876d 3fbe 5953 99be 764d 4cbf
000000c0: 1560 3d3f c552 4ebe 1878 a63d b37c 163f
000000d0: 9aef babe 3911 82be 4f0e b63d 5fdd 013f
000000e0: c2d3 d9be 7206 81be 8cf1 803d 2b36 153f
000000f0: 6ad7 1a3d 7a33 103e 6d67 47be 3748 5c3f
00000100: 3f43 21be f159 69bf 6288 3cbe 9828 183f
00000110: edf6 593f c70c b93b defc 3dbf b5fb 9cbe
00000120: 6c73 52bf 81b2 57bf 3629 38be 140a 243f
00000130: b969 59be 77a6 993e c97a 673d b470 8d3d
00000140: f1b6 693e f565 0fbe 74e2 42bf 9e84 6abd
00000150: 51d3 5bbe d0ba 263f 207e 06bc 9b3a 97be
00000160: f549 c23d 7a13 ebbd 1045 1ebe 0c27 383f
00000170: 7bd1 043e d13b 3fbf 4427 0d3d 306a 143d
00000180: 254e a23c f998 a6be 5d05 10bf 9d7d f23e
00000190: 1cf2 7bbd 4369 9a3e bf21 f1bc 7f88 4d3f
000001a0: f273 80be fbf5 a63e f848 c13e fb95 bcbe
000001b0: 7bf9 d2be 5584 50bd 5d72 e43e 7ee5 813e
000001c0: 6803 023f f49f 1cbf 62a3 74bf ac10 77bf
000001d0: 04db 72be 7065 61bd b212 e13e 1c1d 633e
000001e0: 304d cd3c 6a04 4a3f a6d4 dcbe 73d2 acbe
000001f0: 5ae5 8e3e a0d2 4fbf 008c b63d e483 063f
00000200: b413 893e 5708 b0be 73a8 05bf f368 55bf
00000210: d79d 66be d42e e53b 1a95 d53d b53e 203f
00000220: b7a4 69bf aba4 8bbf f760 3abf cc9a 96bf
00000230: e6fc 13bc ebc3 293e db3e 1c3f 8a9a bb3e
00000240: 4229 35bf 9275 97be aa9e 46bf a274 db3c
00000250: e765 a8be a89a 66bf 66a3 363f cc4e a93d
00000260: 480e 793b cfbf 373f 1265 07be 85a4 c5be
00000270: 1ae3 2ebf a2c8 d4be 6808 95bf 9bd9 35bf
00000280: 2f62 0a3f 366b 0b3d 709b 443f 439b 843e
00000290: 2430 23bf a74c 343e d2f1 9c3e 6b19 7cbf
000002a0: 7910 b4bb d75c 84bd 54ac 67be 003b 313d
000002b0: fccc 60be 380f 41be 9892 87bf bee9 d13e
000002c0: 09da c73e 1d46 48bf 0fa7 5fbe c49f 66bf
000002d0: 2361 0c3d 0283 6a3b 05ae a93e 2ad6 c83c
000002e0: a7b1 92bc 4923 bbbe 379e 03bf 2ae1 263e
000002f0: cd99 2a3d 1bb3 f23e ec7b 20bf 252f 083d
00000300: be46 b4bd bce5 20bf 2b70 60bf 075b 36bf
00000310: 28ac 753e 9e82 15bf 4b57 773e 18c0 283f
00000320: e776 083e b26a 03bd f9d2 b5bc 5ca3 d83d
00000330: e666 60bf 40ab 533e 306f 103f 1d68 9fbe
00000340: 0e1f 2a3e 875d 70bc 2436 323f f007 a1be
00000350: 7294 6bbe 6cf5 c13d 68b9 d23d 33bb aa3e
00000360: 7224 d53e baf8 833f c3f8 503f e823 0a3d
00000370: bfab 033f 9a02 05bf a3d1 11bf 9a02 21bf
00000380: afe3 593f 1c59 e1be e0ad dabd 8132 893e
00000390: 8e61 2abf e865 133e cb5a 27bf f1f9 b4bd
000003a0: b4d1 dd3e 6291 423f aeb9 e0be ca10 59bd
000003b0: 5453 223e 3860 023f 8c69 0f3e 7188 f8be
000003c0: e2da 7d3e 2a01 3a3f a305 cdbe 67de f23a
000003d0: f9cb 79bf 9805 0d3d baf3 8fbf 55f8 7dbe
000003e0: 947b 8dbe a01a 083e ee5b 3c3e 8f9d 063e
000003f0: f254 c8be c23b 08bf 8f54 4dbf 0602 073f

l2.weight f4 [300, 400]
0.04512272 0.040301744 -0.05155804 0.03237528 0.014728292 -0.024700476 -0.049622934 0.01664478
0.004388542 -0.018943623 0.009587711 -0.015863925 -0.019480044 0.008287944 -0.026089657 -0.03574298
-0.050037254 -0.044585675 -0.011997796 0.034977004 -0.031516463 -0.051524546 0.026072603 0.004210081
-0.026640235 -0.015807686 -0.047582477 0.03690101 0.014830501 0.043815017 0.036307227 -0.0033071525
-0.039888494 -0.0315498 -0.046076685 -0.032836854 -0.04455489 0.027371095 0.021800313 -0.024836168
-0.060883906 0.0048904605 -0.00437019 0.031567324 -0.036329146 -0.041829467 0.042621605 -0.023038859
-0.020786416 0.032404665 -0.03105778 -0.032019027 0.0010974519 -0.049561124 0.031553604 0.036123157
-0.052453864 -0.007576864 0.00886517 0.026662135 0.020609837 -0.0046172813 0.04292202 -0.013966833
-0.0008584775 -0.060898922 -0.028750438 -0.0110053485 -0.06989075 -0.010406314 0.0038057202 -0.043125212
-0.052852377 0.03853891 -0.021795351 -0.040075134 -0.0126107605 -0.04717156 -0.07868717 -0.0034828628
-0.02713986 -0.018621981 0.014205278 -0.003748318 0.0417631 -0.052940946 0.0437732 0.028376266
-0.018003365 0.034585904 0.04682022 0.004959776 0.01389182 -0.017397042 -0.002924256 -0.0023957267
-0.030044673 0.0034303514 -0.026014248 0.024841778 0.00767513 -0.038748432 0.041021496 0.0120098675
0.023823466 -0.05272799 0.039566573 0.013139926 -0.003922522 -0.036260094 -0.016963987 0.014237983
0.011916308 -0.024975358 -0.049190987 -0.054734632 0.042261813 0.04222111 -0.0044857077 0.0016914922
0.035746794 0.031854443 -0.036919918 -0.021933168 -0.026128942 -0.027585953 0.04701968 -0.0035339105
-0.039961122 0.031525288 -0.035149228 -0.0072656944 -0.046683073 0.03471496 -0.040698092 -5.1553416e-05
-0.012409156 -0.027705377 -0.04843323 0.0012708143 -0.054967217 -0.024741964 0.028152453 -0.04325291
0.04385164 0.03656307 -0.021104999 0.0017075534 -0.037016347 -0.015780687 -0.027646111 -0.0070282742
-0.05001391 -0.025782023 -0.0075572184 -0.0051089 -0.016354335 0.007081785 -0.032287948 -0.03898841
-0.03642398 0.042817816 0.02965584 -0.07029009 -0.048801407 -0.021634469 -0.030271573 0.013449689
-0.041457754 0.009622492 -0.017157383 -0.038851716 -0.004691016 0.03665813 0.03276652 -0.03553042
0.01198284 0.00855022 0.0029651448 -0.057754934 0.039485298 0.00072094053 -0.011865597 0.047258347
0.008090432 -0.04420456 0.028857652 0.040606536 0.0350036 -0.026746038 -0.027934123 0.027615696
0.037277374 -0.06739067 0.03469784 0.019373737 0.01497471 -0.07402896 -0.011265001 0.035682607
-0.003952999 0.038431223 -0.056805145 -0.024274604 -0.066775344 0.020258043 0.01412107 0.007166729
-0.03105219 -0.068801396 0.015291008 -0.02263708 0.032542232 0.03524175 0.027705383 0.024886744
0.026388451 -0.045586035 -0.018402161 0.03747203 -0.024145018 -0.028371613 -0.0169078 -0.005466153
-0.035878148 -0.023587184 -0.018095072 0.04592189 -0.0023842903 -0.014360458 -0.019572569 -0.026252823
0.009620797 -0.00570133 -0.03981661 0.02932018 -0.009765868 -0.007379262 0.02143893 -0.013921784
-0.017460672 0.024709746 -0.02869014 8.440687e-05 -0.03548193 0.02251998 0.04321801 -0.020640232
-0.04788551 0.027996078 -0.025795562 0.02836748 0.017734857 -0.034381643 -0.0043804566 -0.024540985
00000000: 9ad2 383d 7113 253d 862e 53bd f19b 043d
00000010: ef4e 713c a758 cabc 6b41 4bbd a25a 883c
00000020: c2cd 8f3b a82f 9bbc c615 1d3c 10f5 81bc
00000030: 9d94 9fbc 28ca 073c fab9 d5bc 3b67 12bd
00000040: ddf3 4cbd 789f 36bd 6792 44bc 0c44 0f3d
00000050: 6817 01bd 670b 53bd 3696 d53c b8f4 893b
00000060: 9f3c dabc 1f7f 81bc d8e5 42bd 8325 173d
00000070: a1fb 723c 6077 333d e3b6 143d d0bc 58bb
00000080: 1e62 23bd 5d3a 01bd e8ba 3cbd f07f 06bd
00000090: 307f 36bd 5939 e03c 9296 b23c 3875 cbbc
000000a0: 6761 79bd 2840 a03b d033 8fbb bd4c 013d
000000b0: dfcd 14bd 6055 2bbd fe93 2e3d fdbb bcbc
000000c0: 4648 aabc c1ba 043d e36c febc 6226 03bd
000000d0: 60d8 8f3a 9b00 4bbd 5a3e 013d e0f5 133d
000000e0: ddd9 56bd 5847 f8bb 383f 113c 8d6a da3c
000000f0: f6d5 a83c 904c 97bb 00cf 2f3d 25d5 64bc
00000100: 730b 61ba 2671 79bd 0a86 ebbc c74f 34bc
00000110: e222 8fbd 3f7f 2abc 6469 793b 10a4 30bd
00000120: bc7b 58bd fada 1d3d 2a8c b2bc d325 24bd
00000130: 5d9d 4ebc f736 41bd bd26 a1bd be40 64bb
00000140: 6954 debc 208d 98bc 41bd 683c 57a6 75bb
00000150: c90f 2b3d 9bd8 58bd 874b 333d 5875 e83c
00000160: cb7b 93bc f3a9 0d3d 8fc6 3f3d 9e85 a23b
00000170: 849a 633c 3e84 8ebc e0a4 3fbb a001 1dbb
00000180: 3f20 f6bc bfcf 603b d51b d5bc fc80 cb3c
00000190: a87f fb3b adb6 1ebd 2806 283d 09c5 443c
000001a0: 6e29 c33c 4ef9 57bd 8f10 223d d848 573c
000001b0: 8088 80bb 7785 14bd 0ff8 8abc 6e46 693c
000001c0: 9e3c 433c 1f99 ccbc 7d7c 49bd 6c31 60bd
000001d0: b91a 2d3d 0bf0 2c3d d8fc 92bb 0fb5 dd3a
000001e0: 3b6b 123d ce79 023d 5739 17bd 30ad b3bc
000001f0: 5d0c d6bc f0fb e1bc b597 403d 2e99 67bb
00000200: 46ae 23bd a920 013d a3f8 0fbd 1015 eebb
00000210: c036 3fbd 4631 0e3d 0bb3 26bd 0f3b 58b8
00000220: c64f 4bbc 63f6 e2bc ec61 46bd 7491 a63a
00000230: 4e25 61bd a9af cabc f99f e63c f729 31bd
00000240: c79d 333d 28c3 153d 64e4 acbc fccf df3a
00000250: 749e 17bd 8046 81bc 197a e2bc 704d e6bb
00000260: 63db 4cbd d234 d3bc 8ba2 f7bb 8f68 a7bb
00000270: 87f9 85bc 510e e83b 5e40 04bd 50b2 1fbd
00000280: 5031 15bd bc61 2f3d cef0 f23c 40f4 8fbd
00000290: fce3 47bd c53a b1bc 17fc f7bc 165c 5c3c
000002a0: 9bcf 29bd a8a7 1d3c a48d 8cbc fa22 1fbd
000002b0: 18b7 99bb d626 163d 3036 063d 5888 11bd
000002c0: ac53 443c 3916 0c3c e052 423b 7090 6cbd
000002d0: 56bb 213d 80fd 3c3a ec67 42bc f891 413d
000002e0: bb8d 043c d70f 35bd e266 ec3c 0a53 263d
000002f0: ef5f 0f3d 821a dbbc 1ad6 e4bc 503a e23c
00000300: 29b0 183d 1f04 8abd 531f 0e3d acb5 9e3c
00000310: 7c58 753c 7f9c 97bd d790 38bc ed27 123d
00000320: 2988 81bb 0f6a 1d3d 83ac 68bd 89db c6bc
00000330: 83c1 88bd 32f4 a53c 0f5c 673c e1d6 ea3b
00000340: 2a61 febc bfe7 8cbd 2387 7a3c 6671 b9bc
00000350: 014b 053d a759 103d 66f6 e23c 49df cb3c
00000360: 982c d83c 6cb8 3abd 21c0 96bc 457c 193d
00000370: c6cb c5bc 966b e8bc 3a82 8abc 6a1d b3bb
00000380: f7f4 12bd e939 c1bc 1e3c 94bc 9718 3c3d
00000390: c141 1cbb 2048 6bbc a756 a0bc 2910 d7bc
000003a0: 8ca0 1d3c 39d2 babb be16 23bd e030 f03c
000003b0: 0501 20bc bccd f1bb b2a0 af3c 3218 64bc
000003c0: af09 8fbc 186c ca3c 9607 ebbc 9803 b138
000003d0: 8055 11bd d27b b83c 5e05 313d b415 a9bc
000003e0: 9923 44bd 0858 e53c 3751 d3bc eb62 e83c
000003f0: b148 913c c4d3 0cbd ef89 8fbb 2d0a c9bc

l2.bias f4 [300]
-0.058053292 0.28185323 -0.008945368 -0.07130918 0.01955817 -0.025782354 -0.035842564 -0.015522056
0.29578984 0.08613532 -0.51182383 0.17364956 0.1642747 -0.02917494 -0.042435188 -0.5903663
-0.19722006 0.027895685 0.14546114 0.021842955 0.31208855 -0.04840413 -0.041000508 -0.21840757
0.034287218 0.0067262994 -0.087868124 -0.4360608 -0.020452138 -0.0937667 -0.052434105 -0.051287778
0.0007499287 0.04805477 -0.1051949 0.44559017 -0.052273136 0.02247999 -0.019446878 0.16330539
-0.011830861 0.13078363 -0.004087441 -0.010274214 -0.05534715 0.017895859 0.061074764 -0.085907266
0.115604624 -0.050459173 -0.11772351 0.4873993 -0.01816767 0.55456775 0.20496832 -0.06830194
-0.032087874 0.21647622 -0.023246767 -0.035508253 -0.13268831 -0.37197554 0.026442086 -0.016415877
-0.030184658 0.02424033 0.193909 0.07456825 -0.42337063 -0.06329814 -0.020717127 -0.015755637
0.55931604 -0.4277237 0.023122057 -0.011690414 -0.17783655 -0.2890759 -0.03967244 -0.022583518
0.36871806 -0.30158028 -0.09007426 -0.008768277 0.38527 -0.26811698 -0.49190268 0.12264722
-0.014752869 0.005396158 -0.19268413 0.02429024 -0.05553021 0.00020180336 -0.013474112 0.029848149
-0.053687576 -0.23032494 -0.0026763226 -0.472704 -0.55937016 -0.029253919 -0.3367487 -0.0023129026
-0.67547596 -0.0015555545 -0.011792562 -0.29008642 0.010244967 -0.02785782 -0.22016418 -0.06384841
-0.029139508 -0.045744207 0.4784116 -0.24768442 -0.052075725 0.36436895 -0.06971285 -0.02285449
-0.0803073 0.15248612 -0.072362885 0.6256375 0.21591114 0.24281514 -0.15566455 -0.5412994
-0.0447892 -0.060455736 0.030175395 -0.019903352 -0.053810026 0.12459613 0.061263844 -0.37193856
-0.10825657 -0.002771372 -0.014028276 0.030647976 -0.027435012 -0.058041576 0.032826487 0.4845881
-0.031959627 -0.1481692 0.16385423 -0.18065427 -0.06878196 -0.024728058 0.20123011 -0.13873734
-0.043352563 -0.14270759 0.22849576 0.0007104698 0.011500549 -0.05254556 0.010822652 0.070472546
-0.016493123 -0.04901103 0.31175148 -0.30639353 -0.36915007 -0.023693508 0.42036673 -0.034176253
0.017757203 -0.25535566 -0.46821615 -0.15737037 0.030559871 -0.29689813 -0.044237725 0.026094608
0.06830592 -0.0023536426 -0.015176295 -0.12882575 -0.066855066 -0.014007638 -0.05278934 -0.07101744
-0.039887786 0.06545939 -0.6026192 -0.036305103 0.23679322 0.05808715 -0.030182328 0.4336125
-0.04820235 -0.06264646 0.024632629 0.13398765 -0.055046503 -0.10748701 0.4535053 -0.030991461
0.045926664 -0.06018023 0.0064562326 -0.04326879 0.008033679 0.054688342 0.0054680523 -0.044587284
-0.084149145 -0.05396579 -0.044746228 -0.04342992 0.031137336 0.028856475 -0.24055101 -0.010175918
-0.09675995 -0.42622572 0.02967378 -0.3140618 0.593379 -0.17185637 -0.06716211 -0.030866977
-0.59410954 -0.28012154 0.0011038883 0.022821143 -0.011501468 0.1558472 -0.1367006 0.017737247
-0.026022622 0.2755028 -0.0103142075 -0.005840131 0.22954974 0.0338562 -0.11477939 -0.025996357
0.0156148635 -0.036650926 0.0034533232 0.0182892 -0.06824656 0.021286642 -0.04598351 -0.035417415
-0.26144627 -0.25470462 -0.049531158 0.10698631 -0.05345791 0.33205575 0.004549554 -0.5384181
00000000: 4ac9 6dbd 114f 903e 988f 12bc 8c0a 92bd
00000010: 7538 a03c 8435 d3bc a7cf 12bd 3950 7ebc
00000020: c471 973e b767 b03d e306 03bf 31d1 313e
00000030: a137 283e 4900 efbc 85d0 2dbd 3f22 17bf
00000040: 0ef4 49be 7e85 e43c c4f3 143e ffef b23c
00000050: 12ca 9f3e 6943 46bd 26f0 27bd 3ca6 5fbe
00000060: c170 0c3d 4a68 dc3b 34f4 b3bd 5c43 dfbe
00000070: 3e8b a7bc c108 c0bd 25c5 56bd 2213 52bd
00000080: dd96 443a 14d5 443d 6c70 d7bd 6524 e43e
00000090: 5b1c 56bd f527 b83c 0f4f 9fbc 8739 273e
000000a0: 3ad6 41bc 25ec 053e f1ef 85bb 2d55 28bc
000000b0: b1b3 62bd 569a 923c 8829 7a3d 26f0 afbd
000000c0: 1ec2 ec3d 47ae 4ebd 0619 f1bd 678c f93e
000000d0: 5ed4 94bc 27f8 0d3f 37e3 513e e3e1 8bbd
000000e0: 936e 03bd f1ab 5d3e 0170 bebc 1a71 11bd
000000f0: 72df 07be 9473 bebe 139d d83c 977a 86bc
00000100: d145 f7bc a893 c63c 1590 463e 3db7 983d
00000110: 09c4 d8be 75a2 81bd f7b6 a9bc f711 81bc
00000120: 562f 0f3f 9afe dabe 786a bd3c 2689 3fbc
00000130: c91a 36be c201 94be 927f 22bd 1201 b9bc
00000140: 9dc8 bc3e bb68 9abe db78 b8bd d2a8 0fbc
00000150: 1c42 c53e a146 89be abda fbbe 772e fb3d
00000160: 04b6 71bc 41d2 b03b fd4e 45be 53fc c63c
00000170: a573 63bd 2d9b 5339 86c2 5cbc 1b84 f43c
00000180: 81e7 5bbd 4dda 6bbe 3e65 2fbb 4206 f2be
00000190: e232 0fbf eaa5 efbc 536a acbe 1194 17bb
000001a0: feeb 2cbf bfe3 cbba 9735 41bc 3586 94be
000001b0: 82da 273c 1536 e4bc b872 61be f5c2 82bd
000001c0: fab5 eebc 475e 3bbd 5ef2 f43e fca0 7dbe
000001d0: 5b4d 55bd 918e ba3e 9cc5 8ebd 5739 bbbc
000001e0: 2778 a4bd 5225 1c3e fe32 94bd c729 203f
000001f0: cf17 5d3e 88a4 783e 8766 1fbe 9992 0abf
00000200: e174 37bd 6fa0 77bd 6432 f73c 5b0c a3bc
00000210: e767 5cbd 412c ff3d ccef 7a3d bb6e bebe
00000220: 9fb5 ddbd e89f 35bb dbd6 65bc 7711 fb3c
00000230: 64bf e0bc 01bd 6dbd 1175 063d ee1b f83e
00000240: 19e8 02bd abb9 17be 67c9 273e 6ffd 38be
00000250: 8edd 8cbd 7f92 cabc 440f 4e3e 2911 0ebe
00000260: 7592 31bd f021 12be cbfa 693e d23e 3a3a
00000270: cc6c 3c3c 033a 57bd 7e51 313c e953 903d
00000280: 961c 87bc cabf 48bd e49d 9f3e 9ddf 9cbe
00000290: 3d01 bdbe e318 c2bc 4f3a d73e 66fc 0bbd
000002a0: 8e77 913c fabd 82be 07ba efbe b325 21be
000002b0: b258 fa3c 0803 98be 9e32 35bd 5cc4 d53c
000002c0: f9e3 8b3d 923f 1abb ffa5 78bc e6ea 03be
000002d0: 4feb 88bd 4b80 65bc a339 58bd 9771 91bd
000002e0: 6061 23bd 930f 863d 4045 1abf a9b4 14bd
000002f0: ec79 723e cbec 6d3d ee40 f7bc 7502 de3e
00000300: d46f 45bd ca4c 80bd 5eca c93c 0f34 093e
00000310: 7178 61bd 2622 dcbd d931 e83e cee1 fdbc
00000320: 991d 3c3d 8b7f 76bd ce8e d33b 9d3a 31bd
00000330: b19f 033c e200 603d 592d b33b 28a1 36bd
00000340: 6356 acbd 3b0b 5dbd d247 37bd 92e3 31bd
00000350: ba13 ff3c 6a64 ec3c 0153 76be e5b8 26bc
00000360: 152a c6bd 423a dabe 6d16 f33c b5cc a0be
00000370: b0e7 173f 1efb 2fbe 4a8c 89bd bedc fcbc
00000380: 9017 18bf 176c 8fbe 58b0 903a 68f3 ba3c
00000390: a770 3cbc 6996 1f3e 3efb 0bbe b44d 913c
000003a0: 652d d5bc b40e 8d3e ecfc 28bc 925e bfbb
000003b0: 160f 6b3e ccac 0a3d 7511 ebbd 50f6 d4bc
000003c0: 7cd5 7f3c 481f 16bd 2651 623b 3bd3 953c
000003d0: dac4 8bbd 5361 ae3c 3459 3cbd da11 11bd
000003e0: 49dc 85be a568 82be 2fe1 4abd a31b db3d
000003f0: aef6 5abd 3603 aa3e 6d14 953b c5d5 09bf

l3.weight f4 [6, 300]
0.021380497 -0.0067129927 -0.008898682 0.041693155 0.085737675 0.002463652 0.012840163 0.005848389
-0.061290134 0.06627953 -0.16417529 0.10508046 -0.033610705 -0.089003205 0.024515744 -0.16448052
0.19393918 0.031718984 -0.005968044 0.033049505 0.13886869 0.04942425 0.005041824 -0.058619503
-0.025363268 -0.04062122 -0.0020086796 -0.26078913 0.009013863 -0.007955197 0.027186012 0.004491372
0.07625554 0.038097735 0.10046759 0.13566068 -0.016736012 0.29833466 -0.036275595 0.12206474
-0.020219244 -0.031609677 -0.050643757 -0.033927947 -0.011408091 -0.057077214 0.025647456 0.2657112
0.031862836 0.03326027 0.06651279 0.10195533 -0.006855192 0.23879318 0.056772146 -0.026233673
-0.024441622 0.08608564 -0.050552864 -0.09112053 -0.030643018 -0.025604611 -0.053215656 0.009374005
0.025376115 0.027238099 0.09131777 0.05523449 -0.21226484 0.06304134 -0.03023683 -0.06039208
0.22647582 -0.085164 0.024857722 -0.0018846096 -0.00096277846 -0.010553812 0.029361261 0.027917875
0.04058183 -0.037333656 -0.020912588 0.20683677 0.014639495 -0.07260055 -0.08256648 -0.06941271
-0.036515005 0.0108022 0.04561412 0.0027456598 -0.060417112 0.03367836 0.01066827 -0.005301254
-0.06983661 0.45311582 0.029924197 -0.25654402 -0.1295822 0.046018627 0.13004962 0.015275553
-0.32376865 0.0050513037 -0.025829047 0.26995382 0.12007988 -0.012130254 0.07970184 -0.052132014
-0.0021247044 0.044270273 0.14820643 -0.020847468 -0.009258689 0.0047084545 -0.009722105 0.055832084
-0.05016131 0.009743534 0.11923758 0.20408349 0.15804139 0.0630279 0.4261898 -0.0047182636
0.012940569 0.022324152 -0.052655786 0.008905121 -0.0009017394 0.07585664 -0.047369882 0.08094019
-0.010929811 0.04060272 0.016234374 -0.032096073 -0.041618146 0.28994113 0.02068267 0.2273845
-0.071102746 0.06744408 0.06731881 -0.013414634 -0.021279942 -0.010958955 0.06317138 -0.0035297007
-0.051941365 -0.08382332 0.13747704 -0.04540657 -0.014937149 0.008716771 -0.042405963 0.024551783
0.04441712 -0.02832732 0.13995348 -0.10238855 -0.11210863 -0.058275882 0.11623355 0.041906696
0.040812466 -0.0067864647 -0.24222009 -0.03265735 -0.0011302382 -0.010196066 -0.0032351178 -0.026013074
-0.06763952 -0.06367381 0.014648742 0.11731416 -0.0010046255 -0.03980065 0.020445434 -0.017433267
-0.0131365 0.05282921 -0.022846129 -7.5251087e-06 0.14500856 0.082396425 0.022402454 0.18786757
0.05045013 -0.011376698 -0.009360927 0.065279186 0.013160383 0.015941039 0.12210333 0.03417857
0.19460078 -0.0068121296 0.029619474 0.13994099 -0.039414484 -0.008922785 0.012342205 0.03014874
0.0047861617 0.02315959 0.005292043 -0.041140974 -0.051365033 -0.06508544 0.00082571903 -0.06281908
-0.23942535 0.089586325 0.018407058 -0.12100444 0.107574634 -0.09887358 0.05124981 -0.01161161
-0.2142129 -0.02367575 0.0101053 0.03134983 0.01610115 0.12425137 0.07757899 0.021910727
-0.046984866 0.07388034 -0.019231731 0.048894078 0.11373966 -0.04490693 -0.024428064 0.061088856
0.010829768 0.0006505894 0.0366048 -0.027381299 0.11758819 -0.007644106 0.010095742 -0.012191848
-0.073882036 -0.023500066 -0.014741645 0.1996004 -0.0029890593 0.01705942 0.02178953 -0.15259793
00000000: 2726 af3c aaf8 dbbb c7cb 11bc 71c6 2a3d
00000010: 3c97 af3d 3975 213b 8c5f 523c d8a3 bf3b
00000020: 5d0b 7bbd 90bd 873d 911d 28be 6d34 d73d
00000030: 61ab 09bd 5047 b6bd 3ed5 c83c 956d 28be
00000040: fe97 463e c4eb 013d 958f c3bb eb5e 073d
00000050: 9833 0e3e 1571 4a3d e335 a53b 011b 70bd
00000060: a1c6 cfbc 7062 26bd 0da4 03bb 2786 85be
00000070: e2ae 133c 8456 02bc 33b5 de3c 5c2c 933b
00000080: dd2b 9c3d 5f0c 1c3d f4c1 cd3d a2ea 0a3e
00000090: f619 89bc 52bf 983e b895 14bd 14fd f93d
000000a0: d4a2 a5bc 2679 01bd d46f 4fbd 08f8 0abd
000000b0: 00e9 3abc ccc9 69bd 9d1a d23c 4c0b 883e
000000c0: 9b82 023d ec3b 083d dc37 883d f5cd d03d
000000d0: 85a1 e0bb 3386 743e e989 683d 00e8 d6bc
000000e0: cc39 c8bc ab4d b03d 8510 4fbd 679d babd
000000f0: 1107 fbbc c3c0 d1bc a9f8 59bd 6d95 193c
00000100: 92e1 cf3c 6f22 df3c d004 bb3d 903d 623d
00000110: f45b 59be d11b 813d 3ab3 f7bc b05d 77bd
00000120: 47e9 673e 776a aebd 6ca2 cb3c 0105 f7ba
00000130: f862 7cba e5e9 2cbc 0787 f03c 07b4 e43c
00000140: 2239 263d 2deb 18bd e050 abbc 05cd 533e
00000150: 7eda 6f3c 99af 94bd 9d18 a9bd 4028 8ebd
00000160: c290 15bd b6fb 303c dfd5 3a3d 87f0 333b
00000170: ef77 77bd 52f2 093d f8c9 2e3c 24b6 adbb
00000180: 7f06 8fbd ccfe e73e 9723 f53c bd59 83be
00000190: 32b1 04be 077e 3c3d ba2b 053e 5046 7a3c
000001a0: 01c5 a5be 6885 a53b 7097 d3bc 6337 8a3e
000001b0: 71ec f53d f9bd 46bc b83a a33d 6188 55bd
000001c0: a03e 0bbb bf54 353d 6dc3 173e 4fc8 aabc
000001d0: c2b1 17bc 6149 9a3b 7749 1fbc 2fb0 643d
000001e0: f275 4dbd 58a3 1f3c d532 f43d 43fb 503e
000001f0: 9ad5 213e c614 813d 8d35 da3e aa9b 9abb
00000200: ae04 543c 24e1 b63c 98ad 57bd c9e6 113c
00000210: b562 6cba ba5a 9b3d ec06 42bd f8c3 a53d
00000220: f312 33bc 0a4f 263d f3fd 843c 2c77 03bd
00000230: ca77 2abd 2a73 943e b46e a93c 7bd7 683e
00000240: 519e 91bd 1f20 8a3d 72de 893d 0ec9 5bbc
00000250: 4653 aebc 308d 33bc ff5f 813d 8d52 67bb
00000260: 78c0 54bd 90ab abbd c8c6 0c3e 3dfc 39bd
00000270: f2ba 74bc cad0 0e3c e0b1 2dbd d220 c93c
00000280: baee 353d b20e e8bc f74f 0f3e 17b1 d1bd
00000290: 3699 e5bd b1b2 6ebd db0b ee3d 5ba6 2b3d
000002a0: f92a 273d fe60 debb 8b08 78be b7c3 05bd
000002b0: 8024 94ba 670d 27bc 4504 54bb 5f19 d5bc
000002c0: 9786 8abd 6a67 82bd 4701 703c 6842 f03d
000002d0: a3ad 83ba 0206 23bd 2f7d a73c 36d0 8ebc
000002e0: 793a 57bc 7163 583d ce27 bbbc 3180 fcb6
000002f0: 207d 143e 75bf a83d 5a85 b73c 5b60 403e
00000300: cca4 4e3d 5465 3abc 935e 19bc 18b1 853d
00000310: a69e 573c c896 823c 5011 fa3d d4fe 0b3d
00000320: 6d45 473e 4938 dfbb 8aa4 f23c b14c 0f3e
00000330: 1571 21bd df30 12bc f636 4a3c 7efa f63c
00000340: 3cd5 9c3b 2eb9 bd3c e068 ad3b 7083 28bd
00000350: 2464 52bd 844b 85bd 1175 583a 4aa7 80bd
00000360: eb2b 75be 0979 b73d 66ca 963c 2dd1 f7bd
00000370: 1750 dc3d 3b7e cabd 52eb 513d 9f3e 3ebc
00000380: a05a 5bbe a5f3 c1bc b390 253c ae68 003d
00000390: 8fe6 833c 8177 fe3d bce1 9e3d 207e b33c
000003a0: 3473 40bd 934e 973d dd8b 9dbc 2845 483d
000003b0: 57f0 e83d 54f0 37bd 5d1d c8bc 4f38 7a3d
000003c0: 576f 313c 518c 2a3a eaee 153d bf4e e0bc
000003d0: 14d2 f03d 697b fabb 9c68 253c 51c0 47bc
000003e0: 774f 97bd 3683 c0bc f186 71bc 0c64 4c3e
000003f0: 18e4 43bb 32c0 8b3c f57f b23c a242 1cbe

l3.bias f4 [6]
0.49420926 -0.08313556 -0.35971344 -0.031180993 -0.27686647 -0.20650156
00000000: ff08 fd3e fa42 aabd 5c2c b8be 486f ffbc
00000010: 71c1 8dbe 2575 53be
